checkpoints/MAML/learner_net_on_Omniglot_100.pth (torch, 454319 bytes, 18 tensors)

blk_1.conv2d.weight f4 [64, 1, 3, 3]
0	0x3e70c766	0.23513564
1	0x3e299ed1	0.1656449
2	0x3e44d87c	0.19223207
3	0xbcdf450a	-0.0272546
4	0xbe1fbd95	-0.15599664
5	0xbe868456	-0.2627284
6	0x3e9b2821	0.30304053
7	0x3e497c49	0.19676317
8	0x3ead92ca	0.33901054
9	0xbe7214b6	-0.23640713
10	0x3e670767	0.22561418
11	0x3d8ef033	0.06979408
12	0x3e2e4474	0.170183
13	0x3eaf5e3a	0.34251577
14	0xbe911a3a	-0.28340322
15	0x3e25f9ba	0.16208544
16	0xbe30557f	-0.17220114
17	0xbe517370	-0.20454192
18	0x3ea6f829	0.32611206
19	0xbe3a448a	-0.18190208
20	0xbe71349a	-0.23555222
21	0xbda7e0b8	-0.081971586
22	0xbec920a2	-0.3928271
23	0xbdcc9c9f	-0.099908106
24	0xbe5151bc	-0.20441335
25	0xbe8679da	-0.2626484
26	0x3ea4e1cd	0.32203522
27	0xbe7d166d	-0.24715586
28	0x3e7484b4	0.23878747
29	0xbc691e00	-0.014228344
30	0xbed30a6f	-0.41218898
31	0x3eb6fd9b	0.3574036
32	0x3dc26dd3	0.094936036
33	0xbeea9339	-0.45815447
34	0x3d559082	0.052139767
35	0x3e5812de	0.21100947
36	0xbde8bf85	-0.113646545
37	0x3e3c1e02	0.18370822
38	0x3d6555c1	0.055989984
39	0x3cbca13e	0.023026105
40	0x3eae9120	0.34095097
41	0x3d0a4ae3	0.033762824
42	0xbeac4d1c	-0.3365258
43	0xbea7b473	-0.3275486
44	0xbece8e94	-0.40343153
45	0x3e6c5778	0.23080242
46	0x3d76d926	0.060265683
47	0xbeaa9f3f	-0.3332462
48	0xbdc72a65	-0.09724883
49	0x3ebae05e	0.36499304
50	0xbda5f00c	-0.08102426
51	0xbe96fa9b	-0.29488072
52	0x3db06fdc	0.086150855
53	0x3e91169d	0.28337565
54	0x3de3bb16	0.11119668
55	0x3e154fa8	0.14581168
56	0x3e59218a	0.212042
57	0xbe718f4c	-0.2358982
58	0xbebf3c7c	-0.37350833
59	0xbe0d2389	-0.13783087
60	0x3e673b1b	0.2258114
61	0x3d64bac2	0.05584217
62	0x3dc160f7	0.09442323
63	0xbeaa4976	-0.3325917
64	0x3e2fa5d2	0.17153099
65	0x3e6def19	0.2323574
66	0x3d0991ff	0.0335865
67	0x3e0068eb	0.12540023
68	0xbc2cf030	-0.010555312
69	0x3ea1cb2d	0.31600323
70	0xbc356729	-0.011071959
71	0xbe48d723	-0.19613318
72	0xbd81d8a3	-0.06340148
73	0xbe5d5d2d	-0.21617575
74	0x3c18a9db	0.00931784
75	0xbe62720b	-0.22113816
76	0xbe81b416	-0.25332707
77	0xbe487a1e	-0.19577834
78	0x3e828f54	0.25499976
79	0x3e8f8be9	0.2803643
80	0x3e31fc7b	0.1738147
81	0xbe8f907b	-0.28039917
82	0xbe899de8	-0.26878285
83	0xbe916579	-0.2839773
84	0xbe25a95f	-0.16177891
85	0x3e8c53b0	0.27407598
86	0x3e674092	0.22583225
87	0xbe25bdfe	-0.16185758
88	0x3d6a413b	0.057191115
89	0x3d07e8ab	0.033180874
90	0x3ea11cef	0.31467387
91	0x3d75abd2	0.059978314
92	0xbec2099e	-0.37897962
93	0xbcf14d09	-0.029455679
94	0xbe85eda1	-0.2615786
95	0xbea317ab	-0.31853995
96	0xbed18392	-0.40920693
97	0xbe8abe98	-0.27098536
98	0x3dbac156	0.09118907
99	0x3e63b1d7	0.2223581
100	0xbc729c67	-0.014807797
101	0xbdf9c8d6	-0.121965095
102	0x3e13240d	0.14369221
103	0x3e9ac8cc	0.3023132
104	0x3e847ea2	0.25877863
105	0xbebce0fe	-0.36890405
106	0xbe8e88e4	-0.27838814
107	0xbdaa3f5b	-0.08312865
108	0x3eaabbec	0.33346498
109	0xbda9a4ee	-0.08283411
110	0xbe902c1b	-0.2815865
111	0x3e7893f2	0.24275187
112	0xbcd9353c	-0.026514642
113	0xbe3847bb	-0.17996113
114	0x3d0b0e3d	0.033949126
115	0xbeb0bfc7	-0.34521315
116	0xbe6680bf	-0.2251005
117	0xbe85b7be	-0.26116747
118	0xbd9f008c	-0.07763776
119	0x3e458ebe	0.19292733
120	0xbea5c7b4	-0.32378924
121	0x3e4585c5	0.1928931
122	0x3e29ae2a	0.16570345
123	0x3eb19bd4	0.346892
124	0x3e3194f0	0.17341971
125	0xbf103628	-0.56332636
126	0xbe87eb51	-0.2654672
127	0xbe5ccffa	-0.21563712
128	0x3e2ac53a	0.16676798
129	0xbcb7a35c	-0.022416763
130	0xbe97c0d4	-0.29639304
131	0xbe44b78e	-0.19210646
132	0x3ebd661d	0.3699197
133	0xbd543dd7	-0.051816788
134	0xbe9fd433	-0.31216583
135	0x3d8f0b97	0.069846325
136	0x3d8595a5	0.06522683
137	0x3e234c6e	0.15947124
138	0x3e6857dc	0.22689766
139	0x3ea1d098	0.31604457
140	0xbc1cd29b	-0.009571697
141	0xbec06227	-0.37574884
142	0xbeb46a31	-0.35237268
143	0xbf0b017d	-0.54299146
144	0x3e3004c0	0.17189312
145	0x3ea6eca8	0.3260243
146	0x3e69834a	0.22803989
147	0xbe7cda5c	-0.24692672
148	0xbea5300c	-0.3226322
149	0xbecc6d0a	-0.3992694
150	0x3d1be30a	0.03805832
151	0xbd342b42	-0.043986566
152	0x3dcdcd15	0.10048882
153	0xbd392a8e	-0.0452066
154	0xbe4ab72e	-0.1979644
155	0xbed0cc45	-0.40780845
156	0xbe207420	-0.15669298
157	0xbdc521e1	-0.096256025
158	0x3c0ac498	0.008469723
159	0xbeb5fde6	-0.35545272
160	0xbd0606bb	-0.032721262
161	0x3ed1d4af	0.40982577
162	0xbd0c0261	-0.034181956
163	0x3da4d41d	0.0804827
164	0x3e983998	0.2973144
165	0xbe2fcb65	-0.17167433
166	0x3e260e56	0.16216406
167	0x3e303f56	0.1721166
168	0x3e15d2ce	0.14631197
169	0x3e994c40	0.29940987
170	0x3e199e73	0.1500185
171	0xbe897a2d	-0.26851025
172	0xbe76d85c	-0.24105972
173	0xbd250185	-0.040284652
174	0x3d9e02cc	0.07715377
175	0xbd5bb2a0	-0.053637147
176	0xbe42ea42	-0.19034675
177	0x3ea943d9	0.33059576
178	0xbcf138e0	-0.029446065
179	0xbe9776bf	-0.29582784
180	0xbe6fc590	-0.23415208
181	0xbe2ba627	-0.16762601
182	0xbbdfaea1	-0.0068262373
183	0xbe175273	-0.14777546
184	0xbddeaa0a	-0.10872276
185	0xbeb7ef74	-0.35924876
186	0x3ebe9e9a	0.37230378
187	0x3e031be4	0.12803608
188	0xbe7ac3d1	-0.2448876
189	0x3e786aa6	0.24259433
190	0xbe3cff78	-0.18456829
191	0xbdd2faec	-0.10301766
192	0x3e7336c7	0.23751365
193	0x3dcb74a9	0.099343605
194	0xbe1457d4	-0.14486629
195	0xbeb76b3d	-0.35824004
196	0x3e05f489	0.13081564
197	0x3e51dd80	0.20494652
198	0xbebc58bb	-0.36786446
199	0xbe193df8	-0.14965045
200	0x3ec1e371	0.37868837
201	0xbeca419e	-0.39503187
202	0x3d43c7c9	0.04779795
203	0x3e9e4db6	0.30918664
204	0xbe996106	-0.29956836
205	0xbe07a1f7	-0.13245378
206	0x3ebd5eab	0.36986288
207	0x3dc507e0	0.09620643
208	0x3e30aa63	0.17252497
209	0x3e11461e	0.14186904
210	0xbeecb8ed	-0.46234837
211	0xbee77b29	-0.4521115
212	0xbf0115f8	-0.50424147
213	0x3e346529	0.17616715
214	0x3e8b2a3d	0.27180663
215	0x3dfa3acc	0.12218246
216	0x3ddcaeaf	0.10775506
217	0xbdcab85b	-0.09898444
218	0xbc1dc98d	-0.009630573
219	0xbe8f9805	-0.2804567
220	0xbe230f69	-0.15923847
221	0xbcffa0b1	-0.031204553
222	0x3e43b637	0.19112478
223	0x3e330e2d	0.17485876
224	0xbeb579ee	-0.35444587
225	0x3dc56f08	0.09640318
226	0xbde94401	-0.11389924
227	0xbdc4bfb1	-0.09606875
228	0xbecb55df	-0.39713952
229	0xbe50090f	-0.20315956
230	0xbe871b79	-0.26388147
231	0xbe8e5a3d	-0.2780322
232	0x3e9b8f9a	0.30382997
233	0x3e52d3ad	0.2058856
234	0xbeb4af31	-0.3528991
235	0xbcceeccf	-0.025259404
236	0x3ecb777c	0.39739597
237	0xbe427c6b	-0.18992774
238	0xbe67af28	-0.2262541
239	0xbcfb2e72	-0.030661795
240	0x3dfb034a	0.12256487
241	0xbe8b5c20	-0.27218723
242	0xbea78bf4	-0.32723963
243	0xbebc243f	-0.36746404
244	0x3dee8d9d	0.11648104
245	0x3ec6d36d	0.3883318
246	0xbe6f919e	-0.23395392
247	0xbd990597	-0.07471769
248	0x3d4b2b4d	0.04960184
249	0xbe1fbb29	-0.1559874
250	0xbe51553b	-0.20442669
251	0xbeb5af45	-0.35485283
252	0x3d14b103	0.036301624
253	0x3ecafcaf	0.39645907
254	0xbe07e27f	-0.13269995
255	0xbec2e44d	-0.38064805

blk_1.conv2d.bias f4 [64]
0	0xbd7d9f2a	-0.06191937
1	0x3c091c24	0.008368526
2	0x3d8d388b	0.0689555
3	0xbc08772b	-0.008329193
4	0x3c919842	0.017772797
5	0xbd112370	-0.035434186
6	0xbca02bf7	-0.019552214
7	0xbcf1aba8	-0.029500797
8	0x3d1e75ef	0.03868669
9	0xbc852134	-0.016251184
10	0xbc2c32ef	-0.01051019
11	0x3c1aa952	0.009439783
12	0x3d0994a7	0.03358903
13	0x3d98fc1a	0.074699596
14	0x3db87e65	0.09008483
15	0x3d2f2c85	0.042767067
16	0xbd57df5b	-0.052703243
17	0xbdb8795b	-0.09007522
18	0xbd03a7b3	-0.032142352
19	0x3d176593	0.036962103
20	0x3cbf83aa	0.023378212
21	0xbcf9491f	-0.030430375
22	0x3d23fd47	0.040036466
23	0xbd909b54	-0.070608765
24	0x3c7f2859	0.0155735845
25	0x3c0038e6	0.007826066
26	0xbcfef783	-0.031123882
27	0x3afe62d2	0.0019408113
28	0xbbcee3a4	-0.006313758
29	0x3e0ca55b	0.13734953
30	0x3ce0406e	0.027374472
31	0x3d015f0d	0.031584788
32	0xbd064df0	-0.03278917
33	0xbcf1eef9	-0.029532896
34	0x3cbdf3ed	0.023187602
35	0x3ba14cbc	0.0049224775
36	0xbcc6ba62	-0.024258796
37	0x3c0e2b55	0.008677323
38	0x3bbc44fe	0.005745529
39	0x3c688435	0.014191677
40	0x3d8700fa	0.06591983
41	0xbc420202	-0.011841299
42	0x3ce3c1fa	0.027802456
43	0x3d22c0e9	0.039734755
44	0x3c330a4a	0.010927746
45	0xbcb25485	-0.021768818
46	0x3d7d865f	0.061895724
47	0x3c4bb188	0.0124324635
48	0xbb95a832	-0.0045671696
49	0x3d1e0eb8	0.038588256
50	0x3c8c0187	0.017090572
51	0xbc3a433c	-0.011368569
52	0xbd0ea49b	-0.03482495
53	0xbb717acb	-0.0036846872
54	0xbd92c2dd	-0.071660735
55	0xbd24dc5d	-0.040249217
56	0xbd00dc50	-0.031460106
57	0xbcc2a116	-0.023758452
58	0xbdb3efd8	-0.08785981
59	0x3d305834	0.043052867
60	0xbd8739a7	-0.06602793
61	0xbd976cb2	-0.07393779
62	0x3d13b36f	0.036059793
63	0x3c90a1ee	0.01765534

blk_1.bn.weight f4 [64]
0	0x3f440b31	0.76579577
1	0x3f4a3f8c	0.79003215
2	0x3fb7a331	1.4346677
3	0x3f7aeabf	0.98014444
4	0x3f6d144f	0.92609113
5	0x3f41c783	0.75695056
6	0x3f1831b5	0.59450847
7	0x3f2d8e4b	0.67795247
8	0x3f34d7fd	0.7064207
9	0x3f698e21	0.91232497
10	0x3fb963a1	1.4483529
11	0x3f453d62	0.7704679
12	0x3f745200	0.9543762
13	0x3f5b086c	0.85559726
14	0x3fb0974e	1.3796175
15	0x3f8439a0	1.0330086
16	0x3f5422aa	0.82865393
17	0x3f96cb0c	1.1780715
18	0x3f49eca6	0.7887672
19	0x3f8b6b95	1.0892206
20	0x3f89543a	1.0728829
21	0x3f24b86c	0.64343905
22	0x3f7d18c4	0.98865914
23	0x3f8a656e	1.0812204
24	0x3f880332	1.0625975
25	0x3f9600fb	1.1719049
26	0x3fa86ca0	1.315815
27	0x3facc5d0	1.3497868
28	0x3f96ee26	1.1791427
29	0x3f384dc0	0.7199364
30	0x3f66ea23	0.90201014
31	0x3f73e337	0.9526858
32	0x3f99098a	1.1956036
33	0x3f6ba775	0.92052394
34	0x3f9bafb3	1.2162994
35	0x3f3edb55	0.74553424
36	0x3f7c4cfd	0.98554975
37	0x3f88d950	1.0691319
38	0x3fa0fb92	1.2576773
39	0x3f62be24	0.8857138
40	0x3f9b7e7d	1.2147976
41	0x3f5edd55	0.87056476
42	0x3f4afa22	0.7928792
43	0x3f835b36	1.026221
44	0x3f925d95	1.1434809
45	0x3f8b7d0b	1.0897535
46	0x3f95aeef	1.169401
47	0x3f9b3b63	1.2127498
48	0x3f64fc75	0.8944772
49	0x3f3f3919	0.746965
50	0x3f442388	0.76616716
51	0x3fd29560	1.6451836
52	0x3f995b3f	1.1980971
53	0x3f3ff39b	0.7498109
54	0x3f27cd8d	0.6554802
55	0x3f7f4de7	0.99728245
56	0x3f80dce4	1.006741
57	0x3f8bb8d5	1.0915781
58	0x3fb65cbc	1.424705
59	0x3f831a32	1.0242369
60	0x3f9250cf	1.1430911
61	0x3f94eb80	1.1634369
62	0x3f88b529	1.0680286
63	0x3f88f702	1.0700381

blk_1.bn.bias f4 [64]
0	0xbf7228ef	-0.9459371
1	0xbf26de39	-0.65182835
2	0xbe37b126	-0.1793867
3	0xbde2317f	-0.11044597
4	0xbe839bcc	-0.257048
5	0xbf892d91	-1.0717031
6	0xbef9daeb	-0.48799834
7	0xbf8d7867	-1.1052369
8	0xbe04f94c	-0.12985724
9	0xbe988d7b	-0.2979544
10	0x3f4b1c3b	0.7933995
11	0xbf09e397	-0.538629
12	0xbe80308b	-0.25037035
13	0xbf17aac8	-0.59244967
14	0xbe354493	-0.1770194
15	0xbe47ff00	-0.19530869
16	0xbde05d43	-0.10955288
17	0xbedab69c	-0.42717445
18	0xbf479621	-0.77963454
19	0xbecbab95	-0.39779344
20	0xbeba7e0e	-0.36424297
21	0xbf7357a3	-0.950556
22	0xbdddb4e8	-0.10825521
23	0xbe4e3429	-0.20137085
24	0xbec013a6	-0.3751499
25	0xbe3541e3	-0.17700915
26	0xbead1528	-0.33805203
27	0xbeee750a	-0.4657367
28	0xbed802a6	-0.4218952
29	0xbf668065	-0.90039665
30	0xbe48b2db	-0.19599478
31	0xbe82f675	-0.25578657
32	0xbeb4793f	-0.35248753
33	0xbdd7c05a	-0.10534735
34	0xbe4180b2	-0.1889675
35	0xbf04bd67	-0.51851505
36	0xbea6edfa	-0.32603437
37	0xbec40807	-0.38287374
38	0xbd905678	-0.070477426
39	0xbe12fd07	-0.14354335
40	0x3f68092c	0.90638995
41	0xbf636361	-0.88823515
42	0xbf7bd09b	-0.9836518
43	0xbeb0aab5	-0.3450524
44	0xbe8e059c	-0.27738655
45	0xbec2b5d5	-0.38029352
46	0xbece6ad8	-0.4031589
47	0xbed5671d	-0.41680232
48	0xbe148911	-0.14505412
49	0xbe81a391	-0.25320104
50	0xbea58d61	-0.32334426
51	0x3dcb0fd5	0.09915129
52	0x3f8edad9	1.1160537
53	0xbeaa603c	-0.33276546
54	0xbf2185ea	-0.6309496
55	0x3dadd2e0	0.08487487
56	0xbe99f1b0	-0.30067205
57	0xbe52d532	-0.2058914
58	0xbe022cf0	-0.12712455
59	0x3e0835ef	0.13301824
60	0xbe87848b	-0.2646831
61	0xbe34ab9d	-0.1764359
62	0xbea62f19	-0.32457808
63	0xbe94a550	-0.29032373

blk_2.conv2d.weight f4 [64, 64, 3, 3]
0	0xbda8d5e0	-0.082439184
1	0x3de1b8fb	0.1102161
2	0x3e2340e2	0.1594272
3	0xbe06d61b	-0.13167612
4	0x3cd10055	0.025512854
5	0x3e7c38ad	0.24630995
6	0xbdad50ad	-0.08462653
7	0x3dbc277c	0.091872185
8	0x3e66f734	0.22555238
9	0x3d386e9e	0.045027368
10	0x3e25d2e7	0.16193734
11	0x3e5e0853	0.21682863
12	0xbd087a30	-0.033319652
13	0x3d903a92	0.070424214
14	0xbc579cca	-0.01315994
15	0xbded8bb4	-0.11598912
16	0x3db50506	0.08838849
17	0x3d465bfc	0.048427567
18	0x3d216312	0.03940112
19	0x3d0ec4e2	0.03485573
20	0xbbae4f8c	-0.0053195413
21	0x3e3656ad	0.17806502
22	0xbdc74f8e	-0.09731971
23	0xbe6b4070	-0.229738
24	0x3e146775	0.1449259
25	0x3c491e8f	0.012275352
26	0xbca7efdf	-0.020500122
27	0x3dc2f61a	0.095195964
28	0xbd9e23ea	-0.07721694
29	0xbdbf9180	-0.09353924
30	0x3db27573	0.08713808
31	0x3c9acbca	0.018896002
32	0x3d8ce34b	0.0687929
33	0x3df84a94	0.121236
34	0x3d41badb	0.04729734
35	0xbd71a0fc	-0.058991417
36	0xbcda2195	-0.026627341
37	0xbe125be7	-0.1429287
38	0x3dbafcf5	0.09130279
39	0x3bd0c4a2	0.0063710967
40	0xbd227c08	-0.039669067
41	0xbc11f63c	-0.0089088045
42	0xbdc9cf2f	-0.0985397
43	0xbd4a0e32	-0.049329944
44	0x3e03ab9f	0.12858437
45	0xbba3c5b3	-0.004997933
46	0x3d1557ae	0.03646057
47	0xbcf3467e	-0.0296967
48	0xbd638771	-0.05554909
49	0x3e0fb1d0	0.14032674
50	0x3e4c8de3	0.19976
51	0x3d4ece08	0.050489455
52	0x3dcafed3	0.09911885
53	0x3cf84d94	0.03031043
54	0xbd7b7f65	-0.06140079
55	0xbc746c42	-0.014918389
56	0x3e383f2b	0.17992847
57	0xbd6fb3e2	-0.05852116
58	0xbbf30466	-0.007416296
59	0x3e140f6d	0.1445901
60	0xbe24a218	-0.16077459
61	0xbddeb45c	-0.108742446
62	0x3e69c4d1	0.22828986
63	0xbdfefdd9	-0.12450761
64	0x3d554eae	0.052076988
65	0x3e411b4b	0.18858068
66	0xbd50cfbb	-0.050979357
67	0x3c7f5adf	0.01558563
68	0xbc95bf55	-0.01827971
69	0xbdf65fdf	-0.12030005
70	0xbd53e760	-0.05173433
71	0x3e43d39f	0.19123696
72	0xbd7c2567	-0.061559107
73	0xbd84784f	-0.064682595
74	0x3dc05320	0.09390855
75	0xbe02ceeb	-0.12774245
76	0xbd7d0e4f	-0.061781224
77	0x3deb26fc	0.11482045
78	0xbe0191ef	-0.12653325
79	0xbdc7013a	-0.09717031
80	0x3e1fae43	0.1559382
81	0xbd844df1	-0.06460179
82	0xbe021464	-0.12703091
83	0x3d73224c	0.05935888
84	0x3b955ee4	0.004558431
85	0xbd8693da	-0.06571169
86	0xbd99dd65	-0.07512931
87	0xbc01d37e	-0.007923959
88	0xbd357ed2	-0.0443104
89	0x3d14761d	0.036245454
90	0xbc99bed6	-0.018767755
91	0x3c9d0750	0.019168526
92	0xbd77369e	-0.06035482
93	0x3c63eb30	0.013911054
94	0xbd5b4635	-0.05353375
95	0xbe579a3a	-0.21054927
96	0x3d984fd0	0.07437098
97	0xbdad75c7	-0.0846973
98	0xbdbbcfcb	-0.09170493
99	0xbd873d3b	-0.06603476
100	0xbde64454	-0.11243501
101	0x3db9f6de	0.09080289
102	0xbda9a248	-0.08282906
103	0xbd48b5c3	-0.049001466
104	0x3e8206fe	0.2539596
105	0xbe074f3d	-0.13213821
106	0xbdebb850	-0.11509764
107	0x3e35d04a	0.17755237
108	0xbd37940f	-0.044818934
109	0x3e018915	0.12649949
110	0x3ded214e	0.11578618
111	0xbd101a2e	-0.035181217
112	0x3d59bd39	0.053158972
113	0xbe47c036	-0.19506916
114	0x3d296841	0.04135919
115	0x3d97c2d4	0.074102074
116	0xbd7d8013	-0.06188972
117	0xbdb031e5	-0.086032666
118	0x3dcce6a1	0.100049265
119	0x3e80a62f	0.25126788
120	0x3afa36af	0.0019089783
121	0x3e23521f	0.15949295
122	0x3d2067c0	0.039161444
123	0xbdab5490	-0.083657384
124	0x3dc5a98a	0.09651478
125	0x3e7f1ba9	0.24912895
126	0xbb4bfb6c	-0.00311252
127	0xbdc50978	-0.09620947
128	0xbdbdc855	-0.09266726
129	0xbcfecb26	-0.031102728
130	0x3b5a6608	0.0033324976
131	0xbc914681	-0.017733814
132	0xbd90f516	-0.070779964
133	0xbdadbaf4	-0.08482924
134	0x3d054c63	0.03254355
135	0xbdb4e78d	-0.08833227
136	0xbe18bf1c	-0.14916652
137	0x3e1d87ec	0.15383881
138	0xbdabd438	-0.08390087
139	0xbdc4125b	-0.095738135
140	0xbd4e247c	-0.050327763
141	0xbe800a3f	-0.25007817
142	0xbdcb66c8	-0.09931713
143	0x3dbf8e1c	0.09353277
144	0xbb259cc9	-0.0025270453
145	0x3d898256	0.06714313
146	0x3e6e318b	0.23261087
147	0xbccd97ff	-0.025096891
148	0xbbcf5501	-0.006327272
149	0x3dca3391	0.09873117
150	0xbe1b37bf	-0.15157984
151	0x3d46b7d8	0.04851517
152	0x3e9a19a3	0.30097684
153	0xbd85d02c	-0.06533846
154	0xbdc21a07	-0.094776206
155	0xbd049914	-0.03237255
156	0x3cbdbb5d	0.02316063
157	0xbdc3a7db	-0.095535
158	0x3c82a404	0.01594735
159	0x3d188cf1	0.037243787
160	0xba809886	-0.000981108
161	0xbcf0858f	-0.02936056
162	0xbc6bfdfc	-0.014403816
163	0xbce0eca4	-0.027456589
164	0xbd84e055	-0.064881004
165	0xbda44994	-0.080218464
166	0xbcfe38fc	-0.031033032
167	0xbda7f35e	-0.082007155
168	0xbd006c8c	-0.03135352
169	0x3cda177e	0.02662253
170	0xbcc96e1c	-0.024588637
171	0x3dd3ad2b	0.103357635
172	0xbc9fedab	-0.019522509
173	0xbdcd978a	-0.100386694
174	0x3d10fa4e	0.03539496
175	0x3e2e5dea	0.17028013
176	0x3c0d967f	0.008641838
177	0xb94db222	-0.00019616683
178	0xbc2056c0	-0.009786308
179	0x3b44b8df	0.0030017418
180	0xbccb2343	-0.024797088
181	0xbd9383d4	-0.072028786
182	0xbd94223c	-0.07233092
183	0xbde54db0	-0.11196458
184	0xbbd97245	-0.0066359364
185	0x3cbce1d6	0.023056906
186	0xbe1d7a32	-0.15378645
187	0xbd213e4c	-0.03936605
188	0x3db1b935	0.086779036
189	0x3d431782	0.04762984
190	0xbdb849ed	-0.08998475
191	0xbb4a6f1d	-0.0030888983
192	0xbdc4585c	-0.09587166
193	0xbd181668	-0.037130743
194	0x3e43e262	0.19129327
195	0xbda7155f	-0.08158373
196	0x3ce8a30f	0.028398065
197	0x3e078e58	0.13237894
198	0xbd179238	-0.03700468
199	0x3d22e49a	0.039768793
200	0xbe079603	-0.13240819
201	0x3cf7d475	0.030252675
202	0x3d8b3466	0.067971036
203	0xbdf999ee	-0.12187563
204	0x3cfb5785	0.030681381
205	0x3dcbc2a7	0.09949236
206	0xbd221a54	-0.03957589
207	0xbd4d277b	-0.05008648
208	0xbc8c9027	-0.017158581
209	0x3e16bcc5	0.14720447
210	0xbdee7594	-0.1164352
211	0xbd2b2bab	-0.041789692
212	0x3de05e04	0.10955432
213	0xbe860b02	-0.26180273
214	0xbd5efcf9	-0.054440472
215	0x3e4579f0	0.19284797
216	0x3dcf6956	0.10127513
217	0x3da27c81	0.079339035
218	0x3c2ccf1f	0.010547428
219	0x3ce9f17f	0.028557537
220	0x3dbd0d00	0.09230995
221	0xbd5cd0ca	-0.053910054
222	0x3c8d71a5	0.017266104
223	0x3d93d210	0.072178006
224	0x3cc0f027	0.023552014
225	0x3cafbd97	0.021452708
226	0xbd87870b	-0.06617554
227	0x3d2c5f4f	0.04208308
228	0x3b738e1c	0.0037163561
229	0xbdb5d6a1	-0.08878828
230	0xbd18c072	-0.037292905
231	0xbd28973a	-0.041159846
232	0xbd6d9802	-0.058006294
233	0x3d236b53	0.039897274
234	0x3d0acec9	0.033888612
235	0xbe04bc3c	-0.1296243
236	0x3d09b840	0.03362298
237	0xbc635eb0	-0.013877556
238	0xbbf4cc28	-0.0074706264
239	0x3d9dd8a5	0.07707337
240	0x3d0d341b	0.03447352
241	0xbe12aeab	-0.14324443
242	0x3ce26dda	0.027640272
243	0x3daf9c29	0.08574707
244	0xbe11c4b6	-0.14235196
245	0xbbbe14d9	-0.005800825
246	0x3d3aafcb	0.045577805
247	0xbcfc297e	-0.030781504
248	0x3d9fe51d	0.07807372
249	0x3d153621	0.036428574
250	0xbde2f2a9	-0.1108144
251	0x3d959f43	0.073057674
252	0xbd6a2011	-0.057159487
253	0xbd0dcbf1	-0.03461832
254	0xbbd6f852	-0.006560364
255	0xbca6b970	-0.020352095

blk_2.conv2d.bias f4 [64]
0	0xbacf7f75	-0.0015830832
1	0x3b3e7e7b	0.0029067087
2	0x3adbaf79	0.0016760669
3	0x388aec15	6.6243265e-05
4	0xb9439d12	-0.00018655162
5	0x3ab517ac	0.0013816259
6	0xba86310b	-0.0010238005
7	0x3a611949	0.00085868366
8	0xb9822a48	-0.00024827034
9	0x3aa48391	0.0012551417
10	0xbbc07da0	-0.0058743507
11	0xba4407cd	-0.0007477969
12	0xba9e1160	-0.0012059622
13	0xba645548	-0.00087102177
14	0x3ac2802f	0.0014839227
15	0xba993552	-0.0011688864
16	0x3b026a26	0.0019899695
17	0x3a03d8c2	0.0005029553
18	0xba5a0d9a	-0.0008318067
19	0xb9815eab	-0.0002467533
20	0xb8eca79d	-0.00011284577
21	0xb934e1dc	-0.00017250277
22	0x3b13a858	0.002253076
23	0xba13f6b1	-0.0005644365
24	0x39424710	0.00018527755
25	0xba8efe37	-0.0010909502
26	0xb9a89613	-0.0003215527
27	0xb98b9aab	-0.00026627383
28	0xba3e5de5	-0.0007261916
29	0x3a5459b9	0.0008100528
30	0x393bfeda	0.0001792865
31	0x389e609d	7.552023e-05
32	0xb9e49163	-0.0004359587
33	0x38757fa5	5.853143e-05
34	0xb9df9038	-0.00042641326
35	0x3ad3fcf2	0.0016173406
36	0xba99ce65	-0.0011734484
37	0x39683775	0.00022145903
38	0xba501172	-0.000793717
39	0xba2c9bed	-0.0006584514
40	0xba805480	-0.0009790808
41	0xbae41c8f	-0.0017403531
42	0xbb4b7481	-0.0031044784
43	0xba2f5001	-0.0006687642
44	0xb9f8425f	-0.00047351696
45	0xbab2e0a9	-0.0013647276
46	0xb93b2391	-0.00017846959
47	0x3b5b49e9	0.0033460802
48	0xbab9c7fa	-0.0014173978
49	0xba9d524e	-0.0012002678
50	0xbb289613	-0.0025724217
51	0xba895f33	-0.0010480642
52	0xba8d7b3e	-0.0010794175
53	0x3a29a218	0.0006470992
54	0xba8b86b5	-0.0010645004
55	0xb9da687b	-0.00041658044
56	0xb9e37a5f	-0.00043387988
57	0x3b02d510	0.001996342
58	0xbad05fff	-0.001589775
59	0xbb09ed9a	-0.0021046163
60	0x3a892f0f	0.0010466295
61	0x3a1768fd	0.00057758373
62	0x3b2a31f1	0.0025969709
63	0xba341bf4	-0.00068706204

blk_2.bn.weight f4 [64]
0	0x3f40170f	0.75035185
1	0x3fbbdf33	1.467749
2	0x3fa6af3f	1.3022231
3	0x3f9f1d47	1.243081
4	0x3fcd781e	1.6052282
5	0x3f7bee89	0.9841085
6	0x3f530d26	0.8244194
7	0x3f4ec19c	0.80764174
8	0x3f473827	0.77820057
9	0x3f413e03	0.7548525
10	0x3f572547	0.84041256
11	0x3f2e93e4	0.68194413
12	0x3f85a272	1.0440199
13	0x3fa79fa6	1.3095596
14	0x3f6d1fdc	0.9262674
15	0x3f8159a2	1.0105479
16	0x3f5bf25b	0.8591668
17	0x3f7fbd28	0.99898005
18	0x3f31cdb4	0.69454503
19	0x3f3e8fc8	0.7443814
20	0x3f743aac	0.95402026
21	0x3f39bb2a	0.72551215
22	0x3fa82e55	1.313914
23	0x3f5c73da	0.86114275
24	0x3f26b2a2	0.6511632
25	0x3f878e2a	1.059026
26	0x3f3e1352	0.7424823
27	0x3f87ba71	1.0603772
28	0x3f51fbb8	0.8202472
29	0x3f8979e2	1.0740321
30	0x3f4875a1	0.7830449
31	0x3f5e3a46	0.8680767
32	0x3fbbdfca	1.467767
33	0x3f5dd8f2	0.8665916
34	0x3f8527d5	1.0402781
35	0x3fa8ae76	1.3178241
36	0x3f862579	1.0480186
37	0x3f5bf5ce	0.85921943
38	0x3f7d8a6a	0.9903933
39	0x3f33b1c3	0.7019312
40	0x3f9ea7cb	1.2394956
41	0x3f837bf5	1.0272204
42	0x3f5842a8	0.8447671
43	0x3f92e3a0	1.1475716
44	0x3f55d2ef	0.83524984
45	0x3fa46b0f	1.2845172
46	0x3f8df423	1.109013
47	0x3f81961f	1.0123938
48	0x3f82a116	1.020541
49	0x3f85b26b	1.0445074
50	0x3f805f1f	1.0029029
51	0x3f72e35b	0.94878167
52	0x3f5085e9	0.8145433
53	0x3f5e3f64	0.86815476
54	0x3f3334a7	0.70002216
55	0x3fa43f2f	1.2831782
56	0x3f6f4bb8	0.9347491
57	0x3f71b18c	0.9441154
58	0x3fb5c9c9	1.4202205
59	0x3f7b966f	0.9827642
60	0x3f9fa969	1.2473575
61	0x3fb502de	1.41415
62	0x3fa4872a	1.2853749
63	0x3f6beb78	0.9215617

blk_2.bn.bias f4 [64]
0	0xbf630650	-0.8868151
1	0x3ee7979f	0.45232865
2	0x3f1bfee7	0.60935825
3	0x3b9ae432	0.00472691
4	0x3f197d76	0.59957063
5	0xbebecef3	-0.37267265
6	0xbf45eb3f	-0.7731208
7	0xbf238f23	-0.63890284
8	0xbf1aa736	-0.60411394
9	0xbf2a4923	-0.6651785
10	0xbf31d6bd	-0.6946829
11	0xbf2fe226	-0.6870445
12	0xbebb2edf	-0.36559197
13	0xbe9a070a	-0.30083495
14	0xbf6e406d	-0.93067056
15	0xbf0751c6	-0.5285915
16	0xbf595b34	-0.8490479
17	0xbf2f3aa4	-0.68448853
18	0xbf284cf6	-0.65742433
19	0xbf68d5bf	-0.9095115
20	0xbefa79cd	-0.48921052
21	0xbf4e5ed6	-0.8061346
22	0x3e82ea72	0.25569493
23	0xbf698a8e	-0.9122704
24	0xbf3fc263	-0.74905986
25	0xbf1fcca8	-0.62421656
26	0xbf1b31b5	-0.6062272
27	0xbed70cac	-0.42001855
28	0xbf27d83d	-0.6556433
29	0x3db46a6b	0.0880936
30	0xbf164655	-0.5870107
31	0xbf2b1ca1	-0.6684056
32	0x3ebc3927	0.36762354
33	0xbf1a54f3	-0.6028587
34	0xbeddb367	-0.43300936
35	0x3d93e521	0.07221437
36	0xbf2c4ff0	-0.67309475
37	0xbf114126	-0.56740034
38	0xbf07e62a	-0.5308558
39	0xbf228d5e	-0.6349696
40	0xbdef98e0	-0.116990805
41	0xbefb55b0	-0.49088812
42	0xbf39fd91	-0.72652537
43	0xbed7be91	-0.42137578
44	0xbf40ea55	-0.7535756
45	0xbf1c404a	-0.610356
46	0xbeafec2b	-0.3435987
47	0xbf7d36eb	-0.98911923
48	0xbf4aaa5d	-0.79166204
49	0xbe9cb0f0	-0.30603743
50	0xbf130c0b	-0.5744025
51	0xbf07b77e	-0.5301436
52	0xbf3745b8	-0.7159076
53	0xbf7ebaba	-0.9950367
54	0xbf466a0c	-0.77505565
55	0x3e118de9	0.1421429
56	0xbef9008a	-0.48633224
57	0xbf66f9e1	-0.90225035
58	0x3ecabe41	0.39598277
59	0xbeedc275	-0.4643742
60	0xbcfae845	-0.030628333
61	0x3ea615d7	0.32438537
62	0xbdd57af9	-0.10423846
63	0xbf3bf45c	-0.7341974

blk_3.conv2d.weight f4 [64, 64, 3, 3]
0	0x3cbab7f7	0.0227928
1	0x3da86ceb	0.082238995
2	0x3db0ed4a	0.08639009
3	0xbc0367a4	-0.008020315
4	0x3dc4bf73	0.096068285
5	0x3d9203ad	0.07129607
6	0xbdba9b98	-0.091117084
7	0x3d2aa587	0.041661765
8	0xbcda1148	-0.026619568
9	0xbd97a62f	-0.07404744
10	0xbe20cfa1	-0.15704204
11	0xbdf14100	-0.11779976
12	0xbb8cf355	-0.0043014684
13	0xbe1cedc8	-0.15325081
14	0xbe211b8a	-0.15733162
15	0xbc6139cb	-0.013746689
16	0x3cc8c055	0.024505774
17	0xbd9dc714	-0.07703987
18	0xbd9e9bc8	-0.07744557
19	0xbdc42086	-0.09576516
20	0xbc63a2ec	-0.013893824
21	0x3bb79345	0.0056022727
22	0x3cce6099	0.025192546
23	0xbd025a77	-0.031824555
24	0xbd8af638	-0.06785244
25	0xbc857e25	-0.016295502
26	0x3d32a73f	0.04361653
27	0xbe05b33c	-0.13056654
28	0xbe50a1c8	-0.20374215
29	0xbe1915b9	-0.14949693
30	0x3de92f0b	0.11385926
31	0xbc6b4529	-0.014359751
32	0xbd15bccc	-0.036557004
33	0xbcf49a90	-0.029858857
34	0xbcd33908	-0.02578403
35	0xbde5e921	-0.112261064
36	0xbe0de29e	-0.13855979
37	0xbe0079bf	-0.12546442
38	0xbdaaf85a	-0.083481506
39	0xbe24cc92	-0.16093662
40	0xbdf03d65	-0.1173046
41	0xbe3311d8	-0.17487276
42	0xbdf9bcc4	-0.12194207
43	0xbdb3fee9	-0.08788855
44	0xbe3eae90	-0.18621278
45	0xbcab5875	-0.020916203
46	0xbcfb4691	-0.030673297
47	0xbbe089b7	-0.0068523544
48	0x3b697ead	0.0035628483
49	0xbc8d685e	-0.01726168
50	0x3c4a3395	0.0123414
51	0xbd94e526	-0.07270269
52	0xbd9bd35b	-0.07608672
53	0xbd5456a6	-0.051840447
54	0x3d8c2222	0.06842448
55	0x3e32b044	0.17450052
56	0x3e232c43	0.15934853
57	0x3d61ca8f	0.055124816
58	0x3e1230db	0.1427645
59	0x3dba5aca	0.09099348
60	0x3d5a8a8b	0.05335478
61	0x3cb05adf	0.021527706
62	0x3ce83499	0.028345393
63	0x3e1a1df6	0.15050492
64	0x3cf867b0	0.03032288
65	0xbc8f2107	-0.017471803
66	0x3be4c87a	0.0069819065
67	0xbd95dd2a	-0.07317574
68	0x3d552ca4	0.052044526
69	0x3d812692	0.06306185
70	0x3c9fe1f5	0.019516924
71	0x3d311d9a	0.04324112
72	0x3cc730f9	0.024315344
73	0x3c4194a0	0.01181522
74	0x3d17e662	0.037084945
75	0xbd820efc	-0.06350514
76	0xbd5c873b	-0.053839903
77	0xbd3a2e82	-0.04545451
78	0xbd620d3f	-0.055188414
79	0xbd9cbe9d	-0.07653544
80	0xbcb83916	-0.022488158
81	0xbb42a274	-0.002969888
82	0xbdf48ec6	-0.11941294
83	0xbd4c1d40	-0.049832582
84	0x3bebd84a	0.0071974145
85	0xbddaaa42	-0.10677005
86	0xbd1895ee	-0.03725236
87	0x3cb01e12	0.021498714
88	0xbdd671c0	-0.10470915
89	0xbd926814	-0.071487576
90	0xbd3d5492	-0.04622323
91	0xbdc81264	-0.09769133
92	0x3d38b40f	0.045093592
93	0x3d012f47	0.031539228
94	0x3cd07c59	0.025449919
95	0x3ddf2bf6	0.10897057
96	0xbd1f89dc	-0.038949832
97	0x3cfe2e97	0.031028075
98	0x3d652aeb	0.055949133
99	0x3ce76ce3	0.028250163
100	0x3c0d436c	0.008622032
101	0x3d6474fb	0.055775624
102	0xbd4c0adf	-0.049815055
103	0xbb576242	-0.0032864963
104	0x3b3da4d8	0.0028937366
105	0x3d2e35c7	0.042531755
106	0x3dd15125	0.10220555
107	0x3c42c97d	0.011888859
108	0xbbbf615f	-0.005840465
109	0x3d93869a	0.072034076
110	0x3d6868e3	0.056740653
111	0xbd843b82	-0.06456663
112	0xbd9e0a2b	-0.07716783
113	0xbd8750e8	-0.066072285
114	0x3cfa1930	0.030529588
115	0xbe2c4057	-0.16821419
116	0xbe5683ae	-0.2094867
117	0x3c87814a	0.016541142
118	0x3e0a36eb	0.13497512
119	0xbe185d2e	-0.14879295
120	0x3d861751	0.06547416
121	0x3d961323	0.07327869
122	0xbe854e98	-0.26036525
123	0xbc8ec09c	-0.017425828
124	0x3cd3f8dc	0.025875501
125	0xbe8c897a	-0.27448636
126	0x3cb45bea	0.022016484
127	0xbca8ca9b	-0.020604422
128	0xbd9f1d9a	-0.07769318
129	0x3cae005c	0.021240406
130	0xbdb22537	-0.086985044
131	0xbe11543d	-0.1419229
132	0x3e1aa8b5	0.15103419
133	0xbd77a570	-0.060460508
134	0xbdbc5437	-0.0919575
135	0xbcb76721	-0.022388043
136	0xbd441577	-0.047872033
137	0xbe0ebd11	-0.1393931
138	0x39f9466f	0.00047545458
139	0x3da97ab8	0.0827536
140	0x3c31b5d1	0.010846571
141	0x3cae7077	0.021293862
142	0x3c7231a3	0.014782342
143	0x3c6529d5	0.013987024
144	0x3d8d1ad3	0.06889882
145	0xbaa1862b	-0.001232331
146	0x3e24da75	0.1609896
147	0xbcce74b6	-0.025202136
148	0xbd84afcd	-0.06478844
149	0x3dad3a66	0.08458404
150	0x3c3523ca	0.011055896
151	0x3d27a36e	0.040927343
152	0xbc337140	-0.010952294
153	0xbd86c01f	-0.06579613
154	0xbcae904c	-0.02130904
155	0x3dae2c7b	0.08504578
156	0x3cf2ab9f	0.029622851
157	0xbd0006bf	-0.031256434
158	0xba944380	-0.001131162
159	0x3d611121	0.054947976
160	0x3c8e3e6b	0.017363748
161	0x3dcad462	0.0990379
162	0x3c38dbf9	0.011282914
163	0xbdb55054	-0.08853212
164	0x3cb41ba4	0.021985836
165	0xbbc1ef09	-0.005918388
166	0xbe17c8b8	-0.14822662
167	0xbd0485b1	-0.03235406
168	0xbcf9e831	-0.030506225
169	0xbd29702b	-0.041366737
170	0xbd0f366b	-0.034964006
171	0x3d0ba096	0.034088694
172	0xbb7becd1	-0.0038440714
173	0x3d9332dd	0.07187436
174	0xbd3fdcaa	-0.0468413
175	0xbbb58ccd	-0.0055404664
176	0x3d1b3632	0.03789348
177	0x3c634eda	0.01387378
178	0xbc9de991	-0.019276412
179	0x3d9438fd	0.07237432
180	0xbd37df3d	-0.04489063
181	0x3d8f6b5a	0.070028976
182	0x3dce24e0	0.10065627
183	0x3d612489	0.054966483
184	0x3d816546	0.063181445
185	0x3dbdce65	0.09267882
186	0xbc1df15d	-0.009640065
187	0x3cd4a98b	0.02595975
188	0x3dc7a904	0.09749034
189	0xbd717bf1	-0.05895609
190	0xbc7cf4b4	-0.015439201
191	0x3d9b1b5e	0.07573579
192	0x3c6461b9	0.0139393145
193	0x3d6907fa	0.056892373
194	0x3d0cbb24	0.03435816
195	0xbdf00670	-0.11719978
196	0xbd93f1b6	-0.07223837
197	0xbcfdfb40	-0.031003594
198	0xbb7d0836	-0.003860963
199	0x3d92fd0d	0.07177172
200	0x3d23b86a	0.039970793
201	0x3e19fac8	0.15037072
202	0x3e48e14e	0.19617197
203	0xbcf8d60f	-0.030375509
204	0xbbd5023d	-0.006500511
205	0x3dfa082d	0.12208591
206	0xbbede849	-0.0072603566
207	0x3d2a6b94	0.0416065
208	0xbce4fd90	-0.02795294
209	0x3d9f8a94	0.077901036
210	0xbd4be330	-0.04977721
211	0xbd90168d	-0.07035551
212	0x3cbfe2a7	0.023423506
213	0x3b43911f	0.0029841138
214	0xbdc1d71a	-0.094648555
215	0xbe024c88	-0.12724507
216	0xbd207921	-0.039178018
217	0x3cdb9b4c	0.02680745
218	0xbd29a0c3	-0.04141308
219	0xbdc6767a	-0.09690566
220	0xbdb34802	-0.08753969
221	0xbd0780c7	-0.033081796
222	0x3b1295ae	0.0022367048
223	0xbc4256c5	-0.011861508
224	0xbd059c2c	-0.03261964
225	0x3de872c6	0.11350016
226	0x3e26bd3a	0.16283122
227	0x3dc9d7ee	0.098556384
228	0x3e164b0a	0.14677063
229	0x3de351a1	0.11099554
230	0x3de888c2	0.113542095
231	0x3d0cc96d	0.034371782
232	0x3d985722	0.07438494
233	0x3dd9061e	0.1059687
234	0xbceb12bd	-0.028695459
235	0x3b0b7a38	0.0021282565
236	0xbd55199f	-0.052026387
237	0xbca3e4d8	-0.020006582
238	0xbdd72a98	-0.10506171
239	0xbdde685e	-0.1085975
240	0xbe1bbe59	-0.1520933
241	0xbd6acfc7	-0.05732706
242	0xbd185696	-0.03719195
243	0x3cc55bef	0.024091689
244	0x3d470218	0.04858598
245	0x3db86067	0.09002762
246	0x3d77aa7d	0.060465325
247	0x3d9c2127	0.07623511
248	0x3d3dc776	0.0463328
249	0xbdb453c3	-0.08805039
250	0x3d2c4132	0.042054363
251	0x3d13bfbd	0.036071528
252	0xbd541383	-0.05177642
253	0xbd3ce3f2	-0.046115823
254	0x3c01e1d4	0.007927377
255	0xbe30cfb1	-0.17266728

blk_3.conv2d.bias f4 [64]
0	0xbabd2400	-0.0014430285
1	0xbb82dae1	-0.0039933776
2	0xbb09d1c9	-0.0021029583
3	0xbada6df7	-0.0016664852
4	0x3ae2b050	0.0017294977
5	0x3b78f759	0.0037989228
6	0xbb0d05db	-0.0021518383
7	0xba17f00e	-0.0005795964
8	0xba9f4d62	-0.0012153799
9	0xbb3fe4b5	-0.0029280607
10	0xbb897696	-0.0041950447
11	0x39b3feed	0.00034331475
12	0xba76f433	-0.0009420544
13	0xbb361c7d	-0.0027787976
14	0x398845f5	0.00025992063
15	0xbb3b28cd	-0.0028558255
16	0xbb44c202	-0.0030022864
17	0x3903f48d	0.00012584236
18	0xb921ce67	-0.00015431047
19	0xba735aa8	-0.0009283223
20	0x3aedb490	0.0018135477
21	0x3a8839d1	0.0010393207
22	0xbac3710e	-0.0014911012
23	0xbae8750e	-0.001773508
24	0x3acfe2e2	0.0015860463
25	0xbb715bcc	-0.0036828397
26	0xbac0e10e	-0.0014715509
27	0xb9e788b9	-0.0004416162
28	0xb9863ed9	-0.00025605297
29	0xb9dceb7d	-0.00042137122
30	0xba840b17	-0.0010074106
31	0x3b0accf9	0.0021179302
32	0xbb04366e	-0.0020174044
33	0xb98ce707	-0.0002687501
34	0xb9bb9655	-0.00035779426
35	0xb8a87ee0	-8.0344966e-05
36	0xb9a2194f	-0.00030917904
37	0xbb473d7d	-0.003040164
38	0xbb1c9baa	-0.0023896494
39	0x39a67622	0.00031750003
40	0x3a96577d	0.0011470165
41	0x39017bf4	0.00012348575
42	0x3b088005	0.0020828259
43	0x39fca124	0.00048185245
44	0x3b6199f4	0.0034424039
45	0x3ad9d63f	0.0016619636
46	0xba359984	-0.00069274777
47	0x3ad195d1	0.0015990083
48	0xbaf90a9d	-0.0019000355
49	0xba885666	-0.0010401725
50	0xbac1322b	-0.0014739683
51	0xbabf494b	-0.0014593987
52	0xbb86f99a	-0.0041191103
53	0xba61a428	-0.000860753
54	0x3b5be576	0.0033553517
55	0x38f778b7	0.00011800363
56	0x3a8b256e	0.0010616013
57	0x3ae573bf	0.0017505809
58	0xb9c69abb	-0.00037880786
59	0xb9d0a864	-0.00039798312
60	0xb994f160	-0.00028408598
61	0x3a5e6f13	0.0008485179
62	0x3a3fe3c2	0.00073200103
63	0xba913534	-0.0011078478

blk_3.bn.weight f4 [64]
0	0x3f33b207	0.70193523
1	0x3f115ae0	0.5677929
2	0x3f681ab8	0.9066577
3	0x3f85e691	1.0460988
4	0x3f488678	0.78330183
5	0x3f3702ce	0.71488655
6	0x3f730cac	0.9494121
7	0x3f9d974d	1.2311798
8	0x3f779d96	0.9672483
9	0x3f40796e	0.75185287
10	0x3f6ebcd5	0.93256885
11	0x3f806fe2	1.0034144
12	0x3f76b00f	0.96362394
13	0x3f592ad0	0.8483095
14	0x3f823941	1.0173723
15	0x3f5a7769	0.85338455
16	0x3f858845	1.0432211
17	0x3f7fc7dc	0.99914336
18	0x3f7ecc4f	0.995305
19	0x3f80cb6a	1.0062077
20	0x3f3211d4	0.69558454
21	0x3f93e675	1.1554705
22	0x3f491695	0.7855008
23	0x3f8d6732	1.1047118
24	0x3f8abbb3	1.0838531
25	0x3f4d9746	0.8030895
26	0x3f69366f	0.91098684
27	0x3f50914d	0.8147171
28	0x3f574e7d	0.8410414
29	0x3f9da339	1.2315437
30	0x3f80c84c	1.0061126
31	0x3f71b146	0.9441112
32	0x3f71cec8	0.9445615
33	0x3f7268c4	0.9469111
34	0x3f81c4b1	1.013815
35	0x3f87865f	1.0587882
36	0x3f7179ac	0.9432628
37	0x3f8fded0	1.1239872
38	0x3f5b972f	0.8577756
39	0x3f93a9e6	1.1536224
40	0x3fa76d6c	1.3080268
41	0x3f8fc938	1.1233282
42	0x3f6c4de7	0.9230637
43	0x3f558dcb	0.83419484
44	0x3f5c4349	0.8604017
45	0x3f5d620b	0.86477727
46	0x3f799948	0.97499514
47	0x3f729c2c	0.9476955
48	0x3f8c7b31	1.0975095
49	0x3f4091d5	0.7522252
50	0x3f83f725	1.0309798
51	0x3f69a749	0.9127088
52	0x3f558dac	0.834193
53	0x3f6f76e4	0.9354079
54	0x3f4f6f25	0.8102897
55	0x3f7b6d73	0.9821388
56	0x3f6b0742	0.9180795
57	0x3f562400	0.8364868
58	0x3f3b8358	0.7324729
59	0x3f289cf9	0.6586452
60	0x3f537739	0.82603794
61	0x3f357254	0.70877576
62	0x3f34662e	0.70468414
63	0x3fbf9513	1.4967369

blk_3.bn.bias f4 [64]
0	0xbf855427	-1.0416306
1	0xbf58bdec	-0.846648
2	0xbf36bee7	-0.71385044
3	0xbf8d6ff7	-1.1049794
4	0xbf664273	-0.89945143
5	0xbf72621c	-0.94680953
6	0xbf6750c5	-0.9035762
7	0xbf030102	-0.5117341
8	0xbf5e0f9d	-0.86742574
9	0xbf996ca4	-1.198628
10	0xbf579cf5	-0.8422387
11	0xbf12e4d8	-0.5738044
12	0xbf4a9677	-0.7913584
13	0xbf2df849	-0.6795698
14	0xbef20931	-0.47272637
15	0xbf6816a5	-0.9065955
16	0xbf3fe85a	-0.74963915
17	0xbf571a15	-0.84024173
18	0xbee4181f	-0.44549653
19	0xbebf4491	-0.37357
20	0xbf5254bf	-0.8216056
21	0xbf20177b	-0.6253583
22	0xbf404411	-0.7510386
23	0xbeeb36b3	-0.4594017
24	0xbf0244b5	-0.5088609
25	0xbec2450f	-0.37943313
26	0xbf38993b	-0.7210881
27	0xbf36e1e4	-0.7143843
28	0xbf2d295e	-0.67641246
29	0xbeb6cc5b	-0.35702786
30	0xbf59eb2c	-0.8512447
31	0xbed607af	-0.41802737
32	0x3e49173b	0.19637768
33	0xbe7679ca	-0.24069896
34	0xbf8ae1cf	-1.0850161
35	0xbf788a2e	-0.97085845
36	0xbf16d866	-0.5892395
37	0xbf1ad6d4	-0.6048405
38	0xbf387a77	-0.72061867
39	0xbebba661	-0.36650375
40	0xbee276c7	-0.44231245
41	0xbf0ce582	-0.550377
42	0xbf252ba4	-0.64519715
43	0xbf6bcaf7	-0.92106575
44	0xbea352f3	-0.31899223
45	0xbf9aa2d4	-1.2080941
46	0xbd9b3817	-0.07579058
47	0x3c8481e8	0.016175225
48	0xbf334a65	-0.7003539
49	0xbf850beb	-1.0394262
50	0xbf450e5b	-0.7697503
51	0xbf2aa4c2	-0.6665765
52	0xbecfc697	-0.405812
53	0xbed99237	-0.42494366
54	0xbf20c60b	-0.6280219
55	0xbeae2530	-0.34012747
56	0xbd8827c0	-0.06648207
57	0xbf930e91	-1.148882
58	0xbf527af5	-0.8221887
59	0xbf589328	-0.8459954
60	0xbf1de77e	-0.61681354
61	0xbf4f468c	-0.8096702
62	0xbf542cbb	-0.82880753
63	0xbf22b1f8	-0.6355281

blk_4.conv2d.weight f4 [64, 64, 3, 3]
0	0x3d8aad80	0.06771374
1	0xbe08df7d	-0.13366504
2	0xbdd44596	-0.10364835
3	0xbc0cc265	-0.008591269
4	0x3ce3c367	0.027803136
5	0x3d8c3c36	0.06847422
6	0xbc4779cf	-0.0121750375
7	0x3cccfa60	0.025021732
8	0xbc2f1433	-0.010685968
9	0x3d1d697b	0.038430672
10	0xbda6258f	-0.081126325
11	0xbe818769	-0.25298622
12	0xbd305b7b	-0.043055993
13	0xbd0f8a5a	-0.03504405
14	0xbc6d7160	-0.014492363
15	0xbd6ecd56	-0.058301292
16	0x3d90016f	0.070315234
17	0x3c50caaf	0.012743636
18	0xbc21dad7	-0.009878836
19	0x3c0acf9e	0.008472351
20	0xbcbab7d4	-0.022792734
21	0x3de602e0	0.11231017
22	0xbd1b4631	-0.037908737
23	0xbb1cf22a	-0.0023948052
24	0x3e1e89dd	0.15482278
25	0x3d727d09	0.059201274
26	0xbc058b9b	-0.00815096
27	0x3b7f3b52	0.003894527
28	0x3dbd6391	0.092475064
29	0x3d85082c	0.06495699
30	0x3d37d7af	0.044883426
31	0x3d43c5bc	0.047795996
32	0x3db02d56	0.08602397
33	0xbbbb08b1	-0.005707823
34	0x3cddac52	0.027059708
35	0x3cad921b	0.021187833
36	0xbcde39c2	-0.02712715
37	0xbd8e24ae	-0.0694059
38	0xbd49b8de	-0.04924857
39	0xbd9feefd	-0.07809255
40	0xbd69c230	-0.057069957
41	0xbd04f850	-0.03246337
42	0xbd7c1b08	-0.061549217
43	0xbce1f66e	-0.027583327
44	0xbd844739	-0.06458897
45	0xbd585ef0	-0.052824914
46	0xbd138d41	-0.036023382
47	0x3d48385b	0.04888187
48	0xbd735140	-0.059403658
49	0xbd114449	-0.035465512
50	0x3c63dff7	0.013908378
51	0x3d51fd16	0.051266752
52	0x3ce60ea3	0.028083151
53	0x3c26b83e	0.010175763
54	0xbe773447	-0.24141036
55	0xbe397207	-0.18109904
56	0xbd913429	-0.07090027
57	0xbe2dcfa7	-0.16973744
58	0xbce17339	-0.027520763
59	0xbdfab0ea	-0.12240775
60	0xbdeb4df4	-0.11489478
61	0xbdb08fa3	-0.086211465
62	0xbcf1b831	-0.029506775
63	0x3d7db843	0.061943304
64	0x3dcbabe1	0.09944893
65	0xbd7ebe63	-0.062193286
66	0x3c56f95d	0.013120976
67	0x3ca59e11	0.020216973
68	0xbda6279b	-0.08113023
69	0x3c1420a4	0.009040985
70	0x3c1eee6f	0.009700402
71	0xbab1ab20	-0.0013555028
72	0xbd5be517	-0.053685274
73	0x3cba5700	0.022746563
74	0xbc8ea450	-0.017412335
75	0x3d9291f9	0.07156748
76	0x3d0a4708	0.033759147
77	0xbc809f8d	-0.01570108
78	0x3db80cff	0.08986854
79	0x3da667ec	0.0812529
80	0xbcab9feb	-0.020950278
81	0x3d750000	0.059814453
82	0x3b8a286e	0.0042162454
83	0x3e0789ee	0.1323621
84	0x3d3742c7	0.04474142
85	0xbd6fe83b	-0.05857108
86	0xbd4e0a5f	-0.05030286
87	0x3dc5d5cb	0.096599184
88	0x3b4fe455	0.003172179
89	0xbd701b16	-0.05861958
90	0x3d042284	0.03225948
91	0x3cd62b6d	0.026143754
92	0x3e004a31	0.12528302
93	0x3cdedd89	0.027205246
94	0x3d36d9f4	0.04464145
95	0x3da91a68	0.0825699
96	0xbdeb64f7	-0.11493867
97	0x3d6d6b39	0.057963584
98	0x3d5ad695	0.053427298
99	0xbd07b939	-0.033135626
100	0xbb545315	-0.0032398154
101	0x3ce4466a	0.027865607
102	0x3dccb3e0	0.09995246
103	0x3d757350	0.059924424
104	0x3d8d7fc3	0.06909134
105	0xbba2ed6c	-0.0049721505
106	0x3d1c328d	0.038134146
107	0xbda53e4f	-0.08068525
108	0x3e5f8671	0.21828629
109	0x3e778654	0.24172336
110	0x3e5e9302	0.21735767
111	0x3e665576	0.22493538
112	0x3e2472ec	0.16059464
113	0x3e0f8540	0.14015675
114	0x3d9a9e89	0.075497694
115	0x3db02a2b	0.08601793
116	0x3ccfc7ef	0.02536389
117	0xb957a03c	-0.0002056369
118	0xbe02ca16	-0.12772402
119	0x3d3913da	0.045184948
120	0xbdb659b7	-0.089038305
121	0x3d5a100f	0.05323797
122	0xbdc3a9e9	-0.09553892
123	0xbdd0582a	-0.10173066
124	0xbbdd2af4	-0.006749505
125	0xbd7a87ba	-0.061164595
126	0x3e3a6dd7	0.18205963
127	0x3d8d6da8	0.06905681
128	0x3d9bf139	0.07614369
129	0x3db47d6a	0.08812983
130	0x3dc41237	0.09573787
131	0x3d9a9716	0.075483486
132	0x3e2b0432	0.16700819
133	0x3cf07822	0.029354159
134	0xbd30514c	-0.04304628
135	0x3d81d634	0.06339684
136	0x3d526001	0.051361088
137	0xbd65d743	-0.056113493
138	0xbc560f92	-0.013065236
139	0xbc95d80b	-0.018291494
140	0xbdde2c95	-0.10848347
141	0x3d170fae	0.036880188
142	0x3d09bc48	0.033626825
143	0xbd87f9b7	-0.06639426
144	0xbd101a87	-0.03518155
145	0xbd3b1e82	-0.04568339
146	0xbddb7edb	-0.10717555
147	0x3aeee93d	0.0018227469
148	0xbc48fbc5	-0.012267058
149	0xbd4d5a9a	-0.050135233
150	0xbc27df11	-0.010246054
151	0xbd98f99c	-0.07469484
152	0xbcfa783f	-0.030574916
153	0x3dbbb6f1	0.09165753
154	0x3e3b3c92	0.18284824
155	0x3e73e831	0.23819043
156	0x3e03338f	0.12812637
157	0x3e000512	0.12501934
158	0x3e06d584	0.13167387
159	0xbdaab04a	-0.08334406
160	0x3d404f8d	0.046950866
161	0xbca62894	-0.020283021
162	0x3d6f3f3d	0.058409918
163	0x3db11b31	0.086477645
164	0xbc8f1c5e	-0.017469581
165	0x3d870c96	0.065941975
166	0x3dfe8548	0.12427765
167	0x3da092ff	0.07840537
168	0x3de9aefc	0.11410329
169	0xbafe0f3f	-0.0019383206
170	0x3d231052	0.039810486
171	0x3df9051d	0.121591784
172	0x3dd68ac1	0.10475684
173	0x3d4da52a	0.05020634
174	0xbd1b0e9e	-0.037855737
175	0x3d3e532a	0.04646603
176	0x3d2ab7a0	0.041679025
177	0x3d729a3a	0.059229113
178	0x3d8055f2	0.06266393
179	0x3c6fba2c	0.014631789
180	0x3ce1a52a	0.027544577
181	0xbdacfed3	-0.08447041
182	0xbe2db5fe	-0.16963956
183	0xbd9a7926	-0.075426385
184	0x3d3e71ac	0.046495125
185	0xbb571ddf	-0.00328242
186	0x3c6a9e58	0.014319979
187	0xbd413b43	-0.047175657
188	0xbd667207	-0.05626109
189	0xbb99ee89	-0.004697625
190	0x3cd18a52	0.025578652
191	0xbd9890ef	-0.07449519
192	0xbcd0517f	-0.025429485
193	0x3cf19f30	0.029494852
194	0x3d6df2f2	0.05809302
195	0xbdafcc84	-0.0858393
196	0xbd8e87a3	-0.069594644
197	0xbdfa2865	-0.12214736
198	0x3d7dee06	0.061994575
199	0xbddd58d7	-0.108079605
200	0xbd49dfae	-0.049285583
201	0x3da12b3b	0.07869574
202	0x3da3602f	0.0797733
203	0x3d7531f6	0.0598621
204	0x3cc16350	0.023606926
205	0xbdc2727a	-0.09494491
206	0x3d3ddc9e	0.046352975
207	0xbca3e546	-0.020006787
208	0xbc86a949	-0.016438143
209	0x3d940679	0.07227797
210	0xbd0b2fa9	-0.033981
211	0x3d396755	0.04526456
212	0x3df1e698	0.118115604
213	0x3cedb85e	0.029018577
214	0x3e09e646	0.13466749
215	0x3d62ff7b	0.055419426
216	0x3dcec578	0.10096258
217	0xbd7e495a	-0.062081672
218	0xbddf00b0	-0.10888803
219	0x3dd2c2d8	0.1029107
220	0x3bbe6f86	0.0058116345
221	0xbc546640	-0.012963831
222	0x3e15366d	0.14571543
223	0x3d81f9e6	0.063464925
224	0xbc50cd21	-0.012744219
225	0xbcf5c585	-0.030001411
226	0xbdc0a92f	-0.09407269
227	0xbdfea4c8	-0.12433773
228	0xbe045331	-0.1292236
229	0xbc2e39cb	-0.010633896
230	0xbdddde19	-0.108333774
231	0xbcd4de11	-0.025984796
232	0xbce61e16	-0.028090518
233	0xbd3d720a	-0.046251334
234	0x3dafad24	0.08577946
235	0xbd8b7d01	-0.06810952
236	0x3d05b06f	0.032638963
237	0xbc352304	-0.011055712
238	0xbc4131d2	-0.011791663
239	0x3e0f918a	0.14020362
240	0xbcbe2b00	-0.023213863
241	0x3d1b8037	0.037964072
242	0x3d53626a	0.051607527
243	0x3d865ed7	0.06561058
244	0x3c44d6e0	0.012014121
245	0xbc6ae531	-0.01433687
246	0x3db56a5d	0.08858178
247	0xbd986171	-0.074404605
248	0xbd8fb152	-0.07016243
249	0x3dc62bbc	0.096763104
250	0x3d1b6a5a	0.03794322
251	0xbd856f4c	-0.06515369
252	0x3d5645c0	0.052312613
253	0x3d7f112f	0.062272247
254	0x3e7ee173	0.2489069
255	0xbd706be9	-0.05869666

blk_4.conv2d.bias f4 [64]
0	0x3b5ccb91	0.003369067
1	0x3c004c0e	0.007830633
2	0xbb6589ee	-0.003502484
3	0xbd0e5237	-0.034746375
4	0x3b0e34f6	0.0021699048
5	0x3ac5a40c	0.0015078797
6	0x3c4ba6ab	0.012429873
7	0x3b827e64	0.003982352
8	0xbb50506d	-0.0031786219
9	0x3b517a49	0.0031963757
10	0x3b93b546	0.0045076935
11	0x3ba12e48	0.0049188472
12	0x3a9e36a0	0.0012070723
13	0x3afb07d1	0.001915211
14	0x3bed6721	0.00724496
15	0x3bc338fd	0.0059577213
16	0x3c14045e	0.009034244
17	0x3a680cb7	0.00088519923
18	0x3acf37c6	0.0015809468
19	0x3b6348cd	0.0034680844
20	0x3b813ff8	0.0039443932
21	0x3b153fc9	0.0022773615
22	0x3b8a71c3	0.0042249872
23	0xbd4d56de	-0.05013167
24	0x3a438d79	0.0007459741
25	0x3d1e06a9	0.03858057
26	0x39947116	0.00028313015
27	0x3b09cb66	0.0021025776
28	0xbb5cf9db	-0.0033718261
29	0x3b787c2d	0.0037915811
30	0xbdba66a7	-0.09101611
31	0x3d1b9e9b	0.037993055
32	0xbae23477	-0.0017258067
33	0xba1793e7	-0.0005782232
34	0xbd549d7b	-0.051907998
35	0x3bb3d195	0.0054876306
36	0xbd3fee9c	-0.046858415
37	0x3ab8b1ab	0.0014091035
38	0x3aea5a78	0.0017879745
39	0x3b188c73	0.0023277074
40	0x3c0fc9f5	0.008776178
41	0x3bb0cac1	0.005395264
42	0x3afb4ba1	0.001917232
43	0x3bbf9d2b	0.0058475933
44	0x3bb403f0	0.0054936334
45	0x3bdb44cb	0.0066915504
46	0x3a86aafc	0.0010274346
47	0x3a376544	0.0006995986
48	0x3ac3a3af	0.0014926101
49	0xbac32f9a	-0.0014891506
50	0xb8f8a8e0	-0.00011857017
51	0x3abaed42	0.0014261382
52	0x3b58b40b	0.0033066298
53	0x3bbee977	0.005826171
54	0x3bc7b89e	0.006095006
55	0xbb01e2b5	-0.0019818966
56	0xbaad4968	-0.0013220729
57	0xbb4281b0	-0.002967935
58	0x3ce047ef	0.02737805
59	0x3b548b24	0.0032431567
60	0xbb2739f8	-0.002551673
61	0x3aaf98a5	0.0013396932
62	0x3d36716e	0.04454177
63	0x3a4dfa0f	0.0007857391

blk_4.bn.weight f4 [64]
0	0x3fbf61f8	1.4951773
1	0x3fc0d903	1.5066227
2	0x3fa2e770	1.2726879
3	0x3fd2c175	1.6465288
4	0x4005d89b	2.0913455
5	0x3fa295f4	1.2702012
6	0x3fa1467d	1.2599636
7	0x3fabbc29	1.3416797
8	0x3fcea182	1.6143038
9	0x3f8eb2a9	1.1148273
10	0x3fe28ecb	1.7699827
11	0x3fbba5e8	1.4660006
12	0x3f987bf9	1.1912833
13	0x3f9fbfd8	1.2480421
14	0x3fb85370	1.4400463
15	0x3ff10e68	1.8832521
16	0x3fb01081	1.3755037
17	0x3fc2bf78	1.5214682
18	0x3fa44079	1.2832175
19	0x3faeb7c9	1.3649837
20	0x3f4caac3	0.7994806
21	0x3ffeed69	1.9916202
22	0x3fbf9f81	1.4970552
23	0x400b31b5	2.1749089
24	0x3fb862ea	1.4405186
25	0x4003a89a	2.0571656
26	0x3ff35859	1.9011337
27	0x3fa8ef09	1.3197948
28	0x3fdb792b	1.7146353
29	0x3f9b626b	1.213941
30	0x400a123b	2.1573627
31	0x3fe837c5	1.814202
32	0x3fa52c24	1.2904096
33	0x3f9e7776	1.2380207
34	0x400d2240	2.2052155
35	0x3fb80d42	1.4379046
36	0x3feb0509	1.8360912
37	0x3f9c164c	1.2194304
38	0x3f87e6fa	1.0617363
39	0x3fc7619c	1.5576663
40	0x3f8340f8	1.0254202
41	0x3fbf7cf4	1.4960008
42	0x3fd1b626	1.6383712
43	0x3fb1ab6a	1.3880436
44	0x3fb4ee67	1.4135255
45	0x3fd2d848	1.6472254
46	0x4000d7ae	2.013164
47	0x3fc165b3	1.5109161
48	0x3f9a29f8	1.2044058
49	0x3fa23e94	1.2675347
50	0x3f9074e7	1.1285676
51	0x3fb7e69b	1.436725
52	0x3fb1c26d	1.3887459
53	0x3fbc6e31	1.4721128
54	0x3f506713	0.8140728
55	0x3fc71c0c	1.5555434
56	0x3fcc03eb	1.5938696
57	0x3fb265f4	1.3937364
58	0x3fc917d5	1.5710398
59	0x3fac07da	1.3439896
60	0x3ff2f4d9	1.8980972
61	0x3fb31710	1.3991413
62	0x3ff478f4	1.9099412
63	0x3fb87a73	1.4412369

blk_4.bn.bias f4 [64]
0	0xbf1eb07f	-0.6198806
1	0xbf27e723	-0.6558706
2	0xbed982f5	-0.42482725
3	0xbea96ce8	-0.330909
4	0xbf5b4cde	-0.85664165
5	0xbf0f2c27	-0.55926746
6	0xbf182a67	-0.594397
7	0xbe86a974	-0.26301157
8	0xbea42e75	-0.32066694
9	0xbf5ca285	-0.86185485
10	0xbed01c4a	-0.40646583
11	0xbf4e850b	-0.8067176
12	0xbeb2f85c	-0.34955108
13	0xbf0ca251	-0.54935175
14	0xbf35a42f	-0.7095365
15	0xbea2016f	-0.3164172
16	0xbde401de	-0.11133169
17	0xbf1add63	-0.6049406
18	0xbf18fde5	-0.5976241
19	0xbe9cd882	-0.30633932
20	0xbf4ed41e	-0.80792415
21	0xbf4a3739	-0.78990513
22	0xbf2876db	-0.6580636
23	0xbeb2dd51	-0.34934476
24	0xbef50fa2	-0.4786349
25	0xbf57a66d	-0.8423832
26	0xbf8d2e83	-1.1029819
27	0xbf0fb322	-0.5613271
28	0xbe53c0a8	-0.20678961
29	0xbea4d46e	-0.3219332
30	0xbee5d6ab	-0.4489034
31	0xbf7d9dc8	-0.9906888
32	0xbf2339b8	-0.63759947
33	0xbf229563	-0.63509196
34	0xbefc1c0e	-0.49240154
35	0xbf75d268	-0.9602418
36	0xbe7d2e15	-0.2472461
37	0xbeedfa45	-0.46480003
38	0xbf260f34	-0.6486695
39	0xbf11b25a	-0.5691277
40	0xbf38df2f	-0.7221555
41	0xbeedcbb7	-0.46444485
42	0xbf2e7f30	-0.6816282
43	0xbf357dbe	-0.7089499
44	0xbe8d180c	-0.2755741
45	0xbf06a0fc	-0.5258939
46	0xbf45ce5a	-0.7726799
47	0xbf45e50e	-0.77302635
48	0xbf16930f	-0.58818144
49	0xbef06150	-0.46949244
50	0xbeedb2d6	-0.46425503
51	0xbec0ff32	-0.376947
52	0xbf045213	-0.51687735
53	0xbf1d065e	-0.6133784
54	0xbf6e2003	-0.93017596
55	0xbf3506e3	-0.70713633
56	0xbf11517e	-0.5676497
57	0xbed5eb6d	-0.41781178
58	0xbf7baf1a	-0.9831406
59	0xbf190310	-0.597703
60	0xbeb9616f	-0.36207148
61	0xbf4b588a	-0.79431975
62	0xbf4dc35c	-0.8037622
63	0xbf6c0088	-0.9218831
