checkpoints/Reptile/learner_net_on_Omniglot_100.pth (torch, 454319 bytes, 18 tensors)

blk_1.conv2d.weight f4 [64, 1, 3, 3]
0	0xbead5a0f	-0.33857772
1	0xbe18a888	-0.1490804
2	0x3d954917	0.072893314
3	0xbe7c2f73	-0.24627475
4	0x3e1a15d9	0.15047397
5	0x3e56625e	0.20935962
6	0xbe9f0e96	-0.31065816
7	0xbe89fe6e	-0.26951927
8	0xbd2ec21d	-0.04266559
9	0x3e0135e9	0.12618221
10	0x3e54a225	0.20764978
11	0x3d8f5c58	0.07000035
12	0xbe601c81	-0.21885873
13	0xbea3a483	-0.3196145
14	0xbe9b2b1d	-0.3030633
15	0x3da6f1b8	0.08151573
16	0x3d52cde1	0.051465873
17	0x3e4b627d	0.19861789
18	0x3e1b5551	0.15169264
19	0x3e3a1c02	0.18174747
20	0xbe5e8a09	-0.21732344
21	0x3d9708d7	0.07374733
22	0x3e3549de	0.1770396
23	0x3e943dc4	0.28953373
24	0xbe0771af	-0.1322696
25	0xbdd1d0f0	-0.1024493
26	0x3e79df67	0.24401627
27	0xbe17c457	-0.14820991
28	0xbebbd138	-0.3668306
29	0xbe43b1ac	-0.19110745
30	0xbe84b3a2	-0.259183
31	0xbd69bd8e	-0.05706554
32	0x3e20d396	0.15705714
33	0xbec4cdcd	-0.38438264
34	0xbd11610c	-0.03549294
35	0x3ec033cd	0.3753952
36	0x3d8fcc9d	0.07021449
37	0x3dd0731a	0.10178204
38	0xbe836b77	-0.25667927
39	0xbd510b13	-0.05103595
40	0x3ea1b067	0.31579897
41	0xbd41723a	-0.047228076
42	0xbe92be31	-0.2866073
43	0x3c390e5b	0.0112949265
44	0x3e802578	0.25028586
45	0xbcd0a913	-0.025471246
46	0x3d393b33	0.045222472
47	0x3e707fcd	0.23486252
48	0xbe595577	-0.21224009
49	0xbec7c089	-0.3901408
50	0xbe4dddca	-0.20104137
51	0x3e99454a	0.29935676
52	0xbd8250eb	-0.0636309
53	0xbdc2b604	-0.09507373
54	0x3ec083c9	0.37600544
55	0xbe21282e	-0.15737984
56	0xbe598bfd	-0.21244808
57	0x3e655af1	0.22397973
58	0xbe3a5bd7	-0.18199097
59	0xbe494a6c	-0.19657296
60	0xbe71e7b8	-0.2362355
61	0xbed68e92	-0.41905648
62	0xbcaa0e56	-0.020758789
63	0x3e1bfde7	0.15233575
64	0x3e24abed	0.1608121
65	0x3e2ee75a	0.17080441
66	0x3e4d815a	0.20068875
67	0x3d1177a8	0.035514504
68	0x3e5788dd	0.21048303
69	0x3e0cd13e	0.13751695
70	0x3e679f38	0.22619331
71	0x3e0b5f04	0.13610464
72	0x3a94fcb9	0.0011366821
73	0x3e2eb8fd	0.17062755
74	0x3dc45407	0.095863394
75	0xbe9c27e6	-0.3049919
76	0xbe8937e4	-0.26800454
77	0xbeae6d6c	-0.34067857
78	0x3d060ff9	0.032730076
79	0x3dd55847	0.10417228
80	0x3e2c63a0	0.16834879
81	0x3e74c2ce	0.23902437
82	0xbd5a365e	-0.053274505
83	0x3e2cec62	0.16887048
84	0x3e057cb0	0.13035846
85	0xbb9c4995	-0.004769514
86	0x3e5ec33a	0.2175416
87	0x3e1ad193	0.15119009
88	0x3df56dd7	0.11983841
89	0x3e8f4101	0.27979282
90	0xbe52d38e	-0.20588514
91	0x3e1df7e6	0.15426597
92	0x3e54abc9	0.20768656
93	0xbeaa50d7	-0.332648
94	0x3e05770c	0.13033694
95	0x3e4d53c5	0.20051487
96	0xbe4ba893	-0.19888525
97	0xbeb9d38a	-0.36294204
98	0xbd9fbe25	-0.07799939
99	0xbe4650b0	-0.19366717
100	0xbdd32adb	-0.103109084
101	0x3d6ee25c	0.058321342
102	0x3e4101fb	0.18848412
103	0x3eac5690	0.33659792
104	0x3e8df725	0.2772762
105	0x3cce5571	0.025187226
106	0xbe213c29	-0.15745606
107	0xbeae354d	-0.3402504
108	0xbee435ac	-0.44572198
109	0x3c646efc	0.013942476
110	0x3db282f5	0.08716384
111	0xbeb4b872	-0.3529697
112	0x3ecbf5f8	0.39836097
113	0x3d884ed4	0.0665566
114	0xbee99d4c	-0.4562782
115	0x3e094621	0.13405658
116	0x3de8a6f5	0.113599695
117	0xbdb540e0	-0.088502645
118	0x3e7b1533	0.24519806
119	0x3e5beb5d	0.21476503
120	0x3e752e61	0.23943473
121	0x3d0a9b83	0.033839714
122	0xbe8d1907	-0.27558157
123	0x3dc03376	0.093848154
124	0xbc4a20fe	-0.0123369675
125	0xbdd4ae37	-0.10384791
126	0xbe9e40fa	-0.30908948
127	0xbda6f5c4	-0.08152345
128	0x3d5b8c44	0.053600565
129	0xbdd8ea1f	-0.1059153
130	0x3e501c7b	0.20323364
131	0xbda839dd	-0.082141615
132	0x3e22f4eb	0.15913741
133	0x3d997b08	0.074941695
134	0xbeb707e9	-0.35748222
135	0xbe1447a8	-0.1448046
136	0xbe34d1bd	-0.17658134
137	0xbe1eb9a1	-0.155005
138	0xbe3e60ce	-0.18591616
139	0x3da89c00	0.0823288
140	0xbe9d9eee	-0.30785316
141	0xbd7f3a0e	-0.062311225
142	0x3eabb73b	0.3353823
143	0xbdf9d59f	-0.12198948
144	0x3dc954fc	0.098306626
145	0x3e115c95	0.14195473
146	0x3dcadc0f	0.09905254
147	0x3e4b17e6	0.19833335
148	0x3e889ab0	0.26680517
149	0x3e33acb2	0.17546347
150	0xbea77fe7	-0.3271477
151	0xbee398bd	-0.44452468
152	0xbe8ef282	-0.27919394
153	0xbde08dd6	-0.10964553
154	0xbea4dc6f	-0.32199427
155	0xbea0fbfa	-0.31442243
156	0x3dde37ec	0.1085051
157	0x3ea8dea6	0.32982367
158	0xbd98fd1a	-0.0747015
159	0xbe1b001f	-0.15136765
160	0x3dd49486	0.10379891
161	0x3d490146	0.04907348
162	0xbd5182a4	-0.05114998
163	0x3ca404e4	0.020021863
164	0xbd9fa00e	-0.077942
165	0xbb8ad76c	-0.004237106
166	0x3eb211cf	0.34779212
167	0x3e02ca62	0.12772515
168	0xbebf1fcd	-0.3732895
169	0xbe4c831e	-0.19971892
170	0xbeb828f1	-0.35968736
171	0xbd5b0e85	-0.053480644
172	0xbe0bf3ef	-0.13667272
173	0x3dabb5b4	0.083842665
174	0xbe392f6d	-0.18084498
175	0x3d154679	0.03644416
176	0x3e401140	0.1875658
177	0x3d98f52a	0.07468636
178	0x3e573cd3	0.21019296
179	0xbe8148ad	-0.2525076
180	0xbe11658b	-0.14198892
181	0x3d004a25	0.03132071
182	0x3e166e0a	0.14690414
183	0xbe909695	-0.28239885
184	0x3dd56b30	0.10420835
185	0x3de7de55	0.11321703
186	0xbda5223e	-0.08063172
187	0x3e78405c	0.24243301
188	0x3d19a482	0.037510403
189	0x3d81db42	0.06340648
190	0x3e418a7c	0.18900484
191	0x3e4bd02f	0.19903634
192	0xbcfb46a1	-0.030673327
193	0x3e6a3235	0.22870715
194	0x3d688b30	0.056773365
195	0xbee55be1	-0.4479666
196	0xbec0e1ce	-0.37672275
197	0xbedc0a5f	-0.42976663
198	0x3eaae7c6	0.33379954
199	0xbd043708	-0.032279044
200	0xbeaf2323	-0.34206495
201	0xbe05cdf8	-0.13066852
202	0xbe60fa3c	-0.21970457
203	0xbe347b09	-0.17625059
204	0xbe8a2064	-0.26977837
205	0xbe43cc66	-0.1912094
206	0x3ddc8eab	0.10769399
207	0xbe4e8b6d	-0.20170374
208	0xbe95a4a7	-0.29227182
209	0xbe6016f2	-0.21883753
210	0x3e3db81a	0.1852726
211	0x3e9651af	0.29359195
212	0x3e97cec4	0.29649937
213	0xbd2f7042	-0.042831667
214	0xbd96f3a1	-0.07370687
215	0xbdd302d3	-0.10303273
216	0x3dc9f583	0.09861281
217	0xbe9c23dd	-0.30496112
218	0x3dc10201	0.0942421
219	0x3e085690	0.13314271
220	0xbec2cefa	-0.38048536
221	0x3e4be815	0.19912751
222	0x3e74cffd	0.23907466
223	0xbecec831	-0.4038711
224	0x3ce55853	0.027996218
225	0x3e80a534	0.2512604
226	0xbd1cf353	-0.03831799
227	0xbebfdbbb	-0.3747233
228	0x3e917a67	0.28413698
229	0x3e27c64c	0.16384238
230	0xbebdc7dc	-0.37066543
231	0xb9ee8261	-0.00045492037
232	0xbec7c6a6	-0.39018744
233	0xbea278c0	-0.3173275
234	0x3e5e66d4	0.21718913
235	0x3e6ad05f	0.2293105
236	0x3dfc5e9a	0.12322731
237	0xbe065c8c	-0.13121241
238	0x3d1cdd0a	0.038296737
239	0xbea180aa	-0.31543475
240	0xbe685a86	-0.22690782
241	0xbe8daa0d	-0.276688
242	0xbe9ab7e2	-0.30218416
243	0x3c3ad277	0.011402718
244	0xbd5ab86e	-0.053398542
245	0xbd0f9e8d	-0.035063315
246	0xbe1e46c4	-0.15456682
247	0xbe5520f0	-0.20813346
248	0xbe71009d	-0.2353539
249	0x3e3ba1fe	0.18323514
250	0x3e456d2e	0.1927993
251	0x3e9548cb	0.291571
252	0x3e45c6c9	0.19314112
253	0x3e94fb84	0.2909814
254	0x3cf92fc1	0.030418279
255	0xbe8b0ac3	-0.27156648

blk_1.conv2d.bias f4 [64]
0	0xbcc5c0d6	-0.024139803
1	0xbd56217a	-0.05227802
2	0x3b1dfd1e	0.0024107168
3	0x3c64eccb	0.0139724715
4	0x3d454436	0.048160754
5	0x3d69efbd	0.057113398
6	0xbb851148	-0.004060898
7	0xbd850425	-0.06494931
8	0x3dd729ae	0.10505997
9	0xbb9e5967	-0.004832435
10	0xbe2cd4b6	-0.16878018
11	0x3be58161	0.0070039486
12	0xbcd49c46	-0.025953423
13	0xbe204b71	-0.15653779
14	0xbca37102	-0.019951347
15	0x3ca72a83	0.020406013
16	0xbdcf8b1f	-0.10133957
17	0x39716f99	0.00023025124
18	0xbd90f23e	-0.07077454
19	0x3c66440d	0.0140543105
20	0xbd7b7126	-0.061387204
21	0x3d174d29	0.03693882
22	0x3cabdc5b	0.020979097
23	0xbcdec834	-0.027195074
24	0xbd84e275	-0.06488506
25	0xbccfa333	-0.025346374
26	0x3de1fa7e	0.11034106
27	0x3db98d23	0.09060123
28	0x3d96b9a2	0.073596254
29	0x3e42f69b	0.19039385
30	0x3c9e2a33	0.019307232
31	0xbc84c3ff	-0.01620674
32	0x3cfdb748	0.030971184
33	0x3d5c9356	0.053851448
34	0xbbdab399	-0.0066742417
35	0x3bddb018	0.006765377
36	0xbd2031cb	-0.039109986
37	0x3baa0586	0.0051886467
38	0x3d5d91af	0.054094013
39	0xbdfab25e	-0.12241052
40	0x3d67cc21	0.056591157
41	0x3d34f436	0.04417821
42	0xbd955ceb	-0.07293113
43	0xbd47af14	-0.048750952
44	0xbda15500	-0.078775406
45	0x3d418d34	0.047253802
46	0xbd2d98ec	-0.042382166
47	0x3c4b2868	0.01239977
48	0x3bd276ec	0.006422868
49	0x3d5ee361	0.054416064
50	0xbd9de6ce	-0.07710038
51	0xbd3f69a1	-0.046731595
52	0x3d5bc23d	0.053652037
53	0xbbe10476	-0.006866987
54	0xbde9ebab	-0.11421903
55	0xbce819f5	-0.02833269
56	0x3bf0ad5f	0.007344886
57	0xbd85dc30	-0.06536138
58	0xbd14d601	-0.036336903
59	0x3d55542f	0.052082237
60	0xbb5601ce	-0.0032654884
61	0xbd8b44bd	-0.0680022
62	0x3d42a5e1	0.047521476
63	0x3dccacd2	0.099939

blk_1.bn.weight f4 [64]
0	0x3f9d5683	1.2292026
1	0x3f646cd9	0.8922859
2	0x3f4d66eb	0.80235165
3	0x3fa6b38a	1.3023541
4	0x3f3ce4f9	0.73786885
5	0x3f9d8594	1.230639
6	0x3fb55de6	1.416928
7	0x3f7e9901	0.99452215
8	0x3f769c8f	0.9633264
9	0x3f56b757	0.83873504
10	0x3f9af1e7	1.2105073
11	0x3f4d2277	0.80130714
12	0x3f992065	1.1963011
13	0x3f2baa8f	0.67057127
14	0x3f59084c	0.84778285
15	0x3f973e3a	1.1815865
16	0x3f79acbe	0.9752921
17	0x3f55eb10	0.835618
18	0x3f78e97e	0.9723128
19	0x3f15a0df	0.58448595
20	0x3f1a659a	0.6031128
21	0x3f8c2a4a	1.0950406
22	0x3fc39c17	1.528201
23	0x3f55c9f3	0.83511275
24	0x3f97b951	1.1853429
25	0x3fa5f66d	1.2965828
26	0x3f800168	1.0000429
27	0x3f3f1c18	0.7465224
28	0x3f9f34ff	1.2438048
29	0x3fbd7f31	1.4804441
30	0x3f901a05	1.125794
31	0x3f445de1	0.7670575
32	0x3f3c34f1	0.7351828
33	0x3f3d1277	0.738563
34	0x3f5b1ea5	0.85593635
35	0x3f8da121	1.1064798
36	0x3f66d488	0.90168047
37	0x3fb16569	1.3859073
38	0x3f447347	0.767384
39	0x3f8bff2a	1.0937245
40	0x3f8b5068	1.0883913
41	0x3f43c921	0.76478773
42	0x3f50c45b	0.81549615
43	0x3f85cd34	1.0453248
44	0x3fb61c4b	1.4227384
45	0x3f8f4c8e	1.1195238
46	0x3f562647	0.83652157
47	0x3f90783c	1.1286693
48	0x3f460fc9	0.77367836
49	0x3f78fa00	0.9725647
50	0x3fbe5a81	1.487137
51	0x3fa3dd6a	1.2801945
52	0x3f954d15	1.1664149
53	0x3f8115d6	1.0084789
54	0x3f3e1ec2	0.7426568
55	0x3f6609b2	0.89858544
56	0x3f659498	0.8967986
57	0x3f96af84	1.1772313
58	0x3f8eee36	1.1166446
59	0x3f5eb4c7	0.86994594
60	0x3f415773	0.7552406
61	0x3f2a645a	0.66559374
62	0x3f5d4db6	0.864467
63	0x3faa2f42	1.3295672

blk_1.bn.bias f4 [64]
0	0x3e9e8df8	0.3096769
1	0xbe2df19c	-0.16986698
2	0xbf48a4ee	-0.7837666
3	0xbedb7b7d	-0.42867652
4	0xbf4bfd31	-0.79683214
5	0xbdee1df2	-0.11626805
6	0xbeeb567f	-0.4596443
7	0xbf4dd094	-0.8039639
8	0xbe7109d7	-0.2353891
9	0xbf2991d3	-0.66238135
10	0xbea0c1aa	-0.31397754
11	0xbf35ef7d	-0.71068555
12	0xbe814d7f	-0.25254437
13	0xbf7498a2	-0.955454
14	0xbeafbaf4	-0.3432232
15	0xbedee587	-0.4353449
16	0xbe04271b	-0.12905543
17	0xbe60a2f1	-0.21937157
18	0xbea68d66	-0.32529753
19	0xbf027a52	-0.50967896
20	0xbe854f14	-0.26036894
21	0xbe7d3f47	-0.2473117
22	0xbca56676	-0.020190459
23	0xbeaaea91	-0.33382085
24	0xbe5cf956	-0.21579489
25	0xbeb4ed0c	-0.35337102
26	0xbe8c0323	-0.27346143
27	0xbe2b49c0	-0.16727352
28	0xbd465369	-0.04841939
29	0x3ea7536f	0.32680842
30	0xbecb9a03	-0.3976594
31	0xbf37c6a6	-0.7178749
32	0xbe8ec8b7	-0.27887508
33	0xbe998b60	-0.29989147
34	0xbecf47c8	-0.40484452
35	0xbea9b55a	-0.33146173
36	0xbe2a6670	-0.1664064
37	0xbe57027c	-0.20997041
38	0xbf237047	-0.63843197
39	0xbe5700ca	-0.20996395
40	0xbe96432f	-0.29348132
41	0xbf110716	-0.5665144
42	0xbf59b6c1	-0.85044485
43	0xbe52cf2d	-0.20586844
44	0xbea12456	-0.31473035
45	0xbe810a6f	-0.25203273
46	0xbe976a08	-0.29573083
47	0xbe90e2d8	-0.28298068
48	0xbebd2f03	-0.3694993
49	0xbe536ab2	-0.2064617
50	0xbedb55ad	-0.42838803
51	0xbee34ba9	-0.44393662
52	0xbebbac04	-0.36654675
53	0xbe977f3a	-0.29589254
54	0xbf6dad66	-0.9284271
55	0xbe240997	-0.16019283
56	0xbe82fcbe	-0.25583452
57	0xbed00cc3	-0.40634736
58	0xbe4943c1	-0.19654752
59	0xbe2fbdd0	-0.17162251
60	0xbf02a657	-0.51035064
61	0xbf27ef6e	-0.65599716
62	0xbe105c52	-0.14097717
63	0x3d730781	0.05933333

blk_2.conv2d.weight f4 [64, 64, 3, 3]
0	0xbd4c7ea4	-0.04992546
1	0x3d840b67	0.06447487
2	0x3bc4ce27	0.0060060206
3	0xbcd17a26	-0.02557094
4	0x3bec5735	0.0072125443
5	0xbc340980	-0.010988593
6	0xbe1cea21	-0.15323688
7	0xbce641cc	-0.028107546
8	0xbd85ab79	-0.065268464
9	0xbdb823e7	-0.08991223
10	0xbe0bd1f3	-0.13654308
11	0x3cab0ecc	0.02088108
12	0x3c24ae36	0.010051301
13	0xbd250c8f	-0.04029518
14	0xbca69b4e	-0.020337727
15	0xbb083881	-0.0020785632
16	0xbba673d1	-0.0050797244
17	0x3cf6035d	0.0300309
18	0x3da2855c	0.079355925
19	0x3cda0641	0.02661431
20	0x3caccadc	0.021092825
21	0x3d3e6e34	0.046491817
22	0xbd23a866	-0.03995552
23	0x3d899cee	0.06719385
24	0x3d5284cf	0.051396187
25	0x3dfadde1	0.12249351
26	0x3e0e5b8a	0.13902107
27	0xbdbbb5d2	-0.09165539
28	0x3d19b520	0.03752625
29	0x3d3ee2c1	0.046602968
30	0xbdccb586	-0.0999556
31	0xbc877441	-0.016534926
32	0x3b8ac38e	0.0042347377
33	0xbcf85b88	-0.030317083
34	0xbdc8c057	-0.09802311
35	0xbdf99dc1	-0.12188292
36	0x3d77cca8	0.06049791
37	0x3c7a4793	0.015275854
38	0xbd3a757d	-0.0455222
39	0x3dc9462f	0.098278396
40	0x3d2bc27e	0.04193353
41	0x3e1518d1	0.14560248
42	0x3cb7da58	0.022442982
43	0x3e3a861c	0.18215221
44	0x3e5e61cf	0.21716999
45	0x3d836f05	0.0641766
46	0xbd25eb30	-0.040507495
47	0xbda54f13	-0.08071723
48	0x3d83bdca	0.06432684
49	0xbca85fb0	-0.02055344
50	0xbc8d1779	-0.017223107
51	0x3ba379d5	0.0049888887
52	0xbcc431b4	-0.023949482
53	0xbb140e9b	-0.0022591713
54	0xbdb6fc8a	-0.08934887
55	0xbd704fd6	-0.058669887
56	0xbc366683	-0.011132839
57	0xbd918e51	-0.07107223
58	0x3b8dfa3f	0.00433281
59	0xbe24a92d	-0.1608016
60	0xbbbeb463	-0.0058198436
61	0x3d0d0aa2	0.03443397
62	0xbe775b87	-0.24156009
63	0x3d06f55c	0.032948837
64	0x3d6460d1	0.055756394
65	0x3d4d5270	0.050127447
66	0x3d78fcd8	0.060788006
67	0x3dc48495	0.095956005
68	0x3d2c770a	0.042105712
69	0x3e1060d6	0.1409944
70	0x3db6e651	0.08930648
71	0x3dfde01d	0.12396262
72	0xbd2d98c1	-0.042382006
73	0xbdf6e98c	-0.12056264
74	0xbcf5e016	-0.030014079
75	0x3d86c136	0.06579821
76	0x3c3e8b5d	0.0116299065
77	0x3c1ed349	0.009693929
78	0xbd9fb5e2	-0.07798363
79	0xbe03a48a	-0.12855735
80	0xbc9e3612	-0.019312892
81	0x3c1dd596	0.009633442
82	0xbc8e01f1	-0.01733491
83	0x3d6fed96	0.05857619
84	0x3d5ac505	0.05341055
85	0x3cf2e00d	0.029647851
86	0x3d2de9a3	0.04245914
87	0x3dc88bb1	0.09792269
88	0x3dc7dbca	0.09758718
89	0x3e2eb055	0.17059453
90	0xbd8dba32	-0.069202796
91	0xbcd94b8b	-0.02652528
92	0xbd8c4a9c	-0.06850168
93	0xbad28163	-0.0016060289
94	0xbdc11878	-0.09428495
95	0xbd6d09ee	-0.057870798
96	0xbe519fc1	-0.20471098
97	0xbccba0f3	-0.02485702
98	0x3d43a9f4	0.0477695
99	0x3cc2b17f	0.023766277
100	0xbc9a274e	-0.01881757
101	0x3dcbc661	0.09949947
102	0xbcafc4fd	-0.021456236
103	0x3d21dd4c	0.039517686
104	0x3ca12e3b	0.019675365
105	0x3d41da81	0.047327522
106	0xbd57531c	-0.052569494
107	0x3d17ae13	0.037031244
108	0xbd28cfcb	-0.04121379
109	0x3c48dbb1	0.01225941
110	0xbc344d3f	-0.011004745
111	0xbd161254	-0.036638573
112	0x3d9f84eb	0.07789024
113	0x3d236f6b	0.03990118
114	0xbcd29628	-0.025706366
115	0xbd67bb5d	-0.056575168
116	0x3d58a83f	0.052894827
117	0x3d50c86e	0.050972395
118	0x3cbb475b	0.022861173
119	0x3de6f889	0.11277873
120	0x3ccd6e1c	0.025076918
121	0x3d80bbdc	0.06285831
122	0x3d62719a	0.05528412
123	0x3e240a14	0.1601947
124	0x3db94b2b	0.0904754
125	0xbbc2a2f2	-0.0059398348
126	0x3cc6e12b	0.02427729
127	0xbcbd3f93	-0.023101604
128	0x3d1828ee	0.03714841
129	0x3de0094e	0.10939275
130	0x3da7b343	0.08188488
131	0x3c1bfa98	0.009520195
132	0x3e6922f6	0.22767243
133	0x3d2aacd9	0.041668747
134	0x3c9ee99d	0.019398505
135	0x3e074649	0.13210405
136	0xbd86b60c	-0.065776914
137	0xbd9ca606	-0.07648854
138	0x3d849e59	0.06475515
139	0xbbee337d	-0.0072693215
140	0xbd11393c	-0.035454974
141	0xbccf03e4	-0.02527041
142	0xbdc896d6	-0.09794395
143	0xbc312f1e	-0.010814456
144	0x3d0678b3	0.03282995
145	0xbdf16f16	-0.11788766
146	0x3cf1af19	0.029502438
147	0xbd237e83	-0.039915573
148	0xbddb1641	-0.10697604
149	0x3d573f72	0.05255074
150	0x3c0fd3f5	0.008778562
151	0xbd38605e	-0.045013778
152	0x3aab04cd	0.0013047695
153	0x3da1c866	0.07899551
154	0xbce56b15	-0.028005162
155	0xbd0457f7	-0.032310452
156	0x3d3a801d	0.045532335
157	0xbc9ab218	-0.01888375
158	0x3da09486	0.078408286
159	0x3b438e89	0.0029839596
160	0x3cdd952f	0.027048675
161	0x3deb5835	0.114914335
162	0x3c7bb983	0.015364054
163	0xbe079b1f	-0.13242768
164	0xbd806c5d	-0.06270669
165	0xbdf45a7f	-0.11931323
166	0xbde3eb8b	-0.11128911
167	0x3b620d7e	0.0034492905
168	0xbd59f345	-0.053210516
169	0xbcffa1a0	-0.031204998
170	0x3cc2b606	0.023768436
171	0x3cc52b45	0.024068484
172	0x3d466c1e	0.048442952
173	0xb92ed81e	-0.00016674443
174	0x3dc5c7f6	0.0965728
175	0x3d9cf552	0.07663979
176	0x3daeec70	0.085411906
177	0x3dfadc77	0.122490816
178	0x3dc8f1b9	0.0981173
179	0x3e33f55a	0.17574063
180	0xbd35f578	-0.04442355
181	0x3cd81819	0.026378678
182	0x3d59fed2	0.05322153
183	0x3c453d15	0.012038489
184	0x3de66a3d	0.11250732
185	0x3c490caf	0.01227109
186	0x3d513769	0.051078234
187	0x3d107637	0.03526899
188	0x3e254c18	0.16142309
189	0x3cc76bea	0.02434345
190	0xbe072ae0	-0.1319995
191	0x3b3f241e	0.0029165815
192	0xbda71e6d	-0.081601
193	0xbe046c3d	-0.12931915
194	0xbad67e51	-0.001636455
195	0xbd917067	-0.07101517
196	0xbda3c97e	-0.07997416
197	0xbc313bf9	-0.010817521
198	0xbd76053d	-0.06006359
199	0x3cdbb20d	0.0268183
200	0x3ca2d720	0.01987797
201	0x3da3e532	0.080027
202	0x3c8dff13	0.017333543
203	0x3cfb30f9	0.030663
204	0x3be9025d	0.0071108774
205	0x3c29f9b9	0.01037448
206	0xbdc0abfc	-0.094078034
207	0x3d45aba2	0.048259385
208	0xbc6de060	-0.014518827
209	0x3d8d5188	0.069003165
210	0x3d9f59c8	0.07780796
211	0x3c1f946d	0.009739977
212	0x3d36e0ea	0.04464809
213	0x3caeccd5	0.021337906
214	0xbd61ba56	-0.055109344
215	0x3dc036f7	0.09385484
216	0xbce5b7a4	-0.028041668
217	0xbc9a5b96	-0.0188425
218	0xbc3030f6	-0.010753861
219	0x3e036a0c	0.12833422
220	0x3c3e51c4	0.011616174
221	0x3e07b0ad	0.1325099
222	0x3dcb9e83	0.09942343
223	0x3d9fa827	0.077957444
224	0x3e06bead	0.13158675
225	0xbd0c855f	-0.03430688
226	0xbacb2f02	-0.001550168
227	0xbd845ab1	-0.064626105
228	0x3d1192e4	0.035540476
229	0xbd2db82d	-0.04241197
230	0xbe164039	-0.14672936
231	0x3d4f8cbc	0.050671324
232	0xbb03ba66	-0.0020100116
233	0xbe3d7b16	-0.18503985
234	0x3cef072e	0.029178228
235	0xbdaa5416	-0.08316819
236	0xbc0e11a9	-0.008671203
237	0xbc90b1ec	-0.017662965
238	0xbdb8692e	-0.090044364
239	0xbc350779	-0.011049145
240	0xbd0b310f	-0.033982333
241	0xbd83495d	-0.06410477
242	0xbd156f5e	-0.03648316
243	0x3d71968e	0.05898147
244	0xbcf908ae	-0.030399647
245	0x3cb501e1	0.022095622
246	0x3c8f59a2	0.017498795
247	0x3a92644e	0.0011168809
248	0x3d382022	0.04495252
249	0x3cb6adf3	0.022299742
250	0xbb8c1b3d	-0.004275708
251	0x3e004902	0.1252785
252	0x3cce255c	0.025164299
253	0xbdebc517	-0.11512201
254	0xbd99857b	-0.074961625
255	0xbb4d080f	-0.003128532

blk_2.conv2d.bias f4 [64]
0	0xbcbe2906	-0.02321292
1	0xbbf982f1	-0.0076144864
2	0xbc899bff	-0.016798018
3	0xbaa27baa	-0.0012396474
4	0xbbca027a	-0.006164846
5	0xbbe7ff5a	-0.007080001
6	0x3acea27f	0.001576498
7	0x3bcef565	0.0063158744
8	0xbca91a4c	-0.020642422
9	0xbc738b0d	-0.014864695
10	0xbca49ba6	-0.02009375
11	0xbaa7662d	-0.001277154
12	0xbc92f07c	-0.017936938
13	0x3bddb23f	0.0067656334
14	0x3b077c92	0.0020673615
15	0xbac881cc	-0.0015297472
16	0x3c4e6512	0.012597339
17	0xbbcaec09	-0.0061926884
18	0xbc0ee897	-0.008722446
19	0x3c3267e1	0.0108890245
20	0xbc94ecef	-0.018179385
21	0xbc8c4862	-0.017124359
22	0xba041b73	-0.00050394906
23	0xbb9c83e0	-0.004776463
24	0xbae8694f	-0.001773158
25	0x3a83b5ae	0.0010048652
26	0xbc1e3e3c	-0.0096583925
27	0xbb1e9d86	-0.0024202778
28	0xbba55fa8	-0.0050468035
29	0x3d18afc2	0.03727699
30	0x3c1cd251	0.009571628
31	0x3aefdb8f	0.0018299686
32	0xbbf42c6a	-0.0074515836
33	0x3bf84511	0.0075765927
34	0xbc3ab67e	-0.011396049
35	0xbba0b043	-0.0049038245
36	0xbc15285d	-0.009103862
37	0xbc306f00	-0.010768652
38	0xbc798987	-0.015230543
39	0x3c2cb624	0.010541473
40	0xbca5e731	-0.020251842
41	0xbbbe8d49	-0.0058151823
42	0x3b266711	0.0025391022
43	0xbbafb79c	-0.005362464
44	0xba9645b5	-0.0011464866
45	0x3bd8983d	0.006609945
46	0xba9fddd4	-0.0012196847
47	0xbcb74d44	-0.02237571
48	0xbcae697d	-0.021290535
49	0x3a0938af	0.0005234582
50	0xbb879558	-0.004137676
51	0xbb48d9dc	-0.0030647432
52	0xbc3b331e	-0.0114257615
53	0x3d268958	0.040658325
54	0x3b054031	0.002033245
55	0xbadd2625	-0.001687233
56	0xbba0c258	-0.00490598
57	0x3c0bd432	0.008534478
58	0x3c1ea6cc	0.009683322
59	0xbc2424ae	-0.010018511
60	0x3a8cbc77	0.0010737319
61	0xbbe8f2a4	-0.007109003
62	0x3bf9132b	0.007601162
63	0x3c91b9fc	0.01778888

blk_2.bn.weight f4 [64]
0	0x3f3943d9	0.7236915
1	0x3f833483	1.02504
2	0x3f28191d	0.6566332
3	0x3fbd6a78	1.4798117
4	0x3fa2f357	1.2730511
5	0x3f97b359	1.1851608
6	0x3f627b1b	0.88469094
7	0x3f9fd5f1	1.2487165
8	0x3f401789	0.7503591
9	0x3f4ed607	0.8079533
10	0x3f3b1690	0.730813
11	0x3f8dfa23	1.1091961
12	0x3f3e7f33	0.7441284
13	0x3fc776e7	1.5583161
14	0x3f8747b2	1.0568755
15	0x3f6e7af7	0.9315638
16	0x3f8c8a73	1.0979751
17	0x3f4149b1	0.7550307
18	0x3fb20009	1.3906261
19	0x3f920ba6	1.1409805
20	0x3f2a594a	0.66542494
21	0x3f3581be	0.70901096
22	0x3f5b06c3	0.8555719
23	0x3f31afc0	0.694088
24	0x3f2fc754	0.68663526
25	0x3f654d3a	0.89570963
26	0x3f55d997	0.8353514
27	0x3f753cc9	0.95795876
28	0x3f47bf7c	0.78026557
29	0x3f9acaf7	1.209319
30	0x3f1da8c0	0.6158562
31	0x3f9e604e	1.237314
32	0x3f817427	1.0113572
33	0x3f556f20	0.8337269
34	0x3f3a3f20	0.7275257
35	0x3f407b68	0.75188303
36	0x3f4eb33d	0.80742246
37	0x3f46b881	0.7762528
38	0x3f6af187	0.9177479
39	0x3f822aa4	1.0169263
40	0x3f829c9b	1.0204042
41	0x3f86f38c	1.0543075
42	0x3f931014	1.1489282
43	0x3f3d0d60	0.73848534
44	0x3f986ec1	1.19088
45	0x3fc2787b	1.5193018
46	0x3f4317b6	0.76208055
47	0x3f5c5b1c	0.8607652
48	0x3f7a7fff	0.97851557
49	0x3fae4c5f	1.3617057
50	0x3f6cdaa9	0.9252115
51	0x3f3cdebc	0.73777366
52	0x3f964a96	1.1741512
53	0x3fc8b15f	1.5679129
54	0x3f372139	0.7153507
55	0x3f55e5b6	0.83553636
56	0x3f5366a9	0.8257852
57	0x3f6dc669	0.92880875
58	0x3f695083	0.91138476
59	0x3f3bc56c	0.73348117
60	0x3f43f1d2	0.76540864
61	0x3f81e61a	1.0148346
62	0x3f8f1cbc	1.1180644
63	0x3f783077	0.9694895

blk_2.bn.bias f4 [64]
0	0xbf566fdf	-0.8376445
1	0xbed632bb	-0.4183558
2	0xbf085da3	-0.5326788
3	0x3f261a4e	0.6488389
4	0xbe85513a	-0.26038533
5	0xbe157fd7	-0.14599548
6	0xbf49b3d4	-0.7879002
7	0xbee28347	-0.44240782
8	0xbf434694	-0.7627957
9	0xbf691459	-0.91046673
10	0xbf51e932	-0.8199645
11	0xbe5de63e	-0.21669862
12	0xbf6a7f06	-0.9160007
13	0x3f0bee8d	0.54660875
14	0xbedd3145	-0.43201652
15	0xbe341d2e	-0.17589256
16	0xbf027cda	-0.5097176
17	0xbf060692	-0.52353776
18	0xbf01fe7a	-0.50778925
19	0xbeb531b8	-0.35389495
20	0xbf2ae17f	-0.6675033
21	0xbf4f6b14	-0.81022763
22	0xbf0884d1	-0.5332766
23	0xbf428d31	-0.7599669
24	0xbf613212	-0.87967026
25	0xbf093948	-0.5360303
26	0xbf296a6d	-0.6617802
27	0xbefce851	-0.49395993
28	0xbef3b4ec	-0.4759897
29	0xbf0574f2	-0.5213157
30	0xbf305e75	-0.6889413
31	0xbec0c8e6	-0.37653273
32	0xbede4fd0	-0.43420267
33	0xbef9b9dd	-0.48774615
34	0xbf3e0053	-0.74219245
35	0xbf4f5c48	-0.81000185
36	0xbf499840	-0.7874794
37	0xbf49fbdc	-0.7889993
38	0xbf2ddede	-0.67918193
39	0xbeac6b6f	-0.33675715
40	0xbf0e0a19	-0.5548416
41	0xbeee693a	-0.46564656
42	0xbf0c5e17	-0.5483107
43	0xbf1d5d6f	-0.61470693
44	0xbe625802	-0.22103885
45	0x3e0659c9	0.13120188
46	0xbf4bfde9	-0.7968431
47	0xbf2638a3	-0.6493017
48	0xbeeea08b	-0.4660686
49	0xbf10f57b	-0.56624573
50	0xbef3a548	-0.47587037
51	0xbf525f94	-0.8217709
52	0xbe16f493	-0.14741735
53	0x3e70fab1	0.23533131
54	0xbf4cc644	-0.7999003
55	0xbf795594	-0.97396207
56	0xbeffe30c	-0.4997791
57	0xbe764ea0	-0.2405343
58	0xbedc59be	-0.43037218
59	0xbf386475	-0.72028285
60	0xbf01a6fb	-0.50645417
61	0xbee8cfc9	-0.45471027
62	0xbecd2d4c	-0.4007362
63	0xbef8ba97	-0.48579857

blk_3.conv2d.weight f4 [64, 64, 3, 3]
0	0xbddee778	-0.10883993
1	0xbd0cdabe	-0.034388296
2	0xbd0fcba0	-0.0351063
3	0xbd976ba3	-0.07393577
4	0xbd95146b	-0.07279285
5	0x3c2445cc	0.0100264065
6	0x3da758da	0.08171244
7	0x3d734110	0.05938822
8	0xbd24586f	-0.0401234
9	0xbdde3378	-0.10849661
10	0xbd94bdf5	-0.07262794
11	0x3c8ad5f2	0.01694772
12	0x3d1ce862	0.038307555
13	0x3d0f9fb6	0.03506442
14	0xbc70a411	-0.014687554
15	0xbcdd5fe6	-0.027023267
16	0x3d6bcc37	0.0575678
17	0x3c161d0f	0.009162202
18	0x3d9fcbac	0.07802519
19	0xbd4ec249	-0.050478254
20	0xbcb960ef	-0.02262923
21	0x3d2d3a36	0.042291842
22	0x3cdb5068	0.02677174
23	0xbaa07d41	-0.001224436
24	0x3e297cf1	0.16551568
25	0x3d9cbe22	0.076534525
26	0x3cdfa5ad	0.02730068
27	0xbde63f89	-0.11242587
28	0x3cac8eed	0.021064246
29	0xbd9265b7	-0.07148307
30	0xbd3faba7	-0.04679456
31	0x3cd9fad7	0.026608868
32	0xbda61b3b	-0.081106625
33	0xbe2b0eb0	-0.16704822
34	0xbd951a37	-0.07280391
35	0xbe0407dc	-0.12893623
36	0x3d7f3e83	0.062315475
37	0xbd1f7ee4	-0.03893937
38	0x3c7c3f9e	0.015396027
39	0x3db42c48	0.087975085
40	0x3df8be77	0.12145703
41	0x3da142af	0.07874047
42	0x3de0e621	0.109813936
43	0x3da7d62e	0.081951484
44	0x3e0d8ace	0.13822481
45	0xbc8d2245	-0.017228255
46	0xbdb8208d	-0.089905836
47	0xbd80851d	-0.06275389
48	0xbcbf74ae	-0.023371067
49	0xbd67328e	-0.056444697
50	0x3cd6de8a	0.026229162
51	0xbd416c4d	-0.047222424
52	0xbdb5c6ff	-0.08875846
53	0xbe252d8d	-0.16130657
54	0xbd40c8a5	-0.04706635
55	0x3c6c1dc5	0.0144113945
56	0x3c7de565	0.015496586
57	0xbd166ffa	-0.036727883
58	0xbd832690	-0.064038396
59	0x3d0b9db4	0.034085944
60	0x3d460326	0.048342846
61	0x3c6ec8dd	0.014574257
62	0xbc015123	-0.00789288
63	0xbc8fff74	-0.017577864
64	0xbcb00966	-0.021488857
65	0xbc4312be	-0.011906324
66	0x3c9643a6	0.018342804
67	0x3ce408e5	0.027836272
68	0x3caee2a6	0.021348309
69	0x3ac18f37	0.0014767413
70	0xbc9e3a03	-0.019314772
71	0xbba15845	-0.0049238526
72	0x3d1bdc70	0.038052022
73	0x3c933994	0.017971791
74	0xbd964e78	-0.073391855
75	0x3d3abc33	0.045589637
76	0xbd4cafc0	-0.049972296
77	0xbd5e0461	-0.054203395
78	0x3da88073	0.08227625
79	0xbc3d30e0	-0.011547297
80	0xbd07348f	-0.03300911
81	0xbc7590ae	-0.014988108
82	0x3d7ada77	0.0612435
83	0x3d5ba41a	0.053623296
84	0xbca37754	-0.019954361
85	0x3d2b9bb0	0.041896522
86	0x3dc1e88a	0.094681814
87	0x3c5d1d38	0.013495736
88	0x3db9b767	0.09068184
89	0x3cd08911	0.025455983
90	0x3d397d34	0.04528542
91	0x3cd3d3fa	0.025857914
92	0xbb668667	-0.0035175325
93	0xbd3636c2	-0.044485815
94	0xbe0d285d	-0.13784929
95	0x3ce2ac05	0.027669916
96	0x3d473ee4	0.04864396
97	0x3c0daa92	0.008646624
98	0x3a8ce4de	0.001074936
99	0x3d958247	0.07300239
100	0x3d57cbad	0.052684475
101	0xbd002dbd	-0.03129362
102	0xbcd20c25	-0.025640557
103	0xbc0a0b88	-0.008425601
104	0xbc2bb782	-0.010480763
105	0xbd86b07b	-0.0657663
106	0x3da92ae7	0.08260136
107	0xbd240114	-0.04004009
108	0x3bd63585	0.0065371417
109	0xbc893926	-0.016750883
110	0xbd0aab23	-0.033854615
111	0xbcbebfc4	-0.0232848
112	0xbd1522c7	-0.03641012
113	0xbbb892a2	-0.0056327144
114	0xbd0f9f5f	-0.035064097
115	0xbdf027b1	-0.117263205
116	0x39827b64	0.00024887465
117	0xbda4b340	-0.08042002
118	0xbcf63856	-0.03005616
119	0xbddcc31e	-0.10779403
120	0xbde5d45b	-0.11222144
121	0x3c903ff7	0.017608626
122	0xbd84eeb9	-0.06490845
123	0xbde5ad92	-0.112147465
124	0xbc84e68b	-0.016223213
125	0xbd8409ec	-0.06447205
126	0x3d6d0591	0.057866637
127	0x3b7b675c	0.0038361168
128	0x3d6fbd1a	0.05852995
129	0x3e179392	0.14802387
130	0x3dd2f9c5	0.10301546
131	0x3c603b51	0.013686017
132	0x3cb4ee82	0.022086386
133	0x3d5cafdd	0.053878654
134	0x3d30d754	0.043174103
135	0x3d3fc590	0.04681927
136	0x3cd48a4d	0.025944853
137	0x3d212b52	0.039347954
138	0x3c833ef2	0.016021226
139	0x3dae641c	0.08515188
140	0x3b69143e	0.0035565044
141	0x3ddb48a4	0.107072145
142	0x3d49c21a	0.049257375
143	0xbbbc50c4	-0.0057469327
144	0xbc64200f	-0.013923659
145	0xbcb9fc37	-0.022703273
146	0x3c006ed9	0.007838928
147	0x3ca3fc1a	0.020017672
148	0x3d82c6a5	0.06385545
149	0xbc28b73e	-0.010297595
150	0x3c61b713	0.013776558
151	0x3bd1ada1	0.006398872
152	0x3d2c1104	0.042008415
153	0x3d3c1f36	0.045928203
154	0xbc676d2f	-0.0141251525
155	0xbc332d78	-0.010936134
156	0x3d17d071	0.03706402
157	0xbdd37a0f	-0.10326015
158	0xbdaa87b9	-0.08326668
159	0xbbf9f922	-0.007628576
160	0xbcd807a8	-0.026370838
161	0xbd0c5af9	-0.034266446
162	0xbd19a6e0	-0.03751266
163	0xbd6c169b	-0.057638746
164	0x3b3addc0	0.002851352
165	0x3d6d5394	0.057941034
166	0xbd76d5ac	-0.060262367
167	0xbe094c92	-0.13408116
168	0xbd9af523	-0.07566287
169	0xbdcb0ea3	-0.09914901
170	0xbe122945	-0.14273556
171	0xbddf7d6a	-0.10912593
172	0xbd329f1c	-0.04360877
173	0x3d047c13	0.03234489
174	0xbd6d274a	-0.057898797
175	0x3b647bb5	0.0034863774
176	0xbca1c52e	-0.019747343
177	0xbd509e77	-0.050932374
178	0x3d8f79e2	0.07005669
179	0x3d1050e6	0.0352334
180	0x3da31c51	0.07964385
181	0xbc0fe731	-0.008783148
182	0xbced9aa4	-0.029004402
183	0x3cae514f	0.021279005
184	0x3cd23962	0.025662128
185	0x3ce6ad94	0.02815894
186	0x3e0b1330	0.13581538
187	0x3db82bbf	0.08992719
188	0x3c8af63a	0.016963113
189	0xbd46236c	-0.048373625
190	0xbc8e53fa	-0.017374028
191	0xbd5a8867	-0.05335274
192	0xbcd4fdc8	-0.025999919
193	0x3c8a1caa	0.016859371
194	0x3d162884	0.036659732
195	0xbc07677d	-0.00826442
196	0x3b3c2ccc	0.0028713224
197	0x3dbe4b00	0.09291649
198	0x3d843307	0.06455045
199	0xbd0bf2e7	-0.034167197
200	0xbbe19fc2	-0.0068854997
201	0x3d8e5ba3	0.06951072
202	0xbca1c486	-0.01974703
203	0xbdcdd84c	-0.10051021
204	0xbcb2d1a6	-0.021828484
205	0xbd4aa4cc	-0.04947357
206	0x3c22d29f	0.009937911
207	0x3dc95b53	0.09831872
208	0x3b8082a4	0.0039218236
209	0xbd0c08f0	-0.03418821
210	0x3c5f9ea4	0.013648663
211	0xbc2604ec	-0.010133009
212	0xbbcf4550	-0.0063254014
213	0x3d8b7efe	0.06811331
214	0x3cec9f0c	0.028884433
215	0xbca4054e	-0.02002206
216	0xbdeeb36a	-0.11655314
217	0xbcc8dd98	-0.024519727
218	0xbcd7a94d	-0.026325846
219	0xbd8564e9	-0.06513388
220	0xbd85a437	-0.06525462
221	0x3d54419e	0.05182039
222	0x3c8c24d3	0.017107403
223	0x3c28e413	0.010308283
224	0xbd1ca3e9	-0.038242254
225	0xbc8eaec0	-0.017417312
226	0xbd86672c	-0.06562647
227	0xbd1b675a	-0.03794036
228	0xbce5de18	-0.028060004
229	0x3b4e4b03	0.0031477816
230	0xbd399b48	-0.045314103
231	0x3cd35b79	0.025800453
232	0xbca3a604	-0.019976623
233	0xbcbbfaf3	-0.02294681
234	0xbcd6be91	-0.026213916
235	0x3d0ed87e	0.03487443
236	0xbd0c7b9b	-0.034297567
237	0xbc7ad05b	-0.015308465
238	0xbc20e1af	-0.009819432
239	0x3b3956b8	0.0028280448
240	0x3ba7abc5	0.005116912
241	0xbbaf94d5	-0.0053583183
242	0xbd9752df	-0.07388853
243	0xbe1ac9ad	-0.15115996
244	0xbde4a6a7	-0.11164599
245	0xbdb3fb27	-0.08788138
246	0xbc300601	-0.010743619
247	0xbd742ca1	-0.059612874
248	0xbe387c9a	-0.18016282
249	0x3ba8e1be	0.0051538637
250	0xbd604772	-0.054755636
251	0xbe15fcc8	-0.1464721
252	0xbd4dafd6	-0.05021652
253	0xbbc0c272	-0.0058825547
254	0xbb44bc74	-0.0030019553
255	0xbda31f8c	-0.079650015

blk_3.conv2d.bias f4 [64]
0	0xbcb3feff	-0.021972178
1	0xbcf274cd	-0.02959671
2	0xbc939a21	-0.01801783
3	0x3c52b3e0	0.012860268
4	0xbca290b3	-0.019844389
5	0xbbb6da5a	-0.0055802288
6	0xbd3c5c87	-0.04598668
7	0x3c4dfd28	0.012572564
8	0xbd2ed895	-0.042687017
9	0xbcb0330f	-0.021508722
10	0xbcd12f77	-0.025535328
11	0x3cb5f70e	0.022212531
12	0xbc236310	-0.009972349
13	0x3b92bd78	0.004478153
14	0xbc2e5d4c	-0.010642361
15	0xbc3cb44e	-0.011517597
16	0xbc379b64	-0.011206482
17	0xbc520c94	-0.012820382
18	0x3c4a8ca8	0.012362637
19	0xbb91c000	-0.004447937
20	0xbcacb984	-0.021084554
21	0xbc4906ab	-0.012269656
22	0xbcac26d5	-0.02101461
23	0xbd2446e1	-0.040106658
24	0x3c0a95a7	0.008458531
25	0xbc8f73d7	-0.017511291
26	0x3c81ec04	0.015859611
27	0xbc7343be	-0.014847694
28	0xbc31c2b1	-0.010849641
29	0xbc16d453	-0.0092058955
30	0x3c8e8f21	0.017402234
31	0xbbec20dc	-0.0072060656
32	0x3ca22895	0.019794742
33	0xbc9c5620	-0.019084036
34	0xbc399605	-0.011327271
35	0xbc602b5e	-0.013682215
36	0xbcaea01c	-0.02131658
37	0x3b28fbe5	0.0025784906
38	0xbacc5711	-0.0015589913
39	0xbbb4da80	-0.0055192113
40	0x3c2f091c	0.010683324
41	0xbbd443bc	-0.006477801
42	0xbc91d6f1	-0.017802687
43	0xbc7ceb50	-0.015436962
44	0xbceb7f2d	-0.028747166
45	0xbc6a3ae9	-0.014296272
46	0xbb8b3ca7	-0.0042491737
47	0xbacfed45	-0.0015863559
48	0xbc8de1b4	-0.017319538
49	0xbc3267bc	-0.01088899
50	0xbc379426	-0.011204755
51	0xbc89c314	-0.016816653
52	0x3c4949e3	0.012285682
53	0x3d00453b	0.031316023
54	0xbc460d65	-0.012088154
55	0x3c58d33a	0.013233954
56	0xbd0a8199	-0.033815
57	0x3bfd9376	0.007738526
58	0x3cb1bb7b	0.021695843
59	0xbc948816	-0.018131297
60	0x3c6bb2e4	0.014385913
61	0xbb1e5543	-0.0024159707
62	0xbbea92bd	-0.007158606
63	0xbc985a79	-0.018597828

blk_3.bn.weight f4 [64]
0	0x3f3e81b1	0.74416643
1	0x3f7f4592	0.9971553
2	0x3f69ba74	0.9130013
3	0x3f61be49	0.8818098
4	0x3f6edda9	0.93306977
5	0x3f7198b6	0.94373643
6	0x3f807a49	1.0037318
7	0x3f954bd5	1.1663767
8	0x3f5837a4	0.844599
9	0x3f6e3891	0.93055063
10	0x3f5c20c5	0.859875
11	0x3f945273	1.1587662
12	0x3f48fbbf	0.78509134
13	0x3f7e4c8e	0.99335563
14	0x3f858135	1.0430056
15	0x3f8b1d08	1.0868235
16	0x3f47bfe0	0.78027153
17	0x3f54a9ba	0.8307148
18	0x3f3e0a4e	0.74234474
19	0x3f855d6d	1.0419136
20	0x3f546d70	0.8297949
21	0x3f756571	0.9585791
22	0x3f74ada1	0.95577437
23	0x3f5a6ad6	0.8531927
24	0x3f940848	1.1565027
25	0x3f444ff4	0.766845
26	0x3f589528	0.84602594
27	0x3f88b72a	1.0680897
28	0x3f33449f	0.7002658
29	0x3f5874ce	0.8455323
30	0x3f519705	0.8187106
31	0x3f63175a	0.88707507
32	0x3f6f5a69	0.9349733
33	0x3f4fece2	0.8122083
34	0x3f87a42a	1.0596974
35	0x3f6030e1	0.87574583
36	0x3f4ae93f	0.79262155
37	0x3f43453d	0.76277524
38	0x3f4f31c6	0.80935323
39	0x3f52d66c	0.8235843
40	0x3f7eb704	0.9949801
41	0x3f86900c	1.051271
42	0x3f9484d4	1.1603036
43	0x3f850990	1.0393543
44	0x3f331f92	0.6997005
45	0x3f51ad41	0.8190499
46	0x3f755aa0	0.9584141
47	0x3f83e597	1.030444
48	0x3f61d3ab	0.88213605
49	0x3f81bd67	1.0135926
50	0x3f542146	0.8286327
51	0x3f98ca77	1.1936787
52	0x3f818d48	1.0121241
53	0x3f4ddce7	0.80415195
54	0x3f8c63e2	1.0967982
55	0x3f761848	0.961308
56	0x3f500efd	0.8127287
57	0x3f91a6b3	1.1378998
58	0x3f86b158	1.0522871
59	0x3f89e361	1.0772516
60	0x3f9903be	1.1954267
61	0x3f79ad67	0.97530216
62	0x3f9396bd	1.1530377
63	0x3f831928	1.0242052

blk_3.bn.bias f4 [64]
0	0xbf34201d	-0.703615
1	0xbf0730f8	-0.52809095
2	0xbf5c401f	-0.8603534
3	0xbf356752	-0.7086078
4	0xbf5dc17e	-0.8662337
5	0xbf1c12ce	-0.60966194
6	0xbf06c194	-0.52639127
7	0x3e8bc137	0.2729585
8	0xbf1ce3ff	-0.61285394
9	0xbf0a06f7	-0.5391688
10	0xbf4f352b	-0.809405
11	0xbf0ba8ba	-0.5455433
12	0xbf074975	-0.5284646
13	0xbed84f73	-0.42248115
14	0xbf332e51	-0.6999255
15	0xbf1022dd	-0.563032
16	0xbf10d991	-0.5658198
17	0xbe8b2e60	-0.2718382
18	0xbf603ee2	-0.8759595
19	0xbd3c8c42	-0.046032198
20	0xbecfb9ff	-0.4057159
21	0xbe994177	-0.29932758
22	0xbee9cd23	-0.4566432
23	0xbf6f8c66	-0.93573606
24	0xbeec1124	-0.46106827
25	0xbf370b6f	-0.7150182
26	0xbf195320	-0.59892464
27	0xbf1ce95d	-0.61293584
28	0xbf714933	-0.9425232
29	0xbddb13d8	-0.10697144
30	0xbe13653d	-0.14394088
31	0xbf397117	-0.72438186
32	0xbf0a8cbd	-0.54121
33	0xbf718d98	-0.9435668
34	0xbf0475a2	-0.51741993
35	0xbf15a7ed	-0.5845936
36	0xbf4114ed	-0.75422555
37	0x3d8b7b96	0.068106815
38	0xbe1d3664	-0.1535278
39	0xbf1c0a95	-0.60953647
40	0x3e14866a	0.145044
41	0xbf070649	-0.52743965
42	0xbf0d46ac	-0.5518596
43	0xbf343df8	-0.70407057
44	0xbf1ae1e0	-0.6050091
45	0xbf415133	-0.75514525
46	0xbf39c0ee	-0.7256001
47	0xbe682613	-0.22670774
48	0xbf0a0fa4	-0.53930116
49	0xbf4973c8	-0.78692293
50	0xbf2bfa10	-0.6717844
51	0xbf07999a	-0.5296875
52	0xbf1a6a69	-0.6031862
53	0xbf25183a	-0.6449009
54	0xbefef71f	-0.49797913
55	0xbf03ebd1	-0.515317
56	0xbf0cf7db	-0.550657
57	0xbf2f4e81	-0.6847916
58	0xbef0b57d	-0.47013465
59	0xbeed728f	-0.46376464
60	0xbef53fe9	-0.47900322
61	0xbe3e3209	-0.18573774
62	0xbf1cf9c5	-0.6131862
63	0xbf573785	-0.8406909

blk_4.conv2d.weight f4 [64, 64, 3, 3]
0	0xbceae94f	-0.028675703
1	0xbd16b190	-0.03679043
2	0xba8e30d3	-0.0010848291
3	0xbc4386d0	-0.011933997
4	0x3c08e907	0.008356339
5	0x3d356a1b	0.044290643
6	0xbc816778	-0.015796408
7	0xbb9fa849	-0.004872356
8	0xbe06232d	-0.13099356
9	0xbc0f8c83	-0.008761528
10	0xbded943f	-0.11600541
11	0x3c5bd5ca	0.0134176705
12	0x3d95bda8	0.07311565
13	0xbd2a6071	-0.04159588
14	0x3d1733c7	0.036914613
15	0x3e436243	0.19080453
16	0x3dd0c6ee	0.10194193
17	0x3e1d7709	0.1537744
18	0xbe6477ff	-0.223114
19	0xbd549689	-0.051901374
20	0xbdaa83a8	-0.08325893
21	0xbe394e56	-0.18096289
22	0x3d1a7d20	0.037716985
23	0xbdd9d161	-0.10635639
24	0xbe3d84ea	-0.18507734
25	0xbe3bf06d	-0.18353434
26	0xbe12265e	-0.14272448
27	0xbd43744d	-0.047718335
28	0x3ae3694c	0.0017350107
29	0xbddc343d	-0.10752151
30	0xbd62abc8	-0.055339605
31	0x3d23bed5	0.039976913
32	0xbdfba0e8	-0.1228655
33	0xbd855637	-0.06510585
34	0xbd540599	-0.05176315
35	0xbd9efade	-0.07762693
36	0xbe0197ce	-0.12655565
37	0xbde8c112	-0.1136495
38	0xbdc9593a	-0.09831472
39	0x3c552334	0.013008881
40	0x3d67417f	0.056458946
41	0xbcdf84d5	-0.027285019
42	0xbe5c9ad5	-0.21543439
43	0xbe27c91e	-0.16385314
44	0xbd86d8bf	-0.0658431
45	0x3e5db691	0.21651675
46	0x3daba891	0.08381761
47	0x3d99b410	0.07505047
48	0x3e4f1123	0.20221381
49	0x3dc06790	0.09394753
50	0x3da259a9	0.079272576
51	0x3e72f967	0.23727952
52	0x3e23c6a8	0.1599375
53	0x3dbd924f	0.09256422
54	0x3e06e174	0.13171941
55	0x3de12daf	0.109950416
56	0x3daeeaea	0.085409
57	0x3b99705f	0.004682585
58	0x3d38ab6a	0.04508535
59	0x3da78d3a	0.08181234
60	0xbda0fd2b	-0.07860788
61	0xbd69dc4e	-0.057094865
62	0xbd5b05d5	-0.05347236
63	0x3e2cce31	0.16875531
64	0x3e0578fa	0.1303443
65	0x3e17263d	0.1476068
66	0x3cdb8ea3	0.026801413
67	0xbdea5a81	-0.114430435
68	0xbbc6a048	-0.0060615875
69	0xbca87131	-0.020561786
70	0xbe285c87	-0.16441546
71	0xbbd015c0	-0.006350249
72	0xbd6eeffc	-0.058334336
73	0x3d4d5a9e	0.050135247
74	0x3c5961e5	0.013267969
75	0xbcabfee0	-0.020995557
76	0x3d4e8ff7	0.050430264
77	0x3b20639e	0.002447344
78	0xbe16208a	-0.1466085
79	0xbdaed842	-0.08537342
80	0xbda55175	-0.08072177
81	0x3d0f562c	0.03499429
82	0x3d5b811d	0.05358993
83	0x3d10e990	0.035378993
84	0x3cbf4895	0.02335004
85	0x3d346ce2	0.04404915
86	0x3dc7d876	0.097580835
87	0xbd145148	-0.03621033
88	0xbd5bc919	-0.05365858
89	0xbd61a5aa	-0.05508963
90	0x3b733460	0.0037110075
91	0xbcb1d5ac	-0.021708332
92	0x3d3cc1ab	0.046083134
93	0x3c7fbcb3	0.015608954
94	0xbc769552	-0.015050249
95	0x3ca056cd	0.01957264
96	0xbcc44a8c	-0.023961328
97	0xbe193518	-0.1496166
98	0xbd83dbf1	-0.06438435
99	0x3cd9987e	0.026561972
100	0x3c4657f6	0.012105932
101	0x3cf6eb05	0.030141363
102	0x3d04a925	0.03238787
103	0xbce65574	-0.02811692
104	0xbe2567d2	-0.16152886
105	0xbd8479be	-0.06468533
106	0x3d98b2bb	0.07455965
107	0xbd726c59	-0.05918536
108	0x3d5dda68	0.054163367
109	0x3d7194d8	0.05897984
110	0xbc4c5250	-0.012470797
111	0xbcb3db3e	-0.021955129
112	0xbcf0b8df	-0.029385028
113	0x3c0a396d	0.008436543
114	0xbe1689b6	-0.1470097
115	0xbe0b8dd9	-0.1362833
116	0xbe061fa3	-0.13098006
117	0xbd1205d3	-0.035650086
118	0x3c50b540	0.012738526
119	0xbd202c62	-0.039104827
120	0xbce8968d	-0.0283921
121	0x3d65ce78	0.056105107
122	0x3d9a0b53	0.07521691
123	0x3e2d156c	0.16902703
124	0x3e08fcbf	0.13377665
125	0x3c410397	0.011780641
126	0x3d8941b9	0.06701989
127	0x3d51633b	0.051120024
128	0x3db3161c	0.087444514
129	0x3d0fa2c0	0.03506732
130	0x3da394d0	0.07987368
131	0x3d950763	0.072767995
132	0x3c2bac94	0.010478158
133	0xbd8ad6da	-0.06779261
134	0x3e071b2a	0.13193956
135	0x3e582e80	0.21111488
136	0x3c53ae09	0.012919911
137	0xbbd1408b	-0.006385868
138	0x3d89f6a6	0.067364976
139	0x3dc9f4dc	0.09861156
140	0x3db37b1e	0.08763717
141	0x3e2f9917	0.17148243
142	0x3d4459ec	0.04793732
143	0xbd37d2cc	-0.044878766
144	0xbd8944a9	-0.06702549
145	0x3da642e5	0.08118228
146	0x3d6b9334	0.05751343
147	0x3cb79949	0.02241196
148	0x3cd6bc12	0.026212726
149	0x3cbf2392	0.023332391
150	0xbdfa0a65	-0.12209014
151	0xbe143468	-0.14473116
152	0xbdc8595d	-0.0978267
153	0x3df0b6cb	0.11753615
154	0x3d63ad4c	0.05558519
155	0x3c93dbc4	0.018049128
156	0xbd70c7dc	-0.05878435
157	0xbdd29b3c	-0.10283515
158	0xbe179fd5	-0.14807065
159	0xbd07432d	-0.03302305
160	0x3d30488f	0.043037947
161	0xbdbbbb71	-0.09166611
162	0xbdc42b68	-0.095785916
163	0xbe36a865	-0.17837675
164	0xbdc0d43c	-0.094154805
165	0xbd950c86	-0.07277779
166	0xbbba0aba	-0.0056775482
167	0xbdb8c155	-0.0902125
168	0xbca9db54	-0.020734467
169	0x3ccecdc9	0.02524461
170	0xbd65b5b2	-0.05608148
171	0x3e22426e	0.15845653
172	0x3c818631	0.015811058
173	0x3d9bdb53	0.07610192
174	0x3ca7f4a5	0.020502398
175	0xbdf30562	-0.11866261
176	0xbd897fa4	-0.06713799
177	0x3d5a0ef7	0.053236928
178	0x3c101dbb	0.008796151
179	0xbd75274c	-0.05985193
180	0x3d3ad496	0.045612894
181	0x3cec4e84	0.028846033
182	0x3e0da84c	0.13833731
183	0x3c9db582	0.019251589
184	0xbceaab71	-0.028646203
185	0xbc18d3b3	-0.009327817
186	0xbd9626ad	-0.073315956
187	0x3c19fda4	0.009398852
188	0x3c4ca0ce	0.012489511
189	0x3e492e0c	0.19646472
190	0x3df7b85a	0.12095709
191	0x3e5a79ad	0.21335478
192	0x3d9bc062	0.076050535
193	0x3dd206f8	0.102552354
194	0x3ecbcc6f	0.39804408
195	0x3e8b692a	0.2722867
196	0x3eaaf991	0.3339353
197	0x3e4fea38	0.20304191
198	0x3d3ab5d1	0.04558355
199	0x3d02e937	0.031960692
200	0xbb979146	-0.0046254722
201	0xbd3dbb8d	-0.04632144
202	0xbd2453c3	-0.040118944
203	0xbda8982a	-0.08232148
204	0xbcd44e66	-0.02591629
205	0xbdab93e8	-0.0837782
206	0xbd2f62eb	-0.042818945
207	0xbe0678c6	-0.13132009
208	0xbdcfd5b7	-0.10148185
209	0xbcd4d561	-0.025980653
210	0xbd65cec1	-0.05610538
211	0xbd2a2542	-0.041539438
212	0xbdbb8e15	-0.09157959
213	0xbd9c2fc2	-0.076262966
214	0xbdb6bf50	-0.08923209
215	0xbda3e68e	-0.08002959
216	0xbd9395b1	-0.07206286
217	0x3d16a9a0	0.03678286
218	0xbdd1e717	-0.10249155
219	0xbdf09874	-0.11747828
220	0x3c5cc7cb	0.013475369
221	0xbd75b1cb	-0.05998401
222	0xbdce6d90	-0.10079491
223	0xbd206c33	-0.039165687
224	0xbcec04a5	-0.028810808
225	0xbc08f76c	-0.008359771
226	0x3d75c9d2	0.060006924
227	0xbcb17601	-0.021662714
228	0x39926783	0.00027924412
229	0x3d8885b6	0.06666128
230	0xbd9342bc	-0.07190463
231	0x3c84b5af	0.016199915
232	0xbcfca72a	-0.030841429
233	0xbe0c6a7c	-0.13712496
234	0xbd602405	-0.05472185
235	0x3e0cc06c	0.13745278
236	0x3d7fc5d2	0.062444516
237	0xbc363be4	-0.0111226775
238	0x3d2f909c	0.04286252
239	0x3c9600e8	0.018310979
240	0xbdff1e9a	-0.12457009
241	0xbe0b8b0c	-0.13627261
242	0xbd742633	-0.059606742
243	0x3dd3c0cf	0.1033951
244	0x3ce16d7c	0.027518027
245	0x3da37c01	0.07982636
246	0x3dbce8be	0.092240795
247	0x3d752ead	0.059858967
248	0x3dbf7328	0.09348136
249	0x3daf2620	0.08552194
250	0x3e039206	0.12848672
251	0x3d97adf8	0.07406229
252	0x3c626551	0.013818101
253	0x3cb2268e	0.0217469
254	0x3cfc3015	0.030784646
255	0x3e256dd1	0.16155173

blk_4.conv2d.bias f4 [64]
0	0x3cde20a9	0.027115183
1	0x3d0df1bc	0.034654364
2	0x3cb616d5	0.022227684
3	0xbd9c38f9	-0.07628054
4	0x3bf5a93c	0.007496981
5	0xbca49d29	-0.020094471
6	0xba9ab3f7	-0.0011802901
7	0xbe52f3d7	-0.2060083
8	0x3c8583c6	0.016298186
9	0xbcf6a48f	-0.030107765
10	0xbd020e5e	-0.031751983
11	0xbcfbde55	-0.030745665
12	0xbc30bedb	-0.010787691
13	0x3c73bca9	0.014876523
14	0x3c095473	0.008381951
15	0x3c335478	0.010945432
16	0x3c632348	0.013863392
17	0x3bbe4fb4	0.005807841
18	0x3932c384	0.00017048238
19	0xbd8a3fa2	-0.06750418
20	0x3ac4d0e3	0.0015015866
21	0xba063b61	-0.00051205425
22	0x3ca67634	0.020320036
23	0xbe70b1e4	-0.2350536
24	0x3d4926d8	0.04910931
25	0xbcb705fc	-0.02234172
26	0xbbda23eb	-0.006657114
27	0x3c97a231	0.018509956
28	0x3baed3b3	0.005335295
29	0x3da0b1ed	0.07846437
30	0x3c2009f8	0.009768002
31	0x3ec8244c	0.39090192
32	0xbd4ddbb0	-0.05025834
33	0xbc74364f	-0.014905526
34	0x3c235ba3	0.009970578
35	0x3c0879ba	0.008329803
36	0x3c792255	0.015205939
37	0x3eab3826	0.33441275
38	0xbb901ff1	-0.004398339
39	0x3c966121	0.018356862
40	0xbec30fe5	-0.38098064
41	0xb974c706	-0.00023343795
42	0x3b9f9a93	0.0048707216
43	0xbdb72ce5	-0.0894411
44	0x3c681783	0.014165762
45	0xbe8f6a64	-0.28010857
46	0x3b47dcee	0.0030496675
47	0x3d0d8114	0.034546927
48	0x3cd33617	0.025782628
49	0x3e7308d6	0.2373384
50	0x3d181c0f	0.037136134
51	0x3d1125a0	0.035436273
52	0xbd8ac784	-0.06776336
53	0xbaa8f8ab	-0.0012891492
54	0xbeba4402	-0.3638001
55	0x3c54c564	0.012986515
56	0x3eb7c72a	0.35894138
57	0xbe71c8bd	-0.23611732
58	0x3d9166ca	0.070996836
59	0xbcce10fb	-0.025154581
60	0x3c591387	0.013249285
61	0x38dda983	0.00010569675
62	0xbbf015b7	-0.0073268074
63	0xbcf6c037	-0.030120952

blk_4.bn.weight f4 [64]
0	0x3fee38e0	1.8611107
1	0x3fa982bb	1.3243021
2	0x3fb58256	1.41804
3	0x3fcdf392	1.6089957
4	0x3fbf22e3	1.4932522
5	0x3fb6850f	1.4259356
6	0x3f92694b	1.1438383
7	0x3fd50f03	1.6645206
8	0x3f88bac6	1.0681999
9	0x3fc3690b	1.5266432
10	0x3fb9158a	1.4459698
11	0x3fbb12af	1.4615077
12	0x3f976708	1.1828318
13	0x3f68857d	0.90828687
14	0x3f79ad98	0.9753051
15	0x3fab3cbb	1.3377908
16	0x3f87c6fc	1.06076
17	0x3fd00f53	1.6254677
18	0x3fb24505	1.3927313
19	0x3fe1a2ec	1.7627845
20	0x3f886966	1.0657165
21	0x3f6b3ba0	0.91887856
22	0x3fa97a86	1.3240516
23	0x3fd44449	1.6583339
24	0x3fe7765e	1.8082998
25	0x3fab8f82	1.340317
26	0x3f99d971	1.2019483
27	0x3fa9ee75	1.3275896
28	0x3fc76aaf	1.5579432
29	0x3fb0eb0f	1.3821734
30	0x3fa220e2	1.2666285
31	0x3ffc846e	1.9727914
32	0x3f90c539	1.1310188
33	0x3f6bc0e6	0.92091215
34	0x3fc0aa86	1.505204
35	0x3f7b93bc	0.982723
36	0x3fe49051	1.7856542
37	0x3ff50562	1.9142268
38	0x3fe27279	1.7691184
39	0x3faf79b3	1.3709015
40	0x3ff05c7d	1.8778225
41	0x3fc49338	1.5357428
42	0x3f988dbb	1.1918253
43	0x3fa93a97	1.3221005
44	0x3f8c1a50	1.094553
45	0x3facdd8d	1.3505112
46	0x3fa6b097	1.3022641
47	0x3fae2398	1.3604612
48	0x3f8e20ba	1.1103737
49	0x3f9cd4d8	1.2252455
50	0x3f94b2c4	1.1617055
51	0x3f9aee1d	1.2103916
52	0x3f9d39ac	1.2283225
53	0x3f8cb63f	1.0993117
54	0x3fdfa605	1.747254
55	0x3f83af11	1.0287801
56	0x400196ab	2.024821
57	0x40078fa7	2.1181428
58	0x3fafee8c	1.3744674
59	0x3fbbc6e5	1.4670073
60	0x3f916b9d	1.1360966
61	0x3f8dd66e	1.1081064
62	0x3f987b86	1.1912696
63	0x3faba6f0	1.341032

blk_4.bn.bias f4 [64]
0	0xbeb6aca2	-0.35678583
1	0xbe8d9410	-0.27652025
2	0xbec95d7a	-0.3932913
3	0xbef15081	-0.47131732
4	0xbf0aa5aa	-0.54159033
5	0xbf12fc1d	-0.57415944
6	0xbea6b3a8	-0.32558942
7	0xbeb00279	-0.34376886
8	0xbee88b49	-0.45418766
9	0xbf0113cb	-0.50420827
10	0xbea321ee	-0.31861824
11	0xbe8663e6	-0.2624809
12	0xbf0f9d57	-0.56099457
13	0xbec49520	-0.38395023
14	0xbe939d44	-0.28830922
15	0xbebc47cd	-0.3677353
16	0xbedf5ce3	-0.43625554
17	0xbf3af3de	-0.7302836
18	0xbf28a160	-0.6587124
19	0xbefeef3b	-0.49791893
20	0xbf0b8760	-0.5450344
21	0xbe8a22a4	-0.26979554
22	0xbec626a0	-0.38701344
23	0xbee0d7a9	-0.43914536
24	0x3e715c68	0.23570406
25	0xbe47103d	-0.19439788
26	0xbe9ad3dd	-0.30239764
27	0xbecc4a21	-0.39900306
28	0xbebf7bb4	-0.37399065
29	0xbee5ad3c	-0.4485873
30	0xbf17e4e0	-0.5933361
31	0xbf47c637	-0.78036827
32	0xbe6c4ad3	-0.23075418
33	0xbeeab389	-0.458401
34	0xbe8c3a6e	-0.27388328
35	0xbeb0a211	-0.34498647
36	0xbf02700a	-0.5095221
37	0xbf4442d4	-0.7666447
38	0xbed6f223	-0.4198161
39	0xbf35a805	-0.709595
40	0xbeb3f199	-0.35145262
41	0xbf2a571b	-0.6653916
42	0xbeef501a	-0.467408
43	0xbedf228d	-0.43581048
44	0xbebfa512	-0.37430626
45	0xbe9993ed	-0.2999567
46	0xbf2fa9b5	-0.6861833
47	0xbea18943	-0.31550035
48	0xbe97ee6b	-0.29674086
49	0xbf45aadd	-0.7721384
50	0xbf024632	-0.5088836
51	0xbee7b4f7	-0.45255253
52	0xbf21665b	-0.6304681
53	0xbd3ec384	-0.046573177
54	0xbec5739d	-0.38564768
55	0xbdc1cb57	-0.09462612
56	0xbf247ae0	-0.6424999
57	0xbe93857c	-0.28812778
58	0xbf14fb71	-0.5819617
59	0xbeaa00a7	-0.33203623
60	0xbee9b097	-0.4564254
61	0xbee6a616	-0.4504859
62	0xbe9d5e7e	-0.30736154
63	0xbee37a1e	-0.44429106
