checkpoints/MetaSGD/learner_net_on_Omniglot_100.pth (torch, 454319 bytes, 18 tensors)

blk_1.conv2d.weight f4 [64, 1, 3, 3]
-0.02366092 0.15984154 -0.10313595 -0.11683675 -0.14449558 -0.03505914 -0.013805362 0.128327
-0.096030615 0.09709568 0.119490534 0.039025486 0.061841954 0.014278195 0.0709754 0.11123412
0.1087778 0.0553554 -0.030358288 -0.024532998 0.13172014 0.0024050788 0.05320496 0.11271153
0.12235035 0.14170383 -0.014668374 -0.110608734 -0.101985544 -0.06352771 -0.03404825 0.084174976
0.13476492 -0.091970764 -0.099930234 -0.057799384 0.13121943 -0.068254426 -0.117416464 0.014016144
-0.18825142 -0.025936333 -0.20026556 0.004342602 0.0631526 0.09827132 -0.05660551 -0.06647611
0.068062685 0.06769385 -0.13808492 -0.06539186 0.17944323 -0.060722157 -0.09508055 -0.17109177
0.005197107 0.064996004 0.057388127 -0.17685395 0.10741413 0.03669515 -0.13326803 -0.16379543
-0.04212458 -0.014354656 -0.08451701 0.2100192 0.027535059 -0.16587006 -0.02735145 -0.007338724
0.04410937 0.10116968 0.11225863 -0.133444 -0.18528497 -0.1383713 0.08330138 0.05012692
0.027367312 -0.013880291 0.11665369 0.14777333 0.13306329 0.07346028 -0.051566377 0.08833795
-0.01914242 0.044198494 0.09410598 -0.09664586 0.043239225 0.09464706 -0.17142761 0.04647631
0.08362507 -0.17047426 0.10810147 -0.048991367 0.13537663 0.00641571 -0.1582777 0.11901701
-0.116336815 -0.0612759 -0.09472536 -0.12226306 -0.0025841834 0.06375908 -0.024065066 -0.05658539
-0.17000996 -0.09247354 -0.11612442 0.058642834 0.13672632 -0.16418292 -0.1003389 -0.06362578
-0.054270737 -0.014060875 -0.15900123 0.0834481 0.04641775 0.071058966 -0.029638281 -0.112348795
0.004762957 -0.11249245 0.026454374 -0.13982278 0.03249438 0.13017793 -0.094403036 0.08558929
-0.11323582 -0.0036728645 0.08275125 0.13729697 -0.09929121 -0.13886005 0.0733426 0.10219621
-0.09391273 -0.040953163 0.121772304 -0.16381055 0.07780871 0.043928985 -0.15339816 0.056737173
0.08534607 -0.02446344 -0.062765144 -0.13155575 -0.067606375 -0.020116903 0.15621355 0.0127836075
-0.12707347 -0.007663099 0.05948573 0.06121722 0.04388298 0.10064049 -0.19583625 0.053027734
0.071781866 0.052723028 0.09251513 0.10426939 0.04889595 -0.20591468 -0.028346693 0.10091657
0.02637213 -0.14728212 -0.050530806 0.119259246 0.031124251 0.08824214 0.036167633 -0.019684758
-0.12480336 0.10745776 0.052187048 -0.19812 -0.017144717 -0.05367911 -0.16706158 -0.10492515
-0.17893696 0.14813028 0.07710903 -0.107180804 0.004755928 0.034490988 0.031204527 0.032034542
-0.12058254 0.043739997 0.14353164 -0.15080208 -0.048290562 -0.14558005 -0.10070881 -0.18044111
0.115999915 0.063175924 -0.09518338 -0.11781021 -0.05701449 0.08799859 -0.075245544 -0.01777129
-0.043879032 -0.16753235 -0.06926942 0.058629718 0.11658373 -0.1535233 0.05798322 -0.033929076
-0.13197258 -0.15828396 -0.08844716 0.014324975 -0.1290627 0.08578415 0.04189136 -0.18796536
-0.009900765 0.09036255 0.045265257 0.039608996 -0.16737041 0.06781969 0.121613525 -0.1352743
0.0057074456 -0.10245912 -0.13739382 0.09838286 -0.07140354 -0.14994508 -0.103059866 -0.14240511
0.04333762 -0.15198553 0.0471576 0.097539164 -0.12881377 -0.12596773 -0.08629037 -0.026285414
00000000: 8cd4 c1bc 80ad 233e f138 d3bd 1b48 efbd
00000010: a6f6 13be 2c9a 0fbd e32f 62bc 2768 033e
00000020: b3ab c4bd 1ada c63d 74b7 f43d 30d9 1f3d
00000030: fd4d 7d3d 17ef 693c 8d5b 913d b7ce e33d
00000040: e5c6 de3d 58bc 623d f2b1 f8bc 6df9 c8bc
00000050: a5e1 063e 879e 1d3b 72ed 593d 4dd5 e63d
00000060: d292 fa3d cf1a 113e 9f53 70bc d586 e2bd
00000070: ccdd d0bd d11a 82bd 2e76 0bbd ee63 ac3d
00000080: d1ff 093e 2b5b bcbd 39a8 ccbd 0cbf 6cbd
00000090: 635e 063e fac8 8bbd 0b78 f0bd f8a3 653c
000000a0: fbc4 40be 6f78 d4bc 6a12 4dbe 634c 8e3b
000000b0: 2656 813d 7942 c93d 2edb 67bd a024 88bd
000000c0: 7364 8b3d 13a3 8a3d 2266 0dbe 2bec 85bd
000000d0: f7bf 373e ccb7 78bd 97b9 c2bd ae32 2fbe
000000e0: 7e4c aa3b a01c 853d d00f 6b3d 3419 35be
000000f0: f0fb db3d a74d 163d 6a77 08be fdb9 27be
00000100: d38a 2cbd cb2f 6bbc 4117 adbd 460f 573e
00000110: 3491 e13c d7d9 29be 2610 e0bc ae79 f0bb
00000120: 07ac 343d 0d32 cf3d dae7 e53d 8ba5 08be
00000130: 58bb 3dbe 35b1 0dbe ea99 aa3d e351 4d3d
00000140: 6a31 e03c 296a 63bc 21e8 ee3d e451 173e
00000150: be41 083e 5872 963d 4437 53bd 87ea b43d
00000160: 90d0 9cbc 7b09 353d a3ba c03d 44ee c5bd
00000170: 9d1b 313d 51d6 c13d b88a 2fbe f15d 3e3d
00000180: 9f43 ab3d ce90 2ebe 4e64 dd3d 2cab 48bd
00000190: 2ca0 0a3e e03a d23b 8d13 22be 31bf f33d
000001a0: ff41 eebd 70fc 7abd 5fff c1bd 0e65 fabd
000001b0: 675b 29bb 1f94 823d 1a24 c5bc 15c6 67bd
000001c0: 1717 2ebe c462 bdbd a4d2 edbd 7833 703d
000001d0: fc01 0c3e 911f 28be 7b7e cdbd 3c4e 82bd
000001e0: fe4a 5ebd 965f 66bc 38d1 22be d6e6 aa3d
000001f0: 8a20 3e3d 5d87 913d fbcb f2bc 2017 e6bd
00000200: 9412 9c3b 7162 e6bd d8b6 d83c b42d 0fbe
00000210: d418 053d 5d4d 053e 6156 c1bd 7049 af3d
00000220: 2ee8 e7bd 71b4 70bb 7d79 a93d 9497 0c3e
00000230: 3159 cbbd 5431 0ebe a534 963d 3f4c d13d
00000240: 5155 c0bd 81be 27bd c263 f93d f4bd 27be
00000250: 2c5a 9f3d e1ee 333d 6814 1dbe 3d65 683d
00000260: ecc9 ae3d 8d67 c8bc 038b 80bd 8db6 06be
00000270: 3675 8abd 34cc a4bc 72f6 1f3e 5672 513c
00000280: 8c1f 02be bc1a fbbb 4fa7 733d e8be 7a3d
00000290: a4be 333d 9a1c ce3d 4c89 48be 9c33 593d
000002a0: 5f02 933d 1af4 573d 9378 bd3d 318b d53d
000002b0: 1f47 483d 4cdb 52be 5337 e8bc 59ad ce3d
000002c0: 5d0a d83c 20d1 16be 64f9 4ebd 313e f43d
000002d0: 49f8 fe3c 4cb8 b43d 8324 143d ee41 a1bc
000002e0: e798 ffbd d012 dc3d 16c2 553d f8df 4abe
000002f0: 1473 8cbc a0de 5bbd 3112 2bbe ffe2 d6bd
00000300: 403b 37be 77af 173e 57eb 9d3d 9c81 dbbd
00000310: 9ed7 9b3b 6c46 0d3d a3a0 ff3c a736 033d
00000320: fbf3 f6bd b628 333d f5f9 123e dc6b 1abe
00000330: 53cc 45bd f012 15be 6c40 cebd 8ec5 38be
00000340: 5d91 ed3d 6162 813d 81ef c2bd 7b46 f1bd
00000350: 0788 69bd 9b38 b43d 561a 9abd 1995 91bc
00000360: 80ba 33bd 9a8d 2bbe 20dd 8dbd b725 703d
00000370: 73c3 ee3d 3635 1dbe d07f 6d3d 37f9 0abd
00000380: d223 07be 3115 22be c923 b5bd 4db3 6a3c
00000390: 0329 04be 9aaf af3d 4696 2b3d fe79 40be
000003a0: d136 22bc 0010 b93d 1068 393d 0b3d 223d
000003b0: 2663 2bbe 0de5 8a3d 8310 f93d 5985 0abe
000003c0: 8605 bb3b 16d6 d1bd f7b0 0cbe f47c c93d
000003d0: 053c 92bd 348b 19be 0d11 d3bd a5d2 11be
000003e0: ca82 313d 18a2 1bbe 5428 413d 9dc2 c73d
000003f0: c2e7 03be affd 00be 01b9 b0bd 8254 d7bc

blk_1.conv2d.bias f4 [64]
-0.0015677863 -0.024820974 0.02171684 0.06416893 -0.11569322 -0.084125906 0.040246766 0.007469275
-0.10475374 0.05480107 0.0047175125 -0.049084 0.07100086 -0.045040205 -0.032117125 0.024572553
0.030548936 0.05215087 -0.092431165 0.06038584 0.1332403 0.08743204 -0.051874574 0.08152691
-0.088856205 -0.076625444 0.012143749 0.033658072 0.012172697 0.102906786 -0.039336517 0.038313918
-0.051341932 -0.13946506 0.019902447 0.045420896 -0.09399389 -0.06693228 0.09765231 -0.101215295
-0.01917825 0.10323422 -0.036528632 -0.11092197 0.033720076 0.008395496 -0.043773647 0.07924293
0.015531932 -0.0687399 -0.122001596 -0.07687825 0.16312218 0.041888926 0.005408009 -0.17934997
0.09460368 -0.03470196 0.0029099854 -0.017399972 0.13912454 -0.0651042 -0.0014028236 0.06131578
00000000: 2e7e cdba 5b55 cbbc 84e7 b13c 006b 833d
00000010: 91f0 ecbd 344a acbd cbd9 243d d2c0 f43b
00000020: 2189 d6bd 1677 603d 5d95 9a3b 4e0c 49bd
00000030: e668 913d 147c 38bd 3f8d 03bd 614c c93c
00000040: c341 fa3c 279c 553d 8d4c bdbd 2457 773d
00000050: 2570 083e 920f b33d 6f7a 54bd 95f7 a63d
00000060: 3efa b5bd cded 9cbd 93f6 463c 0cdd 093d
00000070: fe6f 473c cbc0 d23d 541f 21bd 0eef 1c3d
00000080: eb4b 52bd eecf 0ebe 750a a33c 430b 3a3d
00000090: de7f c0bd cb13 89bd effd c73d f749 cfbd
000000a0: b51b 9dbc 766c d33d 0c9f 15bd 0f2b e3bd
000000b0: 101e 0a3d 438d 093c ff4b 33bd 1e4a a23d
000000c0: a579 7e3c 81c7 8cbd f9db f9bd 5872 9dbd
000000d0: 8009 273e b993 2b3d ab35 b13b 85a7 37be
000000e0: 93bf c13d a423 0ebd 74b5 3e3b 638a 8ebc
000000f0: aa76 0e3e 5a55 85bd f3de b7ba 4126 7b3d

blk_1.bn.weight f4 [64]
1.1376798 0.571146 0.67303485 1.1787506 1.400034 0.7124254 1.1436791 1.1030409
0.9891046 0.65641886 1.0367504 1.2104032 0.9866914 0.9283175 1.1144745 0.6602019
0.98884803 0.9809368 0.6335981 0.79923946 0.55528986 1.2450434 1.1100389 1.1751026
1.1298074 1.026455 1.0396596 1.2971604 1.1730849 0.8808729 0.9129661 0.8775843
0.8611809 0.63435763 0.6007765 0.9589266 0.6652843 1.2996879 0.76025385 1.3069727
0.8635571 0.6661544 1.0759485 1.1286004 0.35344368 1.1714282 1.1360515 1.1767467
0.73941517 0.8787848 0.8253195 1.0618949 1.1846974 0.9320664 1.2860191 0.849077
1.3288848 0.91357726 0.84062296 0.9720199 1.4976982 0.80866635 1.4114673 0.6399306
00000000: 7e9f 913f a036 123f 034c 2c3f 4de1 963f
00000010: 5034 b33f 8361 363f 1464 923f 7230 8d3f
00000020: f635 7d3f 110b 283f 3db4 843f 7eee 9a3f
00000030: cf97 7c3f 37a6 6d3f 1aa7 8e3f fe02 293f
00000040: 2525 7d3f ad1e 7b3f 7c33 223f f59a 4c3f
00000050: 7a27 0e3f 955d 9f3f c115 8e3f c369 963f
00000060: 879d 903f e162 833f 9113 853f 5a09 a63f
00000070: a527 963f e380 613f 25b8 693f 5da9 603f
00000080: 5a76 5c3f 4365 223f 7dcc 193f 377c 753f
00000090: 1250 2a3f 2c5c a63f ff9f 423f e24a a73f
000000a0: 1412 5d3f 1889 2a3f aeb8 893f fa75 903f
000000b0: 92f6 b43e 5cf1 953f 236a 913f a39f 963f
000000c0: 504a 3d3f 0af8 603f 2448 533f 2cec 873f
000000d0: 2aa4 973f e79b 6e3f 469c a43f 1c5d 593f
000000e0: e618 aa3f 33e0 693f 1133 573f 4cd6 783f
000000f0: 93b4 bf3f c204 4f3f f6aa b43f 7ed2 233f

blk_1.bn.bias f4 [64]
-0.25139073 -0.63163567 -0.6949535 -0.1961596 0.32036874 -0.4362239 -0.27734324 -0.3527781
-0.105830394 -0.72876513 -0.24865891 -0.33512503 -0.23617698 -0.23423451 -0.12692304 -0.8946101
-0.08849202 -0.35151336 -0.6559632 -0.5757426 -0.5578381 -0.39759398 -0.045060314 -0.07717808
-0.09454378 -0.09281725 -0.26583794 -0.16986153 -0.3253256 -0.6248645 -0.24348137 -0.2175517
-0.26641503 -0.7265714 -0.7330622 -0.31374186 -0.5888175 -0.27863157 -0.7301584 -0.14693308
-0.17209192 -0.51206154 -0.23535685 -0.3172011 -0.73971343 -0.41341737 -0.21509908 -0.30509958
-0.24651735 -0.2854127 -0.21699613 -0.28172663 0.010397417 -0.2917379 -0.30494058 -0.2611883
0.14027883 -0.24099037 -0.15885042 -0.1453011 0.2343801 -0.29912296 -0.117386006 -0.5984795
00000000: 49b6 80be e0b2 21bf 79e8 31bf 10de 48be
00000010: 5f07 a43e bd58 dfbe efff 8dbe 559f b4be
00000020: 9bbd d8bd 5a90 3abf 71a0 7ebe 8295 abbe
00000030: 61d8 71be 2cdb 6fbe 1df8 01be 2b05 65bf
00000040: 4e3b b5bd 8ff9 b3be 34ed 27bf de63 13bf
00000050: 7ace 0ebf 7091 cbbe 2a91 38bd 8b0f 9ebd
00000060: 2ba0 c1bd f816 bebd e91b 88be 2ef0 2dbe
00000070: 1491 a6be 1ff7 1fbf 2e53 79be dfc5 5ebe
00000080: 8d67 88be 9500 3abf f7a9 3bbf c6a2 a0be
00000090: bebc 16bf cca8 8ebe a9eb 3abf a075 16be
000000a0: dd38 30be 7716 03bf 6301 71be 2f68 a2be
000000b0: dc5d 3dbf 71ab d3be ef42 5cbe 0336 9cbe
000000c0: 0b6f 7cbe 9d21 92be 3c34 5ebe 793e 90be
000000d0: ed59 2a3c ac5e 95be 2c21 9cbe 79ba 85be
000000e0: 41a5 0f3e 2ec6 76be afa9 22be d0c9 14be
000000f0: 5601 703e a526 99be 1368 f0bd f435 19bf

blk_2.conv2d.weight f4 [64, 64, 3, 3]
0.06797325 0.092696056 -0.01174768 -0.049402922 -0.045575555 -0.08277857 -0.14669618 -0.1410232
-0.049217325 -0.010300816 -0.022144971 -0.09184297 -0.026882969 -0.08277638 -0.11413212 0.04451436
-0.043767165 -0.031994514 -0.001603692 0.013914694 -0.0049388986 0.10386065 0.026033059 0.12828341
0.04632536 0.060568262 0.11814727 -0.03776878 -0.097015 -0.09057699 0.03314309 -0.0678156
-0.064289786 -0.016370406 -0.1295706 -0.10957094 0.24159326 0.2571731 0.25807133 0.1800124
0.3013522 0.17206123 0.08851487 0.20447233 0.08870734 0.07162802 0.09989764 -0.028552106
-0.071620606 -0.01385552 -0.16175236 -0.0017963344 -0.03996681 -0.052903425 -0.13492279 -0.1321097
-0.111570135 -0.12448129 -0.1748774 -0.2691145 0.11605372 -0.025486367 -0.099165864 0.080814935
0.07986014 0.02544918 -0.013490401 -0.025000637 -0.029925367 -0.04259203 -0.033858035 -0.086265974
0.17660348 0.055890635 -0.12627289 0.03466065 -0.007181518 -0.013790983 0.035201922 -0.0034367233
0.027131127 -0.034382403 0.044593807 -0.03280696 0.08525913 0.06576397 0.005331758 0.06829461
-0.015277673 0.13424528 0.16128503 -0.029139588 0.049046457 -0.01773021 -0.062253006 0.0116828745
-0.003228401 -0.03150216 0.008328782 -0.051979166 -0.011241963 -0.059005827 -0.13544281 -0.120982334
-0.08283412 -0.11595391 -0.11024147 -0.08942352 0.056346945 0.08456647 0.01029957 0.022455936
0.11732491 0.07620895 0.028260248 0.10817022 0.046374712 -0.04732097 -0.08916239 -0.07166008
0.029386485 -0.027491603 -0.05653862 0.035487555 -0.030920988 -0.072080754 0.018021414 -0.11469461
-0.14101139 0.023547368 -0.11749037 -0.10485506 0.0044915522 -0.09048405 -0.10978533 0.07526974
-0.06110815 -0.019015932 -0.010128088 -0.077508844 -0.115116276 0.021921178 -0.06554802 -0.095272765
0.0030667586 0.082218915 -0.038253345 -0.059099335 0.008905054 0.08022293 -0.02647971 0.019440256
0.063733846 0.073317304 0.023453638 -0.03433123 0.10825513 0.051052943 0.01189485 -0.047748454
-0.06688449 -0.019361624 0.06968813 -0.100879595 -0.070876054 0.020199545 -0.02111162 -0.013411969
0.05641519 -0.0076299156 -0.027399737 0.19030249 0.018370464 0.09585897 0.03211521 0.044801924
0.03713298 0.074505 0.07095633 -0.002462162 -0.020003127 0.0116043575 -0.071962714 -0.04023348
-0.07837577 -0.033353318 0.09220805 -0.007840036 0.013853442 -0.09491571 -0.025884928 0.0681275
0.043786954 0.130728 0.12538952 0.021138197 0.10755657 0.031186892 0.120973945 -0.056571808
-0.003558268 -0.009656627 0.11943515 -0.036605112 0.06631384 0.002715044 -0.06164983 -0.012298792
0.052605506 -0.023619063 -0.07532631 -0.08386132 0.06247767 -0.031514786 0.0052020727 -0.008461564
-0.07729901 -0.041371778 -0.021825323 -0.04139367 -0.13110608 -0.16445711 0.043589305 0.047939852
0.024589008 -0.011919647 0.059921607 -0.0438992 -0.05204274 0.032011725 0.06765212 -0.038670663
0.04495264 0.033017945 0.05728954 0.06798034 0.073379874 0.023868171 0.13129872 -0.07445267
0.03170673 -0.0063402704 0.053751707 0.13319731 0.23270236 0.24821591 0.16315548 0.32692996
0.27319634 0.083778225 0.2640724 0.23843625 0.0331144 -0.04545719 -0.14667057 -0.10115722
00000000: 8f35 8b3d 6ed7 bd3d 5779 40bc b85a 4abd
00000010: 6fad 3abd d087 a9bd 8637 16be 6368 10be
00000020: 1b98 49bd c1c4 28bc 5f69 b5bc 2b18 bcbd
00000030: ac39 dcbc aa86 a9bd 1abe e9bd b154 363d
00000040: 3345 33bd ae0c 03bd f932 d2ba 75fa 633c
00000050: 7cd6 a1bb e4b4 d43d 4843 d53c ba5c 033e
00000060: a9bf 3d3d 6d16 783d 32f7 f13d 70b3 1abd
00000070: cdaf c6bd 6e80 b9bd 0cc1 073d e8e2 8abd
00000080: 5daa 83bd 3b1b 86bc 28ae 04be bb66 e0bd
00000090: 3964 773e 31ac 833e ed21 843e 2c55 383e
000000a0: d64a 9a3e d230 303e 4947 b53d 3261 513e
000000b0: 32ac b53d b6b1 923d 2297 cc3d 1be6 e9bc
000000c0: d3ad 92bd 4302 63bc 69a2 25be fb72 ebba
000000d0: 3db4 23bd 43b1 58bd 3329 0abe c447 07be
000000e0: e27e e4bd 0cf0 febd 1013 33be 60c9 89be
000000f0: 93ad ed3d c9c8 d0bc 7917 cbbd 4d82 a53d
00000100: b78d a33d cc7a d03c d806 5dbc 23ce ccbc
00000110: 0b26 f5bc fb74 2ebd b9ae 0abd 37ac b0bd
00000120: 8bd7 343e 94ed 643d ae4d 01be 53f8 0d3d
00000130: f052 ebbb 93f3 61bc e42f 103d a63a 61bb
00000140: 1942 de3c 90d4 0cbd ffa7 363d 9760 06bd
00000150: 579c ae3d 43af 863d 07b6 ae3b 0bde 8b3d
00000160: 344f 7abc 9877 093e e727 253e 25b6 eebc
00000170: f0e4 483d f23e 91bc 02fd 7ebd 8769 3f3c
00000180: 9593 53bb 6908 01bd 7275 083c 1be8 54bd
00000190: 3630 38bc 18b0 71bd 85b1 0abe 96c5 f7bd
000001a0: efa4 a9bd 3e79 edbd 48c6 e1bd ae23 b7bd
000001b0: 0ecc 663d 2f31 ad3d 87bf 283c 83f5 b73c
000001c0: 0b48 f03d 7013 9c3d 0982 e73c 5988 dd3d
000001d0: 69f3 3d3d a2d3 41bd c59a b6bd 85c2 92bd
000001e0: edbb f03c 1236 e1bc 0a95 67bd 665b 113d
000001f0: 034e fdbc 139f 93bd a5a1 933c 02e5 eabd
00000200: 4a65 10be 69e6 c03c cb9e f0bd 40be d6bd
00000210: df2d 933b b44f b9bd 22d7 e0bd 0527 9a3d
00000220: 8a4c 7abd 4dc7 9bbc 48f0 25bc f5bc 9ebd
00000230: 15c2 ebbd 0b94 b33c 0a3e 86bd 5e1e c3bd
00000240: acfb 483b 6462 a83d 8aaf 1cbd 2512 72bd
00000250: 81e6 113c eb4b a43d faeb d8bc 2c41 9f3c
00000260: e486 823d 6227 963d d821 c03c e79e 0cbd
00000270: deb4 dd3d e41c 513d 9ee2 423c e293 43bd
00000280: bcfa 88bd 459c 9ebc a6b8 8e3d f699 cebd
00000290: 7727 91bd 8479 a53c 47f2 acbc e0bd 5bbc
000002a0: 9d13 673d 5f04 fabb 6a75 e0bc a8de 423e
000002b0: a87d 963c b551 c43d 3d8b 033d 3982 373d
000002c0: c018 183d 1496 983d 8d51 913d 395c 21bb
000002d0: 99dd a3bc 3420 3e3c 3061 93bd ddcb 24bd
000002e0: 7a83 a0bd 7d9d 08bd 93d7 bc3d 7f73 00bc
000002f0: 8cf9 623c 2b63 c2bd a10c d4bc 6e86 8b3d
00000300: f359 333d 90dd 053e 1c66 003e 032a ad3c
00000310: 9e46 dc3d a77b ff3c 30c1 f73d d7b7 67bd
00000320: d531 69bb d436 1ebc 6a9a f43d 3eef 15bd
00000330: 8dcf 873d e1ee 313b 8884 7cbd df80 49bc
00000340: df78 573d c47c c1bc ae44 9abd 7cbf abbd
00000350: 96e8 7f3d a615 01bd 2676 aa3b 5fa2 0abc
00000360: f14e 9ebd 7475 29bd 05cb b2bc 698c 29bd
00000370: ac40 06be 7267 28be b38a 323d 945c 443d
00000380: e36e c93c a04a 43bc 5c70 753d a6cf 33bd
00000390: c52a 55bd ba1e 033d 328d 8a3d 2165 1ebd
000003a0: 4220 383d d33d 073d 70a8 6a3d 4739 8b3d
000003b0: 3048 963d 2f87 c33c 2c73 063e a47a 98bd
000003c0: ebde 013d 0bc2 cfbb c02a 5c3d e064 083e
000003d0: 8749 6e3e 502c 7e3e 3b12 273e 5d63 a73e
000003e0: 64e0 8b3e eb93 ab3d 7f34 873e a228 743e
000003f0: f7a2 073d 5231 3abd cf30 16be 842b cfbd

blk_2.conv2d.bias f4 [64]
8.5399665e-07 2.9874847e-05 -0.01259385 0.00083182164 -0.018697815 -0.0014888578 0.0006547337 0.00063321204
-0.0058653383 0.0019433346 0.00070884376 -0.0011024823 0.0014139569 0.0012027886 -0.00039531288 0.003660879
0.00027174415 0.0042408146 0.0019441978 -0.0033875261 -0.0018038108 0.0022366603 -0.00024767514 0.0010405023
-0.0020193167 0.0014746336 -0.00055921596 -0.004566288 -0.0005578305 -0.0010506052 -0.00041115494 -0.0020621999
-0.0013016984 0.0016158348 -0.0016198527 -0.0007801035 0.0029117833 0.0003984993 -0.0024918842 0.0007510958
-0.00071817124 -0.00020966472 0.00019474965 -0.00045148237 0.0028682044 -0.00086871954 -0.0009064052 -0.00097058114
0.00064061215 -0.0043916246 -0.001968185 0.0003020794 -0.0009994931 -0.0013826123 5.9076156e-05 0.0020637987
-4.558358e-05 -1.636064e-05 0.0002511317 0.003495471 -0.0009832875 8.1291335e-05 -0.00038257331 -0.002744706
00000000: 343e 6535 bf9b fa37 6f56 4ebc 9b0e 5a3a
00000010: 292c 99bc c725 c3ba 6fa2 2b3a 24fe 253a
00000020: 0632 c0bb 7db7 fe3a b3d1 393a 2b81 90ba
00000030: 8554 b93a e3a6 9d3a ff41 cfb9 5ceb 6f3b
00000040: e278 8e39 88f6 8a3b 74d4 fe3a 4201 5ebb
00000050: d96d ecba ef94 123b 65da 81b9 7761 883a
00000060: 8356 04bb 7e48 c13a 5998 12ba cda0 95bb
00000070: 5f3b 12ba 76b4 89ba 4890 d7b9 f925 07bb
00000080: c09d aaba 6bca d33a 3d51 d4ba dc7f 4cba
00000090: 9ed3 3e3b aced d039 e14e 23bb 30e5 443a
000000a0: a843 3cba 72d9 5bb9 b635 4c39 f0b4 ecb9
000000b0: 7cf8 3b3b c8ba 63ba d39b 6dba 996e 7eba
000000c0: c1ee 273a 9ee7 8fbb aafc 00bb 6960 9e39
000000d0: 6c01 83ba c538 b5ba 8ac8 7738 cc40 073b
000000e0: ff30 3fb8 353e 89b7 54aa 8339 4614 653b
000000f0: a7e1 80ba f47a aa38 1f94 c8b9 87e0 33bb

blk_2.bn.weight f4 [64]
1.1280018 1.0870816 1.2396169 0.895588 1.1831863 0.89737636 1.1704303 0.6296076
0.89986646 1.084952 0.9627966 0.8928913 1.0204295 1.0921154 1.0707136 1.0673156
0.9425075 1.0408729 1.0649419 0.968343 0.98037916 0.98336464 0.7477463 0.7585919
1.0881951 1.1328368 0.977878 1.1275128 0.5774688 0.93612194 0.6003285 0.7123652
0.851392 1.0339884 0.9178368 0.66236967 1.0958734 0.88529164 0.7260373 1.0067133
1.1369045 0.9228308 1.1148573 1.0281999 1.0888196 0.6549727 1.0652746 1.1496783
0.64327073 1.1146125 1.1346905 0.727808 1.0052772 1.0889099 0.6407095 0.8402025
1.041648 1.1306236 0.6052551 1.0432701 0.6588248 0.87654215 0.71899074 0.7620589
00000000: 5d62 903f 7d25 8b3f c4ab 9e3f 4145 653f
00000010: a672 973f 75ba 653f a9d0 953f f72d 213f
00000020: a65d 663f b5df 8a3f d779 763f 8694 643f
00000030: 6f9d 823f 70ca 8b3f 250d 893f cc9d 883f
00000040: 2c48 713f 533b 853f 0450 883f 54e5 773f
00000050: 21fa 7a3f c9bd 7b3f 4d6c 3f3f 1433 423f
00000060: fa49 8b3f cc00 913f 3656 7a3f 5752 903f
00000070: ffd4 133f b0a5 6f3f 21af 193f 915d 363f
00000080: d3f4 593f bb59 843f 5af7 6a3f 0f91 293f
00000090: 9445 8c3f 79a2 623f 95dd 393f fbdb 803f
000000a0: 1686 913f a43e 6c3f a5b3 8e3f 0e9c 833f
000000b0: 715e 8b3f 4aac 273f eb5a 883f a928 933f
000000c0: 64ad 243f 9fab 8e3f 8a3d 913f a051 3a3f
000000d0: ecac 803f 6661 8b3f 8a05 243f 8317 573f
000000e0: b954 853f 46b8 903f 00f2 1a3f e089 853f
000000f0: bea8 283f 1165 603f c70f 383f 4b16 433f

blk_2.bn.bias f4 [64]
-0.07394742 -0.22322045 -0.4218886 -0.40322262 -0.4116286 -0.06173623 -0.19643377 -0.6152495
-0.33597854 -0.1967306 -0.36723563 -0.32566735 -0.046922836 -0.3728193 -0.35024762 -0.0728199
-0.024208792 -0.1199065 -0.74183077 0.023045555 -0.2839864 -0.048468713 -0.73115766 -0.79986876
-0.2022378 -0.29260302 -0.05922228 -0.30901754 -0.6674515 -0.27187285 -0.7580166 -0.41998464
-0.49097335 -0.29558542 -0.3919902 -0.5881858 0.18059216 -0.7857509 -0.6913128 -0.107182555
-0.2769076 -0.510695 0.12588483 -0.27387634 -0.08761565 -0.7430618 -0.04734509 -0.11188751
-0.60563517 -0.42162085 -0.22591963 -0.70228964 -0.031912107 -0.3330069 -0.6803787 -0.22316423
0.17003459 0.110311836 -0.606816 -0.16320743 -0.74282026 -0.13236552 -0.7527708 -0.7309692
00000000: bf71 97bd e793 64be c801 d8be 3273 cebe
00000010: fcc0 d2be 21df 7cbd ef25 49be fe80 1dbf
00000020: 6105 acbe bf73 49be 4f06 bcbe dfbd a6be
00000030: 2932 40bd 2ce2 bebe a853 b3be 9a22 95bd
00000040: 8451 c6bc 8a91 f5bd 9fe8 3dbf 08ca bc3c
00000050: aa66 91be 2187 46bd 262d 3bbf 33c4 4cbf
00000060: 6d17 4fbe 10d0 95be 1093 72bd 8c37 9ebe
00000070: 1ade 2abf eb32 8bbe 600d 42bf 3a08 d7be
00000080: dc60 fbbe f956 97be f1b2 c8be 5893 16bf
00000090: 27ed 383e f926 49bf e0f9 30bf 8782 dbbd
000000a0: d5c6 8dbe e8bc 02bf f4e7 003e 8539 8cbe
000000b0: d56f b3bd 4c39 3ebf edec 41bd 4725 e5bd
000000c0: e80a 1bbf b0de d7be 7a57 67be 41c9 33bf
000000d0: 45b6 02bd e17f aabe 4c2d 2ebf 2a85 64be
000000e0: 8c1d 2e3e 2ceb e13d 4b58 1bbf d91f 27be
000000f0: 7829 3ebf d48a 07be 96b5 40bf cc20 3bbf

blk_3.conv2d.weight f4 [64, 64, 3, 3]
0.06202801 0.039409973 -0.04149931 0.032569062 -0.085529126 -0.04196756 0.0019734127 0.0045618466
0.032167822 0.13746455 0.15695429 0.015863292 0.18375649 0.22659782 0.021550061 0.10621774
0.15164623 -0.0011444496 -0.04272399 -0.022285543 -0.093150325 -0.07306832 -0.080713876 -0.12629445
0.030805666 -0.22845191 -0.17535132 0.015129325 0.029461725 -0.008858525 -0.08158879 0.015800146
-0.10979901 -0.025965579 0.035712224 -0.073831394 -0.066599354 -0.124402836 -0.086647734 0.019775618
-0.04358896 -0.1624699 -0.004033562 -0.08931604 -0.17307287 0.031728756 -0.09934892 0.0007323673
-0.011304099 -0.06922713 -0.0070754336 -0.13346763 -0.12280145 -0.10062231 -0.07355557 0.017685829
-0.03128265 -0.06867916 -0.18761939 -0.10643425 -0.13219161 -0.20396103 -0.10315999 0.070602186
0.04495901 -0.06908902 0.010041936 -0.0052577886 -0.13527508 -0.011750073 -0.05726816 -0.121462025
0.08117525 0.054168224 -0.062011722 -0.055882312 -0.0431971 -0.23750293 0.027314162 -0.0640357
-0.23523135 0.022715483 -0.1262168 -0.11711138 -0.036647823 -0.058437873 -0.1831125 -0.030868193
-0.06476281 -0.10943647 0.0017089236 -0.067291215 -0.09497224 -0.027463011 -0.12032836 -0.14753897
-0.034726147 -0.12028693 -0.0600313 0.06798962 -0.061400518 -0.0998207 -0.0046093785 0.035813443
-0.104106225 0.03182104 0.14125346 -0.12660263 -0.08856426 0.19019921 0.13728358 -0.10537712
0.15520021 0.17241889 -0.1489372 0.11853353 0.16316159 -0.035925 -0.04981087 -0.00014516676
0.084832095 0.038122036 -0.056310136 0.05992356 0.016274892 -0.11117717 0.101869114 0.16964212
0.18352892 0.011586238 0.107275985 0.09649251 -0.018795758 0.114556074 0.016387926 -0.01950692
-0.017765567 -0.009069853 -0.0131299 -0.14697377 -0.07659391 0.045331392 -0.118110515 0.032871675
-0.11152396 -0.2191022 -0.040089164 -0.06319516 -0.18960445 -0.019596484 -0.033664744 -0.13562295
-0.18184498 -0.053173486 0.022372318 -0.0126068555 -0.02007886 -0.015773289 -0.01942986 -0.022025762
-0.02073346 0.061289247 -0.041374847 -0.16295911 -0.09760442 -0.04693478 -0.07361705 -0.10606767
0.012312332 -0.13232137 -0.17808667 0.0077247377 -0.026792942 0.072307855 -0.014166965 -0.017048582
-0.06189129 -0.13770944 -0.09143535 -0.09680155 0.12446925 -0.017474044 -0.16226219 0.20994836
0.17663774 -0.11020611 0.1912387 0.113589086 -0.060001794 0.0031887616 0.034531485 -0.021024717
0.059740156 0.00503789 0.03222897 -0.02510996 -0.07101018 -0.016258355 0.21424244 0.07729004
-0.010951235 0.16873586 0.09677913 0.0072920946 0.13700281 0.072488576 -0.059829842 0.096975096
0.06556288 -0.03953619 0.055987686 0.05768331 -0.038536694 0.08726046 0.07624 -0.020163085
-0.021477878 -0.08986984 -0.14082469 -0.00558744 0.04098455 -0.034341272 0.026676776 0.074685656
-0.04148823 0.10957032 0.20377581 0.020425308 -0.028508484 0.079650484 0.0947739 0.022655828
0.043553963 -0.04279343 0.03664981 0.074626915 -0.057416968 0.018106136 -0.034460925 -0.197135
0.023681175 -0.08942368 -0.14892021 0.07832549 -0.13581765 -0.13798092 0.112266324 -0.08412012
-0.23278375 0.038915694 -0.09283076 -0.13685976 0.093829505 0.076331146 -0.056188956 0.056254752
00000000: 1511 7e3d 5a6c 213d 2efb 29bd 2367 053d
00000010: e529 afbd 2de6 2bbd 5f54 013b 8b7b 953b
00000020: 68c2 033d 82c3 0c3e a0b8 203e bcf3 813c
00000030: a92a 3c3e 4209 683e c189 b03c b088 d93d
00000040: 2649 1b3e 5b01 96ba 5aff 2ebd 2c90 b6bc
00000050: 99c5 bebd d8a4 95bd 514d a5bd 5553 01be
00000060: 2a5c fc3c 4cef 69be 4c8f 33be fde0 773c
00000070: b759 f13c 5923 11bc 0618 a7bd 4f6f 813c
00000080: 4ede e0bd c4b5 d4bc fb46 123d ea34 97bd
00000090: 3e65 88bd eac6 febd 5e74 b1bd 7a00 a23c
000000a0: 568a 32bd 825e 26be f82b 84bb 54eb b6bd
000000b0: 043a 31be 03f6 013d 7277 cbbd 56fc 3f3a
000000c0: d434 39bc f4c6 8dbd 0ad9 e7bb bdab 08be
000000d0: 547f fbbd 1213 cebd 4da4 96bd dfe1 903c
000000e0: 3c22 00bd a9a7 8cbd 4c1f 40be 33fa d9bd
000000f0: 3d5d 07be 29db 50be 8b45 d3bd e197 903d
00000100: f026 383d 8b7e 8dbd ef86 243c 8749 acbb
00000110: 8d85 0abe 6183 40bc 0592 6abd 15c1 f8bd
00000120: 363f a63d 80df 5d3d 0100 7ebd dae4 64bd
00000130: 71ef 30bd f833 73be f3c1 df3c 2625 83bd
00000140: 7de0 70be d215 ba3c fa3e 01be 17d8 efbd
00000150: 071c 16bd 8d5c 6fbd d881 3bbe 4bdf fcbc
00000160: 5da2 84bd 3a20 e0bd f6fd df3a facf 89bd
00000170: ce80 c2bd 1cfa e0bc b76e f6bd 7514 17be
00000180: 013d 0ebd fe58 f6bd 61e3 75bd 243e 8b3d
00000190: 1c7f 7bbd cc6e ccbd 450a 97bb 1eb1 123d
000001a0: a535 d5bd c756 023d bfa4 103e 1fa4 01be
000001b0: 2e61 b5bd 95c3 423e 1194 0c3e f6cf d7bd
000001c0: ceec 1e3e 948e 303e fe82 18be b5c1 f23d
000001d0: d513 273e 1826 13bd 7c06 4cbd e837 18b9
000001e0: 73bc ad3d da25 1c3d 75a5 66bd 6872 753d
000001f0: ec52 853c dbb0 e3bd c1a0 d03d aab6 2d3e
00000200: 01ef 3b3e 34d4 3d3c 83b3 db3d dd9d c53d
00000210: 90f9 99bc 609c ea3d f93f 863c facc 9fbc
00000220: 1889 91bc b999 14bc cb1e 57bc 4b80 16be
00000230: 45dd 9cbd 69ad 393d ede3 f1bd 73a4 063d
00000240: ad66 e4bd 545c 60be 8934 24bd 776c 81bd
00000250: ab27 42be ce88 a0bc 0be4 09bd bee0 0abe
00000260: 9235 3abe 71cc 59bd 2746 b73c fc8c 4ebc
00000270: 6c7c a4bc fc36 81bc 5f2b 9fbc 5f6f b4bc
00000280: 38d9 a9bc 6f0a 7b3d ac78 29bd c1de 26be
00000290: d3e4 c7bd af3e 40bd 89c4 96bd 023a d9bd
000002a0: aab9 493c 417f 07be 5a5c 36be cc1f fd3b
000002b0: df7c dbbc 2416 943d 8f1c 68bc 78a9 8bbc
000002c0: b981 7dbd b403 0dbe 7542 bbbd e43f c6bd
000002d0: bce9 fe3d ba25 8fbc 0f28 26be b4fc 563e
000002e0: 86e0 343e beb3 e1bd 14d4 433e 65a1 e83d
000002f0: 71c4 75bd 8bfa 503b e370 0d3d 073c acbc
00000300: 18b2 743d e214 a53b 8602 043d 67b3 cdbc
00000310: c96d 91bd 3e30 85bc 5f62 5b3e 3e4a 9e3d
00000320: cf6c 33bc 18c9 2c3e 2334 c63d 86f2 ee3b
00000330: 774a 0c3e e474 943d 2310 75bd e19a c63d
00000340: d545 863d b3f0 21bd 5853 653d 5645 6c3d
00000350: a7d8 1dbd 9db5 b23d b823 9c3d 0e2d a5bc
00000360: 60f2 afbc ae0d b8bd 5934 10be d816 b7bb
00000370: 6adf 273d 6fa9 0cbd 4189 da3c cbf4 983d
00000380: 90ef 29bd 6766 e03d 9baa 503e fa52 a73c
00000390: a08a e9bc cb1f a33d d218 c23d b798 b93c
000003a0: a465 323d 2a48 2fbd 1c1e 163d ffd5 983d
000003b0: 0e2e 6bbd 5253 943c e626 0dbd c2dd 49be
000003c0: 06ff c13c c323 b7bd 8a7e 18be 1d69 a03d
000003d0: c813 0bbe df4a 0dbe e3eb e53d 2b47 acbd
000003e0: dd5e 6ebe 1066 1f3d 0e1e bebd f724 0cbe
000003f0: af29 c03d 8153 9c3d 6426 66bd 626b 663d

blk_3.conv2d.bias f4 [64]
0.001855115 -0.0016438958 -0.0012144977 -0.00708328 -0.0028893806 -0.0016695708 -0.006751586 -0.0010763158
-0.0035344192 -0.0045781108 -0.005344846 -0.0040109362 -0.01083142 -0.0009801224 -0.0029728715 -0.0017573269
-0.0014710505 -0.0023860119 -0.0053562163 -0.0030137347 -0.0015783524 -0.005548304 -0.006297954 -0.0079980325
-0.0101761855 -0.0013267109 -0.001527456 0.0027269763 -0.0021329464 -0.005465136 -0.0011056095 -0.0035570068
0.0004360071 -0.0017052823 -0.002050644 -0.0036711954 -0.0015444726 -0.0033956023 -0.0010373952 -0.005100557
-0.0015864676 -0.0033786935 -0.0021587356 -0.0024898804 -0.002231438 -0.0023595649 -0.001030216 -0.0018539821
-0.0016028337 -0.0036452326 -0.0034597553 -0.0034055014 -0.0012248179 -0.0036995003 -0.00221931 -0.001667111
-0.00032181383 -0.0019486281 -0.0055697155 -0.012793 -0.00532901 0.0030308613 -0.0062732217 -0.0056809033
00000000: 5527 f33a fd77 d7ba c82f 9fba dc1a e8bb
00000010: c35b 3dbb 80d5 daba 693c ddbb 2a13 8dba
00000020: b7a1 67bb fa03 96bb d123 afbb 2c6e 83bb
00000030: 4576 31bc 7377 80ba 82d4 42bb 1b56 e6ba
00000040: 44d0 c0ba a35e 1cbb 3383 afbb 1482 45bb
00000050: b8e0 ceba 8cce b5bb 115f cebb 2e0a 03bc
00000060: 04ba 26bc 08e5 adba eb34 c8ba 12b7 323b
00000070: e7c8 0bbb e214 b3bb 19ea 90ba ac1c 69bb
00000080: e297 e439 c783 dfba 1964 06bb 7098 70bb
00000090: e76f caba c188 5ebb 35f9 87ba 9322 a7bb
000000a0: 05f1 cfba 126d 5dbb 9379 0dbb 432d 23bb
000000b0: 513d 12bb eea2 1abb 5008 87ba 5101 f3ba
000000c0: 2d16 d2ba dbe4 6ebb 10bd 62bb d52e 5fbb
000000d0: 128a a0ba 5173 72bb d871 11bb f682 daba
000000e0: 1fb9 a8b9 1c69 ffba 2982 b6bb bb99 51bc
000000f0: fa9e aebb 6aa1 463b 998f cdbb df26 babb

blk_3.bn.weight f4 [64]
0.9550688 0.8933704 0.63101816 0.75793725 0.8473974 0.810154 0.74288034 0.6962608
0.99979365 0.9178244 0.85808635 0.92382723 0.86982656 0.72329533 0.9527437 0.8768947
0.6545079 0.8462232 1.0989798 1.0593084 0.77888846 1.1101694 0.99282354 0.78318
1.0440105 0.7826646 0.6236657 0.7700759 0.9072769 0.70671713 0.96393293 0.87148017
0.95545423 0.7661691 0.88454914 0.8316982 0.8758345 0.967402 0.85252285 0.7587749
1.0422138 0.8551324 0.89591163 0.8525711 1.1812893 0.71327835 1.0997335 0.7477094
0.8155072 0.84644055 0.7095295 0.7248246 0.8973443 0.7698584 1.0687536 0.8050381
1.1375409 0.7361603 0.8871489 1.0939885 0.8397989 1.0839741 1.1163132 0.85572463
00000000: 647f 743f ecb3 643f 688a 213f 2d08 423f
00000010: 09ef 583f 4166 4f3f 682d 3e3f 263e 323f
00000020: 7af2 7f3f 8af6 6a3f 8cab 5b3f f17f 6c3f
00000030: f4ac 5e3f e229 393f 03e7 733f 2c7c 603f
00000040: d48d 273f 15a2 583f 5fab 8c3f 6b97 873f
00000050: 3c65 473f 081a 8e3f af29 7e3f 7c7e 483f
00000060: 23a2 853f b55c 483f 8ea8 1f3f b223 453f
00000070: 4d43 683f 6aeb 343f 4fc4 763f 5319 5f3f
00000080: a698 743f a823 443f d071 623f 2cea 543f
00000090: b136 603f a8a7 773f f03e 5a3f 123f 423f
000000a0: 4367 853f f5e9 5a3f 775a 653f 1a42 5a3f
000000b0: 7d34 973f 6999 363f 11c4 8c3f e269 3f3f
000000c0: 14c5 503f 54b0 583f baa3 353f 1b8e 393f
000000d0: 5bb8 653f 7115 453f ebcc 883f fa16 4e3f
000000e0: f19a 913f 0075 3c3f 311c 633f d107 8c3f
000000f0: 10fd 563f aabf 8a3f 5ae3 8e3f c510 5b3f

blk_3.bn.bias f4 [64]
-0.6747692 -0.32069024 -0.27987877 -0.691202 -0.2499676 -0.04838018 -0.6458842 -0.46596977
-0.5097399 -0.86146224 -0.544743 -0.43623272 -0.82259864 -0.3828525 -0.5223317 -0.73832744
-0.5955661 -0.632009 -0.4810547 -0.5071703 -0.38998377 -0.5774797 -0.7467591 -0.9489528
-0.66561747 -0.40448847 -0.49561593 -0.37624285 -0.41099855 -0.4588697 -0.6157364 -0.49351183
-0.7402288 -0.7442465 -0.4141772 -0.8342946 -0.09877498 -0.5459086 -0.16017006 -0.77716297
-0.50468653 -0.3763509 -0.6253734 -0.34402618 -0.51304376 -0.11571965 -0.61140144 -0.5520784
-0.3693579 -0.26613712 -0.24903865 -0.35697404 -0.32032475 -0.7944 -0.54119223 -0.46812183
-0.65504086 -0.394672 -0.43493128 -0.6196565 -0.8225457 -0.50924593 -0.6507469 -0.5914782
00000000: adbd 2cbf 8331 a4be 454c 8fbe 9df2 30bf
00000010: 82f7 7fbe 4c2a 46bd ab58 25bf 9793 eebe
00000020: 507e 02bf ca88 5cbf 4774 0bbf e559 dfbe
00000030: d395 52bf 3e05 c4be 88b7 05bf 0703 3dbf
00000040: 0577 18bf 58cb 21bf cd4c f6be ead5 01bf
00000050: f4ab c7be b6d5 13bf 9b2b 3fbf 92ee 72bf
00000060: e865 2abf 1d19 cfbe 5fc1 fdbe e7a2 c0be
00000070: 676e d2be f8f0 eabe e7a0 1dbf 95ad fcbe
00000080: a27f 3dbf f086 3ebf 090f d4be 5594 55bf
00000090: 894a cabd aac0 0bbf 9f03 24be 27f4 46bf
000000a0: 2333 01bf 11b1 c0be 7918 20bf 3324 b0be
000000b0: d656 03bf 6dfe ecbd ce84 1cbf 0355 0dbf
000000c0: 7b1c bdbe 2043 88be fd03 7fbe 4dc5 b6be
000000d0: 9b01 a4be cc5d 4bbf 938b 0abf aaad efbe
000000e0: c2b0 27bf 7312 cabe 50af debe cfa1 1ebf
000000f0: 5b92 52bf f15d 02bf 5997 26bf 1e6b 17bf

blk_4.conv2d.weight f4 [64, 64, 3, 3]
0.06818128 -0.018907921 0.029813385 0.027835976 -0.004803284 0.007593612 0.11127445 0.023942953
-0.04817893 -0.010825946 0.027947588 0.09621562 -0.06632801 0.089997225 -0.0011308091 -0.076171525
-0.059901915 -0.022131175 0.07752455 -0.01731411 0.058023337 -0.02159637 -0.06759386 -0.019484652
0.012169803 -0.01642732 0.06440687 0.07331451 0.053951744 0.05796444 -0.033568207 0.0969154
-0.07112245 0.004377174 0.025427192 -0.090199776 -0.04745047 -0.03431727 0.018593635 -0.095578425
-0.0050670165 -0.07961762 -0.07139111 -0.08979774 -0.20448147 0.047643088 -0.010719959 0.018198147
0.033593606 -0.043262653 0.009903682 -0.025206797 -0.04089923 -0.025180576 -0.01363906 -0.061197806
-0.042184927 -0.016955256 -0.02380671 0.019642912 0.04966172 -0.04797303 -0.016028589 0.06482396
0.062480386 0.064127505 0.032518752 0.11620772 0.08906333 -0.0897604 -0.0025013448 -0.033601377
0.07954555 0.07852984 0.08896159 0.016173545 -0.018522512 0.06377248 -0.050015423 0.05784925
-0.026993068 0.008710936 0.11567008 0.12914288 0.16025852 0.0047893445 0.04607622 0.30401266
0.031902384 -0.039256822 -0.018178381 -0.04400196 0.09998116 -0.037319925 -0.012286325 0.05972799
-0.13314176 -0.03115256 0.00011706573 -0.15835306 -0.08790474 -0.0063924785 -0.08779555 -0.029089676
0.03760352 -0.023820747 0.05738925 0.079215005 -0.1944895 -0.015359538 0.058993742 -0.09411754
0.009244574 0.0009427976 -0.04314087 0.07217201 0.027178222 -0.07832951 0.0078100422 0.0052919397
0.007889093 -0.026914036 -0.033114128 0.016964244 0.03435939 0.0987309 -0.030954067 -0.018655183
-0.06507976 -0.0735118 -0.012044754 -0.078474365 -0.042790987 -0.035226613 -0.020850062 0.012055812
0.076250434 0.023248313 -0.12389465 -0.12782717 0.0068032867 -0.0038945123 -0.10662619 -0.10064328
-0.049140107 -0.028243303 -0.0046632555 0.04538685 0.038517438 0.034912497 0.015626388 0.075916946
-0.04361051 -0.057108805 0.04499444 -0.1061568 0.04843825 6.963813e-05 0.09550392 -0.028652454
0.040516984 0.034290858 0.23276155 0.20824148 -0.007841795 0.082749166 0.16716616 0.031513907
0.17729054 0.20237471 0.030556053 0.15347366 0.19131975 0.080666535 0.1276413 0.12978552
0.14551972 0.21463615 0.19461808 0.1544626 -0.020722117 0.013958387 -0.012109828 0.042367984
0.0732159 0.053506047 -0.09276467 -0.13263749 -0.04922255 0.06873633 0.037582636 -0.038774323
0.018115932 0.019853652 -0.009013305 0.11784276 0.076441474 0.018417878 0.06637477 -0.024114937
0.0070563224 0.15536597 -0.062774 0.021065911 0.004781596 -0.06495099 0.027234113 0.0134381885
-0.030644625 0.09332449 0.09733595 -0.09776846 -0.051570345 -0.04986368 -0.08781729 -0.024716068
0.027612058 0.02253103 0.033138875 -0.0058017825 -0.011518809 0.036717802 0.02590123 -0.015449126
0.07210879 0.016950412 0.007421563 -0.058232658 -0.047279924 0.10745828 -0.090663165 0.0104371775
0.07532094 -0.03768035 -0.0029611965 0.025766138 -0.028001398 -0.059670117 -0.0074427277 0.06565441
-0.021064458 -0.01559482 0.041935865 -0.08033753 0.01937389 -0.121503554 0.12524281 0.12280945
-0.06736295 0.15639895 0.16216287 0.013722956 0.029396506 0.008747655 -0.10858908 -0.0071768845
00000000: a0a2 8b3d c9e4 9abc 333b f43c 4608 e43c
00000010: de64 9dbb d6d3 f83b dce3 e33d 0324 c43c
00000020: 4557 45bd 4f5f 31bc 57f2 e43c b20c c53d
00000030: fbd6 87bd 7750 b83d a837 94ba d1ff 9bbd
00000040: b65b 75bd 704c b5bc 31c5 9e3d 52d6 8dbc
00000050: e1a9 6d3d dfea b0bc a66e 8abd 479e 9fbc
00000060: da63 473c 9692 86bc c0e7 833d eb25 963d
00000070: 81fc 5c3d 1f6c 6d3d d17e 09bd 957b c63d
00000080: a6a8 91bd 666e 8f3b b04c d03c a9ba b8bd
00000090: 6d5b 42bd 4490 0cbd ae51 983c 9fbe c3bd
000000a0: 3709 a6bb 900e a3bd 8135 92bd e1e7 b7bd
000000b0: 9763 51be 6625 433d c4a2 2fbc 4814 953c
000000c0: 7399 093d 2e34 31bd 0e43 223c 7c7e cebc
000000d0: f385 27bd 7f47 cebc 5d76 5fbc 8daa 7abd
000000e0: 1aca 2cbd c0e5 8abc 4a06 c3bc 2cea a03c
000000f0: 166a 4b3d 5e7f 44bd 634e 83bc 6dc2 843d
00000100: 6feb 7f3d 4855 833d 6232 053d 50fe ed3d
00000110: d666 b63d 4dd4 b7bd 9aed 23bb 99a1 09bd
00000120: c7e8 a23d 41d4 a03d 7e31 b63d 627e 843c
00000130: 86bc 97bc 259b 823d f9dc 4cbd 56f3 6c3d
00000140: 9120 ddbc 50b8 0e3c 6fe4 ec3d 083e 043e
00000150: cf1a 243e efef 9c3b 6bba 3c3d 8ca7 9b3e
00000160: 13ac 023d c3cb 20bd d4ea 94bc 663b 34bd
00000170: ecc2 cc3d c7dc 18bd 954c 49bc 56a5 743d
00000180: 5056 08be a733 ffbc 2f81 f538 4e27 22be
00000190: 6607 b4bd ff77 d1bb 27ce b3bd 794d eebc
000001a0: 2606 1a3d ba23 c3bc fd10 6b3d 7a3b a23d
000001b0: 4128 47be 92a6 7bbc 6ca3 713d b2c0 c0bd
000001c0: 8e76 173c 1326 773a 7bb4 30bd ebce 933d
000001d0: dda4 de3c 396b a0bd 62eb ff3b 0268 ad3b
000001e0: 4141 013c d37a dcbc aea2 07bd 99f8 8a3c
000001f0: 6fbc 0c3d 6d33 ca3d 6293 fdbc c1d2 98bc
00000200: 8a48 85bd 5b8d 96bd 5c57 45bc 2bb7 a0bd
00000210: 9a45 2fbd c849 10bd c0cd aabc be85 453c
00000220: 3029 9c3d 3f73 be3c 7abc fdbd 20e5 02be
00000230: 1bee de3b 133b 7fbb d55e dabd 101e cebd
00000240: 2347 49bd 805e e7bc 39ce 98bb 90e7 393d
00000250: 76c4 1d3d 6800 0f3d e902 803c 587a 9b3d
00000260: efa0 32bd ecea 69bd 174c 383d bd68 d9bd
00000270: 3067 463d b00a 9238 8f97 c33d 8db8 eabc
00000280: 23f5 253d 9274 0c3d 0b59 6e3e 413d 553e
00000290: df7a 00bc 6578 a93d 9b2d 2b3e ba14 013d
000002a0: a78b 353e 513b 4f3e b050 fa3c 3328 1d3e
000002b0: 53e9 433e 7f34 a53d 67b4 023e 7fe6 043e
000002c0: 1f03 153e 94c9 5b3e f649 473e 722b 1e3e
000002d0: 6ec1 a9bc b8b1 643c 4d68 46bc 0d8a 2d3d
000002e0: 38f2 953d 2829 5b3d 67fb bdbd 1fd2 07be
000002f0: 969d 49bd a2c5 8c3d 40f0 193d d3d1 1ebd
00000300: dd67 943c 20a4 a23c 8bac 13bc 8c57 f13d
00000310: 598d 9c3d 17e1 963c 7fef 873d b08c c5bc
00000320: b938 e73b 4218 1f3e a88f 80bd 6b92 ac3c
00000330: efae 9c3b 0605 85bd 131a df3c d92b 5c3c
00000340: 700a fbbc e920 bf3d 1258 c73d d53a c8bd
00000350: 6d3b 53bd dc3d 4cbd 8dd9 b3bd 5a79 cabc
00000360: af32 e23c ff92 b83c a1bc 073d e11c bebb
00000370: 63b9 3cbc 6865 163d d12e d43c 551e 7dbc
00000380: c6ad 933d 97db 8a3c 9530 f33b 5e85 6ebd
00000390: 98a8 41bd 1613 dc3d 9cad b9bd b200 2b3c
000003a0: dd41 9a3d b656 1abd a210 42bb 8213 d33c
000003b0: 3063 e5bc a768 74bd 20e2 f3bb d275 863d
000003c0: 5f8f acbc 6a81 7fbc f1c4 2b3d 0188 a4bd
000003d0: feb5 9e3c dbd6 f8bd a73f 003e 8583 fb3d
000003e0: 96f5 89bd 0c27 203e 060e 263e 40d6 603c
000003f0: f1d0 f03c 5352 0f3c f463 debd 122c ebbb

blk_4.conv2d.bias f4 [64]
0.00041036695 0.0025437914 -0.0009871908 -0.015132838 0.0020612231 -0.024491495 0.0047308733 0.0013698381
0.0012037545 -0.017911809 -0.0059956633 0.0009909003 -0.043700363 0.0051128305 0.0011517428 0.0037821431
0.0029160904 -0.01877905 0.0012287408 0.0015617284 0.002332928 0.00033982642 0.0046890043 0.0020617635
0.0023782055 0.00043401695 0.0017869952 0.0010159878 -0.025657555 -0.024663625 0.0012573308 0.00091002084
0.0044464273 -0.030306214 -0.043687478 -0.040820375 -0.0007842069 0.00071683916 -0.005617511 -0.02294453
-0.017379174 0.003077526 -0.0004349409 0.0013889035 0.003363962 -0.005841991 0.0015922008 -0.061035924
0.0050389273 0.0012039394 -0.0006009019 -0.038537636 -0.025753442 -0.060620572 0.00013052166 0.0008837293
-0.064950235 -0.056760985 0.0031203346 -0.035807192 -0.058670208 0.002043981 0.0015491985 -0.00056799315
00000000: 8526 d739 bdb5 263b a064 81ba b9ef 77bc
00000010: 9615 073b 63a2 c8bc 7105 9b3b 248c b33a
00000020: 4cc7 9d3a c9bb 92bc 4577 c4bb 19e1 813a
00000030: 27ff 32bd 8889 a73b 13f6 963a d5dd 773b
00000040: e11b 3f3b 86d6 99bc b30d a13a e9b2 cc3a
00000050: 09e4 183b bb2a b239 38a6 993b a71e 073b
00000060: abdb 1b3b c58c e339 9c39 ea3a e52a 853a
00000070: cb2f d2bc 5f0b cabc 05cd a43a 778e 6e3a
00000080: 56b3 913b bd44 f8bc a4f1 32bd 4433 27bd
00000090: 3c93 4dba 43ea 3b3a 1913 b8bb 2bf6 bbbc
000000a0: c55e 8ebc 52b0 493b c808 e4b9 de0b b63a
000000b0: eb75 5c3b 2c6e bfbb 65b1 d03a ce00 7abd
000000c0: 961d a53b 81cd 9d3a d885 1dba a4d9 1dbd
000000d0: e2f8 d2bc 474d 78bd a4dc 0839 12aa 673a
000000e0: a104 85bd 357e 68bd 877e 4c3b 90aa 12bd
000000f0: 2c50 70bd 50f4 053b 7a0e cb3a 60e5 14ba

blk_4.bn.weight f4 [64]
1.3438277 1.4030505 1.308404 1.385375 1.7078545 1.2999268 1.1609069 1.65318
1.3321468 1.5376285 1.3972604 1.4822371 1.2831417 1.4805769 1.2881911 1.4172686
1.5888717 1.5464478 1.4558728 1.3847495 1.2668285 1.2469515 1.3032516 1.336306
1.4459764 1.04228 1.2996567 1.113588 1.349445 1.302135 1.3890003 1.3610196
1.411048 1.4522039 1.4723748 1.575283 1.0791867 1.4076705 1.2401023 1.4836329
1.3989902 1.4364375 1.1103052 0.96638036 1.4503963 1.3865675 1.1634161 1.394181
1.3924912 1.2233981 1.142486 1.7736208 1.5594845 1.4661157 1.2017412 1.5007253
1.4477738 1.7594731 1.2422686 1.5694035 1.6314695 1.2770289 1.2680807 1.4670801
00000000: 8c02 ac3f 2997 b33f c879 a73f f853 b13f
00000010: fa9a da3f 0064 a63f 9998 943f 679b d33f
00000020: c983 aa3f 03d1 c43f 6ed9 b23f f2b9 bd3f
00000030: fd3d a43f 8b83 bd3f 72e3 a43f 0f69 b53f
00000040: 2660 cb3f 00f2 c53f 0a5a ba3f 793f b13f
00000050: 7027 a23f 1b9c 9f3f f3d0 a63f 130c ab3f
00000060: c115 b93f 6e69 853f 275b a63f 0d8a 8e3f
00000070: 9dba ac3f 5cac a63f c3ca b13f e435 ae3f
00000080: 399d b43f d1e1 b93f c776 bc3f e0a2 c93f
00000090: ca22 8a3f 8c2e b43f acbb 9e3f afe7 bd3f
000000a0: 1c12 b33f 2fdd b73f 7b1e 8e3f b464 773f
000000b0: 96a6 b93f 0b7b b13f d2ea 943f 8674 b23f
000000c0: 273d b23f 4f98 9c3f fb3c 923f 0206 e33f
000000d0: 309d c73f aea9 bb3f a8d2 993f c417 c03f
000000e0: a750 b93f 6a36 e13f a802 9f3f 37e2 c83f
000000f0: fed3 d03f af75 a33f 7850 a23f 48c9 bb3f

blk_4.bn.bias f4 [64]
-0.34063768 -0.45463255 -0.3559906 -0.30156952 -0.47610888 -0.23776414 -0.23045877 -0.49348006
-0.32194382 -0.08665509 -0.047256447 -0.4676387 -0.3530944 -0.55351365 -0.24271964 -0.42568138
-0.6344745 -0.30957982 -0.28566414 -0.42057046 -0.2863272 -0.47825712 -0.49759436 -0.408009
-0.30348927 -0.16355874 -0.29471546 -0.21689774 -0.50030994 -0.29523802 -0.31525102 -0.39474395
-0.24704966 -0.1613261 -0.23928642 -0.35255668 -0.2094392 -0.29450223 -0.078957126 -0.046389922
-0.0950946 -0.44201913 -0.30129012 -0.20419592 -0.3718572 -0.06774687 -0.17236859 -0.29842436
-0.4013959 -0.22771122 -0.13368411 -0.24959776 -0.36377063 -0.27249512 -0.2656434 -0.38480282
-0.36350226 -0.45638078 -0.5147666 -0.3100316 -0.1799725 -0.3688959 -0.027683765 -0.46528688
00000000: 1068 aebe 99c5 e8be 6644 b6be 5267 9abe
00000010: 8bc4 f3be 7178 73be 62fd 6bbe 6ba9 fcbe
00000020: d2d5 a4be 3978 b1bd fa8f 41bd 576e efbe
00000030: cac8 b4be 12b3 0dbf 7f8b 78be e9f2 d9be
00000040: ec6c 22bf 3f81 9ebe 9242 92be 0355 d7be
00000050: 7b99 92be 1ede f4be b0c4 febe 8ee6 d0be
00000060: f262 9bbe f17b 27be f2e4 96be 711a 5ebe
00000070: 5014 00bf 7029 97be 9568 a1be e11b cabe
00000080: 96fa 7cbe ab32 25be 8007 75be 4f82 b4be
00000090: 3b77 56be ffc8 96be 46b4 a1bd 5c03 3ebd
000000a0: f5c0 c2bd 5550 e2be b342 9abe bc18 51be
000000b0: 1164 bebe dfbe 8abd 6481 30be 14cb 98be
000000c0: c383 cdbe 212d 69be 7de4 08be 8e96 7fbe
000000d0: 2540 babe 7b84 8bbe 6902 88be e004 c5be
000000e0: f81c babe beaa e9be bec7 03bf 76bc 9ebe
000000f0: b64a 38be ecdf bcbe 10c9 e2bc 153a eebe

fcn.weight f4 [5, 64]
0.030277958 0.18665189 0.011479376 -0.14397511 0.09678336 -0.15395655 0.01594716 0.043812733
0.0615191 -0.29556826 -0.2353098 -0.0029251557 0.32320493 -0.03091015 0.009914011 0.29953575
-0.02391602 -0.078147806 0.0021490022 -0.00243509 -0.009340727 -0.097157575 -0.090548955 -0.017427351
-0.08996747 -0.03993312 -0.10969004 -0.027197465 -0.1715089 -0.12289844 0.020708375 -0.023694018
-0.09671945 -0.12994313 -0.15233096 -0.20334756 0.09724665 -0.019067813 0.013742205 -0.059808675
0.43634385 -0.0827543 -0.054417744 -0.038601734 -0.1224414 -0.027180726 -0.04604149 0.39496282
0.39591163 -0.027548045 0.12004902 -0.256134 -0.32840627 0.5386036 -0.0320879 0.031060817
-0.1309709 0.6693806 -0.059003796 -0.2251691 -0.24074014 -0.05626294 0.018762946 -0.04778749
-0.015373027 -0.048806734 -0.056925524 -0.13412556 -0.017221512 0.43955302 -0.064418726 -0.013325162
0.12547268 -0.11140535 -0.23627937 -0.025095621 -0.16280751 -0.027110856 -0.041817192 -0.12713905
-0.016918125 -0.21769093 -0.03546522 -0.035606027 0.009956654 -0.08239543 -0.1443822 -0.018943554
-0.0019004848 0.08579584 -0.017258722 -0.0078066033 0.3662843 -0.14043224 0.0077877576 -0.03420698
-0.08648562 0.47383213 -0.1896639 -0.20644516 -0.055183146 -0.0075625894 0.015782598 -0.25088587
-0.21540663 -0.0004891996 -0.017996386 0.009201022 -0.09537578 -0.041862175 0.14165425 -0.1429568
-0.051192958 -0.043830454 -0.02878209 -0.25963104 -0.21334234 -0.12897639 -0.02555003 -0.012431359
0.45758766 -0.19522108 0.21198225 -0.24219832 0.64838225 -0.0745187 0.13189796 -0.063377164
-0.029860325 -0.053591743 0.22241282 0.43385023 -0.035635795 -0.12399521 -0.14982055 0.02456041
-0.01915602 -0.22338909 0.39087155 0.008569699 -0.07594931 0.07409228 0.12156212 -0.12161213
-0.011353403 0.57768095 0.03985806 0.103292845 0.05516042 0.26654342 0.33125445 0.09105419
0.1726672 -0.079407014 0.29621723 0.08905095 -0.08629761 -0.18036398 0.076354384 0.04728752
0.0029851287 -0.06987534 -0.18227765 -0.1620832 -0.09591656 0.06344975 0.102298446 -0.11466791
-0.13080645 -0.010033094 -0.00877956 0.02164447 0.06837915 -0.048168704 -0.023190552 -0.18221092
-0.25929677 -0.06431444 -0.01849899 -0.22652186 0.5686175 -0.16569999 0.13596913 0.031681128
-0.18236652 -0.22466274 -0.091214485 -0.21027856 -0.22301152 -0.10675921 -0.2267215 -0.083183154
-0.027478034 -0.06271229 -0.008537918 -0.15444824 0.013211124 -0.09114585 -0.011581348 0.0051872833
-0.012967795 0.6789487 -0.1674005 0.053006448 -0.046714857 -0.018770143 -0.03495811 -0.07841229
0.114483796 -0.2516766 0.013619094 -0.03622771 -0.033422258 -0.045338042 -0.2566767 -0.01816773
-0.013444469 0.0493134 -0.055826716 -0.033342246 -0.1346931 -0.104371265 -0.015556814 0.051136807
0.12222631 -0.21167481 0.54616386 0.52812195 0.03648658 0.01701566 -0.04610293 0.55773896
-0.23048657 0.041663785 -0.0356376 0.020203829 -0.10287092 0.011125662 -0.03888125 -0.13521242
-0.017112294 -0.056885477 -0.093288355 -0.33886206 -0.111380115 -0.1648627 -0.017370265 0.04702443
-0.1431725 -0.20632872 -0.058892205 -0.10733741 -0.2470852 -0.12144496 -0.13319157 -0.066196084
00000000: 7b09 f83c ac21 3f3e fe13 3c3c 366e 13be
00000010: 5b36 c63d c9a6 1dbe 9ea3 823c fb74 333d
00000020: 74fb 7b3d b954 97be 0df5 70be f8b3 3fbb
00000030: 1e7b a53e 4837 fdbc 606e 223c c05c 993e
00000040: 87eb c3bc f50b a0bd 46d6 0c3b 0896 1fbb
00000050: d909 19bc 8dfa c6bd bb71 b9bd cec3 8ebc
00000060: dd40 b8bd e990 23bd 2ca5 e0bd 38cd debc
00000070: 07a0 2fbe 2db2 fbbd 9ca4 a93c f519 c2bc
00000080: d914 c6bd d00f 05be a6fc 1bbe 583a 50be
00000090: 4029 c73d 1a34 9cbc fc26 613c f1f9 74bd
000000a0: 7668 df3e 167b a9bd 24e5 5ebd da1c 1ebd
000000b0: 8fc2 fabd 1daa debc 0096 3cbd 9138 ca3e
000000c0: eeb4 ca3e 70ac e1bc 43dc f53d ff23 83be
000000d0: de24 a8be ede1 093f 9a6e 03bd 4173 fe3c
000000e0: 3c1d 06be 875c 2b3f f7ad 71bd bb92 66be
000000f0: 9584 76be f873 66bd c0b4 993c d1bc 43bd
00000100: 26df 7bbc 92e9 47bd bd2a 69bd 3658 09be
00000110: 2114 8dbc 180d e13e f7ed 83bd c851 5abc
00000120: e97b 003e 7d28 e4bd 38f3 71be 5595 cdbc
00000130: 03b7 26be 9617 debc 8148 2bbd bd30 02be
00000140: e197 8abc 5fea 5ebe fb43 11bd a0d7 11bd
00000150: 3c21 233c efbe a8bd edd8 13be 832f 9bbc
00000160: b019 f9ba bbb5 af3d 2a62 8dbc 89ce ffbb
00000170: 9e89 bb3e 78cd 0fbe 7230 ff3b 9e1c 0cbd
00000180: 5f1f b1bd 209a f23e 4137 42be 5c66 53be
00000190: b907 62bd 99cf f7bb 824a 813c 1d74 80be
000001a0: 8e93 5cbe a13d 00ba 286d 93bc e2bf 163c
000001b0: 6054 c3bd ac77 2bbd d00d 113e 4463 12be
000001c0: b5af 51bd 9087 33bd 6bc8 ebbc 5cee 84be
000001d0: 6a76 5abe 6312 04be 4c4e d1bc e6ac 4bbc
000001e0: ee48 ea3e 09e8 47be e011 593e d602 78be
000001f0: 61fc 253f 439d 98bd 4210 073e e3cb 81bd
00000200: a49d f4bc 0483 5bbd 30c0 633e 9e21 de3e
00000210: d7f6 11bd 33f1 fdbd 8f6a 19be ea32 c93c
00000220: 16ed 9cbc 1cc0 64be 5120 c83e ec67 0c3c
00000230: 508b 9bbd b1bd 973d 90f5 f83d c80f f9bd
00000240: a003 3abc e6e2 133f 3542 233d 338b d33d
00000250: e4ef 613d 6178 883e 2f9a a93e 9f7a ba3d
00000260: accf 303e 25a0 a2bd c9a9 973e 5860 b63d
00000270: cdbc b0bd 56b1 38be b05f 9c3d 8fb0 413d
00000280: 26a2 433b cd1a 8fbd fea6 3abe 23f9 25be
00000290: e76f c4bd f1f1 813d d981 d13d 02d7 eabd
000002a0: 20f2 05be d961 24bc 25d8 0fbc be4f b13c
000002b0: 5e0a 8c3d 8c4c 45bd 1dfa bdbc 8095 3abe
000002c0: 8cc2 84be 4ab7 83bd 328b 97bc 59f5 67be
000002d0: eb90 113f 42ad 29be 7e3b 0b3e 12c4 013d
000002e0: 4abe 3abe fd0d 66be a9ce babd 4353 57be
000002f0: 225d 64be 93a4 dabd ae29 68be ee5b aabd
00000300: 9d19 e1bc 4d6f 80bd a0e2 0bbc ae27 1ebe
00000310: 7873 583c adaa babd b2bf 3dbc 16fa a93b
00000320: e076 54bc 95cf 2d3f 096b 2bbe 4a1d 593d
00000330: 1458 3fbd d8c3 99bc 3c30 0fbd 9f96 a0bd
00000340: 7b76 ea3d c1db 80be 9f22 5f3c 8263 14bd
00000350: c7e5 08bd 62b4 39bd 216b 83be 7ed4 94bc
00000360: 3146 5cbc d9fc 493d 8eaa 64bd e191 08bd
00000370: fdec 09be 9ac0 d5bd 02e2 7ebc d474 513d
00000380: ca51 fa3d 48c1 58be 65d1 0b3f 0033 073f
00000390: f472 153d 6d64 8b3c 6dd6 3cbd fbc7 0e3f
000003a0: ac04 6cbe a5a7 2a3d bbf8 11bd 8082 a53c
000003b0: fdad d2bd 6948 363c f241 1fbd 2075 0abe
000003c0: 152f 8cbc bf00 69bd f70d bfbd 547f adbe
000003d0: 421b e4bd c5d1 28be 164c 8ebc b09c 403d
000003e0: d09b 12be d647 53be f438 71bd b7d3 dbbd
000003f0: e703 7dbe 23b8 f8bd 5f63 08be d091 87bd

fcn.bias f4 [5]
-0.029026872 -0.020702725 -0.06288344 0.026202163 0.111095905
00000000: c3c9 edbc c398 a9bc 08c9 80bd eba5 d63c
00000010: 4086 e33d
