checkpoints/MetaSGD/task_lr_on_Omniglot_100.pth (torch, 454255 bytes, 18 tensors)

blk_1.conv2d.weight f4 [64, 1, 3, 3]
0	0x3c5c2166	0.013435697
1	0xbc121e4b	-0.008918355
2	0x3c4c44dc	0.012467589
3	0xbc70762e	-0.014676614
4	0x3b1bc4e5	0.0023768481
5	0x3b11ac94	0.0022228109
6	0xbb385161	-0.0028124677
7	0xbbc82584	-0.006107988
8	0xbb03b278	-0.002009539
9	0xbd25718b	-0.040391486
10	0x3be04b2b	0.006844898
11	0x3bb8890c	0.0056315716
12	0x3aa1be28	0.0012339996
13	0x3c75f420	0.015011817
14	0xbcb44e5e	-0.022010025
15	0x3cda26e3	0.02662987
16	0xb92f6499	-0.00016726776
17	0x3c7af223	0.015316519
18	0xbd6926f1	-0.056921903
19	0xbcbabb9a	-0.022794534
20	0xbd65beca	-0.056090154
21	0xbe042539	-0.12904824
22	0x3d540b69	0.051768694
23	0x3d4eef3e	0.050521128
24	0xbd3360cd	-0.04379349
25	0x3c2f6732	0.010705756
26	0xbd98f509	-0.07468612
27	0x3c37082c	0.011171382
28	0x3bb5269a	0.0055282833
29	0x3c7ec89c	0.015550759
30	0xbd1a2abe	-0.03763842
31	0x3cd97d09	0.02654888
32	0xba88e920	-0.0010445453
33	0xbca6401f	-0.020294247
34	0x3a5a9f59	0.00083397847
35	0xbc84e297	-0.016221328
36	0x3c256611	0.010095135
37	0xbc5ae107	-0.013359315
38	0xbcbb7cb1	-0.022886606
39	0x3b0fd56e	0.0021947282
40	0xbbbe58e7	-0.005808938
41	0x3cbc5082	0.022987608
42	0xbcdb3ad7	-0.026761455
43	0xbbadca80	-0.005303681
44	0x3ba43935	0.0050117024
45	0x3c2a984a	0.010412285
46	0xbb04a242	-0.0020238315
47	0xbd4335fc	-0.047658905
48	0x3c3a6daf	0.01137869
49	0x3bec49a0	0.007210925
50	0x3c7a599a	0.015280152
51	0xbbc3625e	-0.005962654
52	0xbcc03b41	-0.023465754
53	0xbb63bd7a	-0.0034750388
54	0xbc026df8	-0.007960789
55	0x3bdd5017	0.006753932
56	0x3b1ef851	0.0024256895
57	0x3b56024f	0.0032655185
58	0xbb67185f	-0.003526233
59	0xbca2ebe3	-0.01988787
60	0x3b936855	0.0044985213
61	0xbcef2d88	-0.029196516
62	0xbc227c7c	-0.009917375
63	0xbbcf089a	-0.006318164
64	0x3c361103	0.011112454
65	0xbcc6b0ce	-0.024254229
66	0x3c269184	0.01016653
67	0x3b36e056	0.002790471
68	0x3c8176ec	0.015803777
69	0xbcb836ab	-0.022487005
70	0xb953df0c	-0.0002020562
71	0xbaf3071b	-0.0018541546
72	0x3c6930ca	0.014232824
73	0xbcb4f946	-0.02209152
74	0xbba885d5	-0.005142907
75	0x3af751e8	0.0018869014
76	0x3cb8319b	0.022484591
77	0xbc3e01d7	-0.011597118
78	0xbb74b819	-0.0037341176
79	0x3bae59fc	0.0053207856
80	0x3c65517e	0.01399648
81	0xbc981445	-0.018564353
82	0xbaeb6db7	-0.0017961775
83	0xbccbdd19	-0.024885701
84	0x3d3bc9ca	0.045846738
85	0xbde5e2d9	-0.112249084
86	0xbd8d9bb9	-0.06914467
87	0x3d08bbd2	0.033382244
88	0xbce4fe0c	-0.02795317
89	0x3c14f70b	0.009092103
90	0xbc1d8366	-0.009613847
91	0x3b848a35	0.004044796
92	0xbc495d0e	-0.012290252
93	0x3c91c8fa	0.017796028
94	0xbb881ca9	-0.004153807
95	0x3c345cb1	0.0110084275
96	0xbbc3ec32	-0.0059790844
97	0x3c5603bc	0.013062414
98	0xbc0c3979	-0.008558624
99	0xbc5e1867	-0.013555623
100	0xbc25b448	-0.010113783
101	0xbb4e1152	-0.003144343
102	0x3c9e69c6	0.019337546
103	0x3ca584ce	0.020204928
104	0x3c8f0b7b	0.017461529
105	0xbc6470cb	-0.013942908
106	0xbcf9c1c2	-0.030487899
107	0x3d17849e	0.036991708
108	0xbbb804c5	-0.005615803
109	0xbc772640	-0.015084803
110	0x3d815ef7	0.06316941
111	0xbd3e0925	-0.04639544
112	0xbb0a5139	-0.0021105541
113	0xbc81b43d	-0.015833015
114	0x3b282a6f	0.0025660058
115	0x3c619ce1	0.013770313
116	0xbc346287	-0.011009819
117	0xbd20d1ea	-0.03926269
118	0xbca07a00	-0.019589424
119	0xbc1d580b	-0.009603511
120	0x3da1334f	0.078711145
121	0x3cf50c59	0.029913114
122	0xbcdba36c	-0.026811324
123	0x3cd69de1	0.02619833
124	0xbc87205c	-0.016494922
125	0x3be0f60d	0.006865269
126	0x3d8bec2d	0.06832156
127	0x3c302224	0.010750327
128	0x3c0ed46b	0.008717637
129	0xbd6c3b11	-0.057673518
130	0x3c25242a	0.010079423
131	0x3c8df245	0.017327437
132	0x3ba35711	0.0049847444
133	0x3c2254ff	0.00990796
134	0x3b74db50	0.0037362166
135	0x3cb3a6a3	0.021930045
136	0xbcfac037	-0.030609233
137	0xbd2555f1	-0.040365163
138	0x3bb45804	0.0055036563
139	0x3ccfc93a	0.025364507
140	0xbd597e5d	-0.053099025
141	0xbd6a456c	-0.057195112
142	0xb921a81b	-0.0001541678
143	0x3cde24ec	0.027117215
144	0x3ca78dff	0.020453451
145	0x3c813476	0.015772086
146	0xbcfc0b91	-0.030767234
147	0xbb4040af	-0.002933543
148	0x3ac70229	0.0015183139
149	0x3c9a49a1	0.018833937
150	0xbd1c0bbf	-0.03809714
151	0x3bfc4c01	0.00769949
152	0xbbe43703	-0.0069645657
153	0xbd72a541	-0.05923963
154	0x3cbefa6d	0.023312772
155	0x3bd37c3e	0.00645402
156	0x3a92df33	0.0011205435
157	0xba3c74b6	-0.0007189022
158	0x3c2271b9	0.009914809
159	0x3d39cdbc	0.04536222
160	0xbcfaf6da	-0.030635286
161	0x3b605db0	0.003423553
162	0xbd0a7b42	-0.033808954
163	0x3d31eb54	0.043437317
164	0xbd0e83d5	-0.034793694
165	0xbd0871b4	-0.03331156
166	0x3c9a7562	0.0188548
167	0xb9113ddd	-0.00013851323
168	0x3cf8d7af	0.030376283
169	0xbc5f885a	-0.013643349
170	0x3c7eddef	0.015555843
171	0xbc921da2	-0.017836396
172	0xbbf491b1	-0.007463657
173	0x3bf801c9	0.007568572
174	0x3c512711	0.012765662
175	0xb9f5dfaa	-0.00046896684
176	0x3cbf6908	0.023365512
177	0xbc512b1b	-0.012766625
178	0xbc548dc2	-0.012973251
179	0xbcfbd821	-0.030742707
180	0xbd7d4ac6	-0.061838888
181	0xbd8cdeae	-0.0687841
182	0x3d2bbacd	0.041926194
183	0xbdc9f399	-0.09860916
184	0xbd28093c	-0.04102443
185	0xbdec81d0	-0.11548197
186	0xbc76cb6e	-0.01506315
187	0x3c9bb43a	0.019006837
188	0x395eea32	0.00021258814
189	0xbcd73059	-0.026268171
190	0x3b2f64e4	0.0026763016
191	0x3b557cc5	0.003257559
192	0x3c09f866	0.008421039
193	0x3bc1d7c2	0.005915613
194	0x3b31005b	0.0027008269
195	0x3d24780e	0.040153556
196	0x3c7b64af	0.015343829
197	0xbbdf6638	-0.0068176053
198	0xbb940dde	-0.0045182547
199	0xbcb0e14a	-0.021591801
200	0xbc37a8d4	-0.011209685
201	0x3ca7b139	0.020470249
202	0x3c643139	0.013927751
203	0xbd5fccd2	-0.05463869
204	0xbc600343	-0.013672653
205	0xbd8a83e3	-0.06763437
206	0x3da39a92	0.07988466
207	0xbc943689	-0.01809241
208	0x3c4f4bd2	0.012652354
209	0xbbbcd70e	-0.005762941
210	0x3b214d47	0.0024612711
211	0x3c13a52a	0.009011546
212	0xbc46dc2a	-0.012137452
213	0x3d08a121	0.03335679
214	0xbcc31dcd	-0.023817921
215	0x3ba68891	0.005082198
216	0x3c437b4b	0.011931251
217	0x3d261635	0.040548522
218	0xbd67d1fc	-0.05659674
219	0x3bf8283b	0.007573155
220	0xbcd37e06	-0.025816929
221	0xbc801530	-0.015635103
222	0xbc6ef4de	-0.014584748
223	0x3d0a6c83	0.03379489
224	0xbd44036d	-0.04785483
225	0xbcfb9192	-0.030709062
226	0x3c94d56f	0.01816818
227	0x3ca3b12e	0.019981947
228	0xbd363722	-0.044486172
229	0xbcd1bca8	-0.025602654
230	0x3cba45e9	0.022738414
231	0xbcc12ffa	-0.023582447
232	0xbcec7201	-0.028862955
233	0xbc99500e	-0.01871493
234	0xbbdf8002	-0.0068206796
235	0x3c6e2c24	0.014536891
236	0xbca20fb9	-0.019782888
237	0x3c8a89c3	0.016911393
238	0xbc8a4288	-0.016877428
239	0x3c9c35a8	0.019068554
240	0xbc765e6a	-0.0150371585
241	0xbcf5e868	-0.030018046
242	0xbce9c407	-0.028535856
243	0xb9c63067	-0.00037801565
244	0x3ce8cb1b	0.02841716
245	0xbc5a14dc	-0.013310637
246	0x3c24b379	0.010052555
247	0x3ca5ec02	0.020254139
248	0x3b670cdb	0.0035255465
249	0x3b9ac3e6	0.00472306
250	0xbc0a50e7	-0.00844214
251	0xbb9ee444	-0.0048489887
252	0xbc0ce705	-0.008600001
253	0xbbbf18d4	-0.005831817
254	0x3bb30494	0.0054631922
255	0x3c10d117	0.008838913

blk_1.conv2d.bias f4 [64]
0	0x3a82fa57	0.000999282
1	0x3a8312e7	0.001000014
2	0x3a8314f6	0.0010000754
3	0x3a831a6e	0.0010002383
4	0x3a82f454	0.0009991028
5	0x3a83128b	0.0010000033
6	0x3a831746	0.0010001443
7	0x3a8311ed	0.0009999849
8	0x3a82f774	0.000999196
9	0x3a83137e	0.0010000316
10	0x3a831c4f	0.0010002943
11	0x3a8305b4	0.0009996206
12	0x3a83128d	0.0010000035
13	0x3a830fe0	0.0009999238
14	0x3a831bd7	0.0010002804
15	0x3a831808	0.0010001669
16	0x3a831dd4	0.0010003396
17	0x3a830bb2	0.0009997992
18	0x3a831eac	0.0010003648
19	0x3a83203e	0.0010004116
20	0x3a830f74	0.0009999112
21	0x3a83052b	0.0009996047
22	0x3a831730	0.0010001417
23	0x3a830f89	0.0009999137
24	0x3a830a31	0.0009997544
25	0x3a830ce0	0.0009998344
26	0x3a831ce9	0.0010003123
27	0x3a82fd74	0.0009993748
28	0x3a830fda	0.0009999231
29	0x3a83180e	0.0010001676
30	0x3a83177a	0.0010001503
31	0x3a831a26	0.00100023
32	0x3a830e25	0.0009998722
33	0x3a83123b	0.000999994
34	0x3a83104e	0.0009999366
35	0x3a83150c	0.0010000779
36	0x3a830ac8	0.000999772
37	0x3a831578	0.0010000905
38	0x3a83160b	0.0010001076
39	0x3a82fc28	0.0009993361
40	0x3a83194b	0.0010002045
41	0x3a83263a	0.0010005899
42	0x3a831a53	0.0010002352
43	0x3a832c9e	0.0010007804
44	0x3a830f13	0.0009998999
45	0x3a830c54	0.0009998181
46	0x3a831e09	0.0010003458
47	0x3a831dbd	0.001000337
48	0x3a830f23	0.0009999018
49	0x3a830871	0.0009997023
50	0x3a830ca4	0.0009998274
51	0x3a830a8c	0.000999765
52	0x3a83220a	0.0010004651
53	0x3a831329	0.0010000217
54	0x3a83222a	0.0010004689
55	0x3a83330f	0.0010009723
56	0x3a832bed	0.0010007598
57	0x3a831fc6	0.0010003976
58	0x3a832343	0.0010005016
59	0x3a830587	0.0009996154
60	0x3a832d2e	0.0010007971
61	0x3a831bf4	0.0010002838
62	0x3a83651c	0.001002464
63	0x3a8312a7	0.0010000066

blk_1.bn.weight f4 [64]
0	0xbe4ab07f	-0.1979389
1	0x3d922931	0.07136763
2	0x3cce15d5	0.025156895
3	0xbddd651e	-0.10810302
4	0xbafc8dcb	-0.0019268332
5	0xbd6b5f9b	-0.057464223
6	0x3d763bb7	0.060115542
7	0x3ce38cef	0.027777163
8	0x390ae5ed	0.0001324636
9	0xbe33a9e3	-0.17545275
10	0xbe03c882	-0.12869456
11	0xbdf4bcba	-0.11950059
12	0x3c6461a2	0.013939293
13	0xbd556595	-0.05209883
14	0x3ddd8ad3	0.10817494
15	0xbbf45f12	-0.0074576223
16	0x3c93d66e	0.018046584
17	0xbe1d280b	-0.15347306
18	0x3d0456fe	0.032309525
19	0xbdc33f1e	-0.09533523
20	0x3df84156	0.12121837
21	0xbe5a8cdc	-0.21342796
22	0xbc42d554	-0.011891682
23	0xbe3c34ef	-0.18379568
24	0xbc66d93d	-0.01408988
25	0xbc77a253	-0.015114385
26	0xbdba65d6	-0.09101455
27	0x3d30578e	0.04305225
28	0xbe158221	-0.14600421
29	0xbd8f2b50	-0.06990683
30	0xbe195d90	-0.14977098
31	0xbd4da9d9	-0.050210807
32	0x3d90eea4	0.07076767
33	0x3c768635	0.015046646
34	0xbc135f51	-0.008994893
35	0xbcdca9a1	-0.026936354
36	0xbd74ab2e	-0.059733562
37	0xbdb8c264	-0.09021452
38	0xbd2afa2a	-0.04174248
39	0xbc5229a4	-0.012827311
40	0xbd6a0f58	-0.05714354
41	0xbdc90339	-0.09815068
42	0x3c59cefa	0.013293976
43	0x3c1b3a97	0.009474418
44	0xbd7661c6	-0.060151838
45	0xbd0a6f48	-0.033797532
46	0xbdb0d50f	-0.08634388
47	0xbca095c6	-0.019602668
48	0xbd295f6e	-0.041350774
49	0x3cb29f44	0.02180446
50	0x3c8d9b8f	0.01728609
51	0xbd476ae3	-0.04868592
52	0xbd36b54c	-0.044606492
53	0xbdf6f2f6	-0.1205806
54	0x3d1c3d53	0.03814442
55	0xbe661c8f	-0.22471832
56	0xbd5473d2	-0.051868267
57	0xbe66c517	-0.22536121
58	0xbe8b0a79	-0.27156428
59	0xbb01f941	-0.0019832405
60	0x3d08e4f6	0.03342148
61	0xbde8ae1e	-0.11361335
62	0xbd741e2c	-0.059599087
63	0xbda9e33c	-0.08295295

blk_1.bn.bias f4 [64]
0	0x3e7637de	0.24044749
1	0x3cb8cc90	0.02255848
2	0x3c186918	0.0093024
3	0xbe1d0d8b	-0.15337197
4	0x3df0c5fe	0.11756514
5	0x3adfe823	0.0017082732
6	0xbe1ea7a2	-0.15493634
7	0x3e09a23e	0.13440797
8	0xbe0669ae	-0.13126251
9	0xbdb8c95a	-0.0902278
10	0xbd0f6641	-0.035009626
11	0xbe0d8fac	-0.13824338
12	0x3cccc9f2	0.024998639
13	0x3e017158	0.12640893
14	0xbc1ac8f3	-0.009447324
15	0xbcacec80	-0.021108866
16	0xbd50d772	-0.050986715
17	0x3ddefda7	0.10888224
18	0x3ced2b75	0.028951386
19	0x3dca9713	0.09892096
20	0x3d9e5808	0.077316344
21	0x3e068d4e	0.13139841
22	0x3d6ef994	0.058343485
23	0x3dc2b5e7	0.09507351
24	0x3cfc7b53	0.030820524
25	0xbda7472d	-0.081678726
26	0xbd0ebdbd	-0.034848917
27	0x3dd7ed10	0.10543263
28	0x3e47cfd4	0.19512874
29	0xbd79fb3d	-0.061030615
30	0xbe4c9a28	-0.19980681
31	0xbd1651bd	-0.036699045
32	0xbe24bd39	-0.16087808
33	0x3d844477	0.06458371
34	0xbdb41cac	-0.08794531
35	0x3dc9c9df	0.09852957
36	0x3d9eff5e	0.07763551
37	0x3c8d06b6	0.017215114
38	0x3dd9cdb9	0.106349416
39	0xbdc071e4	-0.09396723
40	0x3ce65232	0.028115366
41	0x3caceb18	0.021108195
42	0x3e5053d2	0.20344475
43	0xbd4e2fc7	-0.050338533
44	0xbe619fdf	-0.22033642
45	0x3e0736b4	0.13204461
46	0x3cdc7a6e	0.026913848
47	0xbe3e3e1f	-0.18578385
48	0x3d8bcef7	0.06826585
49	0xbd43e66c	-0.04782717
50	0x3e46e781	0.19424249
51	0xbbcbcf6a	-0.006219794
52	0xbcfcdc15	-0.030866662
53	0xbd9b6d3f	-0.075891964
54	0x3e20adbe	0.15691277
55	0xbd981707	-0.07426267
56	0xbe5034a9	-0.20332588
57	0x3d665160	0.05622995
58	0xbde09235	-0.10965387
59	0xbe0779eb	-0.13230102
60	0x3e14f570	0.14546752
61	0x3d06a3ea	0.032871164
62	0xbd8122d1	-0.06305469
63	0xbde69608	-0.11259085

blk_2.conv2d.weight f4 [64, 64, 3, 3]
0	0xbc6188b4	-0.013765503
1	0xbc98c8be	-0.018650409
2	0xbdc02fd4	-0.093841225
3	0x3d28d97e	0.04122304
4	0x3d249626	0.040182255
5	0xbd15daff	-0.036585804
6	0x3dc2fd70	0.095209956
7	0xbb012c62	-0.0019710292
8	0xbd69a5af	-0.057042774
9	0xbcbaaf9a	-0.022788811
10	0xbaf2d4e6	-0.0018526583
11	0xbd41c98e	-0.04731136
12	0xbc975e3d	-0.018477554
13	0xbc495f7d	-0.012290833
14	0xbcb09c7a	-0.021558989
15	0x3bf89a24	0.0075867344
16	0xbd104e03	-0.035230648
17	0x3db3e37f	0.08783626
18	0xbc67af37	-0.014140896
19	0xbd0b0d02	-0.033947952
20	0xbd4ebe88	-0.050474674
21	0x3e0cfea2	0.1376901
22	0x3d493074	0.049118474
23	0x3db0eae7	0.08638554
24	0xbe0e384e	-0.13888666
25	0x3c8fc253	0.017548716
26	0x3da764c3	0.08173516
27	0x3d8e8e36	0.06960718
28	0x3d9d0b75	0.07668201
29	0x3d1d5636	0.038412295
30	0x3e90f9ed	0.28315678
31	0x3d101476	0.035175763
32	0x3c4ae2bd	0.01238316
33	0x3d8d37f1	0.068954356
34	0x3d0d073c	0.034430727
35	0x3c5abe30	0.013351008
36	0x3cd16e60	0.025565326
37	0x3dfa6dc1	0.12227965
38	0x3df31f34	0.11871186
39	0x3e05e314	0.13074905
40	0x3e1cecc7	0.15324698
41	0x3d250aa0	0.040293336
42	0x3e896c35	0.26840368
43	0xbe34ce72	-0.17656878
44	0xbd2c1e45	-0.042021055
45	0x3d8a1619	0.06742496
46	0x3ce97b89	0.028501289
47	0x3d2a8934	0.041634753
48	0x3bdf2ad5	0.006810526
49	0x3ab5150d	0.0013815478
50	0xbc988c28	-0.01862152
51	0x3df2e800	0.11860657
52	0x3ceaa8dc	0.028644972
53	0x3d0a7825	0.033805985
54	0x3dd2267f	0.10261249
55	0xbd3d0d16	-0.046155058
56	0x3d9df96c	0.07713589
57	0x3da7f7ae	0.08201538
58	0xbd91ead3	-0.07124867
59	0x3d7cec01	0.06174851
60	0xbc9a7006	-0.018852245
61	0x3e26de46	0.16295728
62	0x3e18d2d9	0.14924182
63	0x3da34c19	0.07973499
64	0xbd3a4aeb	-0.045481604
65	0x3d57a1a8	0.0526444
66	0x3d3368bd	0.043801058
67	0x3dd3059e	0.10303806
68	0xbd11ba0e	-0.035577826
69	0xbbb1e0b2	-0.005428397
70	0x3dc4ac6d	0.096032
71	0xbd5085de	-0.050908916
72	0x3e7c6bf8	0.24650562
73	0x3d8ea0b5	0.06964246
74	0x3c8f1d43	0.017470008
75	0xbd82cdc3	-0.06386902
76	0xbd88cb15	-0.0667936
77	0xbc084e05	-0.008319383
78	0x3ddac5ba	0.106822446
79	0xbd86a36e	-0.065741405
80	0xbd9de8fa	-0.077104524
81	0x3d2eced8	0.04267773
82	0xbb482337	-0.0030538568
83	0x3c9acf44	0.01889766
84	0x3d39c427	0.04535308
85	0x3cfdba06	0.030972492
86	0x3d551789	0.052024398
87	0x3c641c6a	0.01392279
88	0xbcf7d9eb	-0.030255279
89	0x3dc03e1a	0.09386845
90	0xbcae7684	-0.021296747
91	0x3caaca6a	0.020848472
92	0xbb47672a	-0.003042648
93	0xbe145879	-0.14486875
94	0xbdaf5407	-0.08560949
95	0x3dcf933a	0.10135503
96	0x3c954b01	0.018224241
97	0x3cfa1ca2	0.030531231
98	0x3d35c9af	0.044381794
99	0x3e868dbc	0.2628001
100	0x3e1aa240	0.15100956
101	0x3b5b51ab	0.0033465426
102	0x3e048097	0.12939678
103	0x3be8372e	0.007086656
104	0xbd23d4db	-0.039997917
105	0xba8f8fb7	-0.0010952865
106	0xbdeee072	-0.11663903
107	0x3e03d8f6	0.12875733
108	0x3cebbf76	0.02877782
109	0x3e3ce375	0.18446143
110	0x3dddd3e6	0.10831432
111	0x3d23372a	0.03984753
112	0xbb89f90c	-0.004210597
113	0xbd792094	-0.060822085
114	0xbd6aa6e8	-0.05728808
115	0x3d24e3bf	0.040256258
116	0xbd96bdae	-0.07360397
117	0xbd19d984	-0.037560955
118	0x3d8f649d	0.07001612
119	0x3c1a732e	0.009426875
120	0xbcc3ce7e	-0.023902174
121	0x3d5e36b5	0.05425139
122	0xbde2502b	-0.11050447
123	0x3dd0999d	0.101855494
124	0x3dad8ece	0.084745035
125	0x3e0c14dc	0.13679832
126	0x3db58afa	0.08864398
127	0x3e733425	0.2375036
128	0x3e27f889	0.16403402
129	0x3d5694fa	0.05238817
130	0x3d35bb6d	0.044368196
131	0x3da3858d	0.07984457
132	0x3d903740	0.07041788
133	0x3e13c2e4	0.14429814
134	0x3e2e1345	0.16999538
135	0x3cbc2d00	0.022970676
136	0x3cc5ffc8	0.024169818
137	0x3cf59a2a	0.029980738
138	0xbd2279b8	-0.03966686
139	0x3d1a317f	0.03764486
140	0x3d97f84f	0.07420408
141	0x3e0a3ff2	0.13500956
142	0x3da6b424	0.08139828
143	0x3d30d412	0.043170996
144	0x3e3626d7	0.17788254
145	0x3d739b8f	0.059474524
146	0x3db2a3b8	0.08722633
147	0x3d94d12e	0.0726646
148	0x3d2c1262	0.04200972
149	0x3d899e62	0.06719662
150	0x3db092cd	0.0862175
151	0x3d9610ed	0.07327447
152	0x3ccd761b	0.025080731
153	0x3db82815	0.0899202
154	0x3d9e91e9	0.07742674
155	0x3d4bd651	0.049764935
156	0x3e07c36c	0.13258141
157	0xbd33b5c9	-0.043874536
158	0x3cc88f74	0.024482466
159	0x3da9df44	0.08294538
160	0x3d06bdd4	0.032895878
161	0xbd0c18ba	-0.03420327
162	0x3d6b994d	0.057519246
163	0xbdb978ce	-0.09056245
164	0xbd07a853	-0.03311951
165	0xbc95be40	-0.018279195
166	0x3da4af9b	0.080413066
167	0x3d735473	0.05940671
168	0x3824d46d	3.9298484e-05
169	0xbb2778ae	-0.0025554108
170	0x3c85c348	0.016328469
171	0x3d847f1c	0.06469557
172	0x3dd2a306	0.102850005
173	0x3d60a0c3	0.054840814
174	0x3dbe937c	0.09305474
175	0x3d0a400c	0.033752486
176	0xbc545635	-0.0129600065
177	0x3dd68287	0.10474115
178	0x3ddfd697	0.10929602
179	0xbd83868b	-0.064221464
180	0x3e49a82f	0.19693063
181	0x3d9bca49	0.07606942
182	0xbd828fb0	-0.063750625
183	0xbe09a40e	-0.13441488
184	0xbd8bc819	-0.06825275
185	0xbd427c46	-0.047481798
186	0x3dc5ee08	0.096645415
187	0xbdd38354	-0.10327783
188	0xbdc4ed63	-0.096155904
189	0xbd6438cc	-0.05571823
190	0xbd285037	-0.041092124
191	0x3e23810e	0.15967199
192	0x3d56f7b9	0.05248234
193	0xbe006997	-0.1254028
194	0x3d7d8070	0.061890066
195	0x3da82b71	0.08211411
196	0x3d322d43	0.043500196
197	0x3dc30799	0.095229335
198	0x3d474642	0.048650987
199	0xbe0146da	-0.12624684
200	0xbccd7706	-0.025081169
201	0x3dcc8697	0.099866085
202	0xbd416f9d	-0.047225583
203	0x3d9da4d4	0.07697454
204	0xbdacbb3a	-0.08434148
205	0xbd3c5e83	-0.04598857
206	0x3dc0361f	0.09385323
207	0x3e184e18	0.1487354
208	0xbe24a34d	-0.1607792
209	0x3cc6f414	0.024286307
210	0x3e0ae4b9	0.13563813
211	0x3d2e72bb	0.042589884
212	0x3dadd625	0.084881105
213	0xbca89d8e	-0.02058294
214	0x3b5f226e	0.0034047621
215	0x3dd1777a	0.102278665
216	0x3d435833	0.047691535
217	0x3cffd08c	0.031227373
218	0x3e1b090f	0.15140174
219	0x3d98f561	0.07468677
220	0xbe26811a	-0.16260186
221	0x3e036bde	0.12834117
222	0xbdfe04c4	-0.12403253
223	0xbcb1a5f1	-0.021685572
224	0x3d910b6c	0.07082257
225	0x3e0d93d1	0.13825919
226	0x3d7869e1	0.06064785
227	0x3e309a4c	0.1724636
228	0x3d3ba464	0.045811072
229	0x3c3fca6b	0.011705975
230	0x3d66fb8a	0.05639223
231	0x3e086267	0.13318788
232	0x3d8d7b6f	0.06908309
233	0xbab169b9	-0.0013535536
234	0x3e4a3cb2	0.19749716
235	0x3d2e7fd6	0.042602383
236	0x3c245324	0.010029588
237	0x3dbc0582	0.09180738
238	0x3d608eff	0.05482387
239	0x3cc3aac5	0.02388514
240	0xbd86280c	-0.06550607
241	0xbce9084b	-0.028446337
242	0x3ca47c9c	0.02007895
243	0x3e34f07a	0.1766986
244	0x3e280174	0.16406804
245	0x3e0291ce	0.12750933
246	0xbc0ab923	-0.008466992
247	0x3e1ae748	0.1512729
248	0x3d9cd901	0.07658578
249	0x3d981afd	0.074270226
250	0x3c9a07ac	0.018802486
251	0xbd2f2af8	-0.042765588
252	0x3d77aae5	0.060465712
253	0x3e58d50a	0.21175018
254	0x3d86202a	0.065491036
255	0xbd044d95	-0.03230055

blk_2.conv2d.bias f4 [64]
0	0x3a83126f	0.001
1	0x3a83126f	0.001
2	0x3a83126f	0.001
3	0x3a83126f	0.001
4	0x3a83126f	0.001
5	0x3a83126f	0.001
6	0x3a83126f	0.001
7	0x3a83126f	0.001
8	0x3a83126f	0.001
9	0x3a83126f	0.001
10	0x3a83126f	0.001
11	0x3a83126f	0.001
12	0x3a83126f	0.001
13	0x3a83126f	0.001
14	0x3a83126f	0.001
15	0x3a83126f	0.001
16	0x3a83126f	0.001
17	0x3a83126f	0.001
18	0x3a83126f	0.001
19	0x3a83126f	0.001
20	0x3a83126f	0.001
21	0x3a83126f	0.001
22	0x3a83126f	0.001
23	0x3a83126f	0.001
24	0x3a83126f	0.001
25	0x3a83126f	0.001
26	0x3a83126f	0.001
27	0x3a83126f	0.001
28	0x3a83126f	0.001
29	0x3a83126f	0.001
30	0x3a83126f	0.001
31	0x3a83126f	0.001
32	0x3a83126f	0.001
33	0x3a83126f	0.001
34	0x3a83126f	0.001
35	0x3a83126f	0.001
36	0x3a83126f	0.001
37	0x3a83126f	0.001
38	0x3a83126f	0.001
39	0x3a83126f	0.001
40	0x3a83126f	0.001
41	0x3a83126f	0.001
42	0x3a83126f	0.001
43	0x3a83126f	0.001
44	0x3a83126f	0.001
45	0x3a83126f	0.001
46	0x3a83126f	0.001
47	0x3a83126f	0.001
48	0x3a83126f	0.001
49	0x3a83126f	0.001
50	0x3a83126f	0.001
51	0x3a83126f	0.001
52	0x3a83126f	0.001
53	0x3a83126f	0.001
54	0x3a83126f	0.001
55	0x3a83126f	0.001
56	0x3a83126f	0.001
57	0x3a83126f	0.001
58	0x3a83126f	0.001
59	0x3a83126f	0.001
60	0x3a83126f	0.001
61	0x3a83126f	0.001
62	0x3a83126f	0.001
63	0x3a83126f	0.001

blk_2.bn.weight f4 [64]
0	0xbded8e2e	-0.11599384
1	0xbde742ee	-0.11292063
2	0xbe01856e	-0.12648556
3	0x3dc67433	0.09690132
4	0xbe334f7e	-0.17510793
5	0xbe18aa55	-0.14908727
6	0xbb54ac27	-0.0032451244
7	0xbbaa7480	-0.005201876
8	0xbdbea566	-0.09308891
9	0xbdab0658	-0.08350819
10	0xbe13f47a	-0.14448729
11	0xbae68915	-0.0017588461
12	0x3c9ccad4	0.019139685
13	0x3dcf2c14	0.10115829
14	0x3cc80bca	0.024419684
15	0xbcd84612	-0.0264006
16	0x3d1a35a2	0.037648804
17	0xbdd753b9	-0.10514016
18	0xbe0a2170	-0.13489318
19	0x3d8f1e3e	0.0698819
20	0xbd779916	-0.06044873
21	0xbe144774	-0.14480382
22	0xbcc6a3cc	-0.024248026
23	0xbe24efec	-0.16107148
24	0xbe111bf6	-0.14170823
25	0x3d3dca44	0.046335474
26	0x3e18dc75	0.14927848
27	0xbd853c33	-0.06505623
28	0xbd54e847	-0.05197933
29	0x3e716208	0.23572552
30	0x3bab5142	0.0052281925
31	0xbe7c001f	-0.24609421
32	0x3dfb5aa3	0.12273147
33	0x3cd2dd63	0.025740331
34	0xbdd3dfe1	-0.10345436
35	0xbe532363	-0.20618968
36	0x3d1a1879	0.037620995
37	0xbe55a68d	-0.20864315
38	0xbe8355ab	-0.25651297
39	0xbd79976b	-0.06093542
40	0xbe37bd02	-0.17943195
41	0xbd87fc2e	-0.06639896
42	0x3dd0028f	0.10156738
43	0xbe5f5895	-0.21811135
44	0xbe10d0bb	-0.14142124
45	0x3c915b2a	0.017743666
46	0xbda10beb	-0.07863601
47	0xbd132b88	-0.035930187
48	0xbe3426be	-0.17592904
49	0xbda54d77	-0.08071416
50	0xbdc21a34	-0.09477654
51	0xbd496e7e	-0.04917764
52	0x3e10c8e0	0.14139128
53	0xbd73f76f	-0.059562143
54	0xbdeb6f5a	-0.11495848
55	0xbe158a02	-0.14603427
56	0x3e344082	0.17602733
57	0xbd91b32e	-0.07114254
58	0x3caf57c4	0.021404155
59	0xbe1acb30	-0.15116572
60	0x3cddf76b	0.027095517
61	0x3de7b727	0.113142304
62	0xbdfe6b79	-0.124228425
63	0xbe338918	-0.17532766

blk_2.bn.bias f4 [64]
0	0xbcbae526	-0.022814345
1	0x3dc16340	0.094427586
2	0xba392e68	-0.0007064105
3	0x3e0cf355	0.13764699
4	0xbd91ea92	-0.07124819
5	0xbe28719a	-0.16449586
6	0x3d664d2d	0.056225944
7	0x3dff7c7c	0.124749154
8	0x3e26921f	0.16266678
9	0xbe1085ff	-0.14113615
10	0x3c8761c7	0.016526116
11	0x3cc20653	0.023684656
12	0xbd8d52af	-0.06900536
13	0x3e58b932	0.21164396
14	0x3e64a3a8	0.22328055
15	0xbe239041	-0.15972997
16	0xbc25738b	-0.010098348
17	0xbdcc4421	-0.09973932
18	0xbb2354a1	-0.002492227
19	0x3e0338d8	0.12814653
20	0xbd3c9c53	-0.04604752
21	0xbd05aaf8	-0.03263375
22	0x3df5cbca	0.1200176
23	0x3dfb0746	0.12257247
24	0xbdd0e0d5	-0.10199133
25	0x3ea19c3a	0.31564504
26	0x3dc94fe9	0.09829695
27	0xbe1726a8	-0.1476084
28	0x3ddcbfa8	0.10778743
29	0x3dd4c0fe	0.10388373
30	0x3e217f44	0.15771204
31	0x3bc139a9	0.005896766
32	0x3d24075a	0.040046073
33	0x3e34eea0	0.17669153
34	0xbe3fb690	-0.18721986
35	0xbdcac7ae	-0.09901367
36	0xbdaf0caa	-0.08547337
37	0x3d95c820	0.073135614
38	0x3c598a56	0.013277611
39	0x3d82d52f	0.06388318
40	0x3d824099	0.06359977
41	0x3d40d5f2	0.047079034
42	0x3e570973	0.20999698
43	0xbe5c97ef	-0.21542333
44	0xbd454194	-0.048158243
45	0x3e057a9c	0.13035053
46	0x3e094fe0	0.13409376
47	0x3e21233f	0.15736102
48	0xbda0b9d0	-0.07847941
49	0x3dfb6bda	0.122764304
50	0x3d97dc8a	0.07415111
51	0x3dfd793a	0.12376638
52	0x3da43d59	0.08019514
53	0x3d24d3d2	0.04024107
54	0x3e0ac133	0.13550262
55	0xbd819a50	-0.06328261
56	0x3daac480	0.08338261
57	0xbe0540ad	-0.13012953
58	0x3e2f3444	0.17109782
59	0xbdb51c36	-0.088432714
60	0x3dfd61cb	0.12372168
61	0x3d8ceb95	0.06880871
62	0x3d80dbb7	0.06291907
63	0xbd1bde06	-0.038053535

blk_3.conv2d.weight f4 [64, 64, 3, 3]
0	0x3e211f92	0.157347
1	0x3d8ff480	0.070290565
2	0x3e1e234e	0.15443155
3	0x3e555d3a	0.20836344
4	0x3e592145	0.21204098
5	0xbc497e69	-0.012298205
6	0x3e69c671	0.22829606
7	0x3cbbe3b2	0.022935722
8	0x3d846496	0.06464498
9	0x3c12dd26	0.008963859
10	0x3e2afb6c	0.16697472
11	0x3d97f78c	0.07420263
12	0x3d4d9a1f	0.05019581
13	0x3d8b28ca	0.06794889
14	0xbd62d3b3	-0.055377673
15	0x3db8a34e	0.09015523
16	0x3e256af0	0.16154075
17	0x3e14f982	0.14548305
18	0x3c6731b8	0.014110975
19	0x3dbfea41	0.09370852
20	0xbc7cf0c1	-0.01543826
21	0x3e7b2f6e	0.24529812
22	0x3c0e54cf	0.008687212
23	0xbd0a2584	-0.033727184
24	0x3d476ba7	0.04868665
25	0xbdcf0004	-0.10107425
26	0x3e83776a	0.25677043
27	0x3db9b2b1	0.09067286
28	0x3d8f4220	0.06995034
29	0x3ced05aa	0.028933365
30	0xbdadbc08	-0.0848313
31	0x3dd93084	0.10604957
32	0x3cc2878f	0.02374628
33	0x3b51255f	0.0031913144
34	0xbd58dde4	-0.052945986
35	0x3defa3ef	0.1170119
36	0x3e04c9b0	0.12967563
37	0xbd6042d7	-0.054751243
38	0x3e677049	0.22601427
39	0x3e0561db	0.1302561
40	0xbdb0a720	-0.086256266
41	0x3e24054c	0.16017646
42	0x3e6b6659	0.22988261
43	0x3ddd96e8	0.10819799
44	0x3e66ebd2	0.22550896
45	0x3ddefcd1	0.10888065
46	0x3e09d2f1	0.13459374
47	0x3e7ab17a	0.24481764
48	0x3dee3279	0.11630721
49	0xbd71e175	-0.059052903
50	0x3e16fb64	0.14744335
51	0xbdac1bbb	-0.08403727
52	0xbdd5f158	-0.10446423
53	0x3d8e8458	0.06958836
54	0x3d6bd61e	0.057577245
55	0x3e0be878	0.13662899
56	0x3defaa73	0.117024325
57	0xbdac3f0f	-0.08410465
58	0xbd63b629	-0.055593643
59	0x3db907f9	0.09034724
60	0xbde08187	-0.109622054
61	0x3d39e3ea	0.04538337
62	0x3e54f9f0	0.20798469
63	0x3d16dc73	0.03683133
64	0x3d458467	0.04822197
65	0x3dcbcf4e	0.099516496
66	0x3ded5522	0.115885034
67	0xbc8befcf	-0.017082123
68	0x3d848add	0.064717986
69	0x3c3ca807	0.01151467
70	0x3db7b03d	0.08969162
71	0x3daeab23	0.085287355
72	0xb88a3e01	-6.591902e-05
73	0x3da5a7ed	0.0808867
74	0x3dc93623	0.09824779
75	0xbc7a9003	-0.015293124
76	0x3d599035	0.053116042
77	0xbc0ebe3b	-0.008712347
78	0x3db3ec3f	0.08785295
79	0x3d919ce6	0.07110004
80	0xbdd093a0	-0.10184407
81	0xbd2f9de5	-0.04287519
82	0x3cf610f7	0.030037386
83	0x3d76b458	0.060230583
84	0x3e16d018	0.14727819
85	0x3e3876b4	0.18014032
86	0x3e206b8f	0.1566603
87	0x3c6e5af2	0.01454805
88	0x3e1db2c8	0.15400231
89	0xbd69d4d3	-0.05708773
90	0x3e3741f3	0.17896251
91	0x3e50ef13	0.204037
92	0x3d26bfe0	0.04071033
93	0x3e17da23	0.14829306
94	0x3d36c102	0.04461766
95	0x3d07b438	0.033130854
96	0x3d9e4909	0.07728774
97	0x3dcbe18e	0.099551305
98	0x3e1f4069	0.15551914
99	0x3e067470	0.13130355
100	0x3d74b4e4	0.059742823
101	0x3c7a6201	0.015282155
102	0x3dc6bc01	0.09703828
103	0x3dfd7aeb	0.1237696
104	0xbd5b4556	-0.05353292
105	0x3b938efa	0.004503128
106	0xbdb5a719	-0.08869762
107	0xbca46ce3	-0.020071452
108	0x3dc36325	0.09540395
109	0x3c983c45	0.018583426
110	0xbcc0eda4	-0.023550816
111	0x3e362a1a	0.17789498
112	0x3d7de27f	0.06198358
113	0xbd824eb0	-0.06362665
114	0x3c95eaf0	0.018300503
115	0x3d8f4051	0.06994689
116	0xbd646042	-0.05575586
117	0x3e00b66d	0.1256959
118	0xbbf731f7	-0.007543798
119	0x3ddf79da	0.10911913
120	0x3c6513c3	0.013981762
121	0xbd4112ec	-0.047137186
122	0x3cd3ea0e	0.025868442
123	0x3dd45268	0.1036728
124	0x3db1dbec	0.08684525
125	0xbd41f97f	-0.04735708
126	0x3d6dd00c	0.058059737
127	0x3e19c3e6	0.15016136
128	0x3e0d8771	0.13821198
129	0xbd42d70c	-0.047568366
130	0x3d8c32cc	0.06845626
131	0x3d9ac71f	0.075575106
132	0xbd833a68	-0.064076245
133	0x3d6673c8	0.05626276
134	0x3db99987	0.09062486
135	0x3d0dbed7	0.034605827
136	0x3e4cc5d2	0.19997337
137	0x3dbcef7a	0.09225364
138	0x3e4d98c1	0.20077802
139	0x3dc8da85	0.09807304
140	0x3d72b093	0.059250426
141	0x3e23c22b	0.15992038
142	0x3cfc9000	0.030830383
143	0x3ea2aeea	0.31774074
144	0x3cb3c750	0.021945626
145	0x3d8815c1	0.06644774
146	0x3e7eeafe	0.2489433
147	0x3a0fcd35	0.00054855953
148	0xbdc06f6c	-0.09396252
149	0x3e8281ac	0.25489557
150	0x3d0ca4f4	0.034337
151	0xbd84b712	-0.064802304
152	0x3de1119f	0.10989689
153	0x3bf83147	0.0075742337
154	0x3d54ccdf	0.051953193
155	0x3dbb525b	0.091465674
156	0xbcc02451	-0.023454817
157	0x3e0c08fb	0.13675301
158	0x3b074db3	0.0020645678
159	0x3e0eea7e	0.13956639
160	0x3e641e63	0.22277217
161	0xbcc4f8ef	-0.024044482
162	0x3dee7187	0.11642747
163	0x3d5dbdbf	0.054136034
164	0x3bae4f76	0.005319531
165	0x3ddb419e	0.10705875
166	0x3dae946f	0.08524405
167	0x3db7cd83	0.08974745
168	0xbbd641e6	-0.0065386174
169	0xbccc06fa	-0.02490567
170	0x3db3676a	0.08759959
171	0x3cf9ce22	0.0304938
172	0x3dc909ca	0.0981632
173	0x3e1c9aa1	0.15293361
174	0x3caa5101	0.020790579
175	0x3d98132d	0.074255325
176	0x3de2ab20	0.11067796
177	0xbd2c3ad7	-0.0420483
178	0xbde85e32	-0.11346091
179	0x3d98245e	0.074288115
180	0x3e817e6b	0.25291762
181	0x3e55ba16	0.20871767
182	0x3cd817f9	0.026378619
183	0x3e6a7126	0.22894725
184	0x3e351c24	0.17686516
185	0x3e305b8a	0.1722242
186	0x3e1bc21c	0.15210766
187	0x3d74aca0	0.05973494
188	0x3e2d1283	0.16901593
189	0x3e73de93	0.23815374
190	0x3e1ee6b0	0.15517688
191	0x3e63779c	0.22213596
192	0x3d84cf91	0.06484903
193	0xbc0d4e18	-0.008624576
194	0x3e0f66e8	0.140041
195	0x3dc4a0df	0.09600996
196	0xbd911a0c	-0.07085046
197	0x3cd8ba1e	0.026455935
198	0x3dcdc9e5	0.10048274
199	0x3d2559c2	0.040368803
200	0x3e170596	0.14748225
201	0x3dca69a4	0.098834306
202	0x3d884bd6	0.066550896
203	0x3db1829e	0.086674914
204	0x3d80e18b	0.06293019
205	0xbd2964c6	-0.04135587
206	0x3cd18b33	0.02557907
207	0x3d431432	0.04762668
208	0x3d1bfc1e	0.038082235
209	0x3d979e5a	0.0740325
210	0x3df252fe	0.11832236
211	0xbc1427bb	-0.009042676
212	0x3dd50bc8	0.10402638
213	0x3c2278cf	0.009916498
214	0xbd7d620d	-0.061861087
215	0xbce179ee	-0.02752396
216	0x3e111c97	0.14171062
217	0x3d9e8fe8	0.07742292
218	0x3d82575e	0.0636432
219	0x3dc668e5	0.09687976
220	0x3d16a065	0.036774058
221	0x3c035341	0.008015455
222	0x3e4e1a53	0.2012723
223	0xbcb5f72b	-0.022212585
224	0x3e072b0b	0.13200013
225	0x3cd47a97	0.025937362
226	0x3dbe6bf1	0.09297932
227	0x3e3e65c0	0.18593502
228	0x3c12efc7	0.0089683
229	0xba24cc68	-0.00062865624
230	0x3d909e13	0.070614
231	0x3d30b213	0.043138575
232	0xba733358	-0.0009277365
233	0x3e17bab0	0.1481731
234	0x3de13da9	0.10998089
235	0x3e4657ef	0.19369482
236	0x3d9089d5	0.070575394
237	0x3e4dc167	0.20093308
238	0x3d675b63	0.056483638
239	0x3e1ec50c	0.15504855
240	0x3e8c9215	0.27455202
241	0x3eae97f4	0.34100306
242	0x3e2c93e4	0.16853291
243	0xbb2e06e0	-0.002655439
244	0x3d2f3c71	0.04278225
245	0x3d541363	0.0517763
246	0x3e464aa6	0.19364414
247	0x3cabed36	0.020987134
248	0x3d18494e	0.037179284
249	0x3de0a915	0.1096975
250	0xbaeee28b	-0.0018225474
251	0x3e929d44	0.2863561
252	0x3d91de1b	0.071224414
253	0x3d67f6ed	0.05663197
254	0x3d89066a	0.066906765
255	0x3dc8deed	0.09808145

blk_3.conv2d.bias f4 [64]
0	0x3a83126f	0.001
1	0x3a83126f	0.001
2	0x3a83126f	0.001
3	0x3a83126f	0.001
4	0x3a83126f	0.001
5	0x3a83126f	0.001
6	0x3a83126f	0.001
7	0x3a83126f	0.001
8	0x3a83126f	0.001
9	0x3a83126f	0.001
10	0x3a83126f	0.001
11	0x3a83126f	0.001
12	0x3a83126f	0.001
13	0x3a83126f	0.001
14	0x3a83126f	0.001
15	0x3a83126f	0.001
16	0x3a83126f	0.001
17	0x3a83126f	0.001
18	0x3a83126f	0.001
19	0x3a83126f	0.001
20	0x3a83126f	0.001
21	0x3a83126f	0.001
22	0x3a83126f	0.001
23	0x3a83126f	0.001
24	0x3a83126f	0.001
25	0x3a83126f	0.001
26	0x3a83126f	0.001
27	0x3a83126f	0.001
28	0x3a83126f	0.001
29	0x3a83126f	0.001
30	0x3a83126f	0.001
31	0x3a83126f	0.001
32	0x3a83126f	0.001
33	0x3a83126f	0.001
34	0x3a83126f	0.001
35	0x3a83126f	0.001
36	0x3a83126f	0.001
37	0x3a83126f	0.001
38	0x3a83126f	0.001
39	0x3a83126f	0.001
40	0x3a83126f	0.001
41	0x3a83126f	0.001
42	0x3a83126f	0.001
43	0x3a83126f	0.001
44	0x3a83126f	0.001
45	0x3a83126f	0.001
46	0x3a83126f	0.001
47	0x3a83126f	0.001
48	0x3a83126f	0.001
49	0x3a83126f	0.001
50	0x3a83126f	0.001
51	0x3a83126f	0.001
52	0x3a83126f	0.001
53	0x3a83126f	0.001
54	0x3a83126f	0.001
55	0x3a83126f	0.001
56	0x3a83126f	0.001
57	0x3a83126f	0.001
58	0x3a83126f	0.001
59	0x3a83126f	0.001
60	0x3a83126f	0.001
61	0x3a83126f	0.001
62	0x3a83126f	0.001
63	0x3a83126f	0.001

blk_3.bn.weight f4 [64]
0	0xbe519b09	-0.20469297
1	0x3e2f116a	0.17096487
2	0xbde5614a	-0.11200197
3	0xbdbe573d	-0.09293983
4	0x3d1d4902	0.038399704
5	0xbd65a792	-0.05606801
6	0x3d2c0e0b	0.04200558
7	0x3eb689ce	0.35652012
8	0xbe3169e3	-0.17325549
9	0xbc86fd92	-0.016478334
10	0xbe5b6537	-0.21425329
11	0xbcd49ff4	-0.025955178
12	0xbdb22cb6	-0.08699934
13	0x3d4c5c19	0.04989252
14	0xbe79b491	-0.24385287
15	0xbd8ace7b	-0.06777664
16	0xbd5863fe	-0.052829735
17	0x3db42650	0.0879637
18	0x3d34222f	0.043977913
19	0xbe0ee424	-0.13954216
20	0x3dd37b38	0.103262365
21	0xbda611c1	-0.08108855
22	0xbd490dca	-0.049085416
23	0xbda36306	-0.079778716
24	0xbe35dab7	-0.17759214
25	0x3d4ea03e	0.050445788
26	0x3e564c08	0.20927441
27	0xbd09e514	-0.03366573
28	0x3e17ef23	0.14837317
29	0x3c461042	0.012088837
30	0xbdbd46bc	-0.09242007
31	0xbd8ac7d7	-0.06776398
32	0xbd1612cb	-0.036639016
33	0xbd0660da	-0.03280721
34	0xba67b600	-0.0008839071
35	0xbdcdf577	-0.10056584
36	0xbd8186e1	-0.06324554
37	0xbe053da4	-0.13011795
38	0xbddd776b	-0.10813793
39	0x3bc0f84e	0.005888975
40	0xbe2a6b56	-0.16642508
41	0x3e853ee9	0.2602456
42	0xbe8404cc	-0.2578491
43	0xbde97f4d	-0.11401234
44	0xbe3d679b	-0.18496554
45	0xbe04f4c8	-0.12984002
46	0xbe13f927	-0.14450513
47	0xbe6b97c5	-0.23007114
48	0x3d926b6d	0.07149396
49	0xba4425c4	-0.0007482434
50	0x3ed7cde2	0.42149264
51	0x3e31456e	0.17311642
52	0xbe3f775a	-0.18697873
53	0x3d18ed43	0.037335645
54	0x3c0103eb	0.007874469
55	0xbdb90032	-0.090332404
56	0xbc7e2993	-0.015512842
57	0x3d40f6af	0.047110256
58	0xbcbeda64	-0.023297496
59	0x3ceb177c	0.028697722
60	0xbe1efbea	-0.15525785
61	0xbd3ae81b	-0.04563151
62	0xbdbe0a45	-0.092793025
63	0xbd244148	-0.04010132

blk_3.bn.bias f4 [64]
0	0xbde609e2	-0.11232354
1	0x3e93f157	0.28895065
2	0xbe587334	-0.21137697
3	0xbdcd48ea	-0.10023673
4	0xbd98a01e	-0.07452415
5	0x3bf09fac	0.007343253
6	0x3ee5dce4	0.4489509
7	0x3ebfe377	0.3747823
8	0x3e6848f0	0.22684073
9	0xbe2ac21f	-0.16675614
10	0xbe92556f	-0.28580806
11	0x3dc9d7c6	0.09855609
12	0xbe3ea948	-0.18619263
13	0x3dd13bbf	0.10216474
14	0xbe404b8b	-0.18778817
15	0xbdd998bb	-0.10624834
16	0x3e331667	0.17489015
17	0x3e4f411e	0.20239684
18	0x3da8aad9	0.082357116
19	0x3c6c2afc	0.014414545
20	0x3e36cbf0	0.17851233
21	0xbcac6041	-0.021041991
22	0xbd446a5a	-0.047952987
23	0xbe6bcacb	-0.23026578
24	0xbe4f510c	-0.2024576
25	0xbe24c726	-0.16091594
26	0x3ecfb1e7	0.40565416
27	0x3e24cbf1	0.16093422
28	0x3ef5cb9b	0.480069
29	0x3e8365f8	0.25663733
30	0xbee62684	-0.4495126
31	0x3e23065b	0.15920393
32	0xbe82b96e	-0.25532097
33	0x3dd7fb70	0.10546005
34	0x3e500009	0.20312513
35	0x3d2641b8	0.040590018
36	0xbd73d92d	-0.059533287
37	0xbea504d2	-0.3223024
38	0xbe2ad8b7	-0.16684233
39	0xbdafcef3	-0.08584394
40	0x3d241e01	0.040067676
41	0x3ea0f100	0.31433868
42	0x3de44474	0.11145869
43	0xbe015339	-0.12629403
44	0x3e515f10	0.2044642
45	0xbd563f2f	-0.05230635
46	0xbe596431	-0.21229626
47	0x3cc19d8b	0.023634693
48	0x3e0d0140	0.13770008
49	0xbd399669	-0.045309458
50	0x3eb3d0e3	0.35120305
51	0x3e4f211f	0.20227478
52	0xbde9198d	-0.113818265
53	0x3e30d19d	0.17267461
54	0x3e0c09f9	0.1367568
55	0xbe241162	-0.16022256
56	0xbcf6d3d2	-0.0301303
57	0xbd7c7990	-0.06163937
58	0x3e1cb912	0.15304974
59	0xbce7d269	-0.028298574
60	0xbe31f4fa	-0.17378607
61	0xbd4975fc	-0.049184784
62	0xbea1a27c	-0.31569278
63	0xbdfe254f	-0.1240946

blk_4.conv2d.weight f4 [64, 64, 3, 3]
0	0x3be8642d	0.00709202
1	0x3e1b61ae	0.1517398
2	0x3e9ef6e4	0.31047738
3	0x3d8cab9f	0.068686716
4	0x3e63ac1d	0.22233625
5	0x3e674c21	0.22587635
6	0xbb0153ea	-0.0019733855
7	0x3e20f0d4	0.15716869
8	0x3e927927	0.28608057
9	0x3e45223a	0.19251338
10	0x3e4eba37	0.20188223
11	0x3e9052e5	0.28188244
12	0x3e654230	0.2238853
13	0x3e2b2c25	0.16716059
14	0x3de220f6	0.11041443
15	0x3e99319c	0.2992066
16	0x3e4c8c97	0.19975506
17	0x3e8f0e65	0.2794067
18	0x3e93efbd	0.28893843
19	0x3e72c04f	0.23706172
20	0x3e2f26e1	0.17104675
21	0x3e0fdf5c	0.14050049
22	0x3dba9b67	0.09111672
23	0x3cd116ef	0.02552363
24	0x3e2d7251	0.1693814
25	0x3de96231	0.11395682
26	0x3e86bf76	0.26317948
27	0x3de2564b	0.11051615
28	0x3e5c1e4f	0.21495937
29	0x3d9f8dfa	0.07790752
30	0x3ea14c9d	0.31503764
31	0x3e907a0f	0.28218123
32	0x3e032938	0.12808692
33	0x3e16b366	0.14716873
34	0x3deeae49	0.11654336
35	0x3e6410af	0.2227199
36	0x3e31948f	0.17341827
37	0x3e5ee35a	0.21766415
38	0x3eb7e615	0.35917726
39	0x3cad8b2e	0.02118453
40	0x3e3615dc	0.17781776
41	0x3e215c20	0.15757799
42	0x3d878736	0.06617586
43	0x3dd3c067	0.10339432
44	0x3ea05aa7	0.31319162
45	0x3e655dc8	0.22399056
46	0x3e2e35d9	0.17012729
47	0x3d8434c1	0.064553745
48	0x3e4ef15c	0.20209259
49	0x3e70b90c	0.2350809
50	0x3cfcedd0	0.030875117
51	0x3d39faa9	0.045405064
52	0x3e3af6bd	0.18258186
53	0x3e67a5ae	0.22621796
54	0x3e4d345d	0.20039506
55	0x3d9904a0	0.07471585
56	0x3d04b61a	0.032400228
57	0x3ee54b53	0.4478403
58	0x3ea71973	0.32636604
59	0x3eb0b3d6	0.34512204
60	0x3e771d63	0.24132304
61	0x3ecbac9b	0.39780125
62	0x3e3ca46c	0.18422097
63	0x3d123648	0.035696298
64	0x3c9107fe	0.017704006
65	0xbb39f4d3	-0.0028374686
66	0x3de228f5	0.11042968
67	0x3dd3e96c	0.10347256
68	0x3d46dc10	0.04854971
69	0x3e525e92	0.20543888
70	0x3ea05323	0.31313428
71	0x3e28e950	0.16495252
72	0x3daa1a19	0.08305759
73	0x3eae927b	0.3409613
74	0x3eb39441	0.35074046
75	0x3e378929	0.17923416
76	0x3e4b0e87	0.1982976
77	0x3e98a693	0.29814586
78	0x3ea7743d	0.3270587
79	0x3eb52039	0.35376146
80	0x3e03bf98	0.12866056
81	0x3e109a88	0.14121449
82	0x3dce7817	0.10081499
83	0x3d7f70eb	0.062363546
84	0x3dc3a97d	0.09553812
85	0x3ccb597a	0.02482294
86	0x3d92b158	0.07162732
87	0x3d863a1a	0.06554051
88	0x3e5e5b9a	0.2171463
89	0x3e035d1f	0.12828492
90	0x3d7305a9	0.05933157
91	0x3d9ef849	0.077622004
92	0x3e2d6944	0.16934687
93	0x3e29e959	0.16592921
94	0x3eea720a	0.4579013
95	0x3e84adcb	0.25913844
96	0x3e6760b0	0.22595477
97	0x3ea269b0	0.31721258
98	0x3e881a30	0.2658248
99	0x3edd435d	0.43215457
100	0x3e8d13b8	0.27554107
101	0x3e85f589	0.2616389
102	0x3e8e2f5f	0.27770516
103	0x3e4160d9	0.188846
104	0x3e95b457	0.2923915
105	0x3e99a75b	0.30010495
106	0x3f037422	0.5134908
107	0x3e85452b	0.26029333
108	0x3d80f40d	0.06296549
109	0x3e84f9fe	0.2597198
110	0x3e8252d9	0.25453833
111	0x3d81c0d1	0.06335605
112	0x3e2547a9	0.16140617
113	0x3e7853c0	0.24250698
114	0x3d5a10a7	0.053238537
115	0x3e701ae9	0.23447765
116	0x3e1a13e3	0.15046649
117	0x3e443e9a	0.19164506
118	0x3e25e8bd	0.16202064
119	0x3e4bedb1	0.19914891
120	0x3e0fdbd3	0.140487
121	0x3e2c1a66	0.16806945
122	0x3ea36612	0.3191381
123	0x3e671c14	0.22569305
124	0x3e782186	0.24231538
125	0x3e254b07	0.16141902
126	0x3e956e30	0.2918563
127	0x3ef56a54	0.47932684
128	0x3e21ba5e	0.1579375
129	0x3ec2c657	0.38041946
130	0x3e6f653e	0.23378465
131	0x3e15d983	0.14633755
132	0x3ec064ee	0.37577003
133	0x3ea17981	0.31538013
134	0x3d928f1d	0.07156203
135	0x3dfed006	0.12442021
136	0x3c2dd8e9	0.010610797
137	0x3d8a00de	0.06738447
138	0x3e284138	0.16431129
139	0x3e86ac33	0.26303253
140	0x3de0db68	0.109793484
141	0x3e36a818	0.1783756
142	0x3df24b52	0.118307725
143	0x3e4ea9ac	0.20181912
144	0x3cda8482	0.026674513
145	0x3d5cfca8	0.05395189
146	0x3d1e257b	0.038609963
147	0x3db38a0b	0.08766564
148	0x3dc88514	0.09791008
149	0x3d5b7960	0.05358255
150	0x3dba8f0a	0.09109314
151	0x3e11de6a	0.14245
152	0x3ddc3ab9	0.10753388
153	0x3e334eae	0.17510483
154	0x3e1ddb6d	0.15415736
155	0x3e40ab13	0.1881526
156	0x3da35734	0.07975617
157	0x3e75f82a	0.24020448
158	0x3e0479de	0.12937114
159	0x3d8f7ed2	0.07006611
160	0x3d808616	0.06275575
161	0x3dac7f44	0.084227115
162	0x3e4ef7ea	0.20211759
163	0x3ec69dc8	0.38792253
164	0x3e565462	0.20930627
165	0x3ec20e54	0.37901556
166	0x3e964bc0	0.29354668
167	0x3ecc7eb6	0.39940423
168	0x3ebaf02d	0.36511365
169	0x3e71617d	0.23572345
170	0x3ed14530	0.40873098
171	0x3e52307c	0.20526308
172	0x3eb40e20	0.35167027
173	0x3e7a7e48	0.24462235
174	0x3e94d2bb	0.29067025
175	0x3ef18fd2	0.4718004
176	0x3edcecc5	0.4314939
177	0x3edee7dc	0.4353627
178	0x3f167ce2	0.58784306
179	0x3ec76cc0	0.38950157
180	0x3d73a58d	0.059484053
181	0x3d8e7c39	0.06957287
182	0x3da3ad9b	0.07992097
183	0x3e404160	0.18774939
184	0x3dbab0ad	0.091157295
185	0x3ccbdea3	0.024886435
186	0x3dec44d4	0.115365654
187	0x3e6ed1d4	0.2332223
188	0x3e1dd7c6	0.15414342
189	0x3ec40bc1	0.38290218
190	0x3ee7f0c9	0.45300892
191	0x3f140ece	0.5783509
192	0x3eb1a6ae	0.3469748
193	0x3e97a35f	0.2961683
194	0x3e809b8a	0.25118667
195	0x3ed21a4e	0.41035694
196	0x3eb3bf45	0.35106865
197	0x3e24aa1a	0.16080514
198	0x3e805cc5	0.25070778
199	0x3efb3933	0.49067077
200	0x3e818735	0.25298467
201	0x3ea51d58	0.3224895
202	0x3e83d56f	0.25748774
203	0x3ef7dbfd	0.48410025
204	0x3eb1bb88	0.34713387
205	0x3e8fb21d	0.28065577
206	0x3ec75055	0.38928476
207	0xbd284266	-0.041078947
208	0x3de630af	0.112397544
209	0x3e552822	0.2081609
210	0x3cfc2269	0.030778127
211	0x3df103dc	0.11768314
212	0x3de45cb5	0.11150495
213	0x3bae9d0b	0.0053287796
214	0x3e36b9f8	0.17844379
215	0x3d11b165	0.035569567
216	0x3e41d3af	0.18928407
217	0x3e913258	0.28358722
218	0x3e8a5cf9	0.27024058
219	0x3e969e0d	0.29417458
220	0x3e8051ec	0.250625
221	0x3ebd1e2e	0.36937088
222	0x3da62811	0.08113111
223	0x3eb8859a	0.3603943
224	0x3e8c0fcc	0.27355802
225	0x3dbe4c71	0.09291924
226	0x3da1d89a	0.079026416
227	0x3e9a2e4f	0.30113456
228	0x3db4403c	0.08801314
229	0x3cb4d4d2	0.022074137
230	0x3e848e83	0.25889978
231	0x3c9139d8	0.017727777
232	0x3d8ec309	0.06970794
233	0x3dc9986a	0.09843524
234	0x3d50283f	0.05081963
235	0x3d1d825a	0.03845439
236	0x3d48c521	0.04901612
237	0x3d6560a9	0.056000385
238	0x3db9096b	0.090349995
239	0x3d80dca8	0.06292087
240	0x3d59362c	0.053030178
241	0x3db237d1	0.087020524
242	0x3d85a2f7	0.06525224
243	0x3e8d41fa	0.275894
244	0x3e46980f	0.19393943
245	0x3d452257	0.048128452
246	0x3ebd9b18	0.3703239
247	0x3e4c355f	0.19942234
248	0x3e007e65	0.12548216
249	0x3e5f1dc6	0.21788701
250	0x3ddbbd26	0.107294366
251	0x3de83232	0.11337699
252	0x3d08f13f	0.033433195
253	0x3df83fc7	0.121215396
254	0x3dd4df1e	0.10394119
255	0x3daa4501	0.08313943

blk_4.conv2d.bias f4 [64]
0	0x3a83126f	0.001
1	0x3a83126f	0.001
2	0x3a83126f	0.001
3	0x3a83126f	0.001
4	0x3a83126f	0.001
5	0x3a83126f	0.001
6	0x3a83126f	0.001
7	0x3a83126f	0.001
8	0x3a83126f	0.001
9	0x3a83126f	0.001
10	0x3a83126f	0.001
11	0x3a83126f	0.001
12	0x3a83126f	0.001
13	0x3a83126f	0.001
14	0x3a83126f	0.001
15	0x3a83126f	0.001
16	0x3a83126f	0.001
17	0x3a83126f	0.001
18	0x3a83126f	0.001
19	0x3a83126f	0.001
20	0x3a83126f	0.001
21	0x3a83126f	0.001
22	0x3a83126f	0.001
23	0x3a83126f	0.001
24	0x3a83126f	0.001
25	0x3a83126f	0.001
26	0x3a83126f	0.001
27	0x3a83126f	0.001
28	0x3a83126f	0.001
29	0x3a83126f	0.001
30	0x3a83126f	0.001
31	0x3a83126f	0.001
32	0x3a83126f	0.001
33	0x3a83126f	0.001
34	0x3a83126f	0.001
35	0x3a83126f	0.001
36	0x3a83126f	0.001
37	0x3a83126f	0.001
38	0x3a83126f	0.001
39	0x3a83126f	0.001
40	0x3a83126f	0.001
41	0x3a83126f	0.001
42	0x3a83126f	0.001
43	0x3a83126f	0.001
44	0x3a83126f	0.001
45	0x3a83126f	0.001
46	0x3a83126f	0.001
47	0x3a83126f	0.001
48	0x3a83126f	0.001
49	0x3a83126f	0.001
50	0x3a83126f	0.001
51	0x3a83126f	0.001
52	0x3a83126f	0.001
53	0x3a83126f	0.001
54	0x3a83126f	0.001
55	0x3a83126f	0.001
56	0x3a83126f	0.001
57	0x3a83126f	0.001
58	0x3a83126f	0.001
59	0x3a83126f	0.001
60	0x3a83126f	0.001
61	0x3a83126f	0.001
62	0x3a83126f	0.001
63	0x3a83126f	0.001

blk_4.bn.weight f4 [64]
0	0x3e15de44	0.14635569
1	0x3eed2c1f	0.46322724
2	0x3e63c1d9	0.22241916
3	0x3cf4a30c	0.029862903
4	0x3e8058c5	0.25067726
5	0xbe7a2e14	-0.2443164
6	0x3ddcc0e5	0.10778979
7	0xbef66123	-0.48120984
8	0x3ebf5b2f	0.37374255
9	0xbe602924	-0.21890694
10	0xbe3ab378	-0.18232524
11	0xbe85cf7c	-0.2613486
12	0xbeadebc4	-0.33968937
13	0xbe93acb0	-0.28842688
14	0x3def6ea4	0.11691025
15	0x3f004219	0.50100857
16	0x3e1ee78b	0.15518014
17	0x3d290b6a	0.04127065
18	0xbe01d075	-0.12677176
19	0x3e837317	0.25673744
20	0x3d9f41e0	0.077762365
21	0x3eadb37c	0.33925998
22	0x3da89521	0.08231569
23	0x3e9a23d5	0.30105463
24	0x3ee3ee43	0.44517717
25	0xbd165a41	-0.036707167
26	0x3e8c0adb	0.27352032
27	0x3e595c2c	0.21226567
28	0x3db24e41	0.08706332
29	0xbe1cadf5	-0.15300734
30	0x3c890cdd	0.016729767
31	0xbeba8170	-0.36426878
32	0xbedce939	-0.43146685
33	0xbdf747c6	-0.120742366
34	0xbe7ae807	-0.24502574
35	0xbf1cbea3	-0.6122839
36	0x3dc877d9	0.09788484
37	0xbf11daa5	-0.5697425
38	0x3e1a06fd	0.15041728
39	0xbed6fef9	-0.41991404
40	0xbed2f183	-0.41199884
41	0x3d24d337	0.040240493
42	0x3e912d9e	0.28355116
43	0x3bf1fa8a	0.007384603
44	0x3eecd7ae	0.462583
45	0x3e1c6b42	0.1527529
46	0x3e9afa9d	0.30269328
47	0xbe308dbb	-0.17241566
48	0x3e8b32fb	0.27187333
49	0x3e838a6b	0.25691542
50	0xb8505468	-4.9669674e-05
51	0xbf27833c	-0.6543462
52	0x3e2213f9	0.15827931
53	0xbf29d79f	-0.66344637
54	0x3e8ded23	0.27719983
55	0xbddf0cda	-0.10891123
56	0xbed7fd1a	-0.4218529
57	0xbf16714d	-0.58766633
58	0x3ebb8b00	0.36629486
59	0xbed4d969	-0.4157212
60	0xbf24fed7	-0.64451355
61	0x3eecc0f1	0.46240953
62	0xbe7c08c1	-0.24612714
63	0x3ef2cda2	0.4742251

blk_4.bn.bias f4 [64]
0	0xbe4b50a3	-0.19854979
1	0xbc8529c9	-0.016255276
2	0x3e417289	0.18891348
3	0xbe062980	-0.13101768
4	0x3e98f474	0.29874003
5	0xbe1e1dee	-0.15441105
6	0xbe4c4ec1	-0.19951917
7	0x3de4ded8	0.111753166
8	0x3e948cef	0.29013774
9	0xbead5243	-0.33851823
10	0xbe436693	-0.19082098
11	0x3da9a885	0.08284096
12	0xbeea8e3a	-0.45811635
13	0x3e8e93dc	0.27847183
14	0x3edd8c54	0.43271124
15	0xbe34948a	-0.17634788
16	0x3eb01cf4	0.3439709
17	0x3e0c9ffa	0.13732901
18	0x3e54487b	0.20730774
19	0x3e0eae60	0.13933706
20	0x3e09e2a5	0.13465364
21	0x3d5e9373	0.054339837
22	0x3ed40d11	0.4141622
23	0x3e8c607c	0.27417362
24	0x3ebb52bb	0.36586556
25	0xbe06e407	-0.13172923
26	0x3e78eb1e	0.2430844
27	0x3e7afbd6	0.2451013
28	0xbec6fff6	-0.38867158
29	0xbf3aa37e	-0.7290572
30	0x3e8ba859	0.27276877
31	0x3db86cd2	0.09005131
32	0xbdd9efc5	-0.106414355
33	0xbdb395f1	-0.087688334
34	0xbf26559b	-0.64974374
35	0xbf3227d0	-0.69592
36	0xbe4c02a8	-0.19922888
37	0xbce5f7bf	-0.028072236
38	0x3e3add14	0.18248397
39	0xbe5202f6	-0.20508942
40	0xbec0a555	-0.37626138
41	0x3e123197	0.1427673
42	0x3e797927	0.24362622
43	0x3e07e3dd	0.13270517
44	0xbe963d2b	-0.29343542
45	0xbe1ddb71	-0.15415742
46	0x3eb09efc	0.34496295
47	0xbf354802	-0.70813
48	0xbed33a64	-0.41255486
49	0x3d308bc3	0.043102037
50	0xbde7aba9	-0.113120385
51	0xbf5d1e35	-0.8637422
52	0x3d8cd9df	0.06877493
53	0xbf590008	-0.8476567
54	0x3ed8d81e	0.42352384
55	0xbcac75c0	-0.021052241
56	0xbf6f4dd4	-0.9347813
57	0xbf08d43a	-0.5344883
58	0xbe5739c2	-0.21018127
59	0xbf634916	-0.88783395
60	0xbf248cf0	-0.64277554
61	0xbe1da020	-0.15393114
62	0xbf0a40f0	-0.54005337
63	0x3d6bec40	0.057598352
