checkpoints/ProtoNet/embedding_net_on_Omniglot_100.pth (torch, 458065 bytes, 24 tensors)

embedding.0.0.weight f4 [64, 1, 3, 3]
000000 6d 4e 37 bc 7a bb 27 bc 76 70 4a 3d 56 fe 0b 3c
       -0.011188132 -0.010237569 0.049423657 0.008544525
000010 4e c9 22 3d 78 1d c7 3b a3 04 3c 3c cb 12 0c 3d
       0.03974276 0.006076511 0.011475715 0.03419761
000020 7d 27 f9 bd 92 d5 6a bc 3f 0e a0 bd 9e 68 50 bc
       -0.12165735 -0.014333146 -0.07815217 -0.012720255
000030 ca 15 90 bd a0 37 40 3d 77 aa 8b bd 4e dd 1a bc
       -0.07035406 0.046928048 -0.06819623 -0.009452177
000040 b3 ad 83 3d d2 ac b6 bc d0 9a 6d bc 48 83 f1 3c
       0.06429615 -0.022299204 -0.014502242 0.029481545
000050 59 41 93 bb d5 26 7e 3d 86 cf 0e 3b 7d b5 0d 3d
       -0.004493874 0.06204875 0.0021791174 0.03459691
000060 6d 86 15 3c 9c c9 61 3d 0f 65 b2 3c 1d 70 8a 3c
       0.009126288 0.05512391 0.021776704 0.016899163
000070 91 67 35 bd 68 b6 3c bd 0f 14 c2 3b 8e ba 2f 3d
       -0.04428822 -0.046072394 0.0059228013 0.04290252
000080 93 85 6c bd d4 66 1c 3c 63 a7 5f 3d 35 3a 81 bd
       -0.057744574 0.0095460005 0.05460299 -0.0630993
000090 95 ee 7e 3d 60 c2 41 3d d1 9c b3 bd e6 c4 da 3b
       0.06223925 0.04730451 -0.08770145 0.006676304
0000a0 11 17 b1 bb f6 81 5d bd 06 d1 5b bd 8b 70 89 bd
       -0.005404361 -0.05407902 -0.053666137 -0.06710919
0000b0 91 2b 7e 3b e5 0e 7b 3b 2e ae ce 3c 75 36 14 bd
       0.0038783292 0.0038308438 0.02522954 -0.036184747
0000c0 47 46 b5 3c ba b4 24 3d 7e 87 66 bd 54 e5 8b bc
       0.022128237 0.040211417 -0.05628156 -0.017077126
0000d0 cc 77 65 bd 99 da 4c bc 9a e4 73 bc 01 8c 5d bd
       -0.05602245 -0.01250329 -0.014886046 -0.054088596
0000e0 77 59 30 bd cb cb 4d 3d e1 e1 47 3d 55 f3 78 ba
       -0.04305407 0.05024318 0.0487994 -0.00094967085
0000f0 a5 f4 dd bc 8e 06 1d 3b df 99 f7 3c 25 a6 56 3d
       -0.027094195 0.0023960206 0.030224739 0.05240454
000100 36 19 01 bd a4 8c 02 bd fe e6 61 bb 5f 97 51 bd
       -0.031518184 -0.031872407 -0.0034469957 -0.05116975
000110 11 8a d9 3c ae 99 f9 3a a2 88 d4 bc b5 d1 02 3c
       0.026555093 0.0019042992 -0.025944058 0.007984568
000120 4a 7d 68 3d 35 35 4c bd 22 a9 26 3c 80 5a bc 3c
       0.05676011 -0.04985543 0.01017216 0.022992373
000130 93 a4 81 3c 73 5a 82 3d 12 25 9f bd 3d 8d ed bc
       0.015825545 0.06364908 -0.077707425 -0.028998012
000140 8d 7d 9e bd f4 38 f2 bc 28 45 30 3d 58 1c 38 39
       -0.07738791 -0.029568173 0.043034703 0.00017558166
000150 89 53 51 3d 81 d7 45 3d 97 13 c8 bd 93 97 e9 bc
       0.051105056 0.048301224 -0.097693615 -0.028514659
000160 4b 12 b8 bd 07 92 9f 3c 1b 96 64 bd 38 19 4e bd
       -0.08987864 0.019478811 -0.055807214 -0.05031702
000170 5a a8 0f bc 47 39 21 bd 7f 8a a2 3d f5 ec 8d 3c
       -0.0087681655 -0.039361265 0.07936572 0.017324904
000180 2f be 9b bd 0f ae 4c 3c c5 24 0a bc d5 5a 0e bd
       -0.07604634 0.012492671 -0.008431618 -0.034754593
000190 47 7f 86 bc 8d ff 1c 3c 93 c4 84 3d 8f 9b 84 bd
       -0.016418112 0.009582412 0.06482806 -0.06474983
0001a0 b0 6f 59 3c 0f 0d fa 3a c4 25 40 bd e3 d7 97 3c
       0.013271257 0.0019077378 -0.046911016 0.01853556
0001b0 cb 65 1a bc 6e 19 65 bd c0 11 b9 3b 58 8d 97 3d
       -0.009423683 -0.055932455 0.005647868 0.07400006
0001c0 0f 6b 40 bd 67 75 0f bb b9 92 39 3c f4 5f 7f bd
       -0.0469771 -0.0021890046 0.011326485 -0.062347367
0001d0 45 60 45 3c a9 23 50 bd 53 34 3c 3d 46 40 00 3c
       0.012046878 -0.05081526 0.045948338 0.007827824
0001e0 fd 29 21 3c b5 47 4b 3d 7e 6a 11 3d 00 12 74 3d
       0.009836671 0.049628932 0.03550195 0.05958748
0001f0 7f 29 48 3c 7e da 4c 3d 90 0b b6 bc 77 61 90 3d
       0.012216925 0.050013058 -0.02222231 0.0704984
000200 7e f2 bd bc fc 31 38 3d ad af 55 3c 24 98 20 3c
       -0.023186918 0.044969544 0.013042373 0.009801898
000210 1b 0a 3a 3d 02 2a 25 bc 3b 4c a1 3a 0c b4 a7 3c
       0.045419794 -0.010080816 0.0012306044 0.020471595
000220 ab c5 9a ba 45 60 a5 bc bc 4b de 3c 9c 44 34 bc
       -0.0011808177 -0.020187506 0.027135722 -0.011002686
000230 37 0b 81 bd 40 f3 37 ba 8f e2 79 3c 7e 2c fc 3c
       -0.06300967 -0.0007017143 0.01525177 0.030782934
000240 4e bf a8 bc c3 cb 28 3c ff c0 88 3c 2d ee 95 3a
       -0.020599034 0.010302487 0.01669359 0.001143878
000250 df e6 82 3c dd 39 68 bd 87 a1 05 3d c0 2a b0 3c
       0.015979229 -0.056695808 0.032624748 0.02150476
000260 5e 5f 8b bd d3 2c 6a bc a2 e8 2d bd 5b ce 2e bd
       -0.06805299 -0.0142929135 -0.042458184 -0.042677265
000270 6c c5 6b bd bc f4 3d 3c 05 01 c2 bc 05 b3 5d 3d
       -0.057561323 0.011593994 -0.023682127 0.054125804
000280 18 9e 60 3c 60 cf 5f bc 6d 1f 60 3b f3 5e 71 bd
       0.0137095675 -0.013660282 0.0034198419 -0.05892844
000290 9e 18 87 3d 96 3c 0e 3d ad 00 74 bd db e3 1a bd
       0.06596492 0.034725748 -0.059570957 -0.037814956
0002a0 6a 6d 82 3c 50 a8 13 39 f5 26 10 bd 13 a7 aa bc
       0.015921313 0.00014081714 -0.035193402 -0.02083162
0002b0 ad bf 8b bd b2 49 ff bc ca aa 6a bd cc 84 63 3d
       -0.06823669 -0.03116307 -0.057291783 0.055546567
0002c0 d4 59 26 3d 10 b5 6f 3c b6 91 83 3c b9 15 94 bb
       0.04061301 0.014630571 0.016060691 -0.004519191
0002d0 71 84 08 bd 60 01 90 3b e9 1e 23 3d 2b 3b e7 bc
       -0.03332943 0.004394695 0.0398244 -0.028226456
0002e0 98 57 29 bd 2a da 66 bc 5d c4 93 3c 63 ca 23 bc
       -0.0413433 -0.0140901 0.01803797 -0.009996983
0002f0 df f5 f4 39 0a 32 48 bd f3 9f 77 bc 65 fd f6 3c
       0.00046722495 -0.048875846 -0.015113818 0.030150125
000300 07 ac 33 bd 68 08 87 3c fb ab b1 3c ab 71 07 bd
       -0.04386523 0.0164835 0.021688452 -0.033067387
000310 4f 1a 15 3d b6 d9 e2 3b 9f de 87 bd b2 14 0c bd
       0.036402043 0.006922926 -0.066342585 -0.034199424
000320 89 e3 93 bd 46 c7 e1 bc 6a 81 cf 3c e3 0d fa bc
       -0.07221133 -0.027560841 0.025330264 -0.0305242
000330 fb 99 99 bd 96 8b c7 bc 1a f7 90 bd 76 89 5e 3c
       -0.075000726 -0.024358552 -0.07078381 0.013582578
000340 ab d8 14 3d 9c 5b a4 bc f2 d8 81 bb ff c7 60 bd
       0.036339443 -0.020063214 -0.0039626295 -0.05487823
000350 d7 f5 40 bd 93 4c d0 bb 1b 0e 2b bc c3 b0 60 3d
       -0.04710945 -0.0063567846 -0.010440375 0.054856073
000360 3c 29 28 bc 3b bb c2 3c 94 e2 cb b9 d2 06 dc bc
       -0.010263737 0.02377092 -0.0003888799 -0.02685872
000370 ad 4b 45 bd f0 c7 e5 bc 75 4e c5 bc 50 6a 7c 3d
       -0.048167873 -0.02804944 -0.024085263 0.061624825
000380 99 b1 b1 bc 67 4c d2 3c 7d 31 95 bc 7f 68 31 bb
       -0.02169113 0.025671197 -0.018212074 -0.0027070341
000390 81 ab 17 3d 5a b0 c5 bd d3 3c 1e 3d 59 81 ab bb
       0.037028793 -0.09652777 0.038632225 -0.0052339253
0003a0 ab c1 ac bc 11 d6 1d 3d 64 e4 96 3c 5d 1a 76 bd
       -0.021088442 0.038534228 0.018419452 -0.060083736
0003b0 2f 7a 4e 3d 57 a6 fc bc 8d aa 1a bd 13 d5 4d 3d
       0.050409492 -0.030841036 -0.037760306 0.05025203
0003c0 36 e5 04 bd 1f d8 ee bb 73 52 23 3d 73 ab 8b 3b
       -0.032445155 -0.0072889472 0.03987355 0.0042623817
0003d0 6a f0 1d 3c dc ad 50 bd 49 d7 de bb 77 87 a2 3d
       0.009639839 -0.050947055 -0.0068005663 0.07935994
0003e0 dd 52 6e bd 5f e7 92 3c 9e 39 95 3b 24 79 1c bd
       -0.058184493 0.017932592 0.0045539876 -0.038201466
0003f0 81 6f b9 3c df 65 04 3c ff b5 02 3d 77 b1 84 bd
       0.022636177 0.008080929 0.031911846 -0.06479161

embedding.0.0.bias f4 [64]
000000 98 c6 9d bc 60 d2 5e 3b 57 5c eb bb af 30 c8 3c
       -0.019259736 0.0033999905 -0.0071826386 0.024437277
000010 46 61 b4 3c b6 d0 38 bd 95 fb 1d bd ba 62 f3 3c
       0.02201904 -0.045120917 -0.038570005 0.029710162
000020 d0 4e 0b bc 42 24 8c 3a 75 0b b4 bc 5e 14 9e 3c
       -0.008502677 0.0010691958 -0.02197812 0.019296821
000030 4b 18 cf 3c 1b 35 fe bc 39 17 39 3c e5 75 07 3c
       0.025280138 -0.031031182 0.011297041 0.008267854
000040 ae 73 1c bd 8b 5d 5b bd 15 70 e6 3c b4 39 f6 3a
       -0.03819626 -0.053556006 0.028129617 0.0018785507
000050 8c 10 fc bc a2 42 30 bd 02 1e 7a bb d4 1d 14 bd
       -0.030769609 -0.043032296 -0.0038164859 -0.03616126
000060 b3 4c b2 3c f0 16 af 3c 63 29 89 bc cd 65 02 bd
       0.021765089 0.021373242 -0.016743368 -0.031835366
000070 e7 9c be 3c e1 a7 16 bd 92 1e 43 bd a3 78 47 bc
       0.023268176 -0.036781196 -0.047636576 -0.012174758
000080 55 e9 a9 bc af ae f4 3c bb e1 d0 3a 63 85 06 bc
       -0.020741144 0.029868452 0.0015936414 -0.008210513
000090 18 5b 09 bc fd f7 9f bc a1 23 b1 3b a9 2b a2 bb
       -0.008383535 -0.01952743 0.0054058586 -0.0049490524
0000a0 23 40 d2 3d 57 21 d1 3a a1 24 6a 3d 0c 1c ec 3a
       0.10266139 0.0015955371 0.05716384 0.001801373
0000b0 5a 63 e0 bc df 99 40 bc e0 9d d4 3c b5 16 96 bc
       -0.027391125 -0.011755436 0.025954187 -0.018321374
0000c0 55 48 aa bc a3 eb 03 bc b4 d5 d5 3b 4e 49 38 3d
       -0.020786444 -0.008051786 0.0065257195 0.044991784
0000d0 c0 8e fa bb a1 d5 56 bb 13 35 25 bc 14 4a 9b 3c
       -0.0076464117 -0.0032781141 -0.010083455 0.018956222
0000e0 14 5d c4 3c ea 4d 17 3d 36 e2 8e 3c f2 89 af bc
       0.023970164 0.03693954 0.01744185 -0.021428082
0000f0 31 64 13 bd 7c e0 ca 3d 81 84 6c 3c 49 e7 dc 3b
       -0.03598422 0.09906098 0.014435888 0.0067414385

embedding.0.1.weight f4 [64]
000000 38 38 61 3f 0b a9 95 3f b6 7e 51 3f c2 6d 85 3f
       0.8797641 1.1692213 0.8183397 1.042412
000010 e6 8a 92 3f a1 2e 90 3f 4a 9e 7c 3f 12 9a 73 3f
       1.1448638 1.126423 0.9867903 0.9515697
000020 b3 f1 8c 3f 05 6f 89 3f ff c8 94 3f 57 fd 6e 3f
       1.1011261 1.0737005 1.1623839 0.93355316
000030 3d b5 7f 3f db de 62 3f 80 9e 53 3f 53 1e 5c 3f
       0.9988592 0.886213 0.82663727 0.8598377
000040 59 e3 75 3f 54 05 8b 3f 26 9f 86 3f db 00 85 3f
       0.9605003 1.0861001 1.0517318 1.0390886
000050 e8 a2 7f 3f 70 bf 7a 3f 51 1b a8 3f 60 23 83 3f
       0.9985795 0.9794836 1.3133336 1.024517
000060 48 a1 89 3f 03 3d 83 3f 91 8f 7f 3f 09 b4 88 3f
       1.0752344 1.0252994 0.9982844 1.0679942
000070 2b 90 5c 3f f9 2b 8d 3f d0 60 98 3f 6b 76 84 3f
       0.8615748 1.1029044 1.1904545 1.0348638
000080 80 a6 74 3f b8 3f 7c 3f 23 a9 56 3f 28 ab 7c 3f
       0.9556656 0.9853473 0.8385183 0.98698664
000090 ad a8 79 3f 12 0b 6e 3f 64 64 80 3f 88 a8 61 3f
       0.97523004 0.9298564 1.0030637 0.88147783
0000a0 29 7c 93 3f bf cf 69 3f 10 3b 7d 3f 5c a3 6a 3f
       1.1522266 0.9133262 0.9891825 0.91655517
0000b0 e9 12 86 3f 09 aa 87 3f 40 32 79 3f 68 28 5c 3f
       1.0474521 1.0598766 0.973423 0.85999155
0000c0 e2 fa 5b 3f 66 dc 61 3f 06 45 95 3f 0a 24 9a 3f
       0.8592969 0.88226926 1.1661689 1.2042248
0000d0 d2 a4 8b 3f 26 34 89 3f a9 76 6f 3f ae 62 8c 3f
       1.0909674 1.071904 0.93540436 1.0967615
0000e0 fd 6c 5e 3f 6d a3 7f 3f a3 3d 91 3f 09 95 88 3f
       0.8688505 0.9985874 1.1346935 1.0670482
0000f0 a9 c0 7e 3f 46 4b 9e 3f 6b 9b 97 3f a0 ea 93 3f
       0.99512726 1.2366722 1.1844305 1.1555977

embedding.0.1.bias f4 [64]
000000 0e 44 ab be 30 9c 82 be 4c 13 81 be 8e 0c d2 bd
       -0.3345036 -0.25509787 -0.25210035 -0.10256301
000010 fc 62 80 3c 9a f5 33 be 5c 03 e8 39 db d5 a5 3a
       0.0156722 -0.17574158 0.0004425299 0.0012652235
000020 5b 07 22 be 39 e4 6d bd ea a2 58 be 30 1b 0c 3c
       -0.15823118 -0.05807898 -0.21155897 0.008551404
000030 6a f9 2b bd b4 4d 48 be f7 35 b6 be 56 a3 55 be
       -0.041985907 -0.19560891 -0.35588047 -0.20863089
000040 e2 6a ae 3d df 71 24 bd 7f fb b7 bc ef 2a 02 be
       0.0851648 -0.04014766 -0.02245879 -0.1271169
000050 2d fc 2a bd bf 82 52 bc 03 24 92 3d 37 10 22 3d
       -0.0417444 -0.012848555 0.07135775 0.039566245
000060 a2 5b 3a be f3 bb a0 bd 5a f7 88 bd 6a 80 bd bd
       -0.18199018 -0.078483485 -0.066878036 -0.09253009
000070 19 ba 1e be 06 15 b0 bc 96 6e fd bd d5 5d e5 bd
       -0.15500678 -0.0214944 -0.12374608 -0.11199538
000080 af f7 2f be cb 50 9c 3d 64 07 8d be 8c 93 eb bd
       -0.17184328 0.076325975 -0.275447 -0.11502752
000090 a1 34 55 3c 14 0e a1 bd 73 f9 38 3b ae b6 74 be
       0.013013036 -0.07864013 0.0028224855 -0.23897812
0000a0 35 1d 03 be 43 87 36 be 2b ce db bd 91 e3 31 3a
       -0.1280411 -0.17825036 -0.10732683 0.0006785924
0000b0 ed fb 92 bd 52 9a 9d 3c fc 89 eb bd a4 d0 9c be
       -0.07176957 0.019238625 -0.11500928 -0.3062793
0000c0 c3 9c 87 bd 3a f7 47 be a8 4f 16 be 0a b4 cb bd
       -0.06621697 -0.19527903 -0.14678824 -0.09946449
0000d0 22 75 47 bd 46 49 89 bc c6 32 3e bd 8c bb fc 3d
       -0.04869569 -0.016758572 -0.04643514 0.12340459
0000e0 8e d7 81 be ff f2 88 bd e2 6a 65 bd 33 f2 ed bd
       -0.25359768 -0.06686973 -0.056010135 -0.116184615
0000f0 85 15 82 bc 8f 7a 85 3c 70 68 87 bd 81 77 51 be
       -0.015879402 0.016293792 -0.06611717 -0.20455743

embedding.0.1.running_mean f4 [64]
000000 b0 20 99 bc 41 e6 36 bc 39 1a 26 3c df 26 8d 3c
       -0.018692344 -0.011163295 0.010138088 0.01723045
000010 7d f9 11 3c 75 48 58 bd 81 05 21 bd a3 59 cb 3c
       0.00890958 -0.052803475 -0.03931189 0.024823016
000020 d0 11 69 bc 1e b4 cf bb 23 0e 09 bd f5 aa 6c 3c
       -0.014225438 -0.0063386103 -0.033460747 0.014445056
000030 68 73 99 3c 9c 2d 3d bc fa 98 ba 3c db ea 03 3c
       0.018731788 -0.011546519 0.022778023 0.008051599
000040 06 8d 2d bd 0f 8b 82 bd ee 9a b2 3c ff 65 45 bb
       -0.04237082 -0.063741796 0.021802392 -0.003012061
000050 23 61 15 bd 1e e4 3a bd 17 09 18 bd 10 f0 21 bd
       -0.03646959 -0.045627706 -0.037118044 -0.039535582
000060 3e ef 78 3c d1 3a ac 3c de 10 90 bc 27 52 10 bd
       0.0151937585 0.02102414 -0.017586168 -0.035234597
000070 ad ef 0e 3d 59 18 2a bd b8 6b 5e bd b2 45 97 bc
       0.03489654 -0.041527126 -0.054301947 -0.01846585
000080 09 71 a2 3b eb ff 9b 3c 12 01 43 3c c4 6c 0f bc
       0.0049573225 0.01904293 0.011902111 -0.008753959
000090 74 f8 19 bc b5 5e b9 bc 45 8c 10 3b ab 85 2f ba
       -0.009397615 -0.022628168 0.0022056263 -0.00066956383
0000a0 b0 cf c3 3d 21 b2 d3 3c c1 be 42 3d aa e7 89 b9
       0.095610976 0.025841774 0.0475452 -0.0002630328
0000b0 1b 5a e2 bc e6 43 c3 bc 59 0f c5 3c 80 97 26 ba
       -0.027630856 -0.023836087 0.02405517 -0.0006354973
0000c0 0e 4f af bc b3 f4 d2 3b 50 63 dd ba 5a 25 16 3d
       -0.0214 0.006437862 -0.0016890559 0.036656715
0000d0 57 d2 f3 bb 53 4b 57 bb 41 60 6a bc 0d fe 87 3c
       -0.007440846 -0.0032851293 -0.014305175 0.016600633
0000e0 bf 35 33 3d 8f bb 12 3d af 80 e7 3b 61 a2 f2 bc
       0.04375243 0.0358234 0.007064901 -0.029618444
0000f0 01 86 2b bd 2a 77 b2 3d 96 60 df 3b 7f ae 50 ba
       -0.041875843 0.08714135 0.006816934 -0.0007960572

embedding.0.1.running_var f4 [64]
000000 2a b9 0a 3a ff b5 a1 3a 24 9a af 3a 65 b9 6d 3a
       0.0005291874 0.0012337564 0.0013397378 0.00090684585
000010 ff b4 c4 3a 4d f2 0b 3a ee a6 d6 39 7b 17 ae 39
       0.0015007554 0.0005338535 0.00040941633 0.0003320536
000020 2f e1 5c 3a 88 42 28 3a 0e 1d 82 3a 4e 84 b7 39
       0.0008425889 0.00064186053 0.0009926872 0.00035003055
000030 59 8a 1f 3a 01 7a f4 3a 6e 2c 3b 3a 78 51 8b 39
       0.0006085984 0.0018652083 0.00071401044 0.00026572845
000040 2f 5e e4 39 8e 8e 55 3a 00 bf 1b 3a e6 3d 0d 3a
       0.0004355772 0.00081465475 0.0005941242 0.0005387947
000050 4a e2 bd 39 b1 d1 0d 3a c0 e7 7d 3b a2 f4 94 39
       0.00036217488 0.00054099696 0.003874287 0.00028411025
000060 a6 c9 ab 39 c3 30 a9 39 b1 2c 2a 3a 5e 86 10 3a
       0.000327659 0.00032270522 0.0006491645 0.00055131863
000070 83 44 46 3a 31 72 8e 39 4d 07 37 3a 22 3c 41 3a
       0.00075633096 0.0002716943 0.0006981984 0.0007371326
000080 a7 02 27 3b 7f 4d 3d 3a e7 2f 10 3a 7f 32 b0 39
       0.0025483759 0.00072213256 0.0005500302 0.00033606958
000090 b7 9a 95 3a 8c 06 02 3a 68 cc 1f 3a f6 9e 1b 3a
       0.0011413906 0.0004960082 0.00060958276 0.0005936468
0000a0 9e af 32 3a e5 08 17 3b d3 56 2d 3a 72 fb 00 3a
       0.000681633 0.0023046073 0.0006612364 0.0004920281
0000b0 56 5c c8 39 5c 7f 56 3a 97 47 dd 39 b4 81 c5 3a
       0.00038215768 0.000818243 0.00042205743 0.0015068562
0000c0 f8 93 0b 39 7e ad 6e 3a 99 7a 1c 3a 27 28 63 3a
       0.00013311196 0.0009104832 0.0005969196 0.0008665346
0000d0 33 12 16 3a f6 4b 23 3a 67 5d 0d 3a 89 dc 6c 39
       0.0005724758 0.00062292756 0.0005392641 0.0002258887
0000e0 f0 25 ce 3a c8 94 b7 39 4e 13 42 3a 5f 38 36 3a
       0.0015727859 0.0003501533 0.00074033893 0.0006951149
0000f0 dd 9c 8d 39 9c 8c 95 3a 46 17 42 3a a8 67 17 3a
       0.00027010488 0.0011409703 0.00074039807 0.0005775639

embedding.1.0.weight f4 [64, 64, 3, 3]
000000 13 90 1f bd 8d 60 64 bd 4d b3 29 bd 86 32 93 bc
       -0.03895576 -0.05575614 -0.04143076 -0.017968427
000010 0d 56 57 3c 1f 8b 86 3c ae a3 95 3c 41 e9 80 3d
       0.013143075 0.01642376 0.018266525 0.0629449
000020 30 33 9a 3c 7f 80 c1 3d 05 75 78 bc 93 eb d7 bc
       0.018823236 0.09448337 -0.015164618 -0.026357448
000030 dc 3e 79 3d 8b b7 53 3d 9b 33 ff bc 76 53 31 3d
       0.060850963 0.051688712 -0.031152537 0.043292485
000040 25 6e ba bc 76 0f c6 3c 3d 5e 93 ba 7e 5c 0d bd
       -0.0227576 0.024177294 -0.0011243295 -0.034512036
000050 da 21 a0 bc 7c d6 8c 3d 83 a4 0e 3d ac 48 b6 3a
       -0.019547392 0.06876847 0.03482486 0.0013907156
000060 e9 60 4d ba d1 94 27 3c 9f 05 01 bc b8 d3 1c 3d
       -0.000783457 0.010228352 -0.007874875 0.03828785
000070 ab fd 11 3d 55 a6 27 3d bf 6b 52 bb 03 1e 5c 3c
       0.035642307 0.04093011 -0.0032107679 0.01343489
000080 89 8e 39 bb 7a 44 a5 bc b6 3f 1a bd 15 ef 46 3c
       -0.0028313717 -0.020174254 -0.037658416 0.012141963
000090 71 26 2f 3d d1 d4 8a bc c2 63 67 bc 0b 47 20 3c
       0.04276127 -0.016947182 -0.014122905 0.009782563
0000a0 f4 57 e2 bc 10 56 ad bc 43 ff 5c 3d 48 a7 54 bd
       -0.02762983 -0.021159202 0.053954374 -0.051917344
0000b0 1e 0a 1e bd 1a 91 5c 3c bb b1 52 bc e3 65 d3 3b
       -0.038583867 0.013462329 -0.012859757 0.006451355
0000c0 ac 9d 5f bd 86 7e e3 bc c5 31 f6 bb 20 c4 4d 3a
       -0.054593727 -0.027770292 -0.007513257 0.00078493543
0000d0 fd 36 0c bd f3 88 34 bd e5 67 80 3b 76 be 91 bc
       -0.03423213 -0.044075917 0.003918635 -0.017791014
0000e0 03 f0 2d 3b 25 35 6c 3d 68 c4 6f 3d 65 85 3d 3c
       0.0026540763 0.05766787 0.058536917 0.011567448
0000f0 ce d0 cd 3c d3 b7 e2 3c 7b be e9 3c 72 a1 b3 3d
       0.02512398 0.027675545 0.028533211 0.087710276
000100 14 be 80 bb 6e b1 c7 3c 88 32 92 bc 84 44 17 bd
       -0.003928909 0.024376597 -0.01784636 -0.036930576
000110 f2 ea 01 bb 94 23 7e bc 0e 3f ff bc c7 1d 3c bd
       -0.0019823876 -0.015511412 -0.031157997 -0.045926835
000120 71 67 92 bd 8d ce 41 bd 06 cf ce bd 07 56 77 3d
       -0.07148636 -0.047316123 -0.1009808 0.060384776
000130 ac 1c 2b 3d 34 dd ee 3c c5 96 5c 39 35 69 49 3c
       0.04177539 0.029158212 0.00021037001 0.01229315
000140 37 bc b7 3c 50 ae 8e bb ea d5 b9 bd 87 18 17 bd
       0.022428615 -0.0043542758 -0.09074004 -0.036888625
000150 5c 53 b5 bc e5 a2 a2 bb c1 89 24 bc 91 36 7b bd
       -0.022134475 -0.004963266 -0.010042609 -0.061331335
000160 9d 24 c9 bb 65 61 09 bd 46 79 b6 bc a8 b8 25 3d
       -0.006138398 -0.03354015 -0.022274625 0.040459305
000170 8d ea 32 bc 61 d2 b2 bc d4 09 fc bc 4f fb 70 bb
       -0.010920179 -0.021828832 -0.030766405 -0.0036770885
000180 8c 10 fd bb 18 1f 00 bc 27 7d 1c bd ac fd bd 3c
       -0.00772292 -0.007819913 -0.038205292 0.02319225
000190 b2 d1 a5 3d 41 dd 3f 3d 59 0e 1a ba f8 81 be 3b
       0.08096637 0.046841864 -0.0005876772 0.0058138333
0001a0 ae bd 83 bc 42 60 9c 3c 05 95 c6 3c f9 4b 85 bc
       -0.016081657 0.019088868 0.02424098 -0.016271578
0001b0 aa 54 eb 3c aa 12 3c 3d f8 7c 76 3c 0a c0 e0 bc
       0.028726894 0.045916237 0.015044443 -0.027435321
0001c0 cf a7 64 bd 27 8c 0f bd cc 26 e9 3c 1b 8d 38 bc
       -0.055824097 -0.03504577 0.028460883 -0.011264111
0001d0 05 07 fc bc 37 18 d3 bb b3 57 cd 3c 0f fd ea bc
       -0.030765066 -0.0064420956 0.025066232 -0.02868512
0001e0 2b f2 35 3b 5c 3b 27 3d e4 0c 3a 3d 73 36 34 bc
       0.0027762752 0.040828094 0.04542245 -0.01099931
0001f0 f4 92 d4 bc b6 2c 09 bd 97 f0 ec bc c5 8f 89 bc
       -0.025948979 -0.033489905 -0.028923316 -0.016792187
000200 22 7b 3e bd 36 f9 dd bc ea d3 e8 3c 9e dd 35 3c
       -0.046504147 -0.027096372 0.028421361 0.011100201
000210 35 15 12 bd d2 97 b1 3b 3c 90 89 bc 12 a0 0a 3d
       -0.035664756 0.0054197097 -0.01679241 0.03384406
000220 46 de fe bc 0f 05 96 3b 4b 70 76 3b 25 ce d8 3b
       -0.031111848 0.0045782398 0.0037603553 0.006616371
000230 01 fe 72 3c aa 13 05 bd ab a2 9b bc e0 a1 7f 3c
       0.014831067 -0.032489456 -0.018998465 0.015602559
000240 99 d6 58 bd ba c4 1e 3c 4e fd 0a 3d 3e df ce bc
       -0.05293903 0.009690458 0.033932976 -0.025252935
000250 b5 94 8b bb 4b e1 08 bd 10 92 92 3b 92 2f 02 3d
       -0.0042596706 -0.03341798 0.0044729784 0.031783648
000260 4f 5c be bc 8f 4c ce 3c e5 52 68 bd de c5 02 bd
       -0.023237376 0.02518299 -0.05671968 -0.031926982
000270 95 6d 6c 3d 5a 78 cb bc 12 09 56 bb a4 19 93 3c
       0.057721693 -0.024837662 -0.0032659215 0.017956562
000280 f9 ea 74 3d 6c 0b ec 3c c0 c2 dd 3c 71 1a 78 3d
       0.0597944 0.02881404 0.027070403 0.06057209
000290 6a ab 83 3c ff 76 bd bc 4f f0 30 bd ff 9f 8e bc
       0.016072948 -0.02312803 -0.043197926 -0.017410276
0002a0 01 7f e3 bb e9 32 05 3d e7 ee 64 3d a5 8d be bc
       -0.0069426303 0.032519255 0.055891898 -0.0232609
0002b0 ad 0d 43 bc 72 fb 42 bc d0 a7 97 3d 40 24 7a 3b
       -0.011905116 -0.01190077 0.074050546 0.003816858
0002c0 33 7a e8 3b cd e1 53 bc be c5 3b bc 7d 05 88 bb
       0.0070946454 -0.012932253 -0.01146072 -0.004151045
0002d0 46 7b c2 3c 69 d1 0c 3d 2d d4 17 3d 54 4e 0b 3d
       0.023740422 0.034379397 0.03706758 0.034010246
0002e0 b4 6a 06 bd f5 59 10 3d e5 d7 94 3c 68 35 f6 3c
       -0.032816604 0.03524204 0.018169353 0.030054763
0002f0 56 73 c0 39 70 7d a5 bc 07 c8 fa 3c bd 1c d6 3c
       0.00036707026 -0.020201415 0.030612959 0.02613675
000300 1a 1a 10 bc 96 78 a4 bc f1 9d 2e bc 92 a1 af bb
       -0.008795286 -0.020077031 -0.010657773 -0.005359837
000310 b7 c3 2d bc 63 85 52 3c d4 5d c8 ba 86 0a 67 3d
       -0.010605744 0.012849185 -0.0015286752 0.05640652
000320 2e e9 fa 3c 41 9b 24 bd f8 0f 47 bc 89 b0 fd b9
       0.030628767 -0.040187124 -0.012149803 -0.0004838745
000330 46 16 d9 3c 69 41 0d 3d 48 0f e1 3c d0 fe af 3b
       0.026499879 0.034486208 0.027473107 0.005370952
000340 47 2c 8d bd 61 a3 0b bc 50 a1 30 3d ff 10 2a bc
       -0.06893211 -0.008522839 0.04312259 -0.010380029
000350 9d 9b 79 3c a8 ca cb bc 93 e6 18 bd f9 00 68 3d
       0.015234855 -0.024876907 -0.037329268 0.056641553
000360 c0 18 48 bd cd 28 e1 bb 83 6e b2 bb a6 3d 81 3b
       -0.04885173 -0.006871319 -0.005445303 0.0039441166
000370 eb 57 03 bd 62 96 a9 38 0e d5 1e 3a fb ff b9 bc
       -0.032066267 8.086559e-05 0.00060589693 -0.022705069
000380 00 79 55 3d 4b dc 88 3c 2f 45 52 3c c4 fa 45 3d
       0.052117348 0.016706606 0.0128338775 0.04833485
000390 02 dc c1 bc 56 79 6c 3b ad ac 70 bd 90 0f 8f 3d
       -0.023664478 0.0036083064 -0.058758426 0.0698539
0003a0 2d 86 ed b9 e4 44 59 3b f4 41 c7 bb b3 38 bd 3c
       -0.0004530413 0.0033152634 -0.0060808603 0.023098325
0003b0 de 9f 50 3c 88 d3 19 bd 65 f1 7c bd 7a 8a 10 bc
       0.012733428 -0.037555248 -0.06175365 -0.008822078
0003c0 c4 fb 02 3d 3e a6 4a bc 29 c7 80 bc 43 37 c3 bc
       0.031978384 -0.012368737 -0.015719967 -0.023830062
0003d0 1c 7e 97 3d 83 8b 7e 3c 76 21 d7 bc 46 b3 b5 bc
       0.073971 0.015536192 -0.026261073 -0.02218021
0003e0 eb 0c cf 39 fc 53 d8 39 b8 ca 03 bd e1 07 83 bd
       0.0003949174 0.00041261304 -0.03217575 -0.06397987
0003f0 5b 04 80 ba 83 fc f6 3c 8d c5 ca bc 5d a1 49 3c
       -0.0009766923 0.030149704 -0.024752403 0.012306538

embedding.1.0.bias f4 [64]
000000 61 86 9b 3b 2e b1 81 3c 5f f7 1b 3a 8d 88 77 3c
       0.004746244 0.015831556 0.0005949642 0.01510824
000010 fd 81 15 3c e5 8f d0 3b ee a8 31 bc 3a 6c 49 bc
       0.00912523 0.00636481 -0.010843499 -0.01229387
000020 ad 18 99 39 31 77 df ba 9a dd b3 ba f7 94 8f 3b
       0.0002920082 -0.0017049072 -0.0013722659 0.0043817717
000030 48 ef a4 bb 26 8a 4e bc 78 8d 75 bb 25 17 43 bb
       -0.0050334074 -0.012606179 -0.0037468355 -0.0029768434
000040 b1 bb e5 bb 6d f5 9f 39 14 c9 c6 3b b2 87 aa bc
       -0.0070109 0.000305097 0.006066451 -0.020816658
000050 a5 a5 fd 3b ea a9 8e bb 35 a0 bc 3b 89 07 31 bb
       0.0077406936 -0.0043537514 0.005756403 -0.0027012548
000060 12 59 39 3c 38 3e 02 3c 78 c7 14 bc dd 60 de bb
       0.01131274 0.007949404 -0.00908076 -0.0067864493
000070 dc 63 0d bb 33 f3 26 3c 34 7b 74 3c be a4 f1 ba
       -0.0021574413 0.010189819 0.014921952 -0.0018435938
000080 04 e9 ab bc 7c 32 1c 3c 8a d8 0f bc ed 81 98 3b
       -0.020985134 0.009533521 -0.008779654 0.0046541602
000090 a8 00 a6 bb bf 82 14 bb dc 75 b6 3c c1 17 67 3c
       -0.005065996 -0.0022660939 0.022272997 0.0141047845
0000a0 58 00 dd 3b da e4 98 3c 3d 68 95 bc 31 14 ab ba
       0.0067444257 0.018663812 -0.018238181 -0.0013052282
0000b0 f2 ed bd 3c 37 39 96 bb c8 aa 86 bb 76 e0 30 3c
       0.02318475 -0.0045844573 -0.004109714 0.010795703
0000c0 01 cb e0 bb 38 d7 52 3a 7c 34 26 3c f5 7b a6 3b
       -0.0068601375 0.00080429344 0.010144349 0.005080695
0000d0 3a 76 b0 bb 48 5a 3f 3c 89 89 bc 3b 30 91 ac 3b
       -0.0053851875 0.01167924 0.0057537 0.005266331
0000e0 3a 61 58 bb a1 ea ff bb 90 f3 e6 3a 11 6c 4d bc
       -0.0033016936 -0.0078099524 0.0017620195 -0.012537972
0000f0 dc 40 3a bc 8c 21 4a bc 66 a8 98 3b 99 74 ab bb
       -0.011368003 -0.0123371 0.0046587465 -0.0052324054

embedding.1.1.weight f4 [64]
000000 01 5d 6b 3f fb c9 84 3f bb 85 7a 3f dd e8 80 3f
       0.9193879 1.037414 0.97860307 1.0071064
000010 48 d0 6f 3f 95 cd 8e 3f b1 85 71 3f f3 5c 70 3f
       0.93677187 1.1156489 0.9434462 0.9389183
000020 03 51 7f 3f 35 30 87 3f b2 04 86 3f 9d a3 88 3f
       0.9973299 1.0561587 1.0470183 1.0674931
000030 fc 4d 64 3f ed db 8f 3f 1d 99 80 3f 05 d3 83 3f
       0.89181495 1.1238991 1.0046726 1.0298773
000040 5b 5d 84 3f f9 47 77 3f d7 76 80 3f c6 8b 6c 3f
       1.034099 0.96594197 1.0036267 0.9240078
000050 54 e6 79 3f 88 ac 65 3f da d3 77 3f 77 07 7d 3f
       0.9761708 0.89716387 0.96807635 0.98839515
000060 6d 5c 87 3f 9c f2 83 3f 76 b6 86 3f cd e7 80 3f
       1.0575081 1.0308414 1.0524433 1.007074
000070 8a b3 7a 3f 7e e3 7c 3f 75 ea 87 3f 92 b1 74 3f
       0.97930205 0.98784626 1.0618426 0.9558345
000080 0d b0 93 3f 22 3d 81 3f 54 6e 76 3f 8b 29 98 3f
       1.1538101 1.0096781 0.962621 1.1887678
000090 f9 56 89 3f bf 75 82 3f 13 88 81 3f 24 83 77 3f
       1.0729667 1.0192183 1.0119652 0.9668448
0000a0 12 20 7b 3f 96 26 7b 3f b3 ed 84 3f fa ad 80 3f
       0.9809581 0.9810575 1.038504 1.0053093
0000b0 1e 42 83 3f c5 97 84 3f 85 7a 6d 3f 34 55 8b 3f
       1.0254552 1.0358816 0.92765075 1.0885377
0000c0 ab c2 89 3f 04 2c 70 3f e4 24 58 3f f3 39 65 3f
       1.0762533 0.9381716 0.8443129 0.8954155
0000d0 f0 be 6e 3f 22 1d 7b 3f 62 f9 85 3f c9 e4 7d 3f
       0.932601 0.9809133 1.046673 0.99177223
0000e0 b3 43 7c 3f aa 07 81 3f 63 bf 77 3f ef 05 60 3f
       0.985408 1.0080464 0.9677641 0.87509054
0000f0 de 93 59 3f 0e f4 87 3f 5d 7a 83 3f 31 37 7a 3f
       0.8499125 1.0621355 1.0271717 0.97740465

embedding.1.1.bias f4 [64]
000000 eb 15 a5 bd dd 5e 1f bc 54 24 05 bc a7 fa 22 bd
       -0.08060821 -0.009727207 -0.008126337 -0.039789822
000010 5d 64 02 be 7d a5 dc 3a de a5 ba bd 09 28 50 be
       -0.12733598 0.0016833987 -0.09113668 -0.20327772
000020 81 62 ca bd d9 cc 72 bd 18 13 02 bd 74 e4 35 bd
       -0.098820694 -0.05927739 -0.03175649 -0.044407323
000030 6b d9 02 be d9 a5 de bc b5 2a 0f bd ed 01 9c bd
       -0.12778251 -0.027178692 -0.034952838 -0.07617555
000040 36 4b 96 bd 69 67 89 bc 94 d5 a3 bd 69 ce 49 bd
       -0.07338564 -0.016772943 -0.07999721 -0.049269114
000050 76 c0 aa 3c 7c 25 e7 bd 35 17 eb 3c c6 83 d3 bd
       0.020843726 -0.112864465 0.02869759 -0.10327868
000060 44 c3 57 bd f0 3a b1 bd fe 99 e4 3d 3d 01 9e bd
       -0.052676454 -0.086538196 0.11162184 -0.0771508
000070 09 b6 33 be 4e 24 47 bd 0f 05 52 bd bc f0 9f bd
       -0.1754991 -0.048618607 -0.051274356 -0.07809588
000080 49 bc 91 bc 93 9b 5f be 8f 92 c8 bd 79 c5 0a bb
       -0.017789977 -0.2183669 -0.09793579 -0.0021174832
000090 6e 13 d1 bd f8 a8 37 bd c1 d3 fb bb 09 af db bd
       -0.10208784 -0.044838876 -0.007685155 -0.10726745
0000a0 df cd 2e bd 44 17 36 bd bc 97 d9 bd fa 9c a5 bd
       -0.042676803 -0.04445578 -0.10624644 -0.080865815
0000b0 5e 19 da 3c e7 e4 ac bd d3 47 22 3d ad 86 86 bd
       0.026623424 -0.08442097 0.03961928 -0.06568656
0000c0 40 c0 89 bc 8c 7a 37 be 01 bc a0 bd 25 b8 f3 bd
       -0.016815305 -0.17917842 -0.07848359 -0.11900357
0000d0 57 d4 8d bd 58 fc ab 3d 45 4d 86 bd 0d 6f 50 be
       -0.06925266 0.0839774 -0.06557707 -0.20354863
0000e0 d6 92 7b bd 62 cd b1 3d a5 b2 15 be 9d af ea bd
       -0.06141933 0.08681752 -0.14618929 -0.11459277
0000f0 47 3f 98 bd 29 81 cc bd d8 de 15 be 6b 3c 83 bd
       -0.07433944 -0.09985573 -0.1463579 -0.06408008

embedding.1.1.running_mean f4 [64]
000000 ed ab d6 be 5c 25 af bf 3a 55 0b 3e 1e 85 78 3e
       -0.41928044 -1.3683276 0.1360673 0.2426953
000010 50 bd 87 bf d5 ef d8 bf 8d 7b 86 3f 7f c1 6d bf
       -1.0604649 -1.6948191 1.0506455 -0.92873377
000020 cc 60 a6 bd 76 55 e8 3e 1b d5 90 bf 89 0c cd 3e
       -0.08123931 0.45377702 -1.1315035 0.40048626
000030 1d 50 e7 3e 18 36 d8 bf 00 0a ac bf a4 86 c3 bf
       0.4517831 -1.6891508 -1.3440552 -1.5275464
000040 d5 40 51 bf 0c b4 9e bf e3 e4 a2 bf a1 a4 55 be
       -0.8173955 -1.2398696 -1.2726101 -0.20863582
000050 e0 1a e6 3e 80 ca c0 be aa 1d 3e bf 75 16 9f be
       0.4494238 -0.37654495 -0.74264014 -0.3107182
000060 16 bf 2f be c1 89 db bf 3d 63 ad 3e 4c 0d 09 bf
       -0.17162737 -1.7151414 0.33864775 -0.53535914
000070 97 ab 7a bf 54 fc eb bf aa 21 00 bf 76 b0 67 be
       -0.97918075 -1.843638 -0.5005137 -0.22625908
000080 81 52 26 3e b5 81 71 bf 99 86 40 bf 22 52 6a 3e
       0.1624241 -0.9433854 -0.7520538 0.22882894
000090 8f 50 98 3e e2 29 4b bf 48 74 da 3e ad b1 0a be
       0.2974896 -0.79360783 0.4266684 -0.1354434
0000a0 a5 56 e4 be 61 97 8a bf 82 f5 27 bf 87 46 17 bf
       -0.44597355 -1.0827447 -0.6560899 -0.5909199
0000b0 1a 30 14 bf 23 01 88 be 51 af 46 3e e6 6c f7 bf
       -0.578859 -0.26563367 0.19402815 -1.9330108
0000c0 5f 66 87 bf a5 9a 8e be cd 8e e6 3e c2 3d b3 be
       -1.0578116 -0.2785236 0.45030823 -0.35008055
0000d0 37 ce fa bf 11 2a e4 be 47 ae 63 bf 1e f0 57 bf
       -1.9594182 -0.44563344 -0.889378 -0.84350765
0000e0 ca 6c 95 bf 7e d1 9c bf 53 c7 42 3f ef 34 de bd
       -1.1673825 -1.2251432 0.76085395 -0.1084994
0000f0 93 ae 3f 3f 51 4e 10 bf ed b2 34 bf b9 21 56 bf
       0.74875754 -0.563695 -0.7058552 -0.83645207

embedding.1.1.running_var f4 [64]
000000 4c b3 bb 3f e2 c4 db 3f 49 15 d3 3f 12 f1 c8 3f
       1.4664092 1.7169459 1.6490871 1.5698569
000010 cb 5c 39 40 ce d2 e4 3f 7a 25 06 40 ac 3c e6 3f
       2.8962886 1.7876832 2.0960374 1.7987266
000020 9f 84 81 3f 4c 64 11 3f b4 35 01 40 ff 41 00 40
       1.0118598 0.56793666 2.0189028 2.004028
000030 52 6c 2d 40 90 55 4f 40 7f 7f 06 40 ba ad 17 40
       2.7097363 3.2395973 2.1015317 2.3699784
000040 4e c7 fe 3f 30 69 59 3f 5e d8 fa 3f 74 dc 90 3f
       1.9904573 0.8492613 1.959728 1.1317277
000050 5f ab 90 3f 90 76 36 3f 3b 68 98 3f e3 a0 e5 3f
       1.1302298 0.7127466 1.1906809 1.7939724
000060 58 77 7b 3f b4 b2 04 40 ec cd fa 3f 26 59 80 3f
       0.9822898 2.0734072 1.9594092 1.0027206
000070 98 c8 9d 3f 02 b7 16 40 aa a9 2e 40 91 94 d6 3f
       1.2326841 2.35492 2.7291055 1.6764089
000080 14 ca 83 3f 17 e5 f0 3f c9 60 96 3f f7 80 94 3f
       1.0296044 1.8819913 1.1748286 1.1601857
000090 87 64 9f 3f 8d 9f d4 3f 4a e6 5a 3f 06 18 d1 3f
       1.2452554 1.6611191 0.85507643 1.6335456
0000a0 23 12 0b 40 e1 84 22 40 d2 d0 99 3f 4b 76 19 40
       2.172982 2.5393603 1.2016852 2.397845
0000b0 fb 73 10 40 1d 2f 2b 40 a7 3e b0 3f c8 fd 60 40
       2.257079 2.6747506 1.376912 3.5154896
0000c0 6b 81 3f 40 91 19 8d 3f fa 45 96 3f 92 61 d7 3f
       2.992274 1.1023427 1.1740105 1.6826651
0000d0 97 f3 1a 40 db 06 9b 3f 30 4a 04 40 d2 ab c6 3f
       2.4211175 1.2111467 2.067028 1.5521185
0000e0 28 b0 a6 3f 88 ba f9 3f 47 28 22 3f 86 62 b0 3f
       1.3022509 1.951005 0.6334271 1.3780067
0000f0 ac 20 14 40 b6 29 42 40 71 89 01 40 a7 43 d7 3f
       2.3144941 3.0337958 2.0240138 1.6817521

embedding.2.0.weight f4 [64, 64, 3, 3]
000000 d2 56 eb bc 78 ea 74 3a 1b 2a bb 3c f0 e9 bf 3b
       -0.028727923 0.00093428 0.022847226 0.005856745
000010 af 7f 81 bc 53 f8 c5 3b a3 e7 2f bc 9f e0 cb 3b
       -0.015807955 0.0060415654 -0.010736379 0.0062218453
000020 0f 37 c0 ba 24 40 a6 3c 97 cf 87 3b 88 6f 53 bc
       -0.0014664846 0.020294257 0.0041446197 -0.012905009
000030 4a 05 97 bc 01 de 65 bc e8 d8 ad 3c 71 7b 48 bc
       -0.01843514 -0.014029981 0.021221593 -0.012236462
000040 3c 33 45 3c 68 a8 09 3d 7a c8 88 39 2f 93 01 bd
       0.012036141 0.03360787 0.00026089308 -0.031634506
000050 f6 dc 94 3c 61 69 4a 3b cc 9c 24 bd be a3 d4 3c
       0.018171769 0.0030885565 -0.040188596 0.025956985
000060 a0 b4 16 bd ff 42 f3 bc 88 77 94 3c 76 9b 2f bd
       -0.03679335 -0.029695032 0.018123403 -0.04287287
000070 3e b8 35 bd b3 34 91 bd 69 cc 33 bc ec 6c 8d bc
       -0.04436516 -0.0709013 -0.010974028 -0.017263852
000080 cd 0d 19 bd 72 8e cf bc a4 04 6e 3a e8 4c 57 bd
       -0.037366677 -0.025336478 0.0009079671 -0.052563578
000090 58 12 54 3c 86 bc 3b 3d 36 69 56 bc fb 79 db 3a
       0.012943827 0.045834087 -0.013086608 0.0016744727
0000a0 fc 8a a4 bc 02 9f 1a bd 05 96 e4 bc 6d 0b 23 3d
       -0.020085804 -0.037749298 -0.027903566 0.03980582
0000b0 8b f5 29 bc 54 d5 7c bc 8d 75 80 bc e1 72 b4 bc
       -0.010373483 -0.015431721 -0.015681053 -0.022027435
0000c0 ec 81 c5 bd 3b 6a 9a bc 9f c9 3b 3d f2 35 83 bc
       -0.09643921 -0.018849483 0.045846578 -0.016016934
0000d0 1f 4a fa 3c 75 b4 24 3d bf 7b a1 bc 06 9a 20 3d
       0.030552922 0.04021116 -0.019712327 0.03920939
0000e0 a2 e2 5d bd 25 3d 14 bd ae 4b 6c bc f9 93 4b bb
       -0.054171212 -0.036191124 -0.01442234 -0.003106354
0000f0 69 18 7f bc 11 56 06 bc d8 af e4 bc 18 09 26 bd
       -0.015569785 -0.008199231 -0.02791588 -0.040536016
000100 92 94 96 bc 77 2b d2 ba 8b 44 1a bd 9b 35 51 3d
       -0.01838139 -0.0016034682 -0.037663024 0.051076513
000110 7b bf a1 3b 31 c8 6e b9 15 b4 02 bd f5 78 be 3c
       0.0049361563 -0.00022772026 -0.03191002 0.023251036
000120 47 23 e6 bc 5a a5 01 bd b2 4a a9 bd c0 88 27 bc
       -0.028092993 -0.031651832 -0.082662 -0.010225475
000130 99 23 76 bc 2e 4b 90 bc 8c b7 96 3c 47 9b 78 3b
       -0.015023136 -0.017613973 0.018398069 0.003793435
000140 c0 e7 3f bd ad 0f b1 bd 55 b4 92 bc 20 c6 7b bd
       -0.046851873 -0.08645568 -0.017908255 -0.061468244
000150 d8 0f de bd 07 73 a7 bd af b0 cc bd ce 70 e3 3c
       -0.10842866 -0.081762366 -0.09994637 0.02776375
000160 93 77 2f bc 1f e5 1d bd 6f 5b 94 bc f5 b5 b6 bc
       -0.010709661 -0.038548585 -0.018110005 -0.02230356
000170 ba 06 72 3c a0 c7 e5 3c 63 dd 04 bb 63 45 0e 3d
       0.014772112 0.02804929 -0.0020273558 0.03473414
000180 41 ad ab 3c 0a a5 87 bc 3f a3 24 bb cd 15 c1 bb
       0.020956637 -0.016558189 -0.0025121716 -0.0058924914
000190 12 b7 55 3b b4 22 9e 3c 54 6e b8 3b c3 eb 19 bd
       0.003261034 0.019303657 0.0056283865 -0.037578356
0001a0 98 87 2f b9 4b 05 8a bd 3a f6 24 bd 70 4b 1e bd
       -0.00016739813 -0.06739291 -0.040273882 -0.03864616
0001b0 9a 5d 14 bd bd 7e 38 3c fc 14 15 3d f0 94 aa bc
       -0.036222078 0.0112606855 0.036396965 -0.020822972
0001c0 0b 33 ee 3c ef 1b c0 3b b3 80 8f 3c b6 75 4f bc
       0.029077074 0.005862705 0.017517423 -0.012662342
0001d0 27 55 c6 bc 07 74 3b 3c 27 75 80 3b 26 5f 73 3a
       -0.024210526 0.011441237 0.0039202156 0.00092838926
0001e0 e7 98 f4 bc 9b 1d 8e bc 1f d1 c1 3b 3d a7 5c bc
       -0.029858066 -0.017348101 0.0059148218 -0.013467607
0001f0 57 8b 2d bc c6 a0 34 3d f2 6a ef bc c9 d4 2b bd
       -0.010592303 0.044098638 -0.0292258 -0.041950975
000200 20 77 1d bd 14 f4 ff bc d6 f8 9e 3a bd ca ee 3b
       -0.038443685 -0.031244315 0.0012128602 0.007287352
000210 e4 e9 16 bd 37 1a 9c 3c 1e f7 35 bc b6 84 80 bc
       -0.03684415 0.019055469 -0.011106281 -0.015688282
000220 2c 9b e8 bc dc 9c 8b bd c1 bd a2 bc a8 fa 0c 3d
       -0.028394304 -0.06817028 -0.019865872 0.034418732
000230 6a b2 5a 3b 3c 4f 50 bd 2f fb 43 3d 1e 34 3d 3d
       0.0033370503 -0.050856814 0.04784697 0.04619228
000240 aa 63 52 bd 2f 16 4a bd ea e3 0e 3c 05 7a 0c bd
       -0.05136458 -0.049337562 0.008721331 -0.034296054
000250 49 71 fe bc 59 df 87 bd ef 62 ca bc 89 7c 20 bd
       -0.031059878 -0.06634397 -0.024705378 -0.039181266
000260 d6 49 cd bc e1 6d c0 3b aa f0 8a bc bb 08 02 3d
       -0.025059622 0.0058724736 -0.01696046 0.031746607
000270 3d 78 05 bd c0 61 76 bd 13 8d 0a bc b9 f2 28 3c
       -0.03258537 -0.060151815 -0.008456486 0.010311776
000280 7c 0f 0a bb 46 73 ac bc de 64 cb bd e5 f8 ee bc
       -0.0021066358 -0.02105106 -0.09931348 -0.029171417
000290 3b e5 7d 3c ea 1e ec bd 7c ed 19 bc 05 d1 00 bd
       0.015496547 -0.11529334 -0.009395 -0.031449337
0002a0 13 69 3d 3c 08 ad f7 3c 97 6e c3 b9 a5 b8 1c bd
       0.011560696 0.030233875 -0.00037275694 -0.03826203
0002b0 02 30 36 bd ca 5d 19 3c d3 b5 07 bd 6f d6 45 bd
       -0.044479378 0.00936074 -0.033132385 -0.048300203
0002c0 90 d7 04 bd be 60 02 bd ec 41 61 bc 9d 43 ef 3c
       -0.03243214 -0.03183054 -0.013748627 0.029207045
0002d0 6c 60 e5 b9 bc ec 1b 3d bb d6 4d 3c 9c b8 d8 bc
       -0.00043750124 0.038067564 0.012563403 -0.026455216
0002e0 92 86 ee 3c 44 73 b4 bc 49 2b b7 3b f5 7e 96 bc
       0.029116903 -0.02202762 0.005589877 -0.018371085
0002f0 be 9d 6b 3d 5b 4d c3 bc 8a 1e ae bc eb 2b 49 bd
       0.05752348 -0.023840597 -0.021254797 -0.04911415
000300 10 0b 35 3c 22 8e 07 bc 4d b1 ba 3c 3c 53 5d bc
       0.011050001 -0.008273633 0.022789622 -0.013508614
000310 76 ac 69 3c 74 87 45 3c 40 7d 03 bd e6 bb 53 bb
       0.014262309 0.01205622 -0.03210187 -0.003230804
000320 3e 5e 44 bb 37 cf 93 bb fd cc 59 3d 86 7a b4 bc
       -0.00299634 -0.004510786 0.053174008 -0.02203108
000330 52 63 05 3d 6c 8d a4 ba 7c 2d 1b 3c 30 85 02 bd
       0.032565422 -0.0012554354 0.009471294 -0.0318653
000340 2f 26 3b bd bc ba 71 bd a1 16 2f bc e5 d1 02 bc
       -0.04569071 -0.059015974 -0.0106865475 -0.007984613
000350 d9 19 d0 3b 4b 33 41 bd 3c 79 63 bd 65 d1 2e 3b
       0.0063507375 -0.047168057 -0.05553554 0.0026675102
000360 40 b8 33 bd 31 3e e8 bc 00 bd a0 3c 6f 6d 71 bd
       -0.043876886 -0.028349968 0.019621372 -0.058942255
000370 08 73 82 bd f1 40 40 bd bb 35 9f 3b 90 8b 96 3c
       -0.06369597 -0.046936933 0.0048587 0.018377095
000380 44 97 a1 bc 48 fd 2f bc 7f 64 00 bc 8c 20 06 bd
       -0.01972545 -0.010741539 -0.00783646 -0.032745883
000390 1e 06 77 3d fb 88 d3 3c 92 e5 28 bc e1 39 1b bd
       0.06030857 0.025822153 -0.01030864 -0.037896995
0003a0 a9 72 fe bc a9 05 0c 3d fa 15 61 3b db c8 1b bc
       -0.031060534 0.034185085 0.0034345374 -0.009508337
0003b0 18 74 e4 3c 84 b2 02 3d f5 61 37 bd a6 60 58 3b
       0.027887389 0.031908527 -0.044771153 0.0033016591
0003c0 ec ab b5 bd fc ac d0 bc e6 79 e0 bc 9a c1 c8 3b
       -0.08870682 -0.02547311 -0.027401876 0.0061265947
0003d0 a6 73 67 3c cf cd 83 3c 3d 57 e8 3c 91 1d 8c 3c
       0.014126694 0.016089348 0.028361911 0.017103942
0003e0 13 a9 8c bb cb ab 36 3c 4d d2 3f bc 73 44 29 bd
       -0.004292616 0.011149357 -0.011707854 -0.041325044
0003f0 42 7e e6 bc 42 57 39 bc 70 cf 14 bd 53 36 a8 bb
       -0.028136376 -0.011312308 -0.03633064 -0.005133429

embedding.2.0.bias f4 [64]
000000 1a e7 dc ba 6b 43 84 bc dd ac 1e 3c 7e 15 00 bc
       -0.0016853542 -0.016145429 0.0096847685 -0.007817624
000010 cc 97 3b 3a 90 e2 b1 3a 4e b8 61 3c 62 48 03 bc
       0.00071561034 0.0013571549 0.013776852 -0.008012863
000020 00 1d 61 3b cf c8 2a bc b8 81 82 3b e8 d5 ff 3b
       0.003434956 -0.010423853 0.003982749 0.007807482
000030 29 b2 52 bc 9f c6 48 bc d2 d1 aa bc 41 fd 22 bc
       -0.0128598595 -0.012254386 -0.020852003 -0.009948076
000040 3a 3f a9 b8 3b b3 6d 3c 12 1d 20 bc b3 e8 a3 bb
       -8.070325e-05 0.014508064 -0.009772556 -0.005002105
000050 94 79 b2 bb da e1 a3 bc 62 27 25 bc 70 62 61 3a
       -0.005446622 -0.020005155 -0.01008019 0.0008597737
000060 30 1f da 3a 20 3e 8a bc b4 f5 25 bc 20 58 c3 3a
       0.0016641375 -0.016875327 -0.010129381 0.0014903583
000070 e0 f1 fb ba 65 4c b6 3a 04 1d fc bb bd b1 61 bb
       -0.0019221865 0.0013908265 -0.0076938886 -0.0034438216
000080 6c 2e 93 3c ca ff cb 3c c3 71 a2 3c 10 d5 89 3b
       0.017966472 0.024902243 0.019829636 0.004206307
000090 87 41 d6 b8 f7 d2 16 3c 93 82 24 3c 52 8a 88 bb
       -0.000102165206 0.009205571 0.010040897 -0.0041668797
0000a0 fc 04 92 3c c1 46 5f ba ea 92 59 bc 9f 27 7f 3c
       0.017824642 -0.0008517318 -0.013279656 0.015573411
0000b0 12 df 26 bc a0 41 88 3b 44 e2 34 3c 9f 86 b6 3b
       -0.01018502 0.0041582137 0.011040274 0.0055702473
0000c0 b3 51 31 39 f2 f3 d2 bb 20 f4 3c 3a 20 ef 94 bb
       0.00016910471 -0.006437772 0.00072080083 -0.0045451075
0000d0 cc 53 c7 bb 6e d8 44 ba 04 f8 30 3c 40 ef 82 bb
       -0.0060829874 -0.0007509057 0.010801319 -0.003995806
0000e0 73 f9 b7 3b 3d c2 62 bc 9a d5 d9 bb 06 f6 47 3b
       0.0056144535 -0.013840255 -0.0066477777 0.0030511632
0000f0 1f 93 30 3c 3a 41 b5 3b 73 c1 48 bc e7 ef a0 3c
       0.010777264 0.0055314573 -0.012253153 0.019645644

embedding.2.1.weight f4 [64]
000000 32 d5 83 3f b0 18 7e 3f a7 2f 80 3f f0 c9 7f 3f
       1.0299437 0.9925642 1.0014542 0.9991751
000010 95 a3 85 3f bc b8 85 3f 4e be 80 3f c5 14 71 3f
       1.0440546 1.0447001 1.0058076 0.94172317
000020 ff c3 86 3f 90 d9 76 3f e9 7d 75 3f d9 e6 75 3f
       1.0528563 0.96425724 0.9589525 0.9605537
000030 94 9e 76 3f 3d 84 78 3f d6 a5 88 3f 4d a1 84 3f
       0.9633572 0.9707678 1.0675609 1.0361725
000040 9c f0 69 3f df 1d 72 3f 59 2a 83 3f ad c8 7c 3f
       0.91382766 0.9457683 1.0247298 0.98743707
000050 c1 a1 7b 3f 14 83 77 3f b8 ea 75 3f f9 31 86 3f
       0.9829369 0.96684384 0.9606128 1.0484
000060 e4 4e 85 3f db fa 81 3f 08 9c 82 3f 41 14 7f 3f
       1.04147 1.015468 1.0203867 0.9964028
000070 99 8b 7d 3f 34 37 7e 3f ed 49 87 3f 09 73 72 3f
       0.99041134 0.99302983 1.0569435 0.9470678
000080 2a df 6f 3f 65 29 80 3f 82 df 81 3f 48 a8 83 3f
       0.93699896 1.0012633 1.0146334 1.028573
000090 6d 04 72 3f 3b e3 85 3f 51 45 73 3f b0 ef 85 3f
       0.94538003 1.045997 0.95027643 1.0463772
0000a0 3e 1d 6f 3f 04 6a 84 3f 28 87 8c 3f 62 d0 77 3f
       0.93403995 1.0344853 1.0978746 0.9680234
0000b0 d8 43 83 3f d3 3c 8b 3f 21 e1 82 3f 92 d5 7f 3f
       1.0255079 1.0877937 1.0224954 0.9993526
0000c0 87 6a 8e 3f ff df 7f 3f 23 5c 66 3f 81 26 82 3f
       1.112626 0.99951166 0.8998434 1.0168
0000d0 c0 6b 87 3f 24 51 7c 3f b2 1d 70 3f 2b 5c 84 3f
       1.0579758 0.9856131 0.9379531 1.0340627
0000e0 ce 81 81 3f c2 30 80 3f c3 66 6f 3f 90 ab 7a 3f
       1.0117738 1.001488 0.93516177 0.97918034
0000f0 b4 b0 83 3f 6c 45 87 3f 9b de 89 3f 7b 60 77 3f
       1.02883 1.0568061 1.0771059 0.9663159

embedding.2.1.bias f4 [64]
000000 8f fa 52 bd 75 0b 52 bd 97 5e 15 be 29 e5 4a bd
       -0.051508483 -0.051280458 -0.14586864 -0.04953495
000010 d0 15 dc bd b5 99 ae bd cb 4f 9c bd ff 5c 6c bd
       -0.10746348 -0.08525411 -0.07632407 -0.057705875
000020 f3 f8 02 be 73 50 b3 bd 2f 79 17 be 8b 17 99 bd
       -0.12790279 -0.08755579 -0.14792322 -0.074751936
000030 ba 39 eb bd b5 87 ac bd 35 91 0a be 02 ea 42 be
       -0.1148562 -0.084243216 -0.13531955 -0.1903458
000040 bd 26 e2 bd 7d 2b 2a be fd e9 6f bd 61 7b 24 be
       -0.11042545 -0.16618152 -0.058572758 -0.1606269
000050 bf df 98 bd 43 74 ca bd 6f d8 85 bd 7c fb f9 bd
       -0.07464551 -0.098854564 -0.06535422 -0.1220617
000060 6a 66 34 bd 05 e5 49 bc 82 6e 01 3d eb e9 2d be
       -0.044042982 -0.012322669 0.03159953 -0.16983764
000070 58 06 0d bd 6e ad 8a bd 10 35 d6 bc d6 24 69 bd
       -0.034429878 -0.0677136 -0.026148349 -0.056919895
000080 9d d3 04 bd 5a af 2c 3d e3 ea e2 b9 23 8f 80 3d
       -0.032428373 0.042159416 -0.00043281083 0.06277301
000090 16 60 fb bc e1 87 71 be 58 dc 6b bd 58 f3 17 be
       -0.030685466 -0.2358699 -0.057583183 -0.14838922
0000a0 2f 6d e0 39 69 ee 7f bd e4 7b f6 bd c7 fa 06 be
       0.00042805957 -0.062483225 -0.12035349 -0.13181601
0000b0 2e c7 8c bc 5f 88 a2 bd 41 4d 35 3e f1 4a 61 bd
       -0.01718482 -0.07936167 0.17705251 -0.05500311
0000c0 2e 45 1e bd 26 14 d0 bd 00 0c 03 be 75 e5 15 bd
       -0.038640194 -0.10160093 -0.12797546 -0.03659578
0000d0 32 2a ca bd 8f 30 f5 bd d5 21 4a 3d 10 b8 d4 bd
       -0.09871329 -0.119721524 0.04934867 -0.1038667
0000e0 20 11 f0 bd a1 0c 35 bd c1 4c a3 bd 5f 89 6b 3b
       -0.11722016 -0.044201497 -0.07973624 0.0035940034
0000f0 3d 5e c3 bd bc 42 ca bc 88 f8 04 be 25 fd b5 bd
       -0.09539459 -0.024690025 -0.12985432 -0.08886174

embedding.2.1.running_mean f4 [64]
000000 ad c8 51 c0 88 d0 ac be d4 0f 80 bf f6 13 7d 3e
       -3.2778733 -0.33752847 -1.000483 0.24714646
000010 22 ad af bd 41 dd ef 3e 13 b2 51 bf 61 91 95 bf
       -0.08577944 0.4684849 -0.81912345 -1.1684991
000020 12 f3 c3 be 7d b2 6a c0 1b 41 71 bf ec 6b 9b 3d
       -0.38271385 -3.667144 -0.9423997 0.07588944
000030 f4 77 1c bf 47 7d 4c bd b7 b2 ad 3e de 68 c8 bf
       -0.61120534 -0.04992416 0.3392541 -1.5657003
000040 0a 7a 42 c0 49 e6 9c bf 1c a0 a2 3e 20 dd e9 be
       -3.0386987 -1.2257777 0.3176278 -0.45676517
000050 9d 3a d7 be 0b e2 51 bf 24 62 15 3e f9 bc 8b bf
       -0.42036906 -0.8198554 0.14588219 -1.0917045
000060 a8 71 6e 3e ef a2 a1 3f 5f 22 92 be 58 55 a8 bf
       0.23285544 1.2627848 -0.28541848 -1.3151045
000070 ae cf 0e bf 88 fa fd be 70 28 49 3f c6 13 fc bf
       -0.55785644 -0.49605203 0.7857733 -1.9693534
000080 0d 52 e1 be aa 54 9d 3f ef 37 0c be 72 16 29 bf
       -0.44007912 1.2291462 -0.13693212 -0.66049874
000090 4a 79 7f 3f 0a b9 dc bd bf 7e 66 3f d8 ff 83 bf
       0.9979445 -0.10777481 0.9003715 -1.0312452
0000a0 1a 3c c2 3d 0b 32 72 3f 52 01 cf be 85 26 0e 3f
       0.0948412 0.9460761 -0.40430695 0.55527526
0000b0 50 7b b2 3d 6f fd 55 bf d8 b1 a8 3f 06 fa f3 be
       0.08714926 -0.83589834 1.3179274 -0.4765169
0000c0 4d 10 c1 3a ac 53 25 3f 85 e8 3d bf aa 5b 4a c0
       0.001472959 0.645808 -0.7418292 -3.1618447
0000d0 37 2d ba be bf 7b b6 3f 03 66 a6 3f f6 bc 1b be
       -0.3636262 1.4256514 1.2999882 -0.15208802
0000e0 a9 df 57 be 46 87 93 3f 64 8c c1 be d9 5c 02 3f
       -0.21081413 1.1525657 -0.37802422 0.50922924
0000f0 81 95 b4 bd 6a 08 d0 3e 5a 6a a0 bf eb 6a f1 bf
       -0.08817578 0.4063142 -1.2532456 -1.8860754

embedding.2.1.running_var f4 [64]
000000 61 b7 81 40 f8 6d c7 3f 74 91 37 40 92 65 0b 40
       4.053635 1.5580435 2.8682528 2.1780744
000010 9a d6 40 40 8a 82 74 40 3d 0d 0c 40 d5 e4 04 40
       3.0130982 3.8204675 2.188308 2.0764668
000020 58 b5 2d 40 37 d5 8c 40 11 f9 eb 3f 0a c0 09 40
       2.7141933 4.401027 1.8435384 2.1523461
000030 73 0e 35 40 2d 7a 2f 40 97 d2 ee 3f 68 65 87 40
       2.829007 2.741832 1.8658017 4.2311287
000040 69 e0 7b 40 59 35 1e 40 7b 20 f8 3f 16 fb d9 3f
       3.935572 2.472006 1.9384912 1.702975
000050 30 76 33 40 17 8f da 3f 5d 59 14 40 84 48 47 40
       2.8040886 1.7074918 2.3179543 3.113801
000060 e6 08 1b 40 1d fa 12 40 4a 31 1e 40 03 3d 0c 40
       2.422418 2.2965157 2.4717584 2.1912239
000070 42 58 d4 3f 57 0c 73 40 9a f8 82 40 75 41 5f 40
       1.6589434 3.7976282 4.092847 3.4883702
000080 be cd 18 40 24 50 0c 40 fa 9a 30 40 e8 e2 f4 3f
       2.3875575 2.1923914 2.759459 1.9131746
000090 11 89 10 40 83 ee 05 40 c1 09 3f 40 98 77 26 40
       2.2583659 2.0926826 2.9849703 2.6010494
0000a0 fd 7c b7 3f 5b 7b 78 40 79 74 56 40 2a e9 0a 40
       1.4335018 3.882529 3.350859 2.1704812
0000b0 1a 2c 71 40 79 9d 01 40 6a 48 bb 3f 2a ec e3 3f
       3.7683167 2.0252364 1.4631474 1.7806447
0000c0 5b 9a 1c 40 b9 dd d9 3f 22 42 3a 40 b3 16 33 40
       2.446921 1.7020789 2.9102864 2.7982605
0000d0 61 cf 53 40 e0 48 92 3f 32 db bc 3f f4 32 05 40
       3.3095324 1.142849 1.4754393 2.081235
0000e0 a5 b8 25 40 d8 50 5f 40 26 26 39 40 25 9b 40 40
       2.5893948 3.4893093 2.8929534 3.0094693
0000f0 33 ae f6 3f de 08 51 40 a1 ed 46 40 84 46 29 40
       1.9271911 3.2661662 3.1082537 2.644929
