checkpoints/ProtoNet/embedding_net_on_Omniglot_100.pth (torch, 459429 bytes, 24 tensors)

embedding.0.weight f4 [64, 1, 3, 3]
0.06263317 0.013451103 0.027618002 0.001161445 -0.020034252 0.055018093 -0.031826857 -0.07957545
0.051130082 0.005651603 -0.051790956 -0.014704583 0.062399127 0.07826811 0.07867103 0.020123914
-0.04234919 0.007740781 0.0028341943 -0.014354835 -0.016508846 -0.025086727 0.0038545358 -0.030413687
-0.030251494 0.10419842 -0.017656311 0.02557771 0.024607265 -0.06692708 0.022044409 0.062319674
-0.0042548124 -0.0149528785 0.020311855 0.03126799 -0.012297843 0.07016099 -0.024736322 -0.04424079
-0.016991686 -0.02316819 0.013447149 0.0077298633 -0.06882084 -0.03480825 0.023123698 0.047034714
-0.031549327 0.07041231 0.021675417 0.009334985 0.108984366 0.009257071 0.07816909 0.032762673
0.10309091 0.04417765 0.037848677 0.055746894 0.013552216 -0.045684468 0.025834642 0.027779745
-0.009526351 0.02838593 0.03748733 -0.043690495 0.02913105 -0.023377737 0.101509824 -0.022813065
-0.041845642 -0.012101172 -0.009619292 -0.0257263 -0.034385726 -0.02788853 -0.0018146968 -0.0013950521
-0.052693333 0.058698203 -0.0036107372 -0.0055604605 0.052300725 -0.04052661 0.03736645 0.055956498
-0.0088696955 -0.013550634 0.00070804066 0.04457251 0.011071262 0.04553888 0.057424705 0.0011562345
0.017064005 -0.009548999 -0.05823956 5.938692e-05 0.0018577958 0.016048245 -0.00059774396 0.0010600555
-0.0010063229 0.0022705127 -0.16244188 0.00072345533 -0.0038634257 0.018425789 0.040272266 0.01584384
-0.086987466 0.0031151131 0.06968876 0.0149928415 0.014901299 0.01103483 -0.033110663 0.014295087
0.039277896 0.06057559 0.041445207 -0.04718778 -0.021427346 0.00809886 0.017598711 0.04308962
0.026913399 -0.049448512 -0.0011226966 0.07372756 0.024470361 -0.066761844 0.035039425 -0.036959294
-0.031660404 -0.0044848383 -0.040176507 -0.036331505 -0.01714045 0.056991443 -0.020215083 -0.04130835
0.0005552623 0.007693698 -0.007505491 0.00051428215 0.08376782 0.009394637 -0.09064638 -0.00020196715
-0.000104684856 -0.0011154787 0.06067607 0.059508935 -0.00021784482 0.00060044636 0.001757975 0.0027508384
-0.059147123 -0.05995543 -0.034741286 0.062008888 0.034611817 0.012449406 0.10593777 -0.001931664
0.04876461 0.051858652 -0.03989481 0.009259314 -0.00010337538 0.0008376614 0.07309576 -0.0018062873
-0.06363893 0.06063509 0.0015273683 -0.07171272 0.0024388009 0.0025688857 -0.01343001 -0.023929283
-0.0037762506 -0.06143499 -0.084951006 -0.002111612 0.03998272 -0.029741688 -0.028937282 -0.02879841
0.073535085 0.025548726 -0.0152122425 0.064203754 0.016250405 -0.0065933075 0.07857238 0.08471564
0.06975162 -0.050714415 -0.035678238 0.016723728 -0.011720499 -0.0033946761 -0.012907824 0.027239107
-0.04790225 0.060764644 -0.008140868 0.12511514 -0.0338671 -0.029591711 0.031205995 0.0050745024
0.031831574 0.0451136 0.036195666 -0.069394566 0.046339408 -0.02839156 0.006690635 0.06814001
0.03043383 0.035814762 0.026460387 0.008439357 0.033594564 0.058575824 -0.0066698925 0.014926507
0.0015594864 -0.055817943 0.04476644 0.00010051751 -0.011642773 -0.019680668 0.08841969 -0.029051263
-0.05093605 0.06537666 0.015564958 0.04756389 -0.05332937 0.013228877 0.0704868 -0.008363317
-0.04235933 0.029614633 0.04654249 0.028536716 0.02569489 -0.068232745 -0.023652587 -0.03130951
00000000: d245 803d 0462 5c3c 263f e23c a13b 983a
00000010: df1e a4bc a75a 613d e15c 02bd 74f8 a2bd
00000020: c76d 513d 1531 b93b c122 54bd 7eeb 70bc
00000030: 3a96 7f3d 084b a03d 471e a13d e8da a43c
00000040: 5876 2dbd 61a6 fd3b e4bd 393b 8b30 6bbc
00000050: 8f3d 87bc ae82 cdbc 619c 7c3b 2026 f9bc
00000060: fbd1 f7bc fb65 d53d f8a3 90bc 5888 d13c
00000070: 2d95 c93c 1111 89bd 7a96 b43c ea42 7f3d
00000080: f46b 8bbb ebfc 74bc 0c65 a63c dd12 003d
00000090: e47c 49bc 91b0 8f3d d4a3 cabc d535 35bd
000000a0: 2632 8bbc 37cb bdbc 6e51 5c3c cb4a fd3b
000000b0: f1f1 8cbd 1893 0ebd e96d bd3c 79a7 403d
000000c0: de39 01bd 5434 903d a590 b13c c4f1 183c
000000d0: 3233 df3d f8aa 173c 1e17 a03d 2732 063d
000000e0: 5421 d33d a0f3 343d 3707 1b3d db56 643d
000000f0: 1d0a 5e3c a31f 3bbd 2ca3 d33c 5992 e33c
00000100: 6914 1cbc 9c89 e83c 518c 193d cef4 32bd
00000110: 3da4 ee3c ab82 bfbc 62e4 cf3d 77e2 babc
00000120: 5666 2bbd fe43 46bc 3c9a 1dbc f6bf d2bc
00000130: 0cd8 0cbd 7d76 e4bc 1fdb edba 2eda b6ba
00000140: f7d4 57bd 876d 703d 1ea2 6cbb 8634 b6bb
00000150: 4939 563d 3bff 25bd 900d 193d a432 653d
00000160: 3352 11bc 7a03 5ebc ce9b 393a aa91 363d
00000170: 3d64 353c fa86 3a3d 2b36 6b3d cb8c 973a
00000180: d0c9 8b3c 6873 1cbc 9b8c 6ebd 3816 7938
00000190: 4881 f33a 9c77 833c ebb1 1cba 8ff1 8a3a
000001a0: 98e6 83ba e2cc 143b 2a57 26be 44a6 3d3a
000001b0: 8731 7dbb aef1 963c 88f4 243d f1ca 813c
000001c0: 7c26 b2bd ed26 4c3b fbb8 8e3d 89a4 753c
000001d0: 9424 743c 6ecb 343c 0c9f 07bd f135 6a3c
000001e0: dce1 203d 1c1e 783d 73c2 293d f947 41bd
000001f0: 6788 afbc 15b1 043c 2c2b 903c be7e 303d
00000200: 7d79 dc3c 868a 4abd 7227 93ba 7afe 963d
00000210: 1176 c83c 6fba 88bd 8085 0f3d a162 17bd
00000220: 57ae 01bd 8df5 92bb 1f90 24bd 58d0 14bd
00000230: 216a 8cbc dc6f 693d 1a9a a5bc f232 29bd
00000240: 068f 113a 6b1b fc3b 9ff0 f5bb e4d0 063a
00000250: 768e ab3d f7eb 193c cfa4 b9bd 25c7 53b9
00000260: 418a dbb8 4135 92ba 7987 783d a4bf 733d
00000270: 466d 64b9 4667 1d3a da6b e63a 6947 343b
00000280: 4144 72bd d393 75bd e14c 0ebd 08fd 7d3d
00000290: 1fc5 0d3d 98f8 4b3c e7f5 d83d e32f fdba
000002a0: 66bd 473d bd69 543d be68 23bd 61b4 173c
000002b0: 3ccb d8b8 8196 5b3a 3bb3 953d f2c0 ecba
000002c0: 2155 82bd 805c 783d fa31 c83a 1ede 92bd
000002d0: 4ad4 1f3b c05a 283b 8b09 5cbc 5807 c4bc
000002e0: f97a 77bb 42a3 7bbd cbfa adbd f862 0abb
000002f0: ecc4 233d d7a4 f3bc e10d edbc a5ea ebbc
00000300: 9099 963d 904b d13c c53c 79bc 427d 833d
00000310: 921f 853c ac0c d8bb 8eea a03d 657f ad3d
00000320: f0d9 8e3d ebb9 4fbd 5823 12bd 3300 893c
00000330: 5607 40bc 3779 5ebb 567b 53bc 8c24 df3c
00000340: 2635 44bd 59e4 783d 4661 05bc 2f1e 003e
00000350: 3ab8 0abd 516a f2bc b7a3 ff3c 0348 a63b
00000360: d361 023d 0ac9 383d e841 143d bd1e 8ebd
00000370: 64ce 3d3d 6b95 e8bc 1d3d db3b fd8c 8b3d
00000380: 5e50 f93c 80b2 123d 74c3 d83c 3b45 0a3c
00000390: 749a 093d 34ed 6f3d 1d8f dabb 4f8e 743c
000003a0: ae67 cc3a 5ba1 64bd 045d 373d edcc d238
000003b0: 54c1 3ebc 5a39 a1bc 6215 b53d eafc edbc
000003c0: 52a2 50bd 33e4 853d 2a04 7f3c 5bd2 423d
000003d0: e66f 5abd efbd 583c 625b 903d 4b06 09bc
000003e0: fa80 2dbd 639a f23c 57a3 3e3d d5c5 e93c
000003f0: 177e d23c 9cbd 8bbd 12c3 c1bc 673e 00bd

embedding.0.bias f4 [64]
0.0043234024 0.027553912 0.009347553 0.022039395 -0.021095626 -0.04493231 0.0676535 0.016070869
0.0028942383 -0.006812027 0.050675593 -5.9622624e-05 -0.07571576 -0.010094707 0.012436678 -0.080952086
-0.003519816 -0.026916644 -0.01185502 -0.013225098 0.010738769 0.016087731 0.027125558 -0.034982163
0.0008879934 -0.011301792 0.025369314 -0.06342918 0.023597717 0.014884501 0.035944197 -0.023357546
0.023390513 0.018671501 -0.032233056 0.0014448868 -0.0010850737 -0.021695424 -0.021775829 -0.019493101
-0.02970168 0.0049543884 -0.015219465 0.05723609 -0.03960195 0.08372519 -0.014112397 0.0032445372
-0.002743377 -0.01754255 0.0013720028 0.023057353 0.012679004 0.016762992 -0.05023739 -0.08081386
0.004365798 0.06238819 -0.008850338 0.022648709 -0.0116976295 0.0048993644 0.04445363 0.01951168
00000000: 54ab 8d3b beb8 e13c 7b26 193c f68b b43c
00000010: bcd0 acbc f10a 38bd eb8d 8a3d 0ea7 833c
00000020: 43ad 3d3b 6d37 dfbb 3691 4f3d 4e13 7ab8
00000030: dd10 9bbd 4564 25bc 35c3 4b3c 35ca a5bd
00000040: b7ac 66bb 4b80 dcbc 8f3b 42bc 15ae 58bc
00000050: a9f1 2f3c 6bca 833c 6b36 de3c 7549 0fbd
00000060: 3ac8 683a 272b 39bc 4fd3 cf3c 28e7 81bd
00000070: 0050 c13c 1fde 733c 393a 133d 5358 bfbc
00000080: 769d bf3c faf4 983c cf06 04bd 5b62 bd3a
00000090: 0839 8eba 9aba b1bc 3963 b2bc ffaf 9fbc
000000a0: f050 f3bc 6c58 a23b 105b 79bc 6470 6a3d
000000b0: a835 22bd 1d78 ab3d af37 67bc 4da2 543b
000000c0: 3aca 33bb 65b5 8fbc c6d4 b33a c6e2 bc3c
000000d0: 99bb 4f3c 8b52 893c b9c5 4dbd bd81 a5bd
000000e0: f80e 8f3b c28a 7f3d 0201 11bc c989 b93c
000000f0: 6aa7 3fbc d98a a03b 0215 363d f5d6 9f3c

embedding.1.weight f4 [64]
1.0775155 1.2772648 0.827392 1.2477952 0.802012 1.2190745 1.2881284 1.1692796
0.8757816 1.1335356 1.1558036 0.8344626 0.9647244 1.0171175 1.0880597 0.89612687
1.1030992 1.0027914 1.2124293 0.9302872 0.878345 0.9795526 1.172231 1.1697071
1.1400105 1.0331004 1.0634143 1.1685522 1.0088971 0.8935881 0.9743788 1.0999748
1.0076654 1.1242002 0.8871443 0.84866875 0.9333113 1.042956 1.2522868 0.8247215
0.9448545 0.87559366 0.99531597 1.1869702 0.98386633 0.94517994 0.945396 0.8589791
0.9571396 0.9555834 1.0399259 1.1352928 0.92022157 1.062698 1.0758902 0.9214942
0.9759246 0.9529174 0.964653 0.99186444 1.2301239 0.8219246 0.9614667 0.82634205
00000000: 07ec 893f 6a7d a33f f6cf 533f c1b7 9f3f
00000010: a950 4d3f a20a 9c3f 64e1 a43f f4aa 953f
00000020: 3933 603f b217 913f 5ff1 933f 579f 553f
00000030: 2ef8 763f e830 823f 8a45 8b3f 9268 653f
00000040: 5b32 8d3f 785b 803f e230 9b3f 4d27 6e3f
00000050: 38db 603f f6c3 7a3f aa0b 963f f6b8 953f
00000060: ddeb 913f a23c 843f f61d 883f 1e93 953f
00000070: 8a23 813f 31c2 643f e470 793f f9cb 8c3f
00000080: 2efb 803f cbe5 8f3f e41b 633f 5b42 593f
00000090: 7ded 6e3f 957f 853f ef4a a03f f320 533f
000000a0: fce1 713f e826 603f 07cd 7e3f a4ee 973f
000000b0: aade 7b3f 50f7 713f 7905 723f 0ee6 5b3f
000000c0: 1a07 753f 1da1 743f 4b1c 853f 4651 913f
000000d0: a493 6b3f 7d06 883f c5b6 893f 0be7 6b3f
000000e0: 32d6 793f 65f2 733f 80f3 763f d4ea 7d3f
000000f0: b374 9d3f a769 523f af22 763f 278b 533f

embedding.1.bias f4 [64]
-0.12715253 0.09778231 -0.38783905 0.015402613 -0.3551716 -0.030247381 0.23910226 0.1770993
-0.32005188 -0.044998657 0.08780792 -0.19085519 -0.019441824 -0.12664415 -0.20315443 -0.38108438
0.0025923983 -0.015491959 0.11856192 -0.046273872 -0.15966752 -0.05653924 -0.06198602 -0.036566928
0.05515652 0.010524351 -0.04049171 -0.18882601 -0.03909903 -0.3702497 -0.12169164 -0.06097139
0.00042824636 -0.15024588 0.04205533 -0.3668867 -0.43397254 -0.031795982 0.009470301 -0.40199226
-0.0010563039 -0.33990732 -0.07045962 -0.14306845 -0.11716575 0.012389983 -0.004860214 -0.004632919
-0.010993312 -0.08856485 -0.08821971 0.13529716 -0.06829095 -0.017699325 -0.08076249 -0.38346955
-0.03760305 0.0040558167 0.009559742 -0.19264494 0.21341792 -0.30796257 -0.091545686 -0.3994045
00000000: 4634 02be 1742 c83d d792 c6be 3e5b 7c3c
00000010: 0dd9 b5be 5bc9 f7bc 39d7 743e 8559 353e
00000020: d7dd a3be 8350 38bd a4d4 b33d 8b6f 43be
00000030: 7644 9fbc 01af 01be b707 50be 7e1d c3be
00000040: 3ae5 293b fcd1 7dbc 98d0 f23d ac89 3dbd
00000050: e27f 23be b195 67bd 0ee5 7dbd 34c7 15bd
00000060: ceeb 613d 546e 2c3c a3da 25bd 9b5b 41be
00000070: 4e26 20bd 5e91 bdbe 7739 f9bd 23bd 79bd
00000080: 4186 e039 0eda 19be 3642 2c3d 93d8 bbbe
00000090: a631 debe 813c 02bd 5229 1b3c eed1 cdbe
000000a0: ad73 8aba 5508 aebe 224d 90bd 8980 12be
000000b0: 99f4 efbd 5bff 4a3c 6e42 9fbb becf 97bb
000000c0: 4b1d 34bc 7d61 b5bd 89ac b4bd 578b 0a3e
000000d0: 20dc 8bbd 2dfe 90bc ce66 a5bd 1f56 c4be
000000e0: a805 1abd a8e6 843b 77a0 1c3c b744 45be
000000f0: 3a8a 5a3e 45ad 9dbe 4e7c bbbd bf7e ccbe

embedding.1.running_mean f4 [64]
0.012915902 0.047110777 0.0071827965 0.036241245 -0.032937538 -0.015346308 0.1101235 0.031555835
-0.0231208 0.008534618 0.066148296 -0.018744836 -0.06732954 0.00042233095 0.02446767 -0.10337079
-0.0005908948 -0.026279695 0.020570604 -0.012160294 -0.0073639043 0.025592202 0.042560644 -0.01721353
0.021805976 0.004676347 0.040003415 -0.047993347 0.032200754 -0.0008639297 0.040510513 -0.0022643947
0.030627575 0.02918352 -0.035230808 -0.023858208 -0.016644742 -0.01246404 -0.0034943712 -0.03165862
-0.027998514 -0.015157319 -0.0034580636 0.072304 -0.035576306 0.0857506 -0.015106567 0.0026703808
-0.0037734748 -0.0008696645 0.015290912 0.0489602 0.020805528 0.03303725 -0.035905335 -0.1042198
0.0044518476 0.06460836 -0.001482394 0.028371118 0.02804542 0.0013297282 0.053436216 0.016205892
00000000: 389d 533c 3bf7 403d aa5d eb3b b371 143d
00000010: 83e9 06bd 156f 7bbc 6e88 e13d b140 013d
00000020: d567 bdbc c8d4 0b3c c278 873d c58e 99bc
00000030: 12e4 89bd 4d6c dd39 6c70 c83c 11b4 d3bd
00000040: 47e6 1aba 8448 d7bc af83 a83c f83b 47bc
00000050: e84c f1bb bda6 d13c 1254 2e3d 6403 8dbc
00000060: 72a2 b23c 0b3c 993b 9fda 233d ac94 44bd
00000070: f0e4 033d 5779 62ba 5aee 253d 3d66 14bb
00000080: aee6 fa3c 4712 ef3c 2e4e 10bd 4a72 c3bc
00000090: 8e5a 88bc f935 4cbc d201 65bb 78ac 01bd
000000a0: 245d e5bc 6756 78bc aea0 62bb 1f14 943d
000000b0: 76b8 11bd 039e af3d 8981 77bc 8e01 2f3b
000000c0: 674c 77bb 32fa 63ba bc86 7a3c 7e8a 483d
000000d0: 5b70 aa3c 1152 073d 7911 13bd 3171 d5bd
000000e0: cee0 913b 6351 843d e34c c2ba 8c6a e83c
000000f0: 82bf e53c 464a ae3a efdf 5a3d 38c2 843c

embedding.1.running_var f4 [64]
0.0076538506 0.010711121 0.0029147498 0.006338782 0.005238665 0.020959456 0.036354452 0.004789138
0.01180074 0.00727716 0.0083354665 0.012312155 0.003751325 0.004405493 0.007139631 0.0103817005
0.0044481265 0.007264069 0.022581534 0.010146008 0.007672524 0.008127493 0.013233625 0.007519925
0.010588729 0.008642153 0.006643617 0.008730715 0.010509344 0.006467764 0.0072710514 0.014951937
0.005992343 0.010202326 0.0034233246 0.01272317 0.004771136 0.0059029553 0.010602934 0.011451173
0.004139952 0.007937865 0.008928947 0.00730744 0.0074577895 0.0046737054 0.002692098 0.0038442616
0.0025353727 0.008249072 0.011540414 0.012672839 0.0049247527 0.0098859975 0.0065333447 0.011997045
0.0060328958 0.005603091 0.002903699 0.009665343 0.03274376 0.0043224962 0.0056119896 0.0046683
00000000: 27cd fa3b b37d 2f3c 6305 3f3b 8fb5 cf3b
00000010: 1ba9 ab3b 2ab3 ab3c 68e8 143d 34ee 9c3b
00000020: e457 413c 3e75 ee3b 7b91 083c ecb8 493c
00000030: cad8 753b f45b 903b 91f3 e93b 0218 2a3c
00000040: 97c1 913b 6d07 ee3b e9fc b83c 713b 263c
00000050: cc69 fb3b 2d29 053c d9d1 583c b469 f63b
00000060: 597c 2d3c d197 0d3c b3b2 d93b 460b 0f3c
00000070: 622f 2c3c 89ef d33b 0042 ee3b f8f8 743c
00000080: 6b5b c43b a827 273c db59 603b d874 503c
00000090: 3157 9c3b 946d c13b eeb7 2d3c b39d 3b3c
000000a0: 6fa8 873b d20d 023c b84a 123c 4073 ef3b
000000b0: 7960 f43b e225 993b e96d 303b 02f0 7b3b
000000c0: 7f28 263b 1e27 073c 0114 3d3c bda1 4f3c
000000d0: d25f a13b e1f8 213c ab15 d63b 418f 443c
000000e0: 99af c53b 229a b73b fc4b 3e3b 635b 1e3c
000000f0: 521e 063d baa3 8d3b c8e4 b73b 8af8 983b

embedding.4.weight f4 [64, 64, 3, 3]
-0.024310777 0.012650883 0.021960897 -0.036736164 -0.057938673 -0.072493345 -0.070022754 -0.050145462
-0.012285193 0.054860327 0.013277317 0.032882612 0.031782374 0.076555096 0.019600134 -0.0055257604
0.009070263 -0.0015229062 0.00053734955 0.016477138 -0.01566602 -0.014882458 0.0028729928 -0.017260622
0.001769928 -0.010663644 0.02665664 0.052567422 0.042095013 -0.025179481 0.02435409 0.040410966
-0.023552964 0.02928339 0.05774844 -0.017660502 0.01899024 0.046271343 -0.003116001 -0.06343813
-0.0071409997 -0.021674242 0.0026670566 -0.041089986 -0.012514314 -0.028388778 -0.0332303 0.027552085
0.032231513 0.03358287 0.07068174 -0.0053952346 0.0010350571 0.008344841 0.041143816 0.01578496
0.047829106 0.019721873 0.04042846 0.08078099 -0.029941708 -0.012139682 -0.002801817 0.004520738
0.006537691 0.07193887 -0.023489265 -0.027916342 -0.03068536 -0.027355758 0.024005098 -0.0025972
0.03832855 0.008106699 0.017752435 -0.02216032 -0.030912764 -0.009072191 -0.02568051 0.020114526
-0.0011386373 0.010044151 0.01492311 -0.022558913 -0.019654173 -0.015649175 -0.024224635 -0.028543508
-0.020180818 -0.047873873 -0.017076558 0.03888074 0.083987415 0.03215936 -0.008267647 0.029857783
-0.011164937 0.011287969 0.04344225 -0.0063523 0.022951212 0.024089903 -0.043307688 -0.030220628
-0.05725877 -0.03598084 -0.004598477 -0.04338102 0.042796426 0.088732585 0.050178315 0.013529734
-0.09316984 -0.015459946 -0.048310146 -0.08836479 -0.03596761 -0.0339813 0.006093682 0.028113276
0.006522051 0.0045734164 -0.019601846 -0.016665036 -0.01089265 -0.003149754 -0.008470384 0.04077242
0.033022445 -0.058656402 -0.07876037 -0.03427831 -0.04329031 -0.027631262 -0.044060055 -0.017984957
-0.016734667 -0.03451412 -0.000286472 0.0020244017 -0.0057486547 0.01394141 -0.0024655543 -0.009394524
-0.043458957 0.0015549433 0.0025404545 -0.05749097 -0.058869768 -0.03175407 -0.01595786 -0.01875649
-0.021965891 -0.027651943 -0.01528105 0.0074469075 0.0065240418 -0.018029837 -0.009611041 -0.06810577
-0.018131394 -0.019094972 0.00557973 0.024396136 0.02444132 0.053534277 0.024844764 0.10000018
-0.0022977972 -0.0312802 0.096349664 0.009072461 0.022740154 -0.018271001 -0.029639423 0.011928927
-0.050396398 -0.06348823 0.0029574495 0.0168018 -0.010146927 0.009136574 0.022710064 -0.033795796
-0.020493679 -0.016280783 -0.029093575 -0.041686445 -0.028454715 0.052550066 0.03230971 0.015327154
0.023321178 -0.01629866 -0.02598955 -0.00016624584 -0.002568624 0.01855928 0.02282652 0.078694455
0.11750827 -0.019106383 0.018826418 0.0075662425 -0.036556225 -0.070236586 -0.026557576 -0.008294636
-0.021214057 0.051212907 0.0009343957 -0.011043801 0.014019428 -0.012103819 0.009973643 -0.06347014
0.016534349 0.03241594 0.07123237 -0.026455436 -0.042784233 0.034645457 -0.025762746 -0.017308917
-0.030159298 -0.031341825 0.012401514 0.01989638 0.001997251 -0.025085393 0.00600457 -0.04233367
-0.01333879 0.008142985 -0.013240224 -0.012548624 -0.011737551 0.021675145 -0.0013095622 -0.01705183
-0.01211829 -0.09462602 -0.015078121 0.070341215 0.020334348 -0.04635194 0.025115566 0.010474934
0.006814556 0.01641269 0.053278767 0.014775781 0.0054713464 0.0070593194 0.02459361 0.031784225
00000000: 6527 c7bc a645 4f3c 57e7 b33c a978 16bd
00000010: 1a51 6dbd 6477 94bd 1768 8fbd 5465 4dbd
00000020: d647 49bc 39b5 603d 1b89 593c ebaf 063d
00000030: 3c2e 023d ebc8 9c3d 7690 a03c 7011 b5bb
00000040: 719b 143c 419c c7ba ebdc 0c3a 10fb 863c
00000050: 0656 80bc 8ed5 73bc d248 3c3b 2666 8dbc
00000060: eefc e73a 91b6 2ebc 075f da3c f050 573d
00000070: d26b 2c3d 3345 cebc 3b82 c73c f885 253d
00000080: 25f2 c0bc b8e3 ef3c a189 6c3d c2ac 90bc
00000090: 6b91 9b3c 0587 3d3d d235 4cbb daeb 81bd
000000a0: 0cff e9bb 2e8e b1bc c9c9 2e3b f94d 28bd
000000b0: d608 4dbc 958f e8bc 7f1c 08bd e9b4 e13c
000000c0: 3105 043d 318e 093d 97c1 903d 82ca b0bb
000000d0: c1aa 873a cdb8 083c 6b86 283d 764f 813c
000000e0: 74e8 433d c48f a13c 5098 253d 8170 a53d
000000f0: 5048 f5bc 84e5 46bc b09e 37bb b322 943b
00000100: 213a d63b b054 933d 8f6c c0bc d0b0 e4bc
00000110: dd5f fbbc 2f19 e0bc 57a6 c43c c935 2abb
00000120: 66fe 1c3d f6d1 043c 8e6d 913c 8f89 b5bc
00000130: c43c fdbc 87a3 14bc ef5f d2bc 38c7 a43c
00000140: 543e 95ba 3990 243c 0f80 743c 78cd b8bc
00000150: ca01 a1bc b332 80bc be72 c6bc 13d4 e9bc
00000160: 3e52 a5bc 6517 44bd 23e4 8bbc 6941 1f3d
00000170: 9801 ac3d 88b9 033d 0675 07bc 4f98 f43c
00000180: 24ed 36bc 2cf1 383c 80f0 313d f426 d0bb
00000190: 2e04 bc3c 3058 c53c 6763 31bd 4091 f7bc
000001a0: 2c88 6abd a560 13bd d2ae 96bb 4cb0 31bd
000001b0: 4e4b 2f3d 6eb9 b53d c787 4d3d d1ab 5d3c
000001c0: d4cf bebd b74b 7dbc dce0 45bd 99f8 b4bd
000001d0: c652 13bd fa2f 0bbd 82ad c73b d04d e63c
000001e0: eeb6 d53b 99dc 953b 0d94 a0bc 1d85 88bc
000001f0: 1677 32bc 1a6c 4ebb 5ec7 0abc fb00 273d
00000200: 8b42 073d b241 70bd 1e4d a1bd 6a67 0cbd
00000210: 2e51 31bd f55a e2bc 5178 34bd 3055 93bc
00000220: 2417 89bc ae5e 0dbd 9f31 96b9 d3ab 043b
00000230: 365f bcbb 836a 643c 2395 21bb 7deb 19bc
00000240: 0502 32bd 3dcf cb3a c17d 263b a77b 6bbd
00000250: 6d21 71bd 8e10 02bd 0fba 82bc 36a7 99bc
00000260: d0f1 b3bc 5486 e2bc 5e5d 7abc 3005 f43b
00000270: a1c7 d53b 4fb3 93bc a177 1dbc 0a7b 8bbd
00000280: 4a88 94bc 0f6d 9cbc 2bd6 b63b 68da c73c
00000290: 2a39 c83c c246 5b3d 3f87 cb3c e5cc cc3d
000002a0: a496 16bb ab1f 00bd f952 c53d a9a4 143c
000002b0: 8f49 ba3c 11ad 95bc 60ce f2bc 8c71 433c
000002c0: 746c 4ebd 1e06 82bd c5d1 413b eea3 893c
000002d0: 4c3f 26bc 92b1 153c 750a ba3c 766d 0abd
000002e0: 5ce2 a7bc 475f 85bc a655 eebc 68bf 2abd
000002f0: dd19 e9bc bd3e 573d 3057 043d be1e 7b3c
00000300: 0e0c bf3c c484 85bc 09e8 d4bc 4752 2eb9
00000310: 5c56 28bb a209 983c affe ba3c 8f2a a13d
00000320: 2da8 f03d fd84 9cbc dc39 9a3c 3eee f73b
00000330: fbbb 15bd 33d8 8fbd 468f d9bc 3ae6 07bc
00000340: 1ac9 adbc a0c4 513d 3cf2 743a 0ff1 34bc
00000350: beb1 653c 194f 46bc 7e68 233c a2fc 81bd
00000360: 0b73 873c 94c6 043d 47e2 913d 12b9 d8bc
00000370: 853e 2fbd 65e8 0d3d 650c d3bc 6ecb 8dbc
00000380: a210 f7bc 4960 00bd b82f 4b3c bcfd a23c
00000390: 50e4 023b e27f cdbc fcc1 c43b 1266 2dbd
000003a0: f18a 5abc 286a 053c 86ed 58bc be98 4dbc
000003b0: db4e 40bc 1390 b13c 9ea5 abba 48b0 8bbc
000003c0: cb8b 46bc 49cb c1bd 390a 77bc 0e0f 903d
000003d0: 3894 a63c 88db 3dbd 29bf cd3c 0f9f 2b3c
000003e0: a44c df3b e873 863c d63a 5a3d 1e16 723c
000003f0: fb48 b33b dd51 e73b 8a78 c93c 2d30 023d

embedding.4.bias f4 [64]
-0.0067025097 0.03561624 -0.0033306647 -0.009530724 0.019317903 -0.01814899 0.0066753128 -0.0108345635
0.024623837 0.009798906 0.0153852375 -0.0014193929 -0.0039511668 0.011382304 0.011119136 -0.029153176
-0.016583612 0.01930238 0.008688993 -0.020050341 0.013009065 0.0038279502 0.014079041 0.0035311163
0.022624154 0.016815001 -0.007925271 0.019513236 -0.008712175 -0.0024273663 0.017169602 -0.0024420444
-0.0038645777 0.017017111 0.011104034 -0.012816017 0.010141108 0.041689474 -0.021714343 -0.01726704
-0.041652955 0.01170156 0.015931662 0.018374452 0.01021609 -0.0042885845 0.060239557 -0.018585851
-0.0015826619 0.021068309 -0.005561798 0.016577153 0.012785094 0.0037263196 -0.01193373 -0.022746967
0.0028075997 0.015681997 -0.00022874019 -0.00042816714 0.023947056 -0.010116036 -0.016708907 -0.006479823
00000000: baa0 dbbb 56e2 113d 4847 5abb c126 1cbc
00000010: 9440 9e3c 31ad 94bc 95bc da3b 7483 31bc
00000020: eeb7 c93c 978b 203c 5d12 7c3c ec0a baba
00000030: ca78 81bb d87c 3a3c 092d 363c a4d2 eebc
00000040: 5bda 87bc 0620 9e3c 475c 0e3c 9d40 a4bc
00000050: f923 553c 59de 7a3b c7ab 663c 4d6a 673b
00000060: 4a56 b93c 9dbf 893c ffd8 01bc 39da 9f3c
00000070: 83bd 0ebc 7314 1fbb 44a7 8c3c b50a 20bb
00000080: db44 7dbb 7867 8b3c b2ed 353c 45fa 51bc
00000090: e426 263c 95c2 2a3d 47e2 b1bc 9c73 8dbc
000000a0: 4a9c 2abd e6b7 3f3c 1e83 823c 0586 963c
000000b0: 6361 273c 4187 8cbb c1bd 763d 5b41 98bc
000000c0: 5271 cfba 7297 ac3c be3f b6bb cfcc 873c
000000d0: 9278 513c 4535 743b b185 43bc d957 babc
000000e0: b5ff 373b 8877 803c fad9 6fb9 9f7b e0b9
000000f0: 9e2c c43c bbbd 25bc 1ee1 88bc b254 d4bb

embedding.5.weight f4 [64]
0.959664 1.1153898 1.0297067 0.9975231 1.0187153 0.76552683 0.9072662 0.9524944
1.051747 1.0243886 1.0547636 0.93309903 1.0442367 1.0964135 0.9966292 1.0467415
0.9195644 1.2286388 0.87341994 0.97642344 0.9598907 1.0013616 0.8387302 1.1107166
0.9643036 1.0425268 1.0593832 0.94631314 0.9306345 0.9834168 0.847244 0.9668285
0.8889436 1.1031889 1.1891278 0.92358613 0.97565275 1.1559137 1.0719581 1.0385977
1.0450952 0.8216264 1.0246735 1.1208639 0.84812057 0.97837645 0.98805314 1.0337908
1.023333 1.1312445 0.87175137 0.9068746 1.0576923 1.1440759 1.012617 0.8206917
1.0292006 0.86159384 1.1012409 1.0546514 0.90108645 0.8834122 0.98774916 0.8905196
00000000: 8aac 753f 18c5 8e3f 6ecd 833f ad5d 7f3f
00000010: 4365 823f 91f9 433f 9942 683f acd6 733f
00000020: a59f 863f 2a1f 833f 7e02 873f 94df 6e3f
00000030: 8ca9 853f 4757 8c3f 1723 7f3f a0fb 853f
00000040: 9368 6b3f 0944 9d3f 7398 5f3f e3f6 793f
00000050: 66bb 753f 9e2c 803f 06b7 563f f62b 8e3f
00000060: 9adc 763f 8571 853f de99 873f 9441 723f
00000070: 103e 6e3f 34c1 7b3f fce4 583f 1382 773f
00000080: cf91 633f 4b35 8d3f 5735 983f 2470 6c3f
00000090: 61c4 793f fbf4 933f ec35 893f c5f0 843f
000000a0: aec5 853f 1c56 523f 8028 833f 7878 8f3f
000000b0: 6e1e 593f e176 7a3f 0df1 7c3f 4253 843f
000000c0: 93fc 823f 9fcc 903f 192b 5f3f ef28 683f
000000d0: 7662 873f 1471 923f 6f9d 813f da18 523f
000000e0: d8bc 833f 6a91 5c3f 76f5 8c3f d1fe 863f
000000f0: 9aad 663f 4d27 623f 21dd 7c3f 18f9 633f

embedding.5.bias f4 [64]
-0.19410144 -0.12841229 -0.16650155 -0.20164664 -0.19843009 -0.3285346 -0.16838688 -0.1328889
-0.1407004 -0.17327935 -0.21659434 -0.19149525 -0.04521626 -0.21929342 -0.18569122 -0.18710569
-0.3928164 -0.23004732 -0.30150947 -0.10566538 -0.2394624 -0.1274484 -0.32953486 -0.1700907
-0.1274683 -0.24180467 -0.16368273 -0.08206584 -0.1845641 -0.18091248 -0.26061955 -0.18506223
-0.14368394 -0.24198943 -0.17427386 -0.17318657 -0.18375598 -0.06446713 -0.18120754 -0.15355597
-0.18925354 -0.34561715 -0.09811152 -0.09674098 -0.33712173 -0.0824691 -0.04269019 -0.16727525
-0.12299823 -0.2388263 -0.35040268 -0.20708627 -0.1659613 -0.21434663 -0.069213934 -0.24658073
-0.15738592 -0.24172758 -0.101932414 -0.18140781 -0.25320837 -0.15192074 -0.23362304 -0.10634362
00000000: 87c2 46be 837e 03be 627f 2abe 757c 4ebe
00000010: 4231 4bbe b035 a8be 9c6d 2cbe 0714 08be
00000020: c413 10be 2470 31be e8ca 5dbe 5517 44be
00000030: af34 39bd 748e 60be d725 3ebe a298 3fbe
00000040: 3b1f c9be 8691 6bbe 735f 9abe 1767 d8bd
00000050: a235 75be d581 02be cbb8 a8be 422c 2ebe
00000060: 0d87 02be a59b 77be 729c 27be 2312 a8bd
00000070: 5ffe 3cbe 1f41 39be ed6f 85be f480 3dbe
00000080: e221 13be 14cc 77be d974 32be d257 31be
00000090: 872a 3cbe 5807 84bd 788e 39be c73d 1dbe
000000a0: aecb 41be bbf4 b0be b1ee c8bd 2320 c6bd
000000b0: 389b acbe 8fe5 a8bd e9db 2ebd 344a 2bbe
000000c0: 7fe6 fbbd e28e 74be fb67 b3be 6c0e 54be
000000d0: c2f1 29be af7d 5bbe 09c0 8dbd a97f 7cbe
000000e0: c629 21be 6f87 77be f1c1 d0bd f8c2 39be
000000f0: 87a4 81be 1c91 1bbe e13a 6fbe afca d9bd

embedding.5.running_mean f4 [64]
-0.02302865 -0.7913861 -0.688106 -0.81754327 -1.202722 1.5570253 -0.8927501 -1.0413394
-1.9350953 -1.2559639 -3.5375588 -0.8479682 -0.97400767 0.26279607 -1.5446687 -2.9056559
-0.63487864 1.3388914 1.8944062 -1.9143484 -1.2799343 -1.8201667 2.0774693 -1.7602526
-2.2214675 -1.1283637 -0.39060223 -0.42486247 -0.6321597 -2.760396 -1.1622279 -1.6485037
-1.464658 -1.4142667 -1.9934672 -0.84735626 -2.0090344 -1.6113038 -0.8319689 -0.6450819
-2.1027238 0.39400518 0.4418616 -1.2261001 0.9069227 -1.690206 -1.8706589 -0.048411403
-0.64818436 -1.2087421 0.3145985 1.8755969 -1.255599 -1.0665495 -1.9240555 0.24088177
-2.3488448 0.06188492 -3.175272 0.28703102 -0.80322623 1.7723955 -2.6094174 -0.9749916
00000000: 94a6 bcbc 4898 4abf b727 30bf 844a 51bf
00000010: cbf2 99bf 9b4c c73f 458b 64bf 9c4a 85bf
00000020: 34b1 f7bf 6dc3 a0bf 5d67 62c0 7214 59bf
00000030: 9158 79bf 358d 863e b4b7 c5bf 44f6 39c0
00000040: 6887 22bf cb60 ab3f e77b f23f 5e09 f5bf
00000050: e3d4 a3bf 39fb e8bf 42f5 0440 f54f e1bf
00000060: 862c 0ec0 396e 90bf 04fd c7be 9387 d9be
00000070: 38d5 21bf 54aa 30c0 e2c3 94bf 2b02 d3bf
00000080: ea79 bbbf b106 b5bf ef29 ffbf 57ec 58bf
00000090: 0594 00c0 343f cebf eafb 54bf 1624 25bf
000000a0: 0793 06c0 0cbb c93e af3b e23e d9f0 9cbf
000000b0: 162c 683f ac58 d8bf c071 efbf 094b 46bd
000000c0: 69ef 25bf 10b8 9abf 0e13 a13e 8f13 f03f
000000d0: 78b7 a0bf b284 88bf 7347 f6bf b6a9 763e
000000e0: 7953 16c0 0b7b 7d3d a837 4bc0 bbf5 923e
000000f0: 3ca0 4dbf dbdd e23f b200 27c0 0d99 79bf

embedding.5.running_var f4 [64]
3.6814632 1.4641309 0.64383316 1.7084146 2.7031288 2.1372974 2.0057957 2.1991987
2.5186224 1.9803464 1.3718752 0.8783145 2.1284654 1.2702618 0.9183895 1.2818836
1.8001757 0.29694694 2.1648788 1.7501241 1.7243966 1.4936228 1.9682335 2.5712335
0.7565165 2.790585 0.9515321 2.2813444 1.0775663 0.7778421 0.79431015 1.7665933
0.88184714 2.7137425 2.3419497 1.5376221 1.4882556 1.3939991 1.4675568 1.6354537
1.0840693 1.2609437 1.0447955 2.2988062 1.2808552 1.9737833 0.6350714 1.4720026
1.294934 1.9273745 2.1401885 2.1685188 1.6659044 1.2997572 1.2060075 1.704094
1.0346264 1.112392 1.0789268 1.8347764 0.8900915 1.5172483 1.0675367 2.7830727
00000000: 189d 6b40 a468 bb3f 40d2 243f 54ad da3f
00000010: 1000 2d40 7bc9 0840 f55e 0040 acbf 0c40
00000020: 1c31 2140 fe7b fd3f 9b99 af3f 38d9 603f
00000030: c738 0840 f097 a23f 931b 6b3f c314 a43f
00000040: 286c e63f 6e09 983e 608d 0a40 1104 e03f
00000050: 07b9 dc3f 082f bf3f 13ef fb3f 178f 2440
00000060: 11ab 413f f298 3240 9c97 733f 8c01 1240
00000070: b1ed 893f a920 473f e957 4b3f bb1f e23f
00000080: bcc0 613f f5ad 2d40 81e2 1540 cdd0 c43f
00000090: 297f be3f 906e b23f e7d8 bb3f 8c56 d13f
000000a0: c8c2 8a3f 9a66 a13f dcbb 853f a41f 1340
000000b0: 10f3 a33f eea4 fc3f 0a94 223f 956a bc3f
000000c0: 66c0 a53f 35b4 f63f d9f8 0840 03c9 0a40
000000d0: 5b3c d53f 725e a63f 745e 9a3f c11f da3f
000000e0: a36e 843f dc62 8e3f 461a 8a3f f4d9 ea3f
000000f0: 09dd 633f 3135 c23f 0ba5 883f dd1d 3240

embedding.8.weight f4 [64, 64, 3, 3]
-0.01330328 -0.011741018 -0.022644976 -0.016754506 -0.04744504 -0.027952574 -0.09888318 -0.1132171
-0.13694583 -0.03896481 -0.036108695 0.010874475 -0.03961183 -0.06323305 -0.054627754 -0.01603501
-0.049409524 -0.054890975 -0.04988908 -0.02394773 0.043642636 -0.019702217 -0.031953376 -0.002079298
-0.04450334 -0.07613176 -0.09449046 0.010866916 0.029549563 -0.030287063 -0.037048414 0.030603603
0.0027552613 -0.056371123 -0.0031719778 -0.06255374 -0.0046782084 -0.0007701796 0.039585892 -0.009408384
0.004332298 -0.015769033 -0.024000505 -0.05123073 -0.14454417 0.014613362 0.0009175688 -0.015391116
0.022801876 -0.041386742 0.052370213 0.020074459 -0.07219227 -0.0067916405 -0.003950963 0.039359994
-0.0073353057 0.00026744258 -0.0354185 -0.018199755 0.036163323 -0.020956583 0.0013628805 -0.008349293
-0.0741434 -0.028435301 0.031001013 -0.07442361 -0.08828874 0.021691117 -0.06271495 -0.013638087
0.02224498 0.00044897286 -0.063718304 0.052084263 -0.036162738 -0.08464323 -0.009472264 -0.037983067
-0.09182595 -0.0032392798 -0.018816005 0.010393211 0.023742748 -0.060216356 -0.009638114 -0.0064172763
-0.062265303 -0.079137966 -0.03607394 -0.0025038505 0.037358023 -0.0067532407 0.002062601 0.064454384
0.010384088 0.04767776 0.07589665 0.027016178 -0.014443936 0.0071630436 -0.02974125 0.018381905
0.022451999 -0.059198935 -0.017180186 0.035070322 0.02194536 -0.0048730304 -0.037163276 -0.004489543
0.013295408 -0.05231188 -0.039316535 -0.06194647 -0.08910488 -0.017620357 -0.07313961 -0.03200698
0.0079062665 0.01611972 -0.054940328 -0.032061722 -0.13287294 -0.09623338 -0.009064101 -0.008786093
-0.00027562762 -0.036303356 0.02690355 0.02786117 0.022067143 -0.006516088 0.008112457 -0.0064483886
0.0042408356 0.020102149 -0.002184726 -0.029436164 0.055609543 0.048983973 0.030203685 0.04761238
-0.017329535 -0.012780224 0.010931102 -0.03512594 -0.015973693 -0.051084246 -0.02570294 0.06304969
0.09787837 0.053588677 -0.041849665 -0.048160423 0.02081504 -0.09539659 -0.095063314 0.021069974
-0.07100055 -0.099484116 -0.0053537963 -0.0152732795 -0.034640644 -0.0047745523 -0.01752694 0.0077853524
-0.08393132 -0.068074636 -0.002809502 -0.00072927086 -0.018782388 -0.02640487 0.0066133463 -0.03879971
-0.02521774 -0.08227804 -0.012228903 0.05690382 -0.015183787 0.0035392481 0.0054734303 0.0064415107
0.07595595 0.072319545 -0.013469865 -0.006787486 0.018814342 -0.02846153 -0.029307043 0.054016773
-0.03529543 -0.034522656 0.028947178 -0.025220558 0.035791375 0.034978855 -0.014802907 -0.024462497
0.024442272 -0.0057949238 -0.03512415 0.0045176535 -0.023708897 -0.012421443 0.043657176 -0.021550288
-0.052163705 0.012054505 0.016273657 -0.109783545 -0.09769896 0.027332267 -0.13487168 -0.16289458
-0.028242504 -0.04500699 0.039431076 -0.026676025 0.050822392 0.011500357 -0.033072717 0.047712024
0.021461511 0.049571797 -0.014768922 -0.073460326 0.024996556 0.005125926 -0.06799913 0.068614945
0.082769044 0.080818355 0.008589297 0.013331042 -0.0029649418 0.061941303 -0.012318067 -0.11310034
-0.030697336 0.0085882535 -0.012534089 -0.027037347 -0.019386612 -0.00940073 -0.019305212 -0.00840633
0.032753285 -0.008866162 -0.031622794 -0.039883148 -0.010029514 0.0046797646 -0.06197694 -0.018559892
00000000: 00f6 59bc 665d 40bc f581 b9bc bf40 89bc
00000010: bb55 42bd ccfc e4bc 4483 cabd 5ede e7bd
00000020: 873b 0cbe 9199 1fbd b6e6 13bd db2a 323c
00000030: 0440 22bd 5480 81bd 5ac1 5fbd da5b 83bc
00000040: a461 4abd 5cd5 60bd 7e58 4cbd 082e c4bc
00000050: 9fc2 323d 8b66 a1bc 8be1 02bd d544 08bb
00000060: 2249 36bd f8ea 9bbd 3784 c1bd 260b 323c
00000070: ed11 f23c 931c f8bc 14c0 17bd 68b4 fa3c
00000080: 9d91 343b 68e5 66bd f5e0 4fbb 2d1c 80bd
00000090: a84b 99bb e1e5 49ba d124 223d 9f25 1abc
000000a0: f3f5 8d3b 0f2e 81bc b59c c4bc 50d7 51bd
000000b0: 6303 14be e26c 6f3c 0089 703a 052b 7cbc
000000c0: 00cb ba3c 2585 29bd 2682 563d 3173 a43c
000000d0: 8ad9 93bd 698c debb 1477 81bb f237 213d
000000e0: 015d f0bb 8937 8c39 fd12 11bd a717 95bc
000000f0: fe1f 143d 24ad abbc aea2 b23a 79cb 08bc
00000100: 7fd8 97bd 26f1 e8bc d6f5 fd3c 686b 98bd
00000110: bad0 b4bd 92b1 b13c b270 80bd 4872 5fbc
00000120: 1b3b b63c 1e64 eb39 be7e 82bd 4f56 553d
00000130: 611f 14bd 6e59 adbd 8e31 1bbc 2294 1bbd
00000140: 3e0f bcbd 194a 54bb 0624 9abc 4948 2a3c
00000150: 2780 c23c 6da5 76bd 2ee9 1dbc 0448 d2bb
00000160: e709 7fbd 1613 a2bd 45c2 13bd a417 24bb
00000170: ba04 193d 4a4a ddbb b42c 073b a900 843d
00000180: 0622 2a3c c149 433d b46f 9b3d 0851 dd3c
00000190: 42a6 6cbc f7b7 ea3b eca3 f3bc a695 963c
000001a0: 41ed b73c 957a 72bd 76bd 8cbc e6a5 0f3d
000001b0: c1c6 b33c f1ad 9fbb 8538 18bd 041d 93bb
000001c0: fcd4 593c fb44 56bd 600a 21bd 95bb 7dbd
000001d0: 9f7c b6bd 9158 90bc 38ca 95bd c019 03bd
000001e0: 4989 013c 810d 843c 1c09 61bd 2753 03bd
000001f0: d80f 08be 0216 c5bd 9881 14bc 8cf3 0fbc
00000200: 1d82 90b9 d4b2 14bd d564 dc3c 1c3d e43c
00000210: 27c6 b43c e884 d5bb 1cea 043c 014d d3bb
00000220: b5f6 8a3b 43ad a43c 9f2d 0fbb 1c24 f1bc
00000230: d5c6 633d 6ba3 483d b86d f73c 3305 433d
00000240: abf6 8dbc 2564 51bc 5d18 333c 38e0 0fbd
00000250: 43db 82bc b73d 51bd f98e d2bc 3220 813d
00000260: 7474 c83d cd7f 5b3d 8e6a 2bbd dd43 45bd
00000270: 4e84 aa3c 4a5f c3bd 8eb0 c2bd f09a ac3c
00000280: bd68 91bd 54be cbbd e66e afbb c73c 7abc
00000290: 59e3 0dbd d973 9cbb a894 8fbc 451c ff3b
000002a0: 2fe4 abbd b76a 8bbd 9f1f 38bb 8a2c 3fba
000002b0: 86dd 99bc 074f d8bc c5b4 d83b 72ec 1ebd
000002c0: 6f95 cebc 6481 a8bd bd5b 48bc fb13 693d
000002d0: 6bc5 78bc bbf2 673b 765a b33b 4f13 d33b
000002e0: cb8e 9b3d 451c 943d b5b0 5cbc 8f69 debb
000002f0: 8920 9a3c 2828 e9bc 5315 f0bc b140 5d3d
00000300: f191 10bd a167 0dbd a222 ed3c 589b cebc
00000310: fa99 123d fd45 0f3d e487 72bc 9365 c8bc
00000320: 293b c83c 58e3 bdbb 57de 0fbd d308 943b
00000330: 2939 c2bc 4f83 4bbc ded1 323d 3b8a b0bc
00000340: 9ca9 55bd 4280 453c 5550 853c 32d6 e0bd
00000350: 6416 c8bd ebe7 df3c cd1b 0abe d6cd 26be
00000360: d35c e7bc 4059 38bd 7b82 213d ae87 dabc
00000370: 242b 503d fe6b 3c3c 4277 07bd af6d 433d
00000380: 0dd0 af3c cc0b 4b3d 59f9 71bc 5e72 96bd
00000390: 94c5 cc3c 62f7 a73b 2143 8bbd fe85 8c3d
000003a0: d182 a93d 1884 a53d 1fba 0c3c 716a 5a3c
000003b0: 784f 42bb 2ab6 7d3d b8d1 49bc 27a1 e7bd
000003c0: fb78 fbbc bfb5 0c3c c85b 4dbc 6d7d ddbc
000003d0: acd0 9ebc 8505 1abc f725 9ebc b4ba 09bc
000003e0: 4f28 063d 6143 11bc e786 01bd 835c 23bd
000003f0: d552 24bc b658 993b 88db 7dbd ea0a 98bc

embedding.8.bias f4 [64]
-0.016571239 0.0039567533 0.0051391614 0.010755468 -0.005262587 0.02309873 -0.010179864 -0.01111943
0.0027097533 -0.0005086548 0.0028891612 -0.01052937 -0.02453907 -0.00066906854 -0.013424441 0.016880749
0.014318901 -0.0020384467 0.010469038 -0.010612044 -0.024418488 -0.014542929 0.00084654783 0.011339901
0.008757352 0.010367798 -0.039430782 -0.020394599 0.0055404906 0.008529402 -0.008511308 0.009161054
-0.0019806174 -0.015494638 -0.0068103494 0.012120374 -0.0023583826 0.0040964475 0.0059149056 -0.027495861
-0.014894304 -0.0077376203 -0.01242646 0.007662258 -0.009029183 0.000723175 0.012243951 0.0033597944
0.0144918095 0.0019207963 0.0067132614 0.0065597217 -0.012067123 -0.005034038 0.007429177 -0.018949402
-0.020344727 -0.01130136 -0.014538378 -0.017392278 -0.014935876 -0.0050521023 0.032867167 -0.0056531457
00000000: 68c0 87bc a7a7 813b 6966 a83b b437 303c
00000010: c871 acbb 8c39 bd3c 72c9 26bc 452e 36bc
00000020: 1e96 313b 3f57 05ba 1558 3d3b 6183 2cbc
00000030: 2906 c9bc 6e64 2fba 30f2 5bbc 7f49 8a3c
00000040: d399 6a3c 7697 05bb 5486 2b3c 23de 2dbc
00000050: 4809 c8bc 7745 6ebc ddea 5d3a feca 393c
00000060: ff7a 0f3c b2dd 293c 2c82 21bd 9312 a7bc
00000070: 018d b53b e8be 0b3c 0373 0bbc 3f18 163c
00000080: 3fcd 01bb 39dd 7dbc 5a29 dfbb 8894 463c
00000090: 188f 1abb 7e3b 863b d3d1 c13b 003f e1bc
000000a0: 3d07 74bc dd8b fdbb 5a98 4bbc ae13 fb3b
000000b0: 23ef 13bc 7493 3d3a da9a 483c ff2f 5c3b
000000c0: 0e6f 6d3c 3bc3 fb3a ebfa db3b eff2 d63b
000000d0: 2fb5 45bc 92f4 a4bb 7470 f33b c73b 9bbc
000000e0: fca9 a6bc 5729 39bc 6132 6ebc 407a 8ebc
000000f0: 9bb5 74bc 1b8c a5bb b99f 063d 063e b9bb

embedding.9.weight f4 [64]
0.9679523 1.0200231 0.89176357 0.9597391 0.9720618 0.95162684 1.0097257 0.99645567
1.0515878 1.0634669 1.0758033 1.0332744 1.0418514 1.0018823 0.9094456 1.0285573
0.9980641 0.9898105 1.0347738 1.0600538 1.040903 1.0982127 0.9635661 0.98794895
1.0366035 0.9433924 0.96329623 1.0023497 0.9336988 1.0389838 0.8764016 0.97321635
0.95489156 1.0564461 1.0813929 1.0135174 1.0394055 0.99042326 0.97420317 1.0472462
0.9791643 1.0253783 0.94908667 1.0250874 0.9980566 1.0709637 0.9933097 1.0022854
1.0498618 0.98061067 1.0424175 0.9979817 0.96552795 0.9732319 0.9281278 1.0056211
0.9348793 0.9460518 0.9619337 0.9793782 1.0180755 1.0829833 1.0375408 1.1795412
00000000: b9cb 773f 1e90 823f 9e4a 643f 76b1 753f
00000010: 0bd9 783f d19d 733f b13e 813f b817 7f3f
00000020: 6e9a 863f af1f 883f ecb3 893f 5642 843f
00000030: 635b 853f ae3d 803f 6dd1 683f c4a7 833f
00000040: 2181 7f3f 3964 7d3f 7873 843f d8af 873f
00000050: 4f3c 853f 3c92 8c3f 45ac 763f 39ea 7c3f
00000060: 6caf 843f 2a82 713f 959a 763f ff4c 803f
00000070: e206 6f3f 6cfd 843f db5b 603f b524 793f
00000080: c673 743f a039 873f 156b 8a3f f0ba 813f
00000090: 3d0b 853f 618c 7d3f 6165 793f 2a0c 863f
000000a0: 83aa 7a3f 993f 833f 58f7 723f 1036 833f
000000b0: a380 7f3f 5715 893f 8b49 7e3f e34a 803f
000000c0: df61 863f 4d09 7b3f f06d 853f bb7b 7f3f
000000d0: d72c 773f ba25 793f c999 6d3f 31b8 803f
000000e0: 4054 6f3f 7330 723f 4941 763f 88b8 7a3f
000000f0: 4c50 823f 329f 8a3f 23ce 843f 35fb 963f

embedding.9.bias f4 [64]
-0.17185059 -0.22171734 -0.041839037 -0.118924536 0.015514171 -0.05938708 -0.03498727 -0.10662244
-0.18223894 -0.19918744 -0.21322526 -0.26713172 -0.12443277 -0.056843992 -0.1967142 -0.03306559
-0.11268216 -0.11555565 -0.1416716 -0.15512022 -0.12677763 -0.21330106 -0.024246197 -0.10748854
-0.18484522 -0.13964581 -0.018099362 -0.074815236 0.01869938 -0.20318328 -0.12727539 -0.07267865
-0.32058677 -0.1588294 -0.053378105 -0.10045059 -0.15796281 -0.048426755 -0.13803205 -0.1436373
-0.07678132 -0.109691605 -0.015714604 -0.21046276 -0.19823807 -0.1509527 -0.15980768 -0.043093167
-0.15282017 -0.05611487 -0.11636859 -0.035828605 -0.025872571 -0.1547722 -0.075037315 -0.15234289
-0.08935738 -0.1127072 -0.081341594 -0.22321256 -0.14482789 -0.15800034 -0.14982781 -0.18571334
00000000: 9af9 2fbe df09 63be 695f 2bbd b58e f3bd
00000010: 262f 7e3c de3f 73bd d04e 0fbd de5c dabd
00000020: d89c 3abe cbf7 4bbe b957 5abe 7dc5 88be
00000030: 9cd6 febd 3fd5 68bd 726f 49be c96f 07bd
00000040: e8c5 e6bd 71a8 ecbd 5c12 11be d6d7 1ebe
00000050: ffd1 01be 986b 5abe f69f c6bc f422 dcbd
00000060: 1148 3dbe 50ff 0ebe 1d45 94bc bb38 99bd
00000070: 712f 993c 470f 50be 7b54 02be 8bd8 94bd
00000080: f323 a4be 2da4 22be 00a3 5abd 0ab9 cdbd
00000090: 01c1 21be 225b 46bd 4658 0dbe a815 13be
000000a0: 863f 9dbd fea5 e0bd eabb 80bc 8d83 57be
000000b0: ecfe 4abe 5893 1abe a0a4 23be 7682 30bd
000000c0: e47c 1cbe b5d8 65bd a852 eebd 04c1 12bd
000000d0: b7f2 d3bc 9b7c 1ebe 2aad 99bd c6ff 1bbe
000000e0: 0101 b7bd 08d3 e6bd 6c96 a6bd d591 64be
000000f0: c34d 14be d7ca 21be 766c 19be a32b 3ebe

embedding.9.running_mean f4 [64]
-1.5921743 0.7329068 0.6301114 0.16967767 -2.39421 0.27014235 -2.3864505 0.12687384
-0.049092587 -0.20628436 0.20666328 1.1952829 -0.25231946 0.07534552 0.2570127 -0.35858965
-0.09842278 -0.60665876 -0.5134496 -0.89200276 -2.1846802 -0.45379922 -2.4116042 -0.8533839
-0.5309609 -0.043612033 -0.5849486 -0.60482264 -0.8370125 -0.34713933 -0.046233542 0.1460789
0.1793422 -1.6336552 -0.10155179 0.11136719 -0.09800579 -1.2538329 -0.4544669 -1.4028759
-0.0771754 -0.5233742 -0.020688785 -0.24967763 0.22963418 -1.4004986 -0.6625157 -1.0283419
-0.3239953 -2.0751948 -1.3619279 -0.35153383 0.36130854 -1.1809018 -0.08613282 -1.9682052
1.5807127 0.45927882 0.18952769 0.13919352 -0.14887209 -0.81169605 -0.9538007 -0.78824633
00000000: 5ecc cbbf c89f 3b3f fb4e 213f fcbf 2d3e
00000010: bd3a 19c0 1950 8a3e 9bbb 18c0 37eb 013e
00000020: 4f15 49bd 353c 53be 8a9f 533e 08ff 983f
00000030: 0430 81be c14e 9a3d 2b97 833e 1099 b7be
00000040: e291 c9bd fd4d 1bbf 6f71 03bf 4b5a 64bf
00000050: cdd1 0bc0 5f58 e8be b957 1ac0 5e77 5abf
00000060: 0eed 07bf 88a2 32bd 31bf 15bf a8d5 1abf
00000070: 7446 56bf 3fbc b1be 625f 3dbd b595 153e
00000080: 7ba5 373e 9d1b d1bf 63fa cfbd 7b14 e43d
00000090: 42b7 c8bd 997d a0bf e3af e8be 7091 b3bf
000000a0: 230e 9ebd dafb 05bf 877b a9bc 7eab 7fbe
000000b0: 3925 6b3e 8a43 b3bf a19a 29bf b5a0 83bf
000000c0: b6e2 a5be fecf 04c0 a753 aebf 3efc b3be
000000d0: 6ffd b83e ca27 97bf 6766 b0bd 26ee fbbf
000000e0: cb54 ca3f 9826 eb3e 8c13 423e bf88 0e3e
000000f0: ed71 18be 50cb 4fbf 482c 74bf 83ca 49bf

embedding.9.running_var f4 [64]
1.0920507 0.7878871 0.89226043 0.9194857 1.96727 0.76818776 1.6030864 1.5458012
1.0343926 1.2961488 0.87590605 2.1303124 1.0790677 1.2206059 1.2602649 1.2179056
1.3051559 0.8380561 0.75903964 1.035631 1.9579952 1.6734653 1.7459052 0.560337
1.5276843 1.0398798 0.746992 0.7350473 1.6155287 1.1654524 0.98789006 1.2861497
0.79707813 1.3292762 0.758395 1.3143449 1.2296627 0.69420063 0.8445326 0.9365481
1.2915839 0.8018493 0.62513906 0.69531304 1.194941 1.225043 1.02734 0.89683145
0.9456676 0.94367427 1.0207462 1.0025945 1.1290274 1.6081177 0.9566389 1.5961373
1.3011817 0.7892939 1.7758279 0.9707445 1.5052533 1.2357529 0.803808 2.2427251
00000000: 51c8 8b3f f8b2 493f 2e6b 643f 6a63 6b3f
00000010: 81cf fb3f f4a7 443f ef31 cd3f d0dc c53f
00000020: fa66 843f 34e8 a53f 613b 603f 0a57 0840
00000030: e41e 8a3f d03c 9c3f 5c50 a13f 55e4 9b3f
00000040: 590f a73f d88a 563f 6c50 423f 8e8f 843f
00000050: 969f fa3f 1c34 d63f d279 df3f 3f72 0f3f
00000060: 298b c33f c81a 853f de3a 3f3f 0f2c 3c3f
00000070: a5c9 ce3f 8b2d 953f 5de6 7c3f 8ea0 a43f
00000080: 500d 4c3f b925 aa3f 2d26 423f 743c a83f
00000090: 9665 9d3f 22b7 313f 4a33 583f 9ec1 6f3f
000000a0: 9f52 a53f ff45 4d3f 1d09 203f 0900 323f
000000b0: d4f3 983f 36ce 9c3f e17f 833f bf96 653f
000000c0: 4617 723f a394 713f d0a7 823f 0455 803f
000000d0: f883 903f cdd6 cd3f 49e6 743f 3a4e cc3f
000000e0: 1f8d a63f 2a0f 4a3f 544e e33f b682 783f
000000f0: 24ac c03f 272d 9e3f 5cc6 4d3f cf88 0f40

embedding.12.weight f4 [64, 64, 3, 3]
-0.017621338 -0.0048138797 0.070816815 0.01806606 0.016858311 0.051424637 -0.024500245 0.009706761
0.06452542 -0.05772716 -0.057985537 -0.025750736 -0.0212691 -0.020821225 -0.10965618 0.001863411
0.04001164 -0.060690433 -0.042000193 -0.0070251017 0.025511807 -0.047840852 -0.0071962024 0.07044428
-0.00096679945 -0.023619901 0.007540422 0.035308905 -0.04515418 0.038555223 -0.007567662 -0.012857849
0.03140835 0.022243768 0.02317039 0.04899746 0.009556292 0.025926512 -0.01628163 -0.0059142127
-0.0342374 0.002178027 -0.012285044 -0.019713454 0.016033882 -0.010527451 0.029921759 0.024735348
-0.03210828 -0.041853417 -0.027683932 0.0047211824 -0.0107704615 -0.0004228922 0.04746213 0.005935449
0.0025245606 -0.03285429 -0.0359088 -0.009217467 0.011517085 -0.018648446 0.025372542 0.050795652
0.03412396 0.020163627 0.027330155 -0.042554587 -0.039072763 0.038799305 0.017872937 0.03589834
0.02476591 -0.020258065 -0.009667935 0.009892445 0.016716186 0.04794879 0.0997667 0.092208445
0.072734796 0.024171053 -0.006036135 0.0017638851 0.04025142 -0.02289008 -0.059754387 0.08688944
-0.0070642154 -0.05087058 0.06768462 0.012132531 0.04895595 0.01584755 -0.10895243 -0.025110124
0.06705395 0.08799599 0.057619747 -0.020404097 0.0050010295 -0.03417382 -0.0058946465 -0.012144803
-0.015434814 0.002268359 0.0030652331 -0.012875643 -0.0078005805 -0.005343261 0.010410205 0.002788812
-0.057294935 0.16154368 0.049901206 0.012649816 0.13038607 -0.05320083 -0.066002674 -0.008616657
0.012776685 0.007489487 0.01925419 0.036799558 0.010233175 0.06611135 0.069405116 -0.018334279
0.0531799 0.021591846 0.006891809 0.019871738 0.12877503 0.03165873 0.02232977 0.027979592
0.025054995 -0.048885927 0.0026776874 0.005398954 -0.009570038 0.011741803 0.08514608 0.05362471
-0.0016968147 -0.093596205 -0.06304557 -0.010332666 -0.028484114 -0.007599633 0.026308415 0.04265343
0.08000329 0.02860305 0.02710433 -0.031329587 -0.0131160375 -0.028161846 -0.04340921 0.028616581
-0.046136513 -0.09915936 -0.02683679 -0.019192034 -0.020359252 -0.041483216 -0.061589543 -0.029382985
-0.040482435 -0.050476078 -0.06657928 -0.030414118 0.014771997 -0.008853008 -0.010413677 0.017122684
-0.012511889 -0.015324151 -0.00679648 -0.043413382 0.01966139 0.02511379 0.0026168746 0.007576774
-0.07874586 -0.08982175 0.16786289 0.11207946 0.08335976 -0.004225883 -0.011150204 -0.022481227
-0.0124087725 -0.03105072 0.058612686 0.07757051 0.011228931 0.07514044 0.044410598 0.010513507
0.074386895 0.052230682 -0.07591526 0.046286162 0.021512352 0.0017829164 0.038854558 0.0024476184
-0.03600724 -0.061761457 -0.026817288 -0.00700658 -0.08193774 0.011364507 0.013589356 -0.00916796
0.022021195 -0.022710143 0.06727127 0.012908419 -0.0032214292 0.061189737 0.029789167 0.027129265
0.04152993 0.0006170633 0.005026244 0.0519574 0.009394611 0.030453721 -0.0069387583 0.07125549
0.019971235 -0.031818178 0.0036582535 0.01316356 -0.0011048673 0.011065016 -0.014090708 -0.06406794
0.038539603 0.0198041 0.01184823 0.042141587 0.042680576 0.027498981 0.030486409 0.025595302
0.03324358 -0.004023995 0.010641029 -0.04145542 0.0030110746 -0.03883721 0.06147835 -0.017476482
00000000: a05a 90bc c0bd 9dbb 6808 913d 46ff 933c
00000010: 711a 8a3c a4a2 523d bdb4 c8bc 1b09 1f3c
00000020: e725 843d 5173 6cbd 3e82 6dbd 35f3 d2bc
00000030: 893c aebc 4691 aabc 6b93 e0bd b33d f43a
00000040: 3fe3 233d 8896 78bd 6508 2cbd d332 e6bb
00000050: 23fe d03c c5f4 43bd 1fce ebbb 1745 903d
00000060: d070 7dba 867e c1bc a515 f73b 12a0 103d
00000070: 97f3 38bd 15ec 1d3d 26fa f7bb baa9 52bc
00000080: 0ba6 003d 9038 b63c d4cf bd3c 90b1 483d
00000090: fe91 1c3c d663 d43c 0e61 85bc 03cc c1bb
000000a0: 843c 0cbd 3bbd 0e3b 3647 49bc 1c7e a1bc
000000b0: 7d59 833c 547b 2cbc 7a1e f53c c9a1 ca3c
000000c0: f983 03bd 7d6e 2bbd 6ac9 e2bc 26b4 9a3b
000000d0: 9776 30bc a1b7 ddb9 a767 423d 287e c23b
000000e0: 1973 253b 3892 06bd 1b15 13bd dc04 17bc
000000f0: 28b2 3c3c a0c4 98bc 14da cf3c 1a0f 503d
00000100: 91c5 0b3d 312e a53c 7de3 df3c b84d 2ebd
00000110: c30a 20bd 05ec 1e3d 446a 923c 230a 133d
00000120: e1e1 ca3c 3ef4 a5bc 4266 1ebc ec13 223c
00000130: 62f0 883c f365 443d 7c52 cc3d c8d7 bc3d
00000140: fbf5 943d 5f02 c63c c5ca c5bb 2a32 e73a
00000150: acde 243d fa83 bbbc 04c1 74bd 17f3 b13d
00000160: ef7a e7bb ab5d 50bd 3c9e 8a3d 86c7 463c
00000170: 0986 483d b9d2 813c 7422 dfbd bfb3 cdbc
00000180: 9553 893d 3e37 b43d af02 6c3d 7e26 a7bc
00000190: addf a33b d9f9 0bbd e127 c1bb fffa 46bc
000001a0: 4de2 7cbc c0a8 143b 14e2 483b 5cf4 52bc
000001b0: 039c ffbb 8616 afbb 918f 2a3c 80c4 363b
000001c0: 18ae 6abd b56b 253e 3565 4c3d 2d41 4f3c
000001d0: ed83 053e 1de9 59bd 692c 87bd e12c 0dbc
000001e0: 4d55 513c 5f6a f53b f7ba 9d3c 22bb 163d
000001f0: 0ca9 273c 6365 873d 4524 8e3d c531 96bc
00000200: 2bd3 593d 62e1 b03c afd4 e13b 0eca a23c
00000210: 9add 033e 96ac 013d ecec b63c 7535 e53c
00000220: 2240 cd3c 9c3c 48bd 247c 2f3b b5e9 b03b
00000230: a6cb 1cbc b160 403c 1161 ae3d 95a5 5b3d
00000240: a767 deba 5eaf bfbd 091e 81bd 584a 29bc
00000250: 8457 e9bc 5806 f9bb bf84 d73c 5db5 2e3d
00000260: c4d8 a33d f250 ea3c e609 de3c 7453 00bd
00000270: a6e4 56bc acb3 e6bc dbcd 31bd 526d ea3c
00000280: a4f9 3cbd 1014 cbbd d4d8 dbbc 9d38 9dbc
00000290: 72c8 a6bc 4eea 29bd 5145 7cbd 96b4 f0bc
000002a0: e9d0 25bd 01c0 4ebd b85a 88bd 0727 f9bc
000002b0: 3f06 723c 350c 11bc 219e 2abc df44 8c3c
000002c0: abfe 4cbc 2612 7bbc 02b5 debb 3bd2 31bd
000002d0: ec10 a13c 6fbb cd3c df7f 2b3b 9646 f83b
000002e0: 8245 a1bd 77f4 b7bd 40e4 2b3e ea89 e53d
000002f0: 86b8 aa3d 4779 8abb 58af 36bc 8d2a b8bc
00000300: 2a4e 4bbc 145e febc db13 703d 4add 9e3d
00000310: 8df9 373c 3be3 993d e3e7 353d d840 2c3c
00000320: 2858 983d d7ef 553d 7679 9bbd 8f96 3d3d
00000330: ac3a b03c bfb0 e93a f525 1f3d 3968 203b
00000340: 547c 13bd 95f9 7cbd eeaf dbbc 7497 e5bb
00000350: f9ce a7bd 3232 3a3c e4a5 5e3c 3635 16bc
00000360: cb65 b43c 9f0a babc 85c5 893d d57d 533c
00000370: 9d1e 53bb 17a2 7a3d 6908 f43c 313e de3c
00000380: 4a1b 2a3d 6bc2 213a 31b3 a43b 48d1 543d
00000390: dbeb 193c 157a f93c 865e e3bb 66ee 913d
000003a0: b79a a33c c753 02bd 4fbf 6f3b f9ab 573c
000003b0: 32d1 90ba 0a4a 353c b7dc 66bc 0d36 83bd
000003c0: b4db 1d3d 353c a23c 141f 423c a89c 2c3d
000003d0: d4d1 2e3d 8b45 e13c a2be f93c 3dad d13c
000003e0: 6c2a 083d b7db 83bb b657 2e3c 29cd 29bd
000003f0: 7355 453b c413 1fbd b9d0 7b3d d72a 8fbc
