checkpoints/ProtoNet/embedding_net_on_Omniglot_100.pth (torch, 459301 bytes, 24 tensors)

embedding.0.0.weight f4 [64, 1, 3, 3]
000000 60 22 f7 3c 92 1e 8c ba 61 c0 c5 3d 6a d5 32 3c
       0.030167758 -0.0010690263 0.09655834 0.01091514
000010 87 3f 31 bd 60 43 95 3d f0 f6 99 bc 67 de 08 bd
       -0.043273475 0.072882414 -0.018794507 -0.033415224
000020 79 1c e2 3c b6 d8 8f 3d da 41 2e bd fb 3f cb bc
       0.027601467 0.07023756 -0.04254327 -0.024810782
000030 4f 7a c8 bb 06 2f af 3b 2b d3 b2 3a a8 44 85 bd
       -0.006118096 0.005346182 0.0013643255 -0.06507236
000040 e3 e1 73 3c 8b 1e 48 3d 6c 85 0c 3d 8e a8 0c 3c
       0.014885399 0.048857253 0.03430693 0.008585108
000050 4d 37 95 bd 6b 08 25 3c f6 e6 f6 3d e0 a5 d6 3c
       -0.072859384 0.010072808 0.12055771 0.026202142
000060 9a 71 98 3c fd 36 19 bd 7c c1 41 3d 9b 14 37 3d
       0.018608857 -0.037405957 0.04730366 0.044697385
000070 9e 71 52 3d 61 39 97 3d 0d 93 25 3d 1b 5c b5 3c
       0.051377885 0.07383991 0.04042344 0.022138646
000080 e3 10 18 3d da 08 2a 3d 14 89 21 3d 54 37 22 3d
       0.03712548 0.041512348 0.03943737 0.039603546
000090 90 64 e2 bc 33 e2 2b 3d 0f 49 37 3d f0 13 24 3d
       -0.027635843 0.041963767 0.04474741 0.040058076
0000a0 ba d5 a9 bc 2b a3 7b 3d 7f 02 01 bd ff 13 47 3d
       -0.020731796 0.061434906 -0.03149652 0.048603054
0000b0 7c 6e 5b 3d 6f 04 4a bb 34 67 0f 3d e1 39 bc 3c
       0.053572163 -0.0030825397 0.03501053 0.022976818
0000c0 e2 65 26 bd a8 a2 cf 3c 72 89 20 3d 5e 88 44 bd
       -0.040624507 0.025346115 0.039193578 -0.047981612
0000d0 71 f4 5b 3c 22 14 32 3d 75 d4 9b bd 19 c7 71 bc
       0.013424979 0.04347623 -0.07608882 -0.014756941
0000e0 43 a6 91 3c 7c 65 4a bc f5 01 2e 3c 6f 84 2d bd
       0.017779475 -0.012353297 0.010620584 -0.042362627
0000f0 84 48 90 3d 9a cf ce bb 6f c8 86 bd 0a 66 ec 3c
       0.07045081 -0.006311369 -0.065811984 0.02885725
000100 48 4e a2 bd 87 38 ac 3c 89 dd 02 3d 86 62 00 3e
       -0.07925087 0.021023048 0.031949554 0.12537584
000110 02 f5 be 3c 0b 64 be bc f4 ec 80 3c 37 27 3b bc
       0.023310188 -0.023241064 0.015737988 -0.011422924
000120 6a e5 07 bb b3 18 fa bc 88 83 07 bc ac 4b 00 bd
       -0.0020736107 -0.030529356 -0.008271106 -0.031322166
000130 9f d9 0f bd c6 57 71 bc 22 ee bf 3c 20 61 64 bb
       -0.03511965 -0.0147303995 0.02342898 -0.003484793
000140 2c ed 37 bb 50 5a 06 3c 88 13 67 bd 95 7a 91 3c
       -0.002806495 0.008200243 -0.05641511 0.017758647
000150 46 2a 86 3d ce 04 ae 3d d8 c0 80 3d 14 f1 4d 3c
       0.06551032 0.0849701 0.06286782 0.012569685
000160 9d ef 7b bd 2d fb b3 3b 4e 4b 49 3a 0c 55 f2 bc
       -0.06150781 0.005492589 0.0007678763 -0.02958157
000170 f3 92 40 bd 06 8e 75 bd bf a1 8f bc d0 ec b9 3b
       -0.04701514 -0.059949897 -0.017533181 0.005673982
000180 bb 0a e5 3c 7a 75 9c 3d 1e 04 5d 3d 97 52 1e bd
       0.027959218 0.076395944 0.053959005 -0.038652983
000190 22 b8 7f bd 7b 7c 35 bc e0 de d8 bc 70 12 60 bd
       -0.062431462 -0.011077042 -0.026473463 -0.054705083
0001a0 cf 7a 7a bd e6 e9 0e bd 89 86 09 bd d3 28 29 3d
       -0.061152276 -0.03489103 -0.03357557 0.0412987
0001b0 d3 57 2a bd 92 81 91 3d 52 38 ef bc 01 a4 79 bb
       -0.041587662 0.07104792 -0.02920166 -0.0038092139
0001c0 c0 67 bd 3d d5 f2 f2 bc 68 1a c9 3c cc 87 40 bd
       0.09248304 -0.029656807 0.024548724 -0.047004506
0001d0 35 0f a0 3c ba 60 29 bd 7b 56 31 3d ad 18 56 3d
       0.019538501 -0.04135201 0.043295365 0.052269626
0001e0 a8 0e 01 3d d9 e7 2e 3d c0 42 9f 3c da 05 62 3c
       0.031508118 0.042701576 0.019441009 0.01379534
0001f0 9b c7 91 3a a9 11 87 bd 32 a8 05 3d 3a 37 c1 3c
       0.0011122109 -0.06595165 0.032631107 0.023585904
000200 91 a6 d1 3d 79 2e 78 3c 93 66 67 bc e9 c9 a4 3d
       0.10236848 0.015147799 -0.014123577 0.08046324
000210 fc 7c 11 bc f8 9e ea 3c ce bb 70 bc f4 4f d0 ba
       -0.008879896 0.028640255 -0.014693214 -0.0015892969
000220 58 21 57 38 40 05 c4 3a 8c a2 c0 38 1a 2f 9e bd
       5.129105e-05 0.0014955178 9.18555e-05 -0.07723828
000230 fe 45 31 3b 1b 85 96 3d 06 aa 2c ba 85 38 31 3a
       0.0027049775 0.073496066 -0.0006586615 0.0006760436
000240 f4 7c ae 3c 6f 10 98 3d 46 3d e4 b9 bb 45 c9 ba
       0.021299817 0.074250095 -0.000435332 -0.0015355864
000250 57 5b 91 3d 91 68 85 3d b6 9a 82 bd 8c c4 d7 bb
       0.070975 0.06514085 -0.06377165 -0.0065847095
000260 12 37 39 3d 44 91 3b bd 6b 99 0f bd ad e3 f8 bc
       0.045218535 -0.045792833 -0.03505842 -0.030382002
000270 d9 2a 36 3a 71 78 d0 3c 9b 62 43 3c 7b fe 28 3d
       0.0006949134 0.025448056 0.011925365 0.041258316
000280 c5 83 77 3d 31 1d a1 3b 44 a2 8a bd 5a 54 3d bc
       0.0604284 0.00491681 -0.06769231 -0.0115557555
000290 84 24 60 3d a2 f6 33 bd 16 fc ae 3c 90 44 8f 3d
       0.054722324 -0.04393638 0.021360438 0.06995499
0002a0 61 c1 cd ba 1f 70 69 3c 2e 4e 29 3d 8e 5a 89 3c
       -0.001569789 0.014247923 0.041334324 0.016766813
0002b0 07 cf b1 3b 85 06 57 bd 36 ac c5 bc 36 d6 70 bd
       0.005426291 -0.052496452 -0.024129968 -0.058798037
0002c0 ab e3 25 39 16 df 50 bd ad ef eb bb cd 06 91 ba
       0.00015820439 -0.050994 -0.0072002024 -0.0011064649
0002d0 6c f9 9f 3c 9b b7 a4 3d bd 14 67 3c bb 44 d5 3c
       0.019528113 0.080428325 0.0141040655 0.02603375
0002e0 8d 56 26 3c 3a ee 89 bc a8 ee 07 3c 6c a9 e8 bb
       0.010152471 -0.016837228 0.008296646 -0.007100275
0002f0 5a 3b 27 bd a3 8d 01 bd e3 b9 89 3c 19 b2 3f 3c
       -0.040828086 -0.031629216 0.01681227 0.011700177
000300 1c fc 51 bb 99 6a a0 3b 9e 56 a2 3d a9 ce bb ba
       -0.0032041138 0.00489552 0.07926677 -0.0014328557
000310 b1 96 43 bd 89 cb f9 bc 3d 1e 64 3d 2a ba 32 3d
       -0.047751132 -0.030492561 0.0556929 0.04363457
000320 c9 f4 c8 bc 7b d5 63 bd cb 6a 1f 3d 8b 94 a8 3b
       -0.024530785 -0.055623513 0.038920205 0.005144661
000330 c8 f3 9e bc 5c 18 1f 3d d2 c4 8c 3c 4a 86 84 bb
       -0.019403353 0.03884159 0.017183695 -0.004044329
000340 c0 8e 42 3d 3c de 58 3d 97 df 94 3c 09 24 b6 3d
       0.04749942 0.052946314 0.018173022 0.08893592
000350 d8 04 7c 3c fb 58 b6 3d fe ec 04 3d 10 aa 59 bd
       0.015382014 0.089036904 0.032452576 -0.0531407
000360 3d 90 95 bd db a9 99 3c 20 bc 1b 3d ba 3c 50 bc
       -0.07302902 0.018757751 0.038021207 -0.012709791
000370 18 2a 0f 3d ac a9 5b 3b d5 e2 25 3d 77 a6 34 3d
       0.034952253 0.003351788 0.040499527 0.044104066
000380 5f 8b 58 bc c7 7c 28 bc 2c 8f a4 3b 36 e3 69 bc
       -0.013216822 -0.0102836555 0.00502195 -0.014275363
000390 46 b8 2b bc 1e 5a 8c 3c 12 03 35 bc a5 3e c2 bb
       -0.010480946 0.017132815 -0.011048095 -0.005927878
0003a0 05 11 27 3e c8 27 93 bb ad ad 12 bd 1f 4a 71 bd
       0.16315086 -0.0044908263 -0.03581016 -0.058908578
0003b0 19 97 c4 3c 53 a6 97 3c 47 fd c5 3c 85 e4 ad 3d
       0.02399783 0.018511927 0.024168624 0.08490852
0003c0 e8 36 2e 3d 06 83 7a 3c e9 c7 8b bb 07 3c 0a 3d
       0.04253283 0.0152900275 -0.0042657745 0.033748653
0003d0 74 5c 46 3c 2f d0 1c bd 56 9b a9 3d f1 ad 1a 3d
       0.0121070035 -0.038284477 0.08281581 0.03776354
0003e0 3a 0f 5a 3c c1 10 16 3d 63 c0 a5 3d 33 95 da 3d
       0.013309294 0.03663707 0.080933355 0.10672989
0003f0 95 59 2b bd 77 5e 72 bc 04 71 96 b9 f7 44 bf bb
       -0.04183348 -0.01479303 -0.00028694433 -0.0058370787

embedding.0.0.bias f4 [64]
000000 9d 6c e0 b9 db 29 15 bc 3b 5b 8a 3d 58 1f 30 bd
       -0.00042805533 -0.009104217 0.06755682 -0.04299864
000010 cf 7e 2b 3c 0a a6 1a bc 3f 2d 2b bc 2c f3 9e 3c
       0.010467245 -0.009439001 -0.010447799 0.019403063
000020 ae 46 00 bc ad b0 22 3d ea 73 e8 3c 70 3f 23 3d
       -0.007829351 0.039719272 0.028375585 0.03985542
000030 e7 d4 dd 3c e7 ee b0 ba 05 0a 58 bd 07 a0 ad bb
       0.027079059 -0.0013498933 -0.05274393 -0.0052986178
000040 18 ce 91 3b 39 4d 59 bc 38 b0 bc bc e7 ec 54 bc
       0.004449617 -0.01326304 -0.023033246 -0.012995935
000050 50 c4 2a 3d a4 4d 1f bc 22 6e 9e 3c e3 70 88 3d
       0.041691124 -0.009723101 0.019339625 0.066621564
000060 5b 3a e2 3b 93 11 7e 3b 81 73 40 bc 41 3e 41 3d
       0.006903929 0.00387678 -0.011746288 0.04717851
000070 e7 8e e1 bc 45 1a 19 bb 28 b7 22 bc 36 8d 49 bc
       -0.027533961 -0.0023361605 -0.009931363 -0.012301734
000080 05 28 15 bd 44 d7 dd 39 c8 d4 fa 3b 67 27 b2 bc
       -0.03641512 0.0004231279 0.00765476 -0.021747304
000090 0c 7b fb 3b 18 c0 ca bc fa 7a 57 bd a2 d9 54 bb
       0.0076745804 -0.0247498 -0.052607514 -0.0032478352
0000a0 a3 30 14 3c 0a 69 f9 bc 91 e5 dd bb 75 13 86 bb
       0.009044799 -0.030445594 -0.006771751 -0.004091675
0000b0 fe bf cc 3b 4e de 91 3d 7b 6a 42 bc 9c 79 f8 3c
       0.006248473 0.071224794 -0.011866207 0.030331425
0000c0 e7 cd 75 bb 8e a0 e9 bc ff 88 f2 bc e8 72 98 bc
       -0.003750676 -0.028518941 -0.02960634 -0.01860948
0000d0 02 7e 0d bd 72 ce 29 3d 9a 60 30 3d 64 8d b3 3b
       -0.034544 0.041456647 0.043060876 0.0054795016
0000e0 2f 59 b2 bc 88 36 57 bc b4 92 6b 3b 54 c5 10 bd
       -0.021771042 -0.01313556 0.0035945596 -0.035344437
0000f0 9d 4e e3 3c b0 3c 43 3c ff 14 0b bd 12 22 e0 3c
       0.027747447 0.0119163245 -0.03395557 0.027359996

embedding.0.1.weight f4 [64]
000000 64 48 81 3f c7 a1 54 3f ea e2 9b 3f 96 4f a5 3f
       1.0100217 0.8305935 1.2178624 1.2914913
000010 cd a4 89 3f b6 de 75 3f a0 ac 54 3f bb 37 8c 3f
       1.0753418 0.96042955 0.83075905 1.0954508
000020 87 b1 67 3f 46 8d 9a 3f cb 45 7f 3f 99 77 73 3f
       0.9050526 1.2074363 0.9971587 0.95104367
000030 77 d2 7a 3f 65 de 7e 3f 64 38 94 3f 77 15 62 3f
       0.97977394 0.995581 1.1579709 0.88314
000040 a9 0b a0 3f 37 78 6a 3f 4b f1 8a 3f d5 c3 65 3f
       1.2503558 0.91589683 1.0854887 0.8975194
000050 cb 81 84 3f 55 db 6c 3f 3e ae 95 3f 6d cb 98 3f
       1.035211 0.92522174 1.16938 1.1937081
000060 df 9a 8e 3f 9c eb 89 3f 40 af 92 3f 61 63 96 3f
       1.1141013 1.0775027 1.1459732 1.1749078
000070 ae 26 81 3f a9 07 69 3f 0e 94 73 3f e6 34 7e 3f
       1.0089929 0.91027313 0.9514779 0.99299467
000080 e8 a3 83 3f c7 1a 82 3f 4b 37 92 3f 7a 53 87 3f
       1.0284395 1.0164422 1.1423124 1.057235
000090 85 29 87 3f 46 e9 72 3f ab 7a 8a 3f 8d c9 85 3f
       1.0559546 0.94887197 1.0818685 1.0452133
0000a0 a9 96 64 3f bf 1a 87 3f 89 7b 7a 3f 0c 80 6f 3f
       0.8929239 1.0555037 0.9784475 0.9355476
0000b0 98 ef 80 3f f4 13 98 3f 6c f3 8f 3f 01 3c 85 3f
       1.0073118 1.1881089 1.1246161 1.0408937
0000c0 fb 77 92 3f 84 8c 6e 3f 31 f2 91 3f a8 d3 7a 3f
       1.1442865 0.9318316 1.1402036 0.9797921
0000d0 0e ff 67 3f f5 24 7a 3f fc 80 6e 3f 9b 1d 67 3f
       0.9062356 0.9771264 0.93165565 0.9027955
0000e0 d4 20 64 3f c4 14 73 3f 47 3a 79 3f 6b 3f 8a 3f
       0.8911259 0.9495356 0.9735455 1.0800604
0000f0 73 f4 68 3f f6 1f 5e 3f 3f 21 65 3f 2b d4 4e 3f
       0.90998 0.8676752 0.89503855 0.8079249

embedding.0.1.bias f4 [64]
000000 8d 8d 13 be 4c b8 c5 3b 95 3c 54 bd 92 6f d2 3d
       -0.14409466 0.006033933 -0.051815588 0.102751866
000010 83 f4 e8 3c 35 96 f7 bd 0f e6 bc be 41 01 90 bb
       0.028436905 -0.120891966 -0.3689427 -0.0043946807
000020 fe 0f b3 be c1 db f4 bb 16 ea bc bd 52 82 94 be
       -0.3497314 -0.007472486 -0.09224336 -0.29005677
000030 c9 e0 c6 bd d4 c9 88 bd 24 cf 46 3d ef ce ec bc
       -0.09710843 -0.06679121 0.04853739 -0.028907267
000040 6d b4 38 3d c1 93 cc bd 8b e7 e3 bd cb 86 8a be
       0.045093942 -0.09989119 -0.11128148 -0.27055964
000050 e4 10 50 bd 17 e6 9d bd 36 89 27 bc 0d 42 06 3e
       -0.05079736 -0.07709902 -0.010225585 0.13111134
000060 db f6 95 bd 34 e1 1a bd 7b cc 8d bd 08 83 fd 3d
       -0.073224746 -0.037812427 -0.06923767 0.12378508
000070 24 ce 6b bd d8 71 56 bc 8c 24 bb bd f5 a0 bd bb
       -0.057569638 -0.013088666 -0.0913783 -0.00578701
000080 be 66 fd bd 6a ad a7 bd c4 7d 9b bd 6f 19 92 bd
       -0.12373112 -0.08187373 -0.07592347 -0.07133757
000090 f9 cc dd bd ec cc 0b bc 59 4b 1f bd eb 47 18 be
       -0.10830111 -0.008532744 -0.038890216 -0.14871185
0000a0 3b 83 80 bc 3a 08 27 3c 11 26 ac be b5 b3 ee bd
       -0.015687576 0.010194832 -0.33622792 -0.1165537
0000b0 57 b3 f0 bc c5 73 41 3d d3 e1 04 3e 79 13 31 be
       -0.02938239 0.047229547 0.1297677 -0.17292584
0000c0 d9 63 6c 3d 82 13 ac bd 01 c7 1f 3c 4e 5a a9 bb
       0.05771241 -0.08402158 0.009752036 -0.005168236
0000d0 ef 25 dd bd ba e0 9f bd e1 4d c3 bb 02 bc be be
       -0.10798251 -0.07806535 -0.0059602116 -0.37252814
0000e0 e8 11 9f bd 4e a8 a6 be b0 27 78 bd b4 70 02 be
       -0.07767087 -0.3255028 -0.060584724 -0.12738305
0000f0 93 e3 0c bc 99 a1 e6 be bc 5a a7 bd a7 ff 8b be
       -0.00859918 -0.45045164 -0.08171603 -0.27343485

embedding.0.1.running_mean f4 [64]
000000 8d b3 66 3c 55 33 16 bc b3 23 b3 3d 25 0b ad 3a
       0.014080894 -0.009167512 0.087470435 0.0013202174
000010 91 b7 0e 3d be 63 9e 3a 2d f5 c2 bc 31 b0 16 3d
       0.03484303 0.0012084169 -0.02379855 0.036789123
000020 8c 2b ac bc 41 78 69 3d 5f f4 ec 3c 7e 35 c3 3b
       -0.021016859 0.05699945 0.028925119 0.0059573045
000030 26 54 11 3d 77 ae 3a 3c b5 a3 cd bc 16 91 f5 bb
       0.03548064 0.011394135 -0.025102476 -0.007494102
000040 04 e7 f4 3c 67 50 0b bc 62 c7 63 bc b8 41 08 bd
       0.029895313 -0.008503056 -0.013902517 -0.0332658
000050 57 4a 59 3d 27 61 16 bc 3a d2 00 3d 80 11 cf 3d
       0.05304941 -0.009178436 0.031450488 0.1011076
000060 b0 91 8c 3c 2b e6 a3 3c 50 6f bd 3a 0c 87 b7 3d
       0.017159313 0.020007214 0.0014452729 0.08961305
000070 af d5 23 bc ee b4 2a bb 60 97 67 bb 61 6b 31 bc
       -0.009999677 -0.0026047784 -0.003533803 -0.010828824
000080 55 95 b1 bc 16 3e 51 3c 4c 65 9a 3c 16 b4 62 bc
       -0.021677652 0.01277115 0.01884713 -0.013836881
000090 47 e0 a8 3c 90 9f db bc 42 a5 0a bd 9b e6 07 3c
       0.020614756 -0.026809484 -0.03384901 0.008294727
0000a0 ce 45 b4 3c 00 96 b6 bc a2 b5 ab bc 01 9a eb 3b
       0.022005942 -0.022288322 -0.020960633 0.0071899896
0000b0 9c e0 4a 3c ee 8a b1 3d 55 23 0c 3d 5a 72 24 3d
       0.012382653 0.08669077 0.034213383 0.040148117
0000c0 12 f1 eb 3c db 45 db bc 04 e9 25 3a 84 dc 88 bc
       0.028801475 -0.026766708 0.00063289725 -0.016706713
0000d0 c5 9c 04 bd ae 2a 4c 3d 55 bd 29 3d 66 1a b5 bb
       -0.03237607 0.04984539 0.041440327 -0.0055268286
0000e0 c6 64 8a bc bc 0b 0e bd 63 c8 19 3c 62 5b d5 bc
       -0.016893756 -0.03467916 0.009386155 -0.026044551
0000f0 c5 1f ed 3c 6f c1 78 3c cc 58 ff bc d1 ce ab 3c
       0.028945813 0.015182837 -0.031170271 0.020972641

embedding.0.1.running_var f4 [64]
000000 c7 fb 41 3c 04 14 38 3b b1 fd 48 3c ca 38 24 3d
       0.011839814 0.0028088102 0.012267516 0.04009322
000010 45 a9 7f 3c b4 ae f9 3b b4 29 00 3c 93 61 21 3c
       0.015604322 0.007619703 0.007822443 0.009849924
000020 17 e7 93 3b 05 58 2c 3c 18 ef 09 3c 25 89 d4 3c
       0.004513632 0.010519032 0.008418821 0.025944302
000030 13 34 84 3b 26 c2 f2 3b e6 5c a8 3c fb 9d 44 3b
       0.004034528 0.007408398 0.02055211 0.003000139
000040 53 26 a6 3c 4d e0 de 3b 9a 36 47 3c 86 53 1e 3c
       0.020281946 0.006801641 0.012159014 0.009663468
000050 61 da f0 3b 85 02 5f 3b b2 9c ad 3b 34 63 ec 3c
       0.0073502515 0.0034028601 0.0052982206 0.028855897
000060 ca e3 c0 3b d2 ce 4d 3c 39 05 0e 3c 2c e0 33 3d
       0.0058865296 0.012561517 0.008668237 0.04391496
000070 18 73 5e 3c 8a 36 a0 3b 3f 16 03 3c 72 18 81 3b
       0.013577245 0.004889314 0.008000909 0.0039396817
000080 76 30 47 3c 2d 98 c3 3b e1 73 cb 3b 13 cb 0d 3c
       0.01215755 0.0059690685 0.006208882 0.008654374
000090 57 96 03 3c cc ce d9 3b da 99 2b 3c 0b 48 00 3c
       0.008031449 0.0066469666 0.010473693 0.007829676
0000a0 92 a6 40 3c 1d 1a 93 3b 33 9a b1 3b f5 42 ae 3b
       0.011758463 0.004489197 0.0054199933 0.0053180405
0000b0 66 1d 8f 3b 51 e0 02 3c a5 9d 38 3d 50 30 f0 3b
       0.0043675182 0.0079880515 0.045072217 0.007329978
0000c0 21 51 db 3c 69 08 b5 3b 38 2a d8 3c b0 a1 aa 3b
       0.026772084 0.005524684 0.026387319 0.005207263
0000d0 95 99 c5 3b 30 4b 34 3b f5 6a 50 3b 59 5f 98 3b
       0.0060302713 0.0027510636 0.0031802033 0.004650038
0000e0 81 74 e6 3b 49 db 37 3c 9f a8 f2 3b 23 01 d4 3b
       0.0070329313 0.011221715 0.007405355 0.006469862
0000f0 d7 48 89 3a ac ca ec 3b a4 1b 0a 3c 1b 49 6b 3b
       0.0010473978 0.007226309 0.008429442 0.0035901729

embedding.1.0.weight f4 [64, 64, 3, 3]
000000 0a 5f c3 bc 28 05 6b 3c aa 14 ef 3b e9 58 cb ba
       -0.02384903 0.014344491 0.0072961645 -0.0015514168
000010 70 fb 24 3d 66 af e7 bc ae 97 b1 bb 65 93 59 bd
       0.040278852 -0.028281879 -0.005419693 -0.053119082
000020 ca 94 15 bc fb cd 0c bd 94 d3 fb 3b f1 be c2 bb
       -0.009129712 -0.034376126 0.007685134 -0.005943172
000030 01 88 aa bc 3b b5 09 3d 43 8a 8c 3d c8 8d 13 3c
       -0.020816805 0.0336201 0.06862309 0.009005971
000040 c1 e4 60 3d ee 40 8c 3b 72 81 06 3d 6e d1 39 bc
       0.054905657 0.004280201 0.032838292 -0.011341436
000050 49 49 04 3d 3f 36 54 3c ff 19 33 3d ea b9 88 bc
       0.032296453 0.012952386 0.043725964 -0.016690213
000060 81 df d9 bc fb 70 6d 3c 32 19 85 bd 6c 5d 41 bd
       -0.026595833 0.014492269 -0.06498946 -0.047208235
000070 fc 1d 21 bd f3 bd a0 bd 5f ce db 3b 06 37 c4 bc
       -0.039335236 -0.0784873 0.006707951 -0.023952018
000080 8e fb 0e be e7 85 64 bb 80 cb 79 bc 14 26 dd bc
       -0.13963148 -0.003486985 -0.015246272 -0.026995696
000090 3c a2 4e bd 15 48 7a bb 67 92 7c ba 4a 16 a9 3c
       -0.050447688 -0.0038189937 -0.0009634853 0.020640511
0000a0 48 ed 01 bc 7a 47 e8 bc d1 c5 64 bc f1 b1 17 bd
       -0.007930107 -0.028354395 -0.013963179 -0.037034933
0000b0 87 b1 e0 b8 09 25 8e 39 ee 79 34 bd c9 5c cb 3a
       -0.000107142194 0.00027111944 -0.044061594 0.0015515323
0000c0 54 31 90 3c 59 47 e1 3c 12 13 46 bc 80 51 51 3c
       0.017601646 0.027499842 -0.012089508 0.012775779
0000d0 a8 36 b1 bc 84 e7 ad bc 51 a5 06 bd c9 62 48 bc
       -0.021632507 -0.02122856 -0.0328725 -0.0122305835
0000e0 01 64 a0 3c 9c 4a b5 3b 34 a4 a2 3b 84 33 47 3c
       0.019578936 0.005532576 0.004963422 0.012158278
0000f0 01 a1 08 bd 66 82 06 bc 21 28 44 bd c2 f3 5d 3c
       -0.03335667 -0.0082098 -0.047889832 0.013546886
000100 8e 73 a8 3d 04 63 db bc 2f ff b9 3b 21 c6 99 3d
       0.08225165 -0.026780613 0.005676172 0.07508493
000110 20 1d b4 bd 9c f9 47 bc 62 c4 b3 bc 65 91 ec 3c
       -0.08794618 -0.012205508 -0.021944229 0.028877923
000120 69 14 cb 3b a6 10 f6 3b c0 a2 2f bd 6b 76 13 bc
       0.0061975014 0.007509309 -0.04287982 -0.009000401
000130 16 03 4c 3c f3 17 01 bd a7 f8 9c 3b ef bf e0 ba
       0.012451908 -0.03151698 0.004790384 -0.0017147044
000140 f5 39 1b bd 7f f4 27 3c b1 d7 8e 3b a4 f2 1c bd
       -0.03789707 0.0102511635 0.0043592085 -0.038317338
000150 51 9a 47 bb 90 8d 2f bd 0c 4f d1 bd 78 b4 37 bc
       -0.003045697 -0.042859614 -0.10220155 -0.011212461
000160 a2 e0 e7 39 ef c7 f7 bc 27 37 ae 3c d0 cd 63 3d
       0.00044227118 -0.030246703 0.021266533 0.0556162
000170 ea 38 30 bd f4 58 ac ba ab 6e 06 bb 59 43 cf bb
       -0.043023027 -0.0013149069 -0.002051274 -0.006325167
000180 00 62 52 bd b6 0d 81 bc 00 27 b9 3d 6e 70 8c 3c
       -0.05136299 -0.015753608 0.09040642 0.017143454
000190 b0 7a 37 bd cc de 63 bc 62 7e 39 bd b6 e9 b9 bc
       -0.04479474 -0.013908099 -0.045286544 -0.02269445
0001a0 fd af ed ba 43 b6 07 bd ec 9b a3 bc 80 83 b5 bc
       -0.0018134114 -0.033132803 -0.01997181 -0.02215743
0001b0 0b ba e8 bb fc 9e 49 bd 11 db 80 bc 69 18 39 bd
       -0.007102256 -0.049223885 -0.015729459 -0.045189295
0001c0 5c 38 2c 3d ff 0b 8d 3c 3e 47 5a bd 50 37 3d 3d
       0.042045936 0.017217634 -0.053290598 0.04619533
0001d0 7d a0 b7 bc 94 e5 91 3b d7 65 02 3c e9 78 08 bd
       -0.022415394 0.0044524167 0.007958851 -0.033318434
0001e0 4e cb a8 3b 86 7d 25 3c ae fc 38 3d e3 b9 b3 bc
       0.005151189 0.010100728 0.04516285 -0.021939224
0001f0 df 2f 4d 3d eb 4f 9d 3d e1 14 b1 bc 1f e1 de 3b
       0.05009448 0.07681259 -0.021616401 0.006801739
000200 0b 2d 63 bd b6 13 a0 bd 31 74 23 bb 48 7e af bd
       -0.05546288 -0.078162596 -0.0024941082 -0.08569008
000210 a2 20 df 3c 71 d9 2b 3d 52 cf 58 bc a6 70 8c bc
       0.02723724 0.041955415 -0.013233023 -0.017143559
000220 b8 ae 78 bc 68 5c 1f bd 4d 70 98 bc 04 ca b1 3c
       -0.015178375 -0.038906485 -0.018608237 0.021702774
000230 b4 4e 02 bc dc 22 de 3b 00 ef e8 bb a6 bc 2a bc
       -0.007953335 0.006779058 -0.007108569 -0.010420954
000240 ac 2d d3 bc 52 23 1b 3d e1 fb c9 bc 29 9c 83 bb
       -0.025778614 0.03787548 -0.024656238 -0.0040164185
000250 3d dc db 3c d9 27 0e be be 7c d1 bb b0 46 36 bd
       0.026838416 -0.13882388 -0.0063930443 -0.044501007
000260 c3 a7 b6 bd 79 75 72 3c c8 e6 81 3d f4 da 2c bb
       -0.08918717 0.0147985155 0.06342846 -0.0026375623
000270 16 7a 10 3d 23 ba 99 bc 9f 27 8e bd c8 eb 3e bd
       0.03527268 -0.018765515 -0.06941151 -0.046611577
000280 80 eb 9e 3c 56 ac ab 3c 74 ae 74 bc 83 cd f5 bb
       0.019399405 0.0209562 -0.014934171 -0.0075013055
000290 2f 1e 7a bc 97 f7 ed 3c f9 82 1f bd 2d b9 46 3d
       -0.015265985 0.029048724 -0.038943265 0.04851644
0002a0 a4 8c a2 3b 63 1a d8 bc 68 ae e4 b9 47 48 38 bc
       0.0049606133 -0.02637977 -0.00043617492 -0.011247701
0002b0 3c f4 e2 bc a9 25 1f bc 0b be 0c bd 9e 17 06 bd
       -0.02770435 -0.009713569 -0.034360927 -0.032737367
0002c0 f4 96 02 bd b7 b4 ae bc b0 63 07 3d 5f 05 04 3c
       -0.03188224 -0.021326406 0.033054054 0.008057921
0002d0 38 56 fb bc 8a bb 1b bd 41 75 5d bd a1 91 4e bc
       -0.03068076 -0.038020648 -0.0540669 -0.012607963
0002e0 3b 0f 5c bc df 3d ac 3b e7 08 86 3c da 11 34 3d
       -0.013431366 0.005256399 0.016361667 0.043962337
0002f0 08 3d e4 3c e2 1a d2 bb ca 11 49 3d 82 dc fb bc
       0.027861133 -0.006411896 0.04908923 -0.030744795
000300 22 b0 a6 3c 44 b1 77 3c 65 5d 37 3c db 81 f3 bc
       0.020347659 0.015117947 0.011191701 -0.029725006
000310 dd 88 1d 3c 7b 9b d6 3b c0 8c 00 bd 45 45 9a bd
       0.00961515 0.0065492964 -0.03138423 -0.07532743
000320 9e cf ec bc a8 9b 70 bc 04 64 a0 ba d4 03 b8 3c
       -0.028907593 -0.014685549 -0.0012236838 0.022462763
000330 ad 76 1c bd a8 c9 84 3b 36 53 19 bc 6f 7e 26 bd
       -0.038199116 0.0040523596 -0.009358218 -0.04064792
000340 b4 c4 a3 bd 39 48 34 bd 8b e2 1f bd 8b c3 46 bd
       -0.079965025 -0.04401419 -0.039034408 -0.048526328
000350 0f 84 cc bc e6 19 d9 bb a2 65 ab 3b 8d c4 90 3c
       -0.024965314 -0.006625402 0.0052306214 0.017671848
000360 fa 2e 86 3c e9 6e 35 bd 62 37 81 bb f6 45 20 3d
       0.016379822 -0.044295225 -0.0039433697 0.03912922
000370 ac 15 b7 bd 0d f7 db 3c d8 55 b9 3a 70 95 96 ba
       -0.089396805 0.026851201 0.0014139963 -0.0011488628
000380 15 ed cc 3c 1b 85 0d bd 5c 70 c5 3c 34 a3 cb 3c
       0.025015393 -0.034550767 0.024101429 0.024858095
000390 b6 4f 89 ba 8f a0 96 bc 9a ad 2f bc 9c d5 38 ba
       -0.0010476026 -0.018387107 -0.010722542 -0.0007050873
0003a0 78 1b 15 bd 74 49 d3 3c 74 4c aa bb bf e8 07 ba
       -0.03640315 0.025791861 -0.005197102 -0.0005184523
0003b0 67 df ef bc 53 aa 35 3d da 9a 9d bd c4 7d 2b 3b
       -0.029281331 0.044351887 -0.07695551 0.0026167491
0003c0 9e c6 e8 bc ae 1a eb bc 7e 6a c3 3c 9b 98 62 bc
       -0.02841502 -0.028699245 0.02385449 -0.013830329
0003d0 4f a0 45 3b 1c d6 a6 bd f2 6d f1 bb ea 21 bc bb
       0.0030155366 -0.08146307 -0.007367843 -0.0057413476
0003e0 32 9f 1b be 37 58 67 bc 8c 81 8b bd 0c 2a fa bd
       -0.15197447 -0.014120153 -0.068118185 -0.12215051
0003f0 39 04 56 bb f8 6f 42 bd 2d 46 f9 bb b9 af 0a 3c
       -0.0032656325 -0.047470063 -0.0076072426 0.008464747

embedding.1.0.bias f4 [64]
000000 bb 53 a6 3a 2e 56 09 bd 19 9b 62 bc 10 fe d4 bb
       0.0012689749 -0.033529453 -0.0138309235 -0.006500013
000010 d9 9f 8c 39 77 29 aa 3c eb 3b 9d 3c 12 0b 0f 3d
       0.00026821977 0.020771725 0.01919361 0.034922667
000020 a0 fc ab bb 6e 76 02 3c 12 cc 30 bc 8b 29 16 3c
       -0.005248621 0.007962806 -0.010790842 0.009165178
000030 28 1b 0b 3c ea f5 83 3b 71 0b 92 3c de 45 09 3c
       0.008490361 0.004027118 0.017827721 0.008378474
000040 a9 5e b3 3c 42 0b 7c 3c 7e ae da 3c e1 b6 99 3c
       0.021895723 0.015383543 0.026694532 0.018763961
000050 c5 b1 d2 3b e4 17 f5 ba e8 0b a4 3c ab 8f c5 3a
       0.006429883 -0.0018699137 0.020025209 0.0015072724
000060 f2 1d 95 bb a3 f8 7a 3b 94 8f 4e bc 03 e0 d4 3b
       -0.004550689 0.0038295172 -0.012607474 0.006496431
000070 36 09 c7 3c da 95 7a bc bd f3 87 bc 5d a1 c2 bb
       0.024296384 -0.015294516 -0.016595716 -0.005939646
000080 df 60 27 3d 7e 38 2d 3c 91 5c 3d 39 64 26 f8 39
       0.040863868 0.010572551 0.00018058928 0.0004733085
000090 9e 48 89 3c f2 48 ac bc 7b 74 5c bc d1 6a c2 3c
       0.01675826 -0.021030877 -0.0134555055 0.023732575
0000a0 ef bf 82 3c bb cb 47 3c 74 2a c9 bb 9d af 31 bb
       0.015960662 0.012194569 -0.006139094 -0.002711273
0000b0 f5 7b 7f 3c 8f dd bb 3c fa 9e 29 bc aa cf 3f bc
       0.0155935185 0.022932796 -0.010352844 -0.011707226
0000c0 27 bd 93 3c 54 c9 8b bc a6 19 e3 bb c6 ad 07 3c
       0.01803453 -0.017063774 -0.0069305478 0.008281177
0000d0 a9 20 d3 3c 2a 3e 00 bc 40 ba 18 3b 6f f4 ad 3c
       0.02577241 -0.007827321 0.0023304373 0.02123472
0000e0 45 42 3b bc 24 ab be 3b 71 61 aa bb 40 c7 03 bb
       -0.011429374 0.0058187414 -0.005199604 -0.0020107776
0000f0 9a d8 2e 3b 13 b0 e5 3a 7d bb bc bb 8b 26 5c bc
       0.0026679398 0.0017523788 -0.005759655 -0.013436924

embedding.1.1.weight f4 [64]
000000 b2 f3 6f 3f f2 31 8a 3f 1a dc 83 3f a6 c1 95 3f
       0.93731225 1.0796492 1.0301545 1.1699722
000010 1a 87 8b 3f 71 9b 77 3f 6c a9 65 3f c0 62 77 3f
       1.0900605 0.9672156 0.8971164 0.96635056
000020 74 1e 88 3f 81 7d 8a 3f 44 03 6f 3f 99 14 3f 3f
       1.0634294 1.0819551 0.9336436 0.74640805
000030 b8 a3 54 3f ed d8 6c 3f 2b 0a 89 3f fe 11 7e 3f
       0.83062315 0.925185 1.0706228 0.99246204
000040 c2 f4 7c 3f 35 8f 79 3f 80 00 82 3f 3a bf 8a 3f
       0.9881097 0.9748414 1.0156403 1.0839608
000050 ea 32 74 3f b9 19 89 3f 3a e2 7b 3f af 4c 75 3f
       0.9539019 1.0710975 0.9839207 0.95820135
000060 b9 91 6f 3f 18 38 71 3f 74 bc 7a 3f 58 bc 85 3f
       0.9358173 0.9422622 0.97943807 1.0448103
000070 54 3f 87 3f 13 db 6b 3f 3f d9 84 3f 0f ea 81 3f
       1.0566201 0.92131156 1.0378798 1.0149554
000080 c8 b4 72 3f f0 66 5e 3f 33 42 7b 3f e6 b9 65 3f
       0.948071 0.8687582 0.98147887 0.89736784
000090 08 8a 94 3f a3 61 59 3f 41 90 7e 3f b6 79 7f 3f
       1.1604624 0.84914607 0.99438864 0.9979509
0000a0 13 ca 86 3f 0d 76 84 3f 16 a0 7c 3f ca d7 76 3f
       1.0530418 1.0348526 0.9868177 0.9642302
0000b0 f9 f1 6e 3f 48 55 6b 3f b4 57 66 3f c4 38 77 3f
       0.9333797 0.91927004 0.89977574 0.9657099
0000c0 ca eb 84 3f 97 1e 90 3f a1 6f 80 3f 53 97 7b 3f
       1.0384457 1.1259335 1.0034066 0.9827778
0000d0 1b 4c 72 3f a9 dc 89 3f 0f 72 86 3f 1e 91 87 3f
       0.9464738 1.0770465 1.0503558 1.0591161
0000e0 bd 58 81 3f dd 14 74 3f a3 a6 64 3f 3a 0f 84 3f
       1.0105206 0.95344335 0.8931677 1.0317147
0000f0 f0 cf 85 3f 56 a4 75 3f 66 4c 7a 3f 53 a5 7d 3f
       1.0454082 0.9595388 0.97772825 0.9908039

embedding.1.1.bias f4 [64]
000000 d3 fa d5 bd 78 92 a2 be 27 fc 4f bd 51 45 0a be
       -0.104482315 -0.31752372 -0.05077758 -0.13503005
000010 19 78 12 be 07 01 fc bd a7 1d a0 be 4b da 17 be
       -0.14303626 -0.123048835 -0.31272623 -0.14829366
000020 f9 dd 48 be 94 d4 33 be 6e eb 18 bd 23 7a 80 be
       -0.19615926 -0.17561561 -0.0373339 -0.25093183
000030 66 6c b2 be 33 34 86 be ee b9 c2 bd 9c ab 4a be
       -0.34848326 -0.262117 -0.095081195 -0.19792026
000040 1d 68 c2 bd 09 ea d9 bd 7f 8e 16 be e3 91 a0 bd
       -0.09492514 -0.10640342 -0.14702795 -0.07840326
000050 7e 5e e7 bd e8 d3 55 be 84 02 99 be a3 42 d7 bd
       -0.1129732 -0.20881617 -0.29884732 -0.10510757
000060 8d 28 58 be cf 64 31 be 35 ea 5d be b6 08 06 be
       -0.21109219 -0.17323612 -0.21671374 -0.1308926
000070 20 ca 82 be 63 d2 88 3c 9a 6a 89 be b8 dc 4b be
       -0.25544834 0.016701883 -0.26839143 -0.19908416
000080 a3 26 62 be c9 54 dc be 2d a8 89 be f9 87 5c be
       -0.22085051 -0.43033436 -0.2688612 -0.21536244
000090 2c 88 32 be d8 99 27 be b4 51 71 be a2 fc 92 be
       -0.17434758 -0.1636728 -0.23566324 -0.2870837
0000a0 cc 6c 15 be 53 44 be bd f3 ca 1a be 04 0a 42 be
       -0.14592284 -0.092903756 -0.15116481 -0.18949133
0000b0 be 6c 39 3c 2b 75 3c be 90 b7 87 be b7 3e 3a be
       0.01131743 -0.18404071 -0.26507235 -0.18187986
0000c0 cf 97 3c be ad 1e 38 be f5 9f 2e be a6 f6 31 be
       -0.18417285 -0.17980452 -0.17053206 -0.17379245
0000d0 fe c8 69 be e1 a1 03 bd 88 1e 81 be ca 26 92 be
       -0.22830579 -0.0321368 -0.25218606 -0.2854522
0000e0 1e 83 00 be d3 16 d5 bd f4 8a 8f be 36 91 ff bd
       -0.12550017 -0.10404744 -0.280357 -0.12478869
0000f0 1a f3 9d be eb af 00 be 82 80 30 be a8 5d 76 be
       -0.30849534 -0.12567107 -0.17236522 -0.24059165

embedding.1.1.running_mean f4 [64]
000000 62 29 20 c0 f2 e8 77 bf 7b 2c f7 bf 13 40 98 bf
       -2.5025258 -0.9683982 -1.9310449 -1.1894554
000010 e6 d4 21 c0 d3 8b 21 c0 27 ce 32 3e 04 3f 40 be
       -2.5286193 -2.5241592 0.17461453 -0.18774039
000020 0f 1e c2 bf fe 61 0b 3e 51 aa ed bf 78 05 fc 3f
       -1.5165423 0.136116 -1.8567601 1.9689169
000030 62 c7 ab 3f 72 13 ce bf 43 2c dd bf 47 0e 45 c0
       1.3420222 -1.6099684 -1.7279133 -3.0789964
000040 d7 19 02 c0 ea 3c a4 bf 6c 4a 8c bf f1 51 1d 3a
       -2.0328271 -1.283109 -1.0960212 0.0006001285
000050 02 00 69 3f 73 6c 4e c0 8c 8e 5c c0 d7 cc e4 bf
       0.91015637 -3.2253692 -3.4462004 -1.7875012
000060 af 1b 3a 3e a1 c5 06 bf ea 74 12 c0 df c0 ff bf
       0.18174623 -0.5264531 -2.2883859 -1.9980735
000070 90 24 b3 bf 57 bb 85 bf 55 35 a8 be 30 74 04 c0
       -1.3995533 -1.0447797 -0.3285319 -2.0695915
000080 8b a9 5e bf 6b d8 63 bc 1b 62 08 3e f7 14 06 c0
       -0.8697745 -0.0139065785 0.13318674 -2.0950296
000090 98 df 8f bf 81 8f 55 bf 19 34 ac be 60 60 6a bf
       -1.124011 -0.83422095 -0.33633497 -0.91553307
0000a0 f3 51 c4 3f 51 de 8e bf b2 ff 91 bf 0c 99 dd bf
       1.5337509 -1.1161596 -1.1406157 -1.7312331
0000b0 df a8 b3 be 2f 52 0a 3f a7 ac 83 3f 59 74 41 c0
       -0.35089776 0.5403165 1.0287064 -3.0227263
0000c0 79 56 81 bf 17 1d b1 bf 03 cb 44 bf aa 04 85 bf
       -1.0104514 -1.3837003 -0.7687227 -1.0392048
0000d0 fc 57 db bf 7f e9 13 c0 91 31 c9 bf 8d e2 3d c0
       -1.7136226 -2.3111265 -1.5718251 -2.9669526
0000e0 13 b1 a4 bf 9d 75 e4 bf 6c 1b 37 3f 3a b0 b6 bf
       -1.2866539 -1.7848393 0.7152622 -1.427253
0000f0 f6 a0 57 c0 ab 95 18 bf ed 79 61 bf 49 27 86 bf
       -3.3691993 -0.59603375 -0.8807667 -1.0480739

embedding.1.1.running_var f4 [64]
000000 77 91 c8 3f f6 98 9f 3f ff f0 96 3f c2 42 0c 40
       1.5669392 1.2468555 1.1792296 2.1915746
000010 74 af 1a 40 d4 48 d5 3f 27 94 ad 3f 3f 89 69 3f
       2.4169588 1.666285 1.3560838 0.91225046
000020 d4 a0 c0 3f a7 44 91 3f 97 0c 5d 3f c6 67 06 40
       1.5049081 1.1349076 0.86347336 2.1000838
000030 58 df 1e 40 5b f7 ca 3f 40 5f 33 40 93 3e 7b 3f
       2.4823818 1.5856737 2.8026886 0.98142356
000040 16 d7 47 40 38 22 1b 40 5e cc c0 3f 92 13 ef 3f
       3.1225028 2.4239635 1.5062368 1.8677847
000050 68 d6 3c 3f 58 03 bd 3f a6 94 21 3f cd 52 0a 40
       0.7376466 1.4766645 0.63117445 2.1613038
000060 ef dc 7f 3f a3 37 a7 3f 62 57 e0 3f 57 b2 91 3f
       0.9994649 1.3063854 1.7526667 1.138255
000070 a9 91 aa 3f 80 9d 8d 3f ee fc 81 3f 01 09 6b 40
       1.3325702 1.106369 1.0155313 3.6724246
000080 ca 2b b7 3f cc 99 02 40 0b 43 a5 3f 67 77 4c 3f
       1.4310238 2.040637 1.2911085 0.79869694
000090 0e 2f b7 3f 9b 9d 00 3f f9 14 6e 3f 0c 05 8d 3f
       1.4311235 0.50240487 0.9300075 1.1017165
0000a0 47 9e d3 3f 4d 06 a2 3f f9 69 0a 3f fb 5b 37 40
       1.6532677 1.2658173 0.5406795 2.864989
0000b0 50 8d 8a 3f 2a 43 03 40 17 5a de 3f b2 16 d0 3f
       1.0824375 2.0509744 1.7371243 1.6256926
0000c0 45 85 cb 3f 25 b6 ad 3f 85 91 ae 3f e8 bc 65 3f
       1.5900046 1.3571211 1.3638159 0.89741373
0000d0 14 c9 9c 3f 2e 19 a9 3f bf 46 42 40 7f b2 31 3f
       1.2248864 1.3210809 3.035568 0.6941299
0000e0 28 96 b5 3f eb f3 82 3f f2 e2 05 40 ef 1c 1c 40
       1.4186449 1.0230688 2.0919766 2.439266
0000f0 00 db 00 3f dc b1 af 3f b5 62 f3 3f 63 c2 a6 3f
       0.5033417 1.3726153 1.9014498 1.3028072

embedding.2.0.weight f4 [64, 64, 3, 3]
000000 e8 74 e5 bb f8 66 5f bc 20 94 5f bd a9 fc c2 bb
       -0.0070024617 -0.0136353895 -0.054584622 -0.0059505296
000010 2c c5 b3 bb c5 07 5b bc 6e bc 1c bd 66 94 aa bc
       -0.005486151 -0.013368552 -0.038265638 -0.020822715
000020 0f d9 38 bd 4a c3 bd bc 19 92 1a 3c 2e 22 c8 bc
       -0.04512888 -0.02316441 0.009434246 -0.02443036
000030 e5 b0 41 3d 12 75 1e bd bf 99 b4 3d 4a 61 b1 bc
       0.04728784 -0.038685866 0.08818387 -0.021652836
000040 df 28 e5 bc ce 76 dc 3d 8e 89 80 3c fe 5a cd 3c
       -0.02797359 0.10764848 0.015690591 0.025067803
000050 28 cd 02 bd 3f cf 88 3c ae cf c3 3c 48 a3 13 bc
       -0.031933933 0.016700385 0.02390274 -0.009011097
000060 1c 74 99 3b 7a 8e 49 bd aa 02 85 bb ea e1 9d 3c
       0.004683031 -0.049208142 -0.0040591555 0.019272763
000070 7f 6f 0f bc a1 af f9 bc f8 8d 9f 3b a1 50 89 3c
       -0.00875461 -0.030479254 0.004869219 0.01676208
000080 fd a2 f6 bc 80 10 24 3a 27 20 10 3c c6 1f 2a 3d
       -0.030107016 0.0006258562 0.008796728 0.041534208
000090 02 0c d6 3c 48 62 bb 3b be 09 d5 bc f4 2c 34 3a
       0.026128773 0.005718503 -0.026005622 0.00068731536
0000a0 bd 72 cd 3a 0b 74 c2 3c 9c 5a 18 bd 34 33 03 3c
       0.0015674453 0.023736974 -0.037195787 0.008007813
0000b0 42 50 9d bd c8 a1 56 bc 93 a4 09 bd cf 94 98 3b
       -0.076813236 -0.013100095 -0.033604216 0.0046564112
0000c0 05 d6 02 bd bc fc 18 bc 35 21 28 bc 94 14 e6 bc
       -0.031942386 -0.0093376 -0.010261823 -0.028085984
0000d0 b4 7d 98 3c 9d c0 08 bd 33 0f 93 bd 12 68 84 bc
       0.018614627 -0.033386815 -0.071806334 -0.016162906
0000e0 9d 02 1a bd e0 5b 4f bd 42 eb e2 3c 39 ea 56 bc
       -0.03760015 -0.05062473 0.02770007 -0.0131173665
0000f0 6a 80 e7 b9 cd 5b d4 3c c8 6a 3f 3b f6 2e a5 bc
       -0.0004415543 0.02592268 0.0029207934 -0.020163994
000100 69 f4 20 bd f4 1e 05 bd 8f 55 f1 3c 72 b2 91 bc
       -0.039295588 -0.032500222 0.029459743 -0.017785285
000110 37 c8 1d 3c c6 e1 6c bc 2b 56 27 3c 53 60 c3 bb
       0.0096302545 -0.014458125 0.010213415 -0.0059624105
000120 cc a9 33 38 d9 21 f5 bc 2e 1f 2c 3d 8d 83 b2 3c
       4.283506e-05 -0.029923366 0.042021923 0.021791244
000130 a1 5a 7d 3c 0b 91 4e 3d 62 ed 07 bd 89 46 b3 3c
       0.015463502 0.050431293 -0.03318537 0.02188422
000140 be a1 14 bc eb 1c 61 bd f5 7e 79 bd 23 5c 23 3b
       -0.0090717655 -0.05495922 -0.06091209 0.0024926744
000150 7f 69 04 bd c6 a7 56 bc e4 c0 3b bd 80 2a ed 3c
       -0.03232717 -0.013101524 -0.04583825 0.02895093
000160 90 27 cc 3c 55 85 02 bc 56 ae df bc 7b 9b 3f bd
       0.024921209 -0.007966359 -0.02730481 -0.046779137
000170 a1 83 50 3c 74 97 66 bc c4 bd 48 3c 75 02 e0 3c
       0.012726695 -0.014074195 0.012252275 0.027344922
000180 e4 14 f9 bc 06 fa 87 3c 08 61 b9 3d ce c3 95 bd
       -0.03040547 0.016598713 0.0905171 -0.073127374
000190 e4 5c 3f bd 54 63 36 bc 13 24 ad bc 29 38 64 bc
       -0.046719447 -0.01113208 -0.021135366 -0.013929405
0001a0 5a c1 f5 bc 9b a7 50 bd 26 c8 ff bc 0e 5f 49 bb
       -0.029999424 -0.05094109 -0.031223368 -0.0030726823
0001b0 37 a7 25 bd b6 e8 86 bd 43 17 0e 3d 13 f9 97 bd
       -0.04044267 -0.06587355 0.034690153 -0.07420554
0001c0 da 84 39 bd a7 ef a6 3a 4f ea 65 bc 2b cc 54 bd
       -0.045292713 0.0012736217 -0.014032914 -0.051952522
0001d0 e8 e2 48 3c 70 d2 26 bd 35 d2 43 bd cd 63 95 bc
       0.01226113 -0.040728033 -0.04780789 -0.018236065
0001e0 1a c2 26 3c 5a 38 99 3d 40 fb 15 3c 00 f2 b0 3b
       0.010178113 0.07481451 0.009154141 0.0053999424
0001f0 67 c9 9a ba 3b a4 06 3d 54 29 8d 3c 54 fa 43 3b
       -0.001180929 0.032871466 0.01723162 0.0029903846
000200 d9 16 33 3c 1e 80 0b bc ae 4a 84 3c a0 7c a0 3c
       0.01093074 -0.008514432 0.016148891 0.019590676
000210 62 c9 7e bd eb 5c 38 3c c2 b0 80 3d 5b 61 b1 bc
       -0.062203772 0.011252622 0.06283714 -0.021652868
000220 ac 6d 08 bd ee 9b b8 3c 11 c4 48 bc ff 47 10 bc
       -0.033307716 0.02253529 -0.012253777 -0.008806228
000230 75 8d d9 bc a1 7c 53 bc 87 23 7d bc 5f 12 17 3d
       -0.02655671 -0.012908132 -0.015450365 0.036882754
000240 4d db fc bb 7f 27 ed bc 35 eb ee bb 78 8b b8 3a
       -0.0077165724 -0.028949497 -0.0072912225 0.0014079651
000250 85 16 78 bc f6 30 27 bd c7 a1 e5 bc 54 a2 86 bc
       -0.015142088 -0.040818177 -0.028031243 -0.016434826
000260 f9 8c 9c bd fd 2e 11 bc 27 58 68 bc fb bd 6e bd
       -0.07644076 -0.008861301 -0.014181173 -0.05828665
000270 92 45 fc 3c 50 d3 a5 bb 3a 56 8b 3c d1 9a e8 bc
       0.030794892 -0.005060591 0.01700889 -0.028394135
000280 da ba 33 bd 07 3b 08 bd 1d a0 1c bd 73 74 94 3a
       -0.043879367 -0.033259418 -0.038238633 0.0011326208
000290 85 06 81 bc 18 61 d7 bc dd 2a b5 bc d0 d0 2a 3d
       -0.015750179 -0.026291415 -0.022115165 0.041703045
0002a0 f0 2d a7 3c 2e 88 b1 3b 11 b9 27 bc 06 44 0f bc
       0.020407647 0.005417845 -0.010236994 -0.008744245
0002b0 b5 76 c3 bb 68 84 4e bd ad b1 51 3c b2 7f 00 3d
       -0.0059650787 -0.05041924 0.012798709 0.03137178
0002c0 bb 3e 27 3c f9 2b b1 bc 86 a3 aa bc 00 ed 82 3c
       0.010207827 -0.021627413 -0.020829927 0.015982151
0002d0 0d 31 de ba a8 53 71 bd d6 58 19 bd f1 46 86 3c
       -0.0016951874 -0.05891767 -0.037438236 0.01639125
0002e0 8e ce 37 3b 47 e4 27 bd 0c 92 b6 bc 75 49 26 bd
       0.00280467 -0.040989187 -0.022286437 -0.040597398
0002f0 d3 f3 11 bd 27 c9 1a 3d 4a 42 ba bb d2 2f 6a 39
       -0.03563292 0.03778949 -0.005684172 0.00022333793
000300 87 f6 d1 ba a7 71 69 3c 9b 82 52 bc 3c 8d 58 3d
       -0.0016018905 0.014248288 -0.012848522 0.052869067
000310 b3 b6 0b bd e5 86 9b 3b 00 e5 14 bc 98 d5 6d bd
       -0.034109782 0.0047463053 -0.009087801 -0.058065027
000320 41 8f f5 bb 50 12 58 bd 3f 6b 93 bc 2e 1e 56 3c
       -0.007493884 -0.05275184 -0.017995475 0.013068719
000330 ce 10 f5 3c a5 d7 05 bc 24 52 29 3d 2a 60 8b bc
       0.02991524 -0.008169089 0.0413381 -0.017013628
000340 60 e3 15 bd ac 79 37 bd 33 b4 3d 3d f1 3e fd 3b
       -0.036593795 -0.04479377 0.04631443 0.0077284505
000350 92 8c 13 bd a1 65 8e 3d 9d 13 02 3d 91 3a 12 3d
       -0.03602273 0.06952978 0.031756986 0.035700385
000360 07 31 88 bd 40 e1 fe bb fc a3 43 bd b6 05 ae 3c
       -0.06649976 -0.0077783167 -0.04776381 0.021242958
000370 41 33 3a 3d fd 1c ab 3c a3 a4 5e 3c a0 e7 7b 3c
       0.045459036 0.020887846 0.013589057 0.015375048
000380 96 9f 53 3d 77 12 8f bd 93 ab ed bc 28 1c e1 bc
       0.051665865 -0.06985944 -0.029012477 -0.027479246
000390 24 ff 65 3c 1c 35 56 3c 8f 18 42 3d 3c 7e 2d bd
       0.014037881 0.013074186 0.047386702 -0.042356715
0003a0 fc e7 1f 3c 33 88 ca 3b 72 c5 25 bd 94 70 85 bb
       0.009759899 0.006180787 -0.0404715 -0.0040722582
0003b0 e5 4f bd 37 60 4a 95 3c 02 e1 ec ba 09 5e 37 bd
       2.256776e-05 0.018223941 -0.0018072429 -0.044767413
0003c0 69 2a 51 3d 56 b8 2e bc 4b 90 d8 bc 4d b5 b6 bc
       0.051065836 -0.010664066 -0.026435992 -0.022303248
0003d0 dc ef 02 3d 3b 9d 0e bc ce 75 b8 3c 2d 01 df bb
       0.03196703 -0.008704479 0.022517111 -0.00680556
0003e0 a3 73 f0 3c ea b6 3a 3d f0 5c 1a bd a9 10 ba 3c
       0.029352015 0.045584597 -0.03768629 0.022713022
0003f0 37 7e 3f 3c 70 21 01 bd 1a fb a3 3c 5b 8a ec bb
       0.011687807 -0.03152603 0.020017195 -0.0072186417

embedding.2.0.bias f4 [64]
000000 b1 41 27 ba 56 81 9d bc a8 28 20 3d a0 db 38 bc
       -0.0006380333 -0.019226711 0.039101273 -0.011282831
000010 af 6e bb bb df a2 89 bb e0 d9 df ba 4c 0e d2 bc
       -0.0057199816 -0.004200324 -0.0017078482 -0.025641583
000020 64 78 a9 bc 31 78 8e 3b 4e b3 06 3c f7 01 9c bb
       -0.02068729 0.004347824 0.0082214605 -0.0047609764
000030 bc 79 8b 3c 0a 2b c2 3b 92 a7 cf bc 6d f2 05 bc
       0.01702582 0.005925541 -0.025348458 -0.008175475
000040 63 8d 33 bc 52 a5 13 3b 27 3a d1 3c 49 20 7f bc
       -0.010959002 0.0022528959 0.025540425 -0.015571662
000050 3f 49 1d 3c c9 95 a1 3c a2 c6 6c bc 59 53 0b 3c
       0.009599983 0.019724743 -0.014451655 0.008503758
000060 0e bb f7 3a 8f 26 e0 bb db ca 10 3c 9b 61 5c 3c
       0.0018900351 -0.006840534 0.008837427 0.013451005
000070 86 d1 de bc 71 01 50 3b 08 31 77 bb 10 d7 ae bb
       -0.027199518 0.003173914 -0.0037718434 -0.005335696
000080 ce 2c b3 bc e0 53 5d bc 56 94 ec bc 2e 28 2a bb
       -0.02187195 -0.013508767 -0.028879326 -0.002596389
000090 08 3b 3d bc 1e 7b 02 3c 4f f9 72 3b f5 94 05 3a
       -0.011549719 0.007963924 0.003707487 0.00050957437
0000a0 bd 5a 8f bb c6 72 b0 3a 98 6c e6 bc 2f e5 5f 3b
       -0.0043748305 0.001346194 -0.028127953 0.0034163704
0000b0 b8 3b 38 bc 43 67 45 ba 3b 9f 95 3b bb c9 20 3d
       -0.011244707 -0.0007530341 0.004566101 0.039254885
0000c0 ab 2e 63 bb 12 f5 0b 3d 97 b8 a0 bb 0b 27 cb bb
       -0.0034665267 0.034169264 -0.0049048173 -0.0061997226
0000d0 77 cf 14 3c 0b ff 9f bb 92 4b 88 bc d6 31 74 3b
       0.009082667 -0.0048826984 -0.016637597 0.003726115
0000e0 80 f5 a0 bc 4f 52 b1 3b 33 dc 77 bb 8f b5 8e bc
       -0.019648314 0.0054114233 -0.0037820458 -0.017420558
0000f0 bb 9e 26 bb 17 61 67 39 df 4f 03 ba 85 da 23 bc
       -0.00254242 0.00022066045 -0.0005009155 -0.01000083

embedding.2.1.weight f4 [64]
000000 d2 49 68 3f 65 ef 7a 3f 19 8f 74 3f af 8c 79 3f
       0.9073764 0.9802154 0.9553085 0.9748029
000010 92 e6 7a 3f b2 7d 80 3f fd cb 81 3f 8d 62 75 3f
       0.9800807 1.0038359 1.0140377 0.958535
000020 99 32 74 3f ef fd 78 3f 2b 81 82 3f ea 0b 68 3f
       0.95389706 0.9726247 1.0195669 0.9064318
000030 da 55 86 3f a8 5e 85 3f b3 4b 7f 3f f4 e2 83 3f
       1.049495 1.0419512 0.9972488 1.0303636
000040 e3 86 78 3f 4c 04 8b 3f 68 a7 86 3f 5c 96 6e 3f
       0.9708082 1.0860686 1.0519838 0.9319818
000050 0c 87 6f 3f e1 a3 67 3f b7 51 85 3f 76 27 80 3f
       0.9356544 0.90484434 1.0415562 1.0012043
000060 65 d1 85 3f 86 37 81 3f 8b f2 81 3f 54 70 6a 3f
       1.0454527 1.009507 1.0152143 0.9157765
000070 1d 81 83 3f 25 79 7f 3f c5 3c 93 3f 59 89 83 3f
       1.0273777 0.99794227 1.150292 1.027629
000080 e1 1a 7b 3f db a1 76 3f c6 17 89 3f df a9 78 3f
       0.9808789 0.9634072 1.071038 0.971342
000090 97 b6 6f 3f 20 36 75 3f 47 cd 81 3f 28 0c 5d 3f
       0.93637985 0.95785713 1.0140771 0.86346674
0000a0 ba 1a 80 3f d6 9d 71 3f c3 a1 76 3f 6a 4e 84 3f
       1.0008156 0.94381464 0.9634058 1.033643
0000b0 5b 56 6e 3f 14 64 8e 3f 7d ef 81 3f 25 1a 88 3f
       0.9310052 1.1124291 1.0151211 1.0632979
0000c0 21 95 78 3f 60 6a 81 3f 7c 29 75 3f fd 3a 8b 3f
       0.9710255 1.0110588 0.95766425 1.0877377
0000d0 a6 86 8b 3f dd 48 83 3f d4 02 89 3f 33 b6 72 3f
       1.0900466 1.0256611 1.0703988 0.94809264
0000e0 6f 39 64 3f 9a 81 83 3f 0c 31 81 3f 4b 27 85 3f
       0.89150137 1.0273926 1.0093093 1.0402616
0000f0 e6 a8 8a 3f 0e c5 81 3f 85 f8 7f 3f 41 10 64 3f
       1.0832794 1.0138261 0.99988586 0.890873

embedding.2.1.bias f4 [64]
000000 ff 04 52 bc 55 b0 25 be b1 bd 26 be 97 50 11 be
       -0.012818574 -0.16180547 -0.16283299 -0.14190899
000010 35 78 7d be ac 4e 8a bd 8c b5 ed bd 09 0d bb bd
       -0.24752887 -0.06753287 -0.11606893 -0.09133346
000020 9e f6 8c 3c 08 9d 5c bc b1 aa 0c be 49 9c 0b be
       0.01720744 -0.013465174 -0.13736989 -0.13633837
000030 cb d2 5a be 94 c1 12 be 35 6e 00 3d 6c 37 fb bd
       -0.21369474 -0.14331657 0.0313551 -0.1226643
000040 7c af 07 3c 91 57 50 be ab e7 93 bd de fd 0f bb
       0.008281585 -0.20345904 -0.072219215 -0.0021971385
000050 3a a9 fd bd 4a f4 17 be 39 2f 39 be e4 18 0c be
       -0.12385793 -0.14839283 -0.1808442 -0.1368137
000060 9b 8e d3 bd b5 5f 13 be 2d 18 00 be a1 e1 13 be
       -0.10329934 -0.14391978 -0.12509222 -0.1444154
000070 ec 6c 02 be 39 7d 0c be 72 19 e1 bd 55 80 fb bd
       -0.12736863 -0.13719644 -0.109911814 -0.12280337
000080 0e ee 11 be 42 a1 3c 3e 2e ce 80 be 0f 12 58 bd
       -0.14250967 0.1842089 -0.25157303 -0.052751597
000090 66 95 91 3d 0b a3 26 be 13 af e3 bd 3b e4 5a bd
       0.071085736 -0.16273133 -0.11117377 -0.053440314
0000a0 a1 af 22 be 66 0c ab 3a 43 5c e2 bd ad 83 1b be
       -0.1588731 0.001304996 -0.11052754 -0.15186949
0000b0 09 6e b3 bd a5 7f cb bd 47 e5 71 bd fc 9d eb bd
       -0.08761222 -0.09936456 -0.059056547 -0.115047425
0000c0 19 a1 40 bd a5 d8 63 be 80 23 80 bd 7b aa 0f be
       -0.047028635 -0.22250612 -0.06256771 -0.14029877
0000d0 d3 85 2c be e0 84 14 be a9 dd 74 be 13 56 cb bd
       -0.16847925 -0.14503813 -0.23912682 -0.09928527
0000e0 5a f7 be bd aa 04 4c be a5 d7 cf bd 84 43 2b be
       -0.09324522 -0.19923654 -0.10148553 -0.16724974
0000f0 60 bd 0a be 36 bd 21 be f6 b9 2f be dc 81 22 3c
       -0.13548803 -0.15794834 -0.17160782 0.009918656

embedding.2.1.running_mean f4 [64]
000000 ee c5 c6 bf cc 6e 65 bf cd 0d cb 3d 99 28 c1 3e
       -1.5529153 -0.8962219 0.09914742 0.37726286
000010 f9 d8 90 3c e5 77 18 bf 50 bc 34 c0 55 7d 02 3f
       0.017681586 -0.59557945 -2.8239937 0.5097249
000020 df a1 a4 3e 9e 5c 85 be dd 8f 13 be dc 77 a3 3f
       0.32154748 -0.26047224 -0.14410348 1.2770953
000030 76 0c bb bf ee a0 73 be 16 03 45 c0 d0 53 40 bf
       -1.4613178 -0.23791859 -3.0783134 -0.7512789
000040 a1 25 bf 3c 25 8e da bf 81 51 62 bf b2 f1 34 c0
       0.023333373 -1.7074629 -0.88405615 -2.827252
000050 c6 ad 09 bd 84 a8 50 bf 0f 19 14 be ac d4 7c bf
       -0.03361299 -0.81507134 -0.14462684 -0.9876201
000060 fc 92 7d bf 5e 72 58 bf 9d 27 97 be cf 6e 64 bd
       -0.99052405 -0.8454951 -0.2952241 -0.055769738
000070 86 4e 09 bf 87 1e 30 3f 67 70 8e be 31 25 04 bf
       -0.5363544 0.6879658 -0.2782013 -0.5161925
000080 03 df de 3c 89 65 44 3e 37 47 31 bf 9c d7 3e bf
       0.02720595 0.19179358 -0.6924929 -0.74547744
000090 69 23 0a bf 50 05 b9 bf 0a f8 9c 3e 20 c3 77 bf
       -0.5396028 -1.4454746 0.3065799 -0.9678211
0000a0 43 9b b4 be e7 2c b2 3e 3f a4 27 3f 38 f0 5c be
       -0.35274705 0.34799883 0.65484995 -0.21576011
0000b0 1c 36 b3 be 32 22 da 3e fc 43 c4 be 2f 9c f6 be
       -0.3500222 0.42604214 -0.38333118 -0.48166034
0000c0 8e 68 07 bd f7 7b e3 3c 05 c2 a2 3e a3 3f 15 be
       -0.033058695 0.027769072 0.3178865 -0.14575057
0000d0 57 55 53 bf 7d 06 07 be 07 f9 57 bf ce 19 0d 3f
       -0.82552093 -0.13186069 -0.8436436 0.551175
0000e0 ed 74 85 be b8 18 0a bf 8b a9 f3 bf 96 d4 95 be
       -0.2606577 -0.5394397 -1.9036115 -0.29263753
0000f0 b7 bf 20 bf a5 a5 06 c0 a9 ff a3 3e 0b 6a 85 3f
       -0.62792534 -2.1038601 0.3203099 1.0422987

embedding.2.1.running_var f4 [64]
000000 d5 f3 ec 3f ef ba 9c 3f 98 af 36 3f 81 22 30 3f
       1.8511912 1.2244548 0.71361685 0.6880265
000010 17 89 aa 3f 7f c8 5f 3f a2 8f 98 3f d9 5e ba 3f
       1.3323087 0.8741531 1.1918833 1.4560195
000020 ae 78 10 3f cc 8c b8 3f 9e bd 66 3f 0d 10 08 40
       0.5643414 1.4417968 0.9013308 2.1259797
000030 db 4f 04 40 7a 48 bc 3f 07 75 20 40 af fa 1a 3f
       2.067374 1.4709618 2.5071428 0.6053876
000040 b5 1e 47 3f 61 a2 b9 3f 85 4f 91 3f be 62 99 3f
       0.7778123 1.4502679 1.1352392 1.1983259
000050 d9 78 95 3f d6 7e a3 3f 45 bc 98 3f da 0f dc 3f
       1.1677505 1.2773082 1.1932455 1.7192338
000060 d3 86 65 3f 4a 03 7e 3f 9d e5 2f 3f 49 96 83 3f
       0.8965885 0.9922377 0.6870974 1.0280238
000070 1f 91 86 3f 57 34 c1 3f 09 3a c8 3f 44 42 83 3f
       1.0513037 1.5094098 1.5642711 1.0254598
000080 3e 1a 6d 3f 9c f6 f6 3e 5b 33 91 3f a6 00 b8 3f
       0.9261817 0.48235023 1.1343797 1.4375198
000090 be b9 65 3f 15 f5 82 3f 7f 51 82 3f 6d 2a eb 3e
       0.89736545 1.0231043 1.0181121 0.45930806
0000a0 fd 5b a8 3f d3 59 ba 3f 3a 7a e4 3f 31 e6 97 3f
       1.3153073 1.4558662 1.78498 1.1867124
0000b0 c5 02 46 3f 49 15 0e 40 b6 85 43 3f ee cd e4 3f
       0.77347976 2.2200491 0.763759 1.7875345
0000c0 04 c2 f7 3f 39 24 8f 3f 83 ac e8 3f 20 e5 23 40
       1.9356084 1.1182929 1.8177646 2.5608597
0000d0 9e 56 a3 3f 66 82 e3 3f 58 82 52 3f 15 b9 b3 3f
       1.2760808 1.777417 0.8223014 1.4040858
0000e0 86 c2 8d 3f f1 1a 85 3f 77 9d 74 3f a9 1f a5 3f
       1.1074989 1.0398847 0.9555277 1.2900287
0000f0 f3 75 bc 3f bf 3f e9 3f f0 16 b7 3f 38 50 5b 3f
       1.4723495 1.8222579 1.4303875 0.8566928
