checkpoints/SelfAttentionRelationNet/attention_net_on_Omniglot_100.pth (torch, 269807 bytes, 16 tensors)

0.query_conv.weight f4 [64, 128, 1, 1]
0.017348692 0.027725078 -0.013743126 -0.0013065052 -0.04526099 0.041870005 -0.06270575 -0.04729048
-0.042105205 -0.06729684 -0.0066979565 -0.12569617 -0.10631341 0.052214433 -0.02465426 -0.06516548
0.018858846 0.0345967 0.06690721 0.022514705 0.010277236 -0.058267273 -0.13256663 -0.11793255
0.04238431 0.023467025 -0.039420564 0.001993412 0.06818383 -0.10138033 0.034984734 0.04960773
0.06419801 0.055667803 0.08275884 -0.003429153 -0.17083198 -0.0852184 -0.043802075 0.02376043
-0.08814933 0.1323885 -0.020744791 0.029604865 -0.07088531 -0.051453657 0.0026179194 0.026435934
0.0023543874 -0.072667174 0.05816746 0.032147247 0.04815297 3.8737016e-05 0.032854628 -0.0792821
0.0067227916 -0.07418567 -0.08536647 0.044816915 0.022964858 -0.1334147 -0.00034167498 -0.06828072
-0.00028538538 -0.07580836 0.014600475 0.04616755 0.056412287 -0.024140706 0.0086147785 -0.010056721
-0.0038232652 0.06754591 0.010406988 0.029751169 0.019767271 0.07645489 0.02215199 0.06578084
0.0348222 0.10411373 0.021091936 0.026610443 -0.05161641 0.087155335 -0.03899237 -0.0026064077
-0.05554476 -0.0573277 -0.0014166541 0.063648775 0.014068303 -0.008824745 -0.037055917 0.05563974
0.11697762 0.00037590915 -0.0029086273 -0.039168734 -0.0009489339 0.04097012 -0.026524073 0.010095918
-0.008557334 0.014801425 0.017300842 -0.061478898 0.054655887 0.014896852 -0.046444066 0.067422055
-0.021836055 0.044673093 0.08284893 0.052967526 0.027311776 0.019323833 -0.017930549 0.00383013
-0.014132507 -0.009567052 0.025829343 -0.042966817 0.010443881 -0.005020701 -0.072944075 -0.079657406
-0.020878483 0.092316434 0.0016040097 0.004597608 -0.019719841 -0.016026122 -0.007943335 -0.05286745
-0.0076718326 0.07990447 -0.0051380275 0.11904389 0.008939622 0.035985503 0.06042985 -0.0037653958
-0.039835885 -0.043232918 -0.02710509 -0.019110246 -0.039527617 -0.033366326 -0.010333434 0.006633668
-0.010536973 -0.006972558 0.012073628 0.009299029 -0.044146184 0.024454193 0.008525628 -0.06255925
-0.00012476913 0.059570163 -0.04861406 -0.02829585 -0.0041321027 0.011548538 0.015153912 -0.020341253
-0.0036053334 -0.018862326 -0.064534746 -0.035605054 0.024650846 -0.027710631 -0.07711416 -0.056320876
0.055920206 0.040569887 0.013945601 -0.04708487 0.009057132 -0.020721672 0.025437407 0.060374845
-0.024567906 -0.011676734 -0.005275063 -0.007110767 0.0022835871 0.11165329 -0.039038934 -0.028059438
-0.07194822 0.07173213 0.07081812 0.011087966 -0.02279681 0.041475173 -0.018160008 -0.036788754
0.05592228 -0.027922869 -0.01328119 -0.003331583 -0.06278591 -0.029229118 0.043559387 -0.059476987
-0.040062595 -0.02947743 0.0023542203 -0.004514094 0.037578322 -0.07891376 -0.021207683 -0.010287722
-0.00013537063 -0.034758892 -0.02748049 0.036459006 -0.007287772 -0.06099528 -0.059570953 -0.04765493
-0.02065277 -0.05336957 -0.00942281 -0.013980636 -0.010634414 -0.026337972 -0.0137187475 -0.060895093
-0.0031757816 -0.029440299 -0.03906534 0.03818036 0.03297325 -0.022740563 0.0067215012 0.008428136
-0.0025504376 0.058717906 -0.07275777 -0.026200844 -0.003248636 0.029222878 -0.047302965 0.0036948386
0.027994616 -0.025551401 -0.019002639 -0.001871086 -0.0036583354 0.010001696 -0.0052052327 -0.003921366
00000000: d81e 8e3c b41f e33c d92a 61bc 0a3f abba
00000010: 9663 39bd e27f 2b3d df6b 80bd aab3 41bd
00000020: 8276 2cbd edd2 89bd 887a dbbb 7fb6 00be
00000030: d8ba d9bd cdde 553d bbf7 c9bc 7b75 85bd
00000040: de7d 9a3c 45b5 0d3d a606 893d c270 b83c
00000050: da61 283c aaa9 6ebd 8cbf 07be 9f86 f1bd
00000060: 2c9b 2d3d eb3d c03c 7577 21bd e7a3 023b
00000070: f7a3 8b3d 7ea0 cfbd 274c 0f3d 7a31 4b3d
00000080: 3f7a 833d ec03 643d 777d a93d a4bb 60bb
00000090: 94ee 2ebe fc86 aebd ce69 33bd 3ca5 c23c
000000a0: a387 b4bd da90 073e fbf0 a9bc e785 f23c
000000b0: 512c 91bd 12c1 52bd 6691 2b3b 2c90 d83c
000000c0: 114c 1a3b 87d2 94bd 0141 6e3d d5ac 033d
000000d0: 0c3c 453d 8e79 2238 9392 063d a75e a2bd
000000e0: dd4a dc3b a8ee 97bd 9ed4 aebd f191 373d
000000f0: cc20 bc3c dd9d 08be d722 b3b9 c3d6 8bbd
00000100: c79f 95b9 6a41 9bbd d536 6f3c 2f1a 3d3d
00000110: 9210 673d bbc2 c5bc 0025 0d3c f2c4 24bc
00000120: bf8f 7abb 8355 8a3d 1282 2a3c b9b8 f33c
00000130: f9ee a13c 6294 9c3d 1778 b53c 1bb8 863d
00000140: b9a1 0e3d 9439 d53d ffc8 ac3c 25fe d93c
00000150: bb6b 53bd 7f7e b23d 77b6 1fbd 44d0 2abb
00000160: e782 63bd 73d0 6abd 06af b9ba 4a5a 823d
00000170: bd7e 663c aa95 10bc f2c7 17bd 7fe6 633d
00000180: f691 ef3d ac15 c539 ab9e 3ebb 656f 20bd
00000190: e0c1 78ba 49d0 273d 0349 d9bc 5969 253c
000001a0: 0f34 0cbc ad81 723c 7fba 8d3c 4cd1 7bbd
000001b0: dade 5f3d ed11 743c 223c 3ebd 9314 8a3d
000001c0: 87e1 b2bc 22fb 363d b3ac a93d 7af4 583d
000001d0: f2bc df3c 044d 9e3c 16e3 92bc eb02 7b3b
000001e0: 088c 67bc 20bf 1cbc 0f98 d33c f9fd 2fbd
000001f0: d01c 2b3c b184 a4bb b463 95bd 6c23 a3bd
00000200: 5a09 abbc 6610 bd3d a23d d23a 88a7 963b
00000210: 818b a1bc 3749 83bc c324 02bc 8a8b 58bd
00000220: ff63 fbbb f4a4 a33d e65c a8bb 48cd f33d
00000230: 7e77 123c 8965 133d 4a85 773d dcc4 76bb
00000240: f42a 23bd 0015 31bd 7e0b debc 178d 9cbc
00000250: b6e7 21bd 21ab 08bd 904d 29bc 3e5f d93b
00000260: 45a3 2cbc 0e7a e4bb 77d0 453c f45a 183c
00000270: a1d2 34bd 2954 c83c 13af 0b3c 101f 80bd
00000280: 75d4 02b9 d8ff 733d 891f 47bd b3cc e7bc
00000290: 9766 87bb 1436 3d3c 1d48 783c b3a2 a6bc
000002a0: 7547 6cbb 2a85 9abc cb2a 84bd 9bd6 11bd
000002b0: 92f0 c93c 6801 e3bc 07ee 9dbd b8b0 66bd
000002c0: 960c 653d 9c2c 263d 177c 643c 11dc 40bd
000002d0: 5d64 143c 7fc0 a9bc 1c62 d03c 9d4b 773d
000002e0: a242 c9bc c64f 3fbc 70da acbb 7001 e9bb
000002f0: 3ca8 153b 7baa e43d 4ae7 1fbd e8dc e5bc
00000300: 9759 93bd 4ce8 923d 1709 913d 4daa 353c
00000310: 60c0 babc dfe1 293d 4cc4 94bc ceaf 16bd
00000320: c30e 653d 80be e4bc 5999 59bc b056 5abb
00000330: e695 80bd e771 efbc 546b 323d 249e 73bd
00000340: ad18 24bd a77a f1bc 4349 1a3b f7ea 93bb
00000350: baeb 193d 8a9d a1bd bcbb adbc d58d 28bc
00000360: 47f2 0db9 575f 0ebd c41e e1bc 0a56 153d
00000370: 43ce eebb 30d6 79bd ac00 74bd d131 43bd
00000380: ff2f a9bc 0d9a 5abd 2162 1abc 0a0f 65bc
00000390: f73b 2ebc bbc2 d7bc 99c4 60bc 226d 79bd
000003a0: c620 50bb c82c f1bc fa02 20bd 0263 1c3d
000003b0: f50e 073d 6b4a babc 0a40 dc3b 2a16 0a3c
000003c0: 3e25 27bb 3082 703d 0702 95bd 27a3 d6bc
000003d0: 11e7 54bb d164 ef3c c1c0 41bd 1b25 723b
000003e0: f754 e53c 2c51 d1bc 6cab 9bbc 3a3f f5ba
000003f0: afc0 6fbb 27de 233c a890 aabb cd7e 80bb

0.query_conv.bias f4 [64]
0.0016669582 0.00011785285 -0.00070236885 -0.00094611105 0.0002221798 0.0013711668 -0.000224587 -0.0005709682
0.00051878346 -0.00085226406 9.241179e-05 0.0011674765 -1.0244103e-05 -0.00074974867 0.0004073356 -0.0011812046
-0.00032018707 -0.00057291857 0.0007884105 -0.0006823389 0.0008739861 0.00014294966 -0.001296797 0.0013965864
0.0005352378 -0.00026347963 -0.00068751315 0.0006776816 9.292144e-05 -0.00029994824 0.00093767117 0.0009890771
-0.0007374418 0.00016912835 0.0011426888 0.0005098401 0.0005593291 0.00062742527 0.0011237105 0.000365845
0.0009939988 -0.00038153192 0.0014021283 -0.0010077581 6.714853e-05 0.00045073754 0.0012653361 0.0004509543
-0.0013831708 0.0008574861 -2.2350503e-05 0.0014557161 0.00017030242 0.0009789382 0.0023936324 -5.983011e-05
0.001638676 -0.0013384747 0.0018097463 -2.0952633e-05 -0.0007031088 -0.0011960581 0.00014232544 0.0009525387
00000000: d67d da3a c427 f738 2d1f 38ba 7004 78ba
00000010: f0f8 6839 b9b8 b33a 1d7f 6bb9 07ad 15ba
00000020: f8fe 073a 796a 5fba 34cd c138 0306 993a
00000030: 16de 2bb7 c88a 44ba a98f d539 a6d2 9aba
00000040: c8de a7b9 ea2f 16ba 55ad 4e3a fdde 32ba
00000050: 371c 653a c2e4 1539 49f9 a9ba aa0d b73a
00000060: 334f 0c3a a323 8ab9 3a3a 34ba 71a6 313a
00000070: d1de c238 5f42 9db9 0cce 753a eca3 813a
00000080: e250 41ba 0c58 3139 46c6 953a caa6 053a
00000090: f19f 123a cc79 243a 7849 933a e2ce bf39
000000a0: 1149 823a 5908 c8b9 9ec7 b73a c016 84ba
000000b0: 18d2 8c38 f850 ec39 a2d9 a53a 106e ec39
000000c0: 834b b5ba ebc8 603a 577d bbb7 bacd be3a
000000d0: 3593 3239 b74f 803a 7dde 1c3b 17f2 7ab8
000000e0: d8c8 d63a c26f afba 0235 ed3a 70c3 afb7
000000f0: d550 38ba 0dc5 9cba 323d 1539 cab3 793a

0.key_conv.weight f4 [64, 128, 1, 1]
0.031631783 0.10223809 -0.09912352 -0.052857272 -0.07422839 0.07609974 -0.07468721 -0.03185997
-0.11996422 -0.06362085 0.00033474911 -0.11170008 -0.03233935 -0.03800829 -0.13663647 -0.04914355
-0.01085044 -0.040608115 -0.103964835 -0.014358914 0.05686575 -0.05330354 0.0074945465 0.0014000147
0.0071438653 0.06955569 -0.058370136 -0.09865531 -0.009226395 -0.055451043 0.04355404 -0.018364571
-0.040478513 0.15792882 0.07646722 -0.00013850314 -0.06526459 -0.08074539 0.06590364 -0.045507632
-0.12383117 -0.02206761 -0.040657364 0.020033456 -0.083476976 -0.010879321 -0.014257239 -0.05117852
0.10229529 -0.12596856 -0.052586533 -0.010073199 -0.08384393 0.049851105 0.07997976 -0.10648544
-0.098060556 -0.03460474 -0.056692123 0.098894395 -0.07192995 -0.023695309 0.052956715 -0.030990694
0.0030041356 -0.0015632899 -0.09161303 -0.07569427 -0.061526075 -0.008213245 -0.045997266 0.030414993
-0.052946016 0.009538311 0.086771734 -0.0017799573 0.05002561 -0.05789209 -0.04528026 -0.034686334
-0.09292316 -0.083747104 -0.026875654 -0.053871196 0.020490842 -0.059842724 0.057416443 0.037205152
0.038320106 -0.038849194 -0.073858835 -0.09775156 -0.09073766 0.06285188 -0.03505911 0.013333607
-0.061065953 0.0049046525 -0.07420595 -0.028625062 0.03412107 -0.0069667194 0.006754769 0.012214242
0.04549532 -0.053985074 -0.025138482 0.01652218 -0.04946223 0.021054288 0.07843053 -0.13236845
-0.031410173 -0.019229801 0.0010163438 -0.0664024 -0.017660642 0.05765132 -0.017204514 -0.03378207
-0.048526797 0.04511922 0.0153290015 0.007934022 0.01836004 0.013961828 0.006752367 0.08290003
0.0025902397 -0.00340379 0.03411487 0.034406263 0.042396016 0.020845834 0.04643834 -0.08794552
0.008560961 0.021270012 0.05702194 0.0070617157 0.018134002 -0.051996376 0.012011876 -0.037004452
0.045904417 0.018373417 -0.02709675 -0.0030400113 0.009341655 0.050850373 -0.0922957 -0.01599704
-0.008444792 -0.004710334 0.010649328 0.019673051 -0.014514102 0.0026695326 0.07606875 -0.016421445
0.016768886 -0.006832189 0.062623516 0.003362976 -0.01238234 0.030102609 -0.018380672 0.0627685
0.004659644 0.0023196796 -0.018656416 -0.015907098 0.049230862 -0.0740235 0.024427284 -0.01364785
0.04125264 0.035129774 -0.014931507 -0.044320676 -0.0199354 -0.060758825 0.003184929 0.030972539
0.0032525735 -0.018919157 0.0872405 0.06642799 -0.0088798 -0.040850013 0.006675512 -0.04735555
-0.008719616 -0.05605536 0.03915133 0.030113643 0.0069246525 0.039208367 0.03227684 0.00832322
0.0458893 0.0134209925 -0.026675276 -0.011458347 0.019411288 -0.016775675 0.018293492 0.0008012056
-0.018200042 0.050770145 -0.013138184 0.048766736 0.088254586 0.08681966 -0.018433498 0.0676791
-0.013641978 0.024923721 0.042060215 0.027520804 -0.002391561 0.0039400537 -0.039863992 0.0128218075
-0.0065107066 0.0063480185 -0.042645954 -0.023166345 0.0034109815 0.10082479 0.0071353135 -0.018951327
0.049606815 0.00048518396 0.047219656 0.015771069 0.027250757 0.009094239 0.048479557 0.030845752
-0.05721108 0.019884104 0.0046219635 0.03614947 0.002441697 0.03866647 -0.00539528 0.00606991
-0.0057294155 -0.0047766604 0.008899241 -0.02954922 0.035827603 -0.029440189 0.05399849 0.04335632
00000000: 5490 013d 3462 d13d 4601 cbbd de80 58bd
00000010: 0e05 98bd 2eda 9b3d 9cf5 98bd 9a7f 02bd
00000020: cdaf f5bd a64b 82bd 4481 af39 03c3 e4bd
00000030: 4476 04bd 95ae 1bbd 6eea 0bbe bf4a 49bd
00000040: 0bc6 31bc b254 26bd 84eb d4bd a741 6bbc
00000050: 10ec 683d d054 5abd d094 f53b b380 b73a
00000060: 1617 ea3b 3773 8e3d 8615 6fbd cc0b cabd
00000070: 4e2a 17bc a220 63bd b965 323d 4c71 96bc
00000080: cccc 25bd 18b8 213e d99a 9c3d 273b 11b9
00000090: 71a9 85bd d75d a5bd 7df8 863d 3666 3abd
000000a0: 329b fdbd 22c7 b4bc 5688 26bd 341d a43c
000000b0: faf5 aabd 2e3f 32bc 3297 69bc 91a0 51bd
000000c0: 3180 d13d e7fd 00be fa64 57bd 0f0a 25bc
000000d0: 5eb6 abbd ac30 4c3d 6ecc a33d 0a15 dabd
000000e0: f9d3 c8bd b3bd 0dbd 0036 68bd 2589 ca3d
000000f0: 0250 93bd aa1c c2bc 24e9 583d 32e0 fdbc
00000100: 08e1 443b 4ee7 ccba 9d9f bbbd 9905 9bbd
00000110: c402 7cbd d990 06bc a167 3cbd dd28 f93c
00000120: ecdd 58bd 9346 1c3c 61b5 b13d 754d e9ba
00000130: a7e7 4c3d 4220 6dbd cb77 39bd 4213 0ebd
00000140: 7f4e bebd 9a83 abbd 552a dcbc 0ba8 5cbd
00000150: 69dc a73c a51d 75bd 812d 6b3d 6e64 183d
00000160: 8bf5 1c3d 5520 1fbd 4d43 97bd f831 c8bd
00000170: abd4 b9bd 7db8 803d 249a 0fbd 3475 5a3c
00000180: 4b20 7abd 35b7 a03b 4af9 97bd 1b7f eabc
00000190: 89c2 0b3d 1449 e4bb 1c57 dd3b 3e1e 483c
000001a0: 4d59 3a3d 741f 5dbd 38ef cdbc 8659 873c
000001b0: e898 4abd 0b7a ac3c 30a0 a03d 988b 07be
000001c0: f4a7 00bd d187 9dbc d736 853a fbfd 87bd
000001d0: 0dad 90bc ca23 6c3d 7bf0 8cbc 115f 0abd
000001e0: 09c4 46bd eece 383d 7e26 7b3c b3fd 013c
000001f0: cb67 963c 27c0 643c f642 dd3b 7ec7 a93d
00000200: 03c1 293b 1f12 5fbb 09bc 0b3d 95ed 0c3d
00000210: 72a7 2d3d e2c4 aa3c 2136 3e3d c81c b4bd
00000220: 4643 0c3c 733e ae3c d68f 693d f765 e73b
00000230: c28d 943c 27fa 54bd 76cd 443c fb91 17bd
00000240: 4506 3c3d d983 963c 01fa ddbc ed3a 47bb
00000250: be0d 193c 7b48 503d 8705 bdbd 390c 83bc
00000260: 065c 0abc 2559 9abb 857a 2e3c 6129 a13c
00000270: 8ecc 6dbc 53f3 2e3b efc9 9b3d 4486 86bc
00000280: e75e 893c 8ee0 dfbb c240 803d 6065 5c3b
00000290: 4cdf 4abc bf99 f63c 1093 96bc c58c 803d
000002a0: edaf 983b c405 183b 57d5 98bc 9a4f 82bc
000002b0: 4da6 493d a299 97bd ba1b c83c 3b9b 5fbc
000002c0: 87f8 283d 3de4 0f3d 48a3 74bc 9989 35bd
000002d0: 904f a3bc 3fde 78bd 3eba 503b 1fba fd3c
000002e0: 2129 553b 59fc 9abc 26ab b23d 660b 883d
000002f0: 957c 11bc 5852 27bd 41be da3b e5f7 41bd
00000300: b8dc 0ebc 4e9a 65bd 255d 203d e3b0 f63c
00000310: 32e8 e23b f498 203d b834 043d 1d5e 083c
00000320: 6bf6 3b3d b9e3 5b3c 1c86 dabc cabb 3bbc
00000330: 6c04 9f3c 246d 89bc 3cdc 953c ff07 523a
00000340: 4118 95bc 5bf4 4f3d 8a41 57bc a1bf 473d
00000350: d2be b43d 82ce b13d d901 97bc 579b 8a3d
00000360: 9a82 5fbc d52c cc3c 5547 2c3d 4f73 e13c
00000370: bcbb 1cbb 911b 813b 6d48 23bd 8f12 523c
00000380: c457 d5bb 0a03 d03b 86ad 2ebd 59c7 bdbc
00000390: c68a 5f3b 3a7d ce3d 59cf e93b d03f 9bbc
000003a0: 8430 4b3d 4a60 fe39 6669 413d 5432 813c
000003b0: fb3c df3c 0100 153c 8092 463d 3bb0 fc3c
000003c0: 2a56 6abd fde3 a23c d773 973b 7711 143d
000003d0: e104 203b bc60 1e3d e4ca b0bb 18e6 c63b
000003e0: d2bd bbbb 8885 9cbb 1fce 113c 3511 f2bc
000003f0: f7bf 123d 8d2c f1bc 852d 5d3d 6696 313d

0.key_conv.bias f4 [64]
0.02121519 -0.011088679 -0.04145466 0.013539033 0.008771932 0.00877269 0.013558235 0.00554646
0.01824934 0.01515941 0.011879185 0.023374822 -0.025649019 -0.0011543066 -0.0019882193 -0.03032418
-0.008708948 0.009396722 -0.029445266 0.006120529 0.02540711 0.028702445 0.013458101 -0.01606806
0.03011982 0.036877897 -0.013146034 0.012935981 -0.018766038 -0.011855259 -0.001209025 0.02048406
-0.015609081 0.025924196 0.01526209 0.03287242 -0.020900648 0.03392256 -0.0146672 0.028876364
0.006741239 0.008116883 0.037477322 0.0039356262 0.011941545 0.038585726 0.026204819 0.007601689
0.014833557 0.014848944 0.00011675702 0.03124756 0.022080464 0.014786064 0.0064398097 0.007073569
0.019883838 -0.04567187 0.034845125 0.02318351 -0.021053383 0.0081721945 -0.0058341553 0.023021286
00000000: 7acb ad3c 4aad 35bc 5dcc 29bd d2d2 5d3c
00000010: 26b8 0f3c 54bb 0f3c 5c23 5e3c 14bf b53b
00000020: a47f 953c 2d5f 783c eaa0 423c 8e7c bf3c
00000030: e41d d2bc 1a4c 97ba c94c 02bb 6a6a f8bc
00000040: faaf 0ebc b5f4 193c 3337 f1bc b88e c83b
00000050: 9222 d03c 6421 eb3c 5e7f 5c3c 2aa1 83bc
00000060: d7bd f63c 470d 173d 7762 57bc 70f1 533c
00000070: 3cbb 99bc 8f3c 42bc 2678 9eba 30ce a73c
00000080: 3bbd 7fbc fb5e d43c d80d 7a3c 3ba5 063d
00000090: d637 abbc 62f2 0a3d b24e 70bc 208e ec3c
000000a0: 9de5 dc3b adfc 043c d281 193d 6df6 803b
000000b0: 78a6 433c 110c 1e3d 7dab d63c 9717 f93b
000000c0: 7308 733c fc48 733c 73db f438 e2fa ff3c
000000d0: 17e2 b43c 3f41 723c 0a05 d33b 66c9 e73b
000000e0: 6ee3 a23c 6d12 3bbd c3b9 0e3d 58eb bd3c
000000f0: 2578 acbc abe4 053c 712c bfbb 2397 bc3c

0.value_conv.weight f4 [64, 128, 1, 1]
-0.052996974 0.037533298 -0.04081841 0.07449972 -0.0089773005 0.03150272 -0.019030696 -0.080577254
-0.0131554715 -0.133801 -0.04174541 -0.15695545 -0.065476745 0.016802724 0.0021386622 -0.11071362
-0.021448875 0.0017560456 -0.067816794 -0.04889577 0.036843244 -0.05297895 -0.05403782 -0.053768594
-0.021961324 -0.0048399065 -0.06105738 -0.031174265 -0.0033205755 -0.02706188 -0.016084999 0.028164499
0.004316072 0.027256325 0.06385278 -0.0128144575 -0.060716305 -0.10651297 0.010405557 -0.012153742
-0.09497343 0.06516739 -0.10111201 0.056673195 0.00719381 -0.07988479 0.040693104 -0.06614107
0.07473095 -0.07627367 0.034162454 -0.032276478 0.0110270055 -0.026329871 0.004979791 -0.099078424
-0.00059872936 -0.063022785 -0.08826455 0.03931128 -0.062314607 -0.06364271 0.040470343 -0.02693406
-0.03962895 -0.12035795 0.15384333 0.1258091 0.02377323 -0.031082636 0.04422431 0.00058790867
0.032292888 0.05061105 -0.019234462 0.11765809 0.059132986 0.039823268 0.0251026 0.044061583
0.09468248 0.0491113 -0.027628718 -0.027617881 -0.09171577 -0.00071625155 -0.02728459 0.04526505
-0.023595495 -0.065661795 -0.018828208 0.047085576 0.049678195 0.012751845 -0.119665205 0.025495745
0.089280576 -0.13118765 -0.10472237 0.07958699 0.03160478 0.06002528 -0.038032297 -0.09044562
0.039454285 0.003733015 0.043715503 -0.09953368 0.027132273 -0.023392119 -0.06642246 0.06620935
-0.0990994 0.036554173 0.08374735 0.04533936 0.066366516 -0.024201617 -0.013686624 0.03657483
-0.0992612 0.0015929737 0.04485985 -0.09373103 0.027684767 0.02173117 -0.10375721 -0.06199484
0.06546199 0.02665977 0.010354999 0.019052759 -0.016393224 0.056718715 0.005059328 -0.09242647
-0.027423862 -0.04795444 0.027611878 -0.1331748 -0.065908335 0.023312952 -0.064724475 -0.08377971
-0.12507153 0.019415287 -0.008931213 -0.056225732 0.05036076 -0.07252486 0.0060813343 0.016443495
0.013779464 0.08780278 -0.08218209 -0.021360857 0.04035074 0.009864297 0.071702525 0.009872824
0.010088147 0.09555263 0.0577353 -0.009883398 -0.06723159 -0.08699653 0.08485508 0.005347455
-0.073042125 0.06515685 -0.09234042 0.014651244 -0.030316386 -0.024441883 0.03424389 -0.037508693
0.08803444 -0.12233008 0.18164144 -0.038914777 -0.015889037 -0.013743759 0.04141386 -0.04393127
-0.0029247105 -0.06848078 -0.02833754 0.024705462 -0.047836084 0.008776203 0.04393058 0.01668309
-0.03457276 -0.085567735 0.11570043 0.09524705 0.09589085 -0.022055924 -0.0003934886 0.07203234
0.007945701 0.078099415 -0.023288613 0.09885246 0.042260516 0.019690149 -0.0019251038 0.05284135
0.031600967 0.0098162545 0.0053071654 -0.0317836 -0.06257196 -0.012392676 -0.016670523 0.06564099
-0.03821194 -0.11838775 0.07744095 0.076608285 -0.03294926 0.10494568 -0.116564915 -0.06593718
0.09328319 -0.13952209 -0.13299745 0.01922907 0.11462112 0.09741697 -0.051644277 -0.07469243
0.0658815 -0.07832294 0.10157596 -0.069720596 0.062089544 -0.0745052 -0.04662556 0.12607257
-0.14405711 0.11373085 0.11731953 0.0489288 0.070249446 0.03432014 -0.15860558 0.09212987
-0.055522308 0.07143289 0.08027736 -0.079539165 0.0073901704 0.008856155 -0.076930426 0.003920535
00000000: 5b13 59bd 84bc 193d 3531 27bd 4f93 983d
00000010: 8715 13bc ff08 013d 43e6 9bbc b005 a5bd
00000020: 0c8a 57bc 2103 09be 3cfd 2abd eeb8 20be
00000030: ac18 86bd dea5 893c cc28 0c3b d3bd e2bd
00000040: 8db5 afbc 1d2b e63a 88e3 8abd ee46 48bd
00000050: f1e8 163d 7500 59bd c356 5dbd 753c 5cbd
00000060: 3ce8 b3bc 1498 9ebb 4e17 7abd 2c61 ffbc
00000070: 039e 59bb e0b0 ddbc b0c4 83bc 3cb9 e63c
00000080: d66d 8d3b a848 df3c 3fc5 823d bbf3 51bc
00000090: a9b1 78bd 7923 dabd 127c 2a3c 7d20 47bc
000000a0: 6e81 c2bd 7b76 853d d013 cfbd 2722 683d
000000b0: 0dba eb3b a39a a3bd d0ad 263d f874 87bd
000000c0: 8a0c 993d 5f35 9cbd eeed 0b3d 5734 04bd
000000d0: 9daa 343c beb1 d7bc 842d a33b a1e9 cabd
000000e0: 0cf4 1cba 1712 81bd 0bc4 b4bd dd04 213d
000000f0: 9a3d 7fbd 1c57 82bd 3bc4 253d d1a4 dcbc
00000100: f751 22bd 3b7e f6bd 1b89 1d3e 1ad4 003e
00000110: 14c0 c23c 03a1 febc 8d24 353d e21d 1a3a
00000120: 8c45 043d 884d 4f3d 9791 9dbc baf6 f03d
00000130: 6e35 723d b91d 233d f8a3 cd3c eb79 343d
00000140: e3e8 c13d ee28 493d 9f55 e2bc e53e e2bc
00000150: 7ad5 bbbd d4c2 3bba ef83 dfbc d867 393d
00000160: 574b c1bc b179 86bd 9d3d 9abc cedc 403d
00000170: 5d7b 4b3d 1ded 503c 0813 f5bd 74dc d03c
00000180: bcd8 b63d 0e56 06be af78 d6bd 81fe a23d
00000190: 0474 013d 11dd 753d c1c7 1bbd 8e3b b9bd
000001a0: d19a 213d 99a5 743b 070f 333d 50d8 cbbd
000001b0: 8044 de3c d4a0 bfbc 8008 88bd c598 873d
000001c0: a0f4 cabd d4b9 153d bb83 ab3d c4b5 393d
000001d0: 2beb 873d 7842 c6bc dd3d 60bc 7dcf 153d
000001e0: 7549 cbbd 54cb d03a f6be 373d 0ef6 bfbd
000001f0: 2acb e23c 9105 b23c a97e d4bd 4dee 7dbd
00000200: f010 863d 9765 da3c 04a8 293c 8814 9c3c
00000210: 154b 86bc e251 683d b8c8 a53b 174a bdbd
00000220: 02a8 e0bc e06b 44bd 4e32 e23c fa5e 08be
00000230: f3fa 86bd cefa be3c 448e 84bd b294 abbd
00000240: c012 00be cf0c 9f3c 3954 12bc f44c 66bd
00000250: 1647 4e3d ea87 94bd ee45 c73b 82b4 863c
00000260: 43c3 613c f2d1 b33d 154f a8bd f7fc aebc
00000270: d146 253d dc9d 213c c6d8 923d a0c1 213c
00000280: c148 253c 19b1 c33d da7b 6c3d faed 21bc
00000290: b7b0 89bd 3d2b b2bd 80c8 ad3d b439 af3b
000002a0: 1c97 95bd f470 853d f91c bdbd c50b 703c
000002b0: 125a f8bc 583a c8bc 5243 0c3d b7a2 19bd
000002c0: 674b b43d 3188 fabd 3700 3a3e 1a65 1fbd
000002d0: ba29 82bc 812d 61bc 94a1 293d 46f1 33bd
000002e0: 80ac 3fbb a73f 8cbd 2124 e8bc 1c63 ca3c
000002f0: c5ef 43bd 10ca 0f3c 8df0 333d faaa 883c
00000300: 2b9c 0dbd 233e afbd 59f4 ec3d e310 c33d
00000310: 6c62 c43d a0ae b4bc 254d ceb9 b185 933d
00000320: af2e 023c 96f2 9f3d c3c7 bebc 2973 ca3d
00000330: 5d19 2d3d 3c4d a13c c453 fcba 2c70 583d
00000340: 0470 013d 5bd4 203c bbe7 ad3b 852f 02bd
00000350: ba25 80bd a70a 4bbc 9f90 88bc c96e 863d
00000360: 2084 1cbd 4775 f2bd 5c99 9e3d cee4 9c3d
00000370: cef5 06bd c3ed d63d 96b9 eebd 120a 87bd
00000380: 420b bf3d e1de 0ebe 7c30 08be 4886 9d3c
00000390: 7abe ea3d 8c82 c73d f388 53bd 58f8 98bd
000003a0: e1ec 863d c767 a0bd 0f07 d03d acc9 8ebd
000003b0: 9b51 7e3d 2f96 98bd 71fa 3ebd 2b19 013e
000003c0: b583 13be b8eb e83d 3945 f03d 9169 483d
000003d0: f1de 8f3d 4693 0c3d 8069 22be 96ae bc3d
000003e0: 5c6b 63bd 684b 923d 7568 a43d 6ee5 a2bd
000003f0: 3e29 f23b 6819 113c b38d 9dbd d577 803b

0.value_conv.bias f4 [64]
-0.06740286 -0.030871132 -0.02724181 0.029888947 0.057980355 0.0655387 0.033247694 -0.060907982
0.05232656 0.07014291 0.04554593 0.061716583 -0.07272986 -0.034696013 -0.045589693 -0.03578688
0.0751022 -0.08319755 -0.0579359 0.07321648 0.07599991 -0.0833019 -0.064166 0.056851923
-0.063808225 0.07722598 0.08078514 0.07145672 0.04954108 -0.053498253 0.04050082 -0.039216712
0.043362122 -0.04802602 -0.038341958 -0.07291159 0.0684331 -0.07825292 0.067013204 -0.048747912
0.047865223 -0.054742288 -0.05410422 -0.054378953 -0.057282723 -0.057398524 0.04686996 0.03374546
0.04257417 0.06181082 0.10067709 -0.08122704 0.05955581 -0.07121979 -0.058294397 -0.07866665
-0.03786443 0.058517963 0.088070065 0.04841946 0.06684437 -0.07332853 -0.06190419 0.042322338
00000000: 830a 8abd 75e5 fcbc 372a dfbc aad9 f43c
00000010: cf7c 6d3d 2739 863d bc2e 083d a67a 79bd
00000020: 6054 563d 16a7 8f3d 5e8e 3a3d 87ca 7c3d
00000030: 65f3 94bd 681d 0ebd 42bc 3abd 4395 12bd
00000040: 2fcf 993d 7a63 aabd 324e 6dbd 86f2 953d
00000050: d7a5 9b3d 309a aabd 7769 83bd 90dd 683d
00000060: e3ad 82bd a828 9e3d ae72 a53d e757 923d
00000070: 96eb 4a3d fc20 5bbd 30e4 253d b4a1 20bd
00000080: 7b9c 313d efb6 44bd 750c 1dbd ac52 95bd
00000090: a726 8c3d 1143 a0bd 383e 893d e4ab 47bd
000000a0: 530e 443d 7339 60bd 639c 5dbd 77bc 5ebd
000000b0: 4aa1 6abd b71a 6bbd b7fa 3f3d ae38 0a3d
000000c0: 4162 2e3d 582d 7d3d ca2f ce3d 5d5a a6bd
000000d0: cbf0 733d aedb 91bd 1bc6 6ebd fb1b a1bd
000000e0: bc17 1bbd 88b0 6f3d 145e b43d 7c53 463d
000000f0: b3e5 883d 452d 96bd 3f8f 7dbd 305a 2d3d

0.out_conv.weight f4 [128, 64, 1, 1]
0.03422048 -0.06606246 -0.07718288 0.04427513 0.008187976 -0.038825236 -0.0012826717 -0.00828461
-0.034946136 -0.026802707 -0.010817999 -0.0035609696 0.010899653 0.01180235 -0.0014268758 -0.038183786
-0.030153377 0.061512537 0.0007830965 -0.0043028565 -0.043965086 0.017341264 0.0054001925 -0.024885874
-0.00792943 -0.021982089 -0.029424211 -0.05963702 -0.013191523 -0.017610913 0.006766997 -0.021140624
0.024882386 0.016644858 -0.03978634 0.012924669 -0.011799699 -0.005073865 -0.020013563 -0.007767483
-0.001902613 0.005025869 -0.030512521 0.016878013 -0.0061124754 0.013887358 0.010860507 0.04937035
-0.02726452 -0.041180592 -0.017983578 0.057074692 -0.020887865 0.01776156 0.005248688 0.03943872
-0.021778088 -0.028455785 -0.018193506 0.03435669 -0.045358818 -0.05267415 0.08084448 -0.003674796
0.03588185 -0.041747868 -0.026850432 0.0054110866 -0.016538082 -0.014337813 0.00216971 0.025468469
-0.015261036 -0.02463089 0.0034049703 -0.045605417 0.034771018 -0.031706657 -0.0051170047 -0.008043522
-0.026737595 0.0008987703 0.030625785 -0.02428236 -0.03722267 0.040352855 -0.007075478 0.013545115
0.04421008 -0.024002207 -0.05188267 -0.06602 -0.023040969 -0.009260458 -0.025935939 -0.017650265
-0.018803855 0.020836301 0.040023588 0.036114443 -0.03781773 -0.0020807832 0.0005420792 -0.032139894
0.0006076513 0.028832737 0.027468055 0.040952224 -0.0016926981 0.026710037 -0.022879537 0.03379159
-0.08648412 -0.033387512 -0.0382292 0.045837436 0.0039522382 0.013451686 0.029064864 0.011520005
-0.014937201 -0.04307704 -0.047033608 -0.04583669 -0.030527035 0.059223954 0.00024429391 -0.0011231159
0.06723996 0.10857656 0.1203982 -0.124476016 -0.07527773 -0.081871316 -0.06621218 0.063992076
-0.07827575 -0.090975635 -0.118299656 -0.10120114 0.12603901 0.1132214 0.05733093 0.09777487
-0.04912026 0.07154826 0.079813704 -0.10097188 -0.08732653 -0.010745783 0.08546652 -0.08746273
0.12726818 -0.056504242 -0.09889113 -0.060398992 -0.060538057 0.10499163 -0.08170255 0.124228515
-0.09799817 0.07812697 0.033575866 0.1035426 -0.0894605 0.049758717 -0.07138807 0.046373565
-0.09342385 0.12737894 0.0822494 0.029403925 0.035689633 0.07726889 -0.06328808 -0.08833836
-0.028426522 -0.08538315 -0.061196264 0.084821485 -0.07914753 0.06972801 0.073465236 0.098384276
0.12632501 -0.054367665 -0.03657262 -0.094473474 -0.07991241 0.074029684 0.014374182 -0.09353864
0.053662334 0.11964018 0.10879695 -0.11418456 -0.06478952 -0.093354344 -0.05364609 0.052710533
0.0040995753 -0.11960832 -0.103119284 -0.07211212 0.089415975 0.117384955 0.028937725 0.091999084
-0.0630994 0.032321014 0.06333881 -0.031108001 -0.011021064 0.061325457 0.087503865 -0.0149576
0.059706274 -0.07681494 -0.06273133 -0.02150638 -0.08072883 0.057973076 -0.02870968 0.09368709
-0.1158918 0.04566702 0.01872275 0.031037217 -0.06788127 0.06585152 -0.03066448 0.022534361
-0.09149736 0.05759767 0.08028276 0.031091275 0.007682497 0.07182717 -0.085033596 -0.10729955
-0.011356737 -0.07334477 -0.080694444 0.044561137 -0.10629743 0.11057274 0.024461398 0.08838819
0.11800351 -0.029511591 -0.036549643 -0.059943028 -0.08677743 -0.022050768 0.047435235 -0.08507183
00000000: c62a 0c3d c14b 87bd 0f12 9ebd d759 353d
00000010: dc26 063c 3607 1fbd 521f a8ba 2cbc 07bc
00000020: ae23 0fbd 5a91 dbbc fa3d 31bc 285f 69bb
00000030: 7594 323c a55e 413c 0206 bbba 9a66 1cbd
00000040: 3704 f7bc 92f4 7b3d b748 4d3a fafe 8cbb
00000050: bc14 34bd 440f 8e3c 19f4 b03b 76dd cbbc
00000060: 71ea 01bc c813 b4bc 0b0b f1bc f345 74bd
00000070: 4221 58bc c344 90bc afbd dd3b 1a2f adbc
00000080: 25d6 cb3c cc5a 883c 00f7 22bd fec1 533c
00000090: 8653 41bc aa42 a6bb 7cf3 a3bc 5f86 febb
000000a0: 1961 f9ba 0bb0 a43b 65f5 f9bc c243 8a3c
000000b0: 294b c8bb cd87 633c 45f0 313c 9038 4a3d
000000c0: d859 dfbc fbac 28bd 4c52 93bc 27c7 693d
000000d0: 071d abbc b180 913c 30fd ab3b 7f8a 213d
000000e0: f667 b2bc 1b1c e9bc 8c0a 95bc 9ab9 0c3d
000000f0: 2bca 39bd d9c0 57bd ca91 a53d d9d4 70bb
00000100: d9f8 123d d0ff 2abd 70f5 dbbc 7c4f b13b
00000110: df7a 87bc 25e9 6abc b131 0e3b 40a3 d03c
00000120: 6d09 7abc b8c6 c9bc ec25 5f3b bfcc 3abd
00000130: 0e6c 0e3d d7de 01bd 8cac a7bb fac8 03bc
00000140: cd08 dbbc 749b 6b3a ede2 fa3c cdeb c6bc
00000150: cc76 18bd 0949 253d 69d9 e7bb 54ec 5d3c
00000160: a115 353d 47a0 c4bc ec82 54bd 7e35 87bd
00000170: 6ac0 bcbc 2db9 17bc 9b77 d4bc 4a97 90bc
00000180: 8b0a 9abc e4b0 aa3c c6ef 233d bdec 133d
00000190: c4e6 1abd c05d 08bb 521a 0e3a 1fa5 03bd
000001a0: ca4a 1f3a a232 ec3c b004 e13c 85bd 273d
000001b0: 86dd ddba 02cf da3c de6d bbbc 0d69 0a3d
000001c0: 961e b1bd 58c1 08bd 3996 1cbd 09c0 3b3d
000001d0: c781 813b 7664 5c3c 7019 ee3c 67be 3c3c
000001e0: 29bb 74bc 8d71 30bd 50a6 40bd 41bf 3bbd
000001f0: d513 fabc d194 723d 9314 8039 8435 93ba
00000200: 1bb5 893d 635d de3d 5593 f63d 48ed febd
00000210: 362b 9abd 26ac a7bd 409a 87bd 470e 833d
00000220: 094f a0bd 6f51 babd 1747 f2bd 8b42 cfbd
00000230: 5f10 013e 9fe0 e73d d6d3 6a3d 313e c83d
00000240: 5332 49bd e587 923d 5e75 a33d 58ca cebd
00000250: 40d8 b2bd 150f 30bc 1209 af3d a91f b3bd
00000260: 9752 023e fe70 67bd 6f87 cabd ef64 77bd
00000270: c1f6 77bd da05 d73d ab53 a7bd 856b fe3d
00000280: 44b3 c8bd 0801 a03d d986 093d 250e d43d
00000290: 1137 b7bd cccf 4b3d e933 92bd 35f2 3d3d
000002a0: 0155 bfbd a06f 023e 6072 a83d 80e0 f03c
000002b0: 4b2f 123d 273f 9e3d 2e9d 81bd beea b4bd
000002c0: bdde e8bc 5cdd aebd efa8 7abd e3b6 ad3d
000002d0: 1a18 a2bd 8fcd 8e3d f174 963d b27d c93d
000002e0: 585b 013e a1b0 5ebd 2ccd 15bd 4f7b c1bd
000002f0: 1ea9 a3bd e09c 973d b081 6b3c 3091 bfbd
00000300: 09cd 5b3d e905 f53d efd0 de3d 98d9 e9bd
00000310: 5eb0 84bd 9030 bfbd 01bc 5bbd 00e7 573d
00000320: bb55 863b 35f5 f4bd 3430 d3bd 85af 93bd
00000330: b91f b73d 8667 f03d cf0e ed3c 046a bc3d
00000340: 423a 81bd 0a63 043d c7b7 813d 35d6 febc
00000350: b191 34bc 6730 7b3d 3a35 b33d b910 75bc
00000360: 918e 743d 2751 9dbd 4979 80bd 262e b0bc
00000370: 2855 a5bd 2d75 6d3d 9030 ebbc 04df bf3d
00000380: ae58 edbd 570d 3b3d 7460 993c c341 fe3c
00000390: 5605 8bbd 29dd 863d 1334 fbbc fb99 b83c
000003a0: f862 bbbd 89eb 6b3d 4a6b a43d 21b3 fe3c
000003b0: 75bd fb3b 201a 933d 1826 aebd debf dbbd
000003c0: 9c11 3abc c835 96bd 2143 a5bd bd85 363d
000003d0: 78b2 d9bd f673 e23d 4563 c83c de04 b53d
000003e0: d3ab f13d 4bc2 f1bc 14b5 15bd d286 75bd
000003f0: 5db8 b1bd d0a3 b4bc 734b 423d 243a aebd

0.out_conv.bias f4 [128]
-0.038082298 0.0006986168 -0.058576487 -0.049621318 -0.046370994 0.010071179 -0.08115453 -0.068196416
-0.044452514 -0.081986986 0.027785772 -0.12381572 -0.059549093 -0.0069947285 -0.05156613 0.007726159
-0.103471205 -0.061243925 -0.06620998 -0.05387038 -0.0391263 -0.0765607 -0.07987611 -0.047589708
-0.0114369225 -0.04380968 -0.06075524 -0.057106484 -0.12874532 -0.15854 -0.023135059 -0.014532439
-0.12453304 -0.029210865 -0.0374925 -0.06571759 -0.09473246 -0.048685532 -0.035501145 -0.0564155
-0.051447306 -0.0284515 -0.031535793 -0.009830934 -0.04505944 -0.036616404 -0.057345413 -0.05786159
-0.009949632 -0.08978379 -0.09860787 -0.09293399 -0.09996807 -0.06453457 -0.038587857 -0.065963
-0.05242953 -0.07755779 -0.06154097 -0.019269971 -0.17335436 -0.16468588 -0.011758274 -0.0533775
-0.08658303 -0.03818363 -0.04374588 -0.022482501 -0.026576461 -0.031217849 -0.04701798 -0.10091528
-0.039321747 -0.024006762 -0.07211033 -0.042325206 -0.05923957 -0.10497441 -0.042421333 -0.07410104
-0.061495777 -0.043790903 -0.042547755 -0.042151548 -0.12924409 -0.033762537 -0.038522623 -0.047015816
-0.120264344 -0.06310618 -0.03772325 -0.04321528 -0.054243524 -0.03064033 -0.11725629 -0.07943718
-0.08684541 -0.039926775 -0.083769865 -0.06988363 -0.030745912 -0.033905197 -0.065874726 -0.09054817
-0.029819127 -0.068647385 -0.03902873 -0.06621572 -0.036137167 -0.12965599 -0.09524006 -0.031239038
-0.010940149 -0.024025539 -0.062682375 -0.06831233 -0.04237095 -0.06979716 -0.06855733 -0.047040783
-0.03667087 -0.021996882 -0.038721625 -0.061435003 -0.022140518 0.012614565 -0.056608763 -0.09772932
00000000: 2ffc 1bbd 6123 373a e6ed 6fbd b93f 4bbd
00000010: 83ef 3dbd 9601 253c 5934 a6bd 90aa 8bbd
00000020: d713 36bd cbe8 a7bd fd9e e33c 1993 fdbd
00000030: c0e9 73bd 0934 e5bb 0237 53bd b82b fd3b
00000040: b6e8 d3bd e9da 7abd 1999 87bd 30a7 5cbd
00000050: e642 20bd dbcb 9cbd 1696 a3bd 6ded 42bd
00000060: ee61 3bbc c771 33bd 7dda 78bd 7de8 69bd
00000070: d0d5 03be 4f58 22be bc85 bdbc 7819 6ebc
00000080: 2e0b ffbd a04b efbc bc91 19bd f296 86bd
00000090: 1803 c2bd 7b6a 47bd a669 11bd f013 67bd
000000a0: 69ba 52bd 1f13 e9bc ad2b 01bd ed11 21bc
000000b0: 3f90 38bd 15fb 15bd 06e3 6abd 4600 6dbd
000000c0: c803 23bc 90e0 b7bd ecf2 c9bd 2d54 bebd
000000d0: 0fbc ccbd b32a 84bd 4d0e 1ebd 9c17 87bd
000000e0: 59c0 56bd 9ed6 9ebd 6212 7cbd 0fdc 9dbc
000000f0: ce83 31be 6aa3 28be c7a5 40bc 5ea2 5abd
00000100: 7252 b1bd 7066 1cbd e12e 33bd 392d b8bc
00000110: e1b6 d9bc 93bc ffbc ed95 40bd acac cebd
00000120: d70f 21bd d4a9 c4bc 95ae 93bd 325d 2dbd
00000130: 31a5 72bd d3fc d6bd fec1 2dbd 49c2 97bd
00000140: ffe2 7bbd 175e 33bd 8e46 2ebd 1aa7 2cbd
00000150: 9058 04be 964a 0abd e6c9 1dbd a893 40bd
00000160: 274d f6bd d03d 81bd b283 1abd 8102 31bd
00000170: 752e 5ebd 6e01 fbbc 1124 f0bd f6af a2bd
00000180: 02dc b1bd 428a 23bd 898f abbd 261f 8fbd
00000190: dade fbbc 2de0 0abd 54e9 86bd 5271 b9bd
000001a0: 3e47 f4bc 0097 8cbd 97dc 1fbd 1b9c 87bd
000001b0: 9104 14bd 8ac4 04be 380d c3bd 03e9 ffbc
000001c0: 503e 33bc 35d1 c4bc 9e5f 80bd 56e7 8bbd
000001d0: 298d 2dbd d0f1 8ebd c967 8cbd d6ad 40bd
000001e0: 3234 16bd ce32 b4bc 919a 1ebd 45a3 7bbd
000001f0: 0860 b5bc 52ad 4e3c 97de 67bd 4f26 c8bd

1.query_conv.weight f4 [64, 128, 1, 1]
-0.014071922 -0.025891656 0.020260563 0.042209532 0.024204655 0.02245625 0.020941 -0.0038566953
0.016153907 0.012018987 -0.028748646 -0.006193854 0.08217925 0.030615319 0.05300374 0.034318015
0.044810757 -0.005617834 0.017126452 -0.03967601 -0.014752367 -0.0030686976 0.11960858 0.096421205
-0.032345936 -0.0027634192 0.050241888 -0.01727534 0.09139686 0.059568074 -0.041770473 -0.027671786
0.05734685 0.020309767 -0.07276879 0.08028962 0.0032319007 -0.035658583 0.0075666425 -0.0020547863
0.035520013 0.022161875 0.015420019 -0.039775014 -0.046329997 0.02111477 0.00961168 0.033664607
-0.028997622 -0.015322925 0.05532912 0.042982325 -0.060523115 -0.020230792 0.08479459 0.030922234
0.01634438 0.048536863 0.0541205 -0.0008533734 -0.02053566 0.14371718 -0.046673164 0.05385263
0.014159848 0.036806855 -0.009982695 -0.020281713 -0.004681577 0.08445206 -0.062561914 -0.008308574
0.01021437 -0.033762664 -0.019283121 -0.038558032 -0.016674332 -0.042311825 -0.021591205 0.05252142
0.0014832213 -0.045734674 0.0062084636 0.011459176 0.023296837 -0.006591555 -0.064662494 -0.00023655861
0.027916742 -0.049699888 0.024514802 -0.01343526 -0.051213115 0.04506802 -0.0029992093 -0.04928187
-0.009895239 0.0037696268 0.014036888 -0.049087882 0.07578643 0.053710073 0.037260946 0.0181403
0.055128947 -0.03658495 0.069479756 -0.0057102605 -0.023778701 -0.014249017 0.0018366599 -0.059862535
0.060219858 -0.05143472 -0.049690846 -0.05455182 -0.03163449 -0.017305568 -0.040400375 -0.006277074
0.021117756 -0.021703118 0.03483178 0.029787438 0.03760604 0.029187405 0.016438883 -0.03261876
-0.006587074 -0.031570494 0.098351225 -0.028025636 -0.030024333 -0.05338446 0.05539267 0.07804195
0.03575835 0.016141329 -0.044461522 0.07405406 -0.020078002 0.06687324 0.015675267 -0.03463665
0.021304075 0.042002518 -0.0070648664 -0.08007883 0.026012175 -0.104260586 -0.054743163 -0.13808233
0.015151894 0.10239011 0.008456402 -0.027474737 0.045971062 -0.036409166 0.10587148 0.0818447
0.043587852 0.038518425 0.115963764 -0.011024504 -0.0069023925 -0.08167 -0.016091842 -0.033500604
0.024140678 0.083728716 -0.06970264 -0.07722522 -0.03550653 -0.028383523 -0.15047327 -0.0055670794
0.009177196 0.04190102 -0.0094017675 0.076919794 0.029097008 0.00045680633 0.024020828 0.04141014
-0.024617359 0.1366602 0.061023027 0.008184709 -0.16738641 -0.10758031 0.046290014 -0.009920289
0.05394999 -0.026681758 -0.06780483 -0.06640375 -0.10029926 0.0089636315 -0.10065145 0.017921532
-0.04129232 -0.027076034 0.025393102 -0.0005543727 0.074058995 0.09498857 -0.036823664 0.018706532
-0.04521628 -0.07376455 -0.08775841 -0.088804245 0.02568475 0.055133473 0.077533066 0.082018144
-0.008095774 0.102421455 -0.051741257 -0.06574031 0.023658084 -0.078473344 0.100118265 0.06173953
0.007305057 -0.030772088 0.11063683 -0.03613561 -0.030212125 -0.07888156 0.0140600735 -1.2872836e-05
-0.027232112 -0.05172978 -0.0025265487 -0.07863314 -0.058089674 0.005804481 0.03959175 -0.0012405235
-0.06774331 -0.0012729568 0.082459144 0.014476244 -0.03471955 -0.0030176227 0.0029995304 -0.06391763
-0.059824057 0.031963564 -0.019640144 0.033274267 -0.015950365 0.02212431 0.008535284 0.015822144
00000000: eb8d 66bc bd1a d4bc 7bf9 a53c e7e3 2c3d
00000010: d748 c63c 2bf6 b73c 768c ab3c 9cc0 7cbb
00000020: 3355 843c 49eb 443c 4882 ebbc d0f5 cabb
00000030: 984d a83d facc fa3c 731a 593d 0c91 0c3d
00000040: 7c8b 373d cf15 b8bb c64c 8c3c 5083 22bd
00000050: e9b3 71bc 341c 49bb 58f5 f43d 7b78 c53d
00000060: 2c7d 04bd 7b1a 35bb 70ca 4d3d 0485 8dbc
00000070: 472e bb3d a7fd 733d 8417 2bbd f1af e2bc
00000080: 88e4 6a3d ab60 a63c ce07 95bd e26e a43d
00000090: 4cce 533b bc0e 12bd 99f1 f73b 98a9 06bb
000000a0: 6f7d 113d d28c b53c 3fa4 7c3c 20eb 22bd
000000b0: 86c4 3dbd e2f8 ac3c 4f7a 1d3c e6e3 093d
000000c0: 6c8c edbc 010d 7bbc caa0 623d 3c0e 303d
000000d0: 16e7 77bd 0cbb a5bc c9a8 ad3d a050 fd3c
000000e0: a6e4 853c 97ce 463d 75ad 5d3d ebb4 5fba
000000f0: 673a a8bc 992a 133e 5c2c 3fbd 9394 5c3d
00000100: b5fe 673c c9c2 163d 758e 23bc d625 a6bc
00000110: ea67 99bb 34f5 ac3d 7620 80bd af20 08bc
00000120: 2c5a 273c b84a 0abd a3f7 9dbc 07ef 1dbd
00000130: 9c98 88bc 2a4f 2dbd 0ae0 b0bc b320 573d
00000140: a668 c23a 4854 3bbd 5e70 cb3b 45bf 3b3c
00000150: 02d9 be3c f9fd d7bb c56d 84bd b80c 78b9
00000160: a7b1 e43c 1c92 4bbd 44d3 c83c 911f 5cbc
00000170: d8c4 51bd 3e99 383d 628e 44bb c9db 49bd
00000180: a41f 22bc d80b 773b fafa 653c 6010 49bd
00000190: ea35 9b3d 18ff 5b3d ef9e 183d f79a 943c
000001a0: e4ce 613d 1ada 15bd 674b 8e3d 231d bbbb
000001b0: 8dcb c2bc b674 69bc 14bc f03a 6b32 75bd
000001c0: 19a9 763d 37ad 52bd a188 4bbd bb71 5fbd
000001d0: 2b93 01bd 68c4 8dbc dd7a 25bd eaaf cdbb
000001e0: 25ff ac3c bdca b1bc c5ab 0e3d c904 f43c
000001f0: ca08 1a3d 6d1a ef3c d6aa 863c 409b 05bd
00000200: 62d8 d7bb 1050 01bd 5e6c c93d 0596 e5bc
00000210: 97f5 f5bc aaa9 5abd 6de3 623d 75d4 9f3d
00000220: 5977 123d d23a 843c 491d 36bd a8a9 973d
00000230: 9f7a a4bc d6f4 883d 6b69 803c 29df 0dbd
00000240: e285 ae3c d50a 2c3d 6580 e7bb 5f00 a4bd
00000250: 7c17 d53c 9386 d5bd 5e3a 60bd 7465 0dbe
00000260: a63f 783c e8b1 d13d b98c 0a3c b312 e1bc
00000270: 274c 3c3d c721 15bd 26d3 d83d 329e a73d
00000280: 2d89 323d 7fc5 1d3d 697e ed3d 1fa0 34bc
00000290: 772d e2bb 9a42 a7bd 0ad3 83bc ee37 09bd
000002a0: acc2 c53c f679 ab3d 42c0 8ebd 4228 9ebd
000002b0: 4c6f 11bd 9084 e8bc aa15 1abe 0c6c b6bb
000002c0: f35b 163c 67a0 2b3d df09 1abc 2088 9d3d
000002d0: d95c ee3c 827f ef39 54c7 c43c ae9d 293d
000002e0: 58aa c9bc a7f0 0b3e 48f3 793d 2819 063c
000002f0: 5867 2bbe 1153 dcbd 999a 3d3d b588 22bc
00000300: aafa 5c3d b493 dabc 42dd 8abd b0fe 87bd
00000310: b369 cdbd 32dc 123c 5922 cebd 2dd0 923c
00000320: 2322 29bd 8fce ddbc 3205 d03c 5253 11ba
00000330: 3eac 973d 5e89 c23d 69d4 16bd 713e 993c
00000340: b534 39bd de11 97bd aeba b3bd 00df b5bd
00000350: d368 d23c a3d3 613d a8c9 9e3d 21f9 a73d
00000360: 23a4 04bc 57c2 d13d a4ee 53bd dba2 86bd
00000370: 99ce c13c a2b6 a0bd ce0a cd3d 97e2 7c3d
00000380: 425f ef3b bf15 fcbc 9095 e23d ef02 14bd
00000390: 6b7f f7bc a88c a1bd 395c 663c 69f8 57b7
000003a0: e115 dfbc 9be2 53bd 7494 25bb 690a a1bd
000003b0: 70ef 6dbd 8433 be3b f52a 223d 1099 a2ba
000003c0: 01bd 8abd 58d9 a6ba 57e0 a83d c52d 6d3c
000003d0: 1636 0ebd 4fc3 45bb c593 443b 3fe7 82bd
000003e0: 120a 75bd 3aec 023d 5ee4 a0bc 994a 083d
000003f0: 57aa 82bc 0a3e b53c 93d7 0b3c 719d 813c

1.query_conv.bias f4 [64]
-0.0055761 0.007173721 -0.0023349116 -0.0018192285 0.00019664185 0.005648823 -0.008587154 -0.008531103
0.008834215 -0.0034544792 0.0053718733 0.006043367 -0.0033823245 0.005023923 0.0058880434 0.0031934034
-0.0068978313 -0.015580633 -0.0050807754 -0.0032715278 -0.0007718794 -1.4041546e-05 -0.0010156739 0.0046563023
0.0029020328 0.010831058 -0.007544041 -0.017191669 0.014100319 -0.003040572 -0.0070225126 0.0033006805
-0.0032960568 -0.0052403784 0.005463067 0.0015052109 -0.0009763363 0.0021861752 0.007203489 0.0014872137
-0.00426849 0.0016620829 -0.0049104355 -0.0006193387 0.0015811212 0.0048881904 0.0018156419 0.004626934
0.00011224634 0.0052014645 -0.008855119 -0.0074673328 -0.0008649018 -0.0041070757 -0.0049640965 0.0016682994
-0.005228784 0.0014583257 0.0018750179 0.009466642 0.013669338 0.00070273085 0.006497409 0.0022184425
00000000: b8b7 b6bb 8911 eb3b 5105 19bb 2e73 eeba
00000010: a531 4e39 c319 b93b 22b1 0cbc 0ac6 0bbc
00000020: 62bd 103c 8b64 62bb 8a06 b03b 7007 c63b
00000030: fda9 5dbb b89f a43b 7df0 c03b 6b48 513b
00000040: 3407 e2bb e945 7fbc a27c a6bb 2167 56bb
00000050: f357 4aba fb93 6bb7 5c20 85ba e593 983b
00000060: 0830 3e3b c074 313c 0134 f7bb 8bd5 8cbc
00000070: 0605 673c 5544 47bb 1b1d e6bb 3b50 583b
00000080: a802 58bb 7bb7 abbb 8703 b33b 7f4a c53a
00000090: d2f0 7fba ef45 0f3b 3f0b ec3b 9cee c23a
000000a0: b0de 8bbb 3fda d93a b8e7 a0bb 1e5b 22ba
000000b0: a03d cf3a 1d2d a03b d5fa ed3a 899d 973b
000000c0: cc65 eb38 0c71 aa3b 1015 11bc 87b0 f4bb
000000d0: 94ba 62ba a694 86bb dca9 a2bb d7aa da3a
000000e0: 3856 abbb 4a25 bf3a 29c3 f53a f919 1b3c
000000f0: 5cf5 5f3c 7837 383a 38e8 d43b 4a63 113b

1.key_conv.weight f4 [64, 128, 1, 1]
-0.039101794 0.017893923 0.013057316 0.02702067 -0.052835453 0.123891674 -0.04650727 -0.09840187
0.021076802 -0.010965403 0.0674923 -0.019925728 0.017375158 -0.0041296836 0.0033067393 -0.07644292
0.007754929 0.018813794 -0.018707838 0.062101945 0.027796632 -0.03131224 0.008079318 0.030720942
0.0075564655 -0.081128545 0.00015388182 -0.026411923 -0.049035035 -0.011447795 -0.018819788 -0.064178616
-0.042516273 -0.007416811 0.037406694 -0.04554859 0.020902622 0.022910094 -0.0005951169 -0.05414774
-0.028628951 -0.060842145 0.024521975 0.012162377 -0.042656388 -0.033491302 0.010521552 -0.0075360215
-0.03266472 0.040112145 0.0034885134 -0.011484756 -0.011691271 0.045861818 -0.01791618 -0.018362818
0.0014853398 -0.003270929 -0.017056333 0.10124447 0.0069450196 -0.015981145 0.05278115 0.025317952
-0.0014131785 0.09416823 0.00610639 0.026851574 0.008707801 -0.021559784 -8.1024926e-05 -0.03682185
0.022052683 -0.04452986 0.011205609 -0.014598174 -0.09913335 -0.025492497 -0.0014828931 0.006182689
-0.03157994 -0.00072384597 -0.012719908 0.009386902 -0.0045863553 0.022999981 0.035350822 -0.06534959
0.023525009 0.06104655 -0.057203002 0.038839214 0.018749556 0.029556774 0.018601198 0.0634561
0.05196122 0.07512059 -0.0003111726 0.078161165 -0.050165046 -0.006236468 -0.009214816 0.027927922
-0.06267861 0.07794878 -0.05466089 0.09007261 0.03227521 0.073434524 0.017139101 0.030944958
0.018827727 0.029716501 -0.032041203 -0.02008421 0.025074178 -0.01052095 -0.046797127 0.0097255455
-0.014068148 -0.023280509 -0.02131607 0.03743754 -0.006642181 -0.07479248 -0.008194146 -0.01697012
0.121087015 0.06252939 0.036364518 0.015499563 0.014042032 0.042817894 -0.0046850783 0.05116032
0.013407428 -0.06668134 0.035757642 -0.012414427 -0.0398816 0.03938517 -0.021110788 0.0023105426
-0.015916523 -0.012265591 -0.01925404 -0.049121603 0.13801442 -0.013501281 0.018283274 -0.11389981
0.09586533 0.038810212 -0.016837656 -0.019407857 0.020085217 -0.049819 0.16467476 0.09629833
0.016462386 0.07984805 0.14170222 0.035744384 -0.03703574 -0.037934653 0.18090773 0.048178736
-0.03760268 0.014451103 -0.07312496 -0.045851853 -0.016437374 0.07038883 -0.015215103 0.0027447487
0.09510533 -0.019227888 0.023697907 0.009014078 -0.013586711 0.10909476 0.026947943 0.03096206
0.012321387 -0.07168454 -0.0049132793 0.06675219 -0.050277237 -0.011655182 0.1461215 -0.0030110094
-0.13524507 -0.054688007 0.0010030336 0.0646009 0.046269674 -0.04726903 -0.008718909 -0.019154003
0.00026661844 0.10716114 -0.0317185 0.17843279 0.051407672 0.00068562035 0.04177566 0.031058768
0.0111590065 -0.0005574849 0.054202363 -0.040446244 -0.118250735 0.028982142 -0.06282726 -0.008593537
-0.041654218 -0.07421669 0.06771795 0.077320315 -0.022473043 0.060786035 -0.080124386 -0.014884696
-0.017569313 -0.07810567 -0.06997353 -0.0071031605 0.0633679 0.038559977 -0.10598689 -0.041539095
0.10318683 -0.0048197666 -0.027416589 -0.017976534 0.020175055 -0.07611777 -0.06394305 0.021973
-0.12767257 0.11280716 0.0027251102 0.04258582 0.10418554 -0.06943365 -0.014953047 0.030726813
0.020985696 0.06747548 0.086332805 -0.0698519 0.0822994 -0.0031200473 -0.047332272 -0.073313184
00000000: 3429 20bd 4796 923c 5aee 553c 745a dd3c
00000010: fd69 58bd ebba fd3d 687e 3ebd eb86 c9bd
00000020: 42a9 ac3c 3ca8 33bc 6739 8a3d 483b a3bc
00000030: 5956 8e3c 4c52 87bb e1b5 583b 1b8e 9cbd
00000040: 0f1d fe3b 631f 9a3c 2e41 99bc 9c5e 7e3d
00000050: c3b5 e33c 4341 00bd 1e5f 043c 7caa fb3c
00000060: 3a9c f73b b926 a6bd 565b 2139 d15d d8bc
00000070: f6d8 48bd 888f 3bbc f52b 9abc 1470 83bd
00000080: 8b25 2ebd b808 f3bb c337 193d 2991 3abd
00000090: fa3b ab3c f3ad bb3c 9e01 1cba 05ca 5dbd
000000a0: 4387 eabc 9d35 79bd 4fe2 c83c b544 473c
000000b0: 77b8 2ebd 2d2e 09bd 9662 2c3c bbf0 f6bb
000000c0: 71cb 05bd a24c 243d 8b9f 643b 8f2a 3cbc
000000d0: bf8c 3fbc 9ad9 3b3d f4c4 92bc 9f6d 96bc
000000e0: bcaf c23a 155d 56bb b9b9 8bbc 4359 cf3d
000000f0: 0c93 e33b e4ea 82bc 0c31 583d 9867 cf3c
00000100: 673a b9ba 46db c03d 1d18 c83b d5f7 db3c
00000110: 2aab 0e3c 259e b0bc edeb a9b8 82d2 16bd
00000120: d4a7 b43c f164 36bd bb97 373c 2e2d 6fbc
00000130: 6d06 cbbd a4d5 d0bc a35d c2ba 2898 ca3b
00000140: f859 01bd 7bc0 3dba 2967 50bc 85cb 193c
00000150: 2349 96bb 756a bc3c 06cc 103d 01d6 85bd
00000160: 85b7 c03c f20b 7a3d b24d 6abd de15 1f3d
00000170: ab98 993c 0c21 f23c 8a61 983c 46f5 813d
00000180: 4ad5 543d d3d8 993d e124 a3b9 f612 a03d
00000190: dd79 4dbd 495b ccbb bdf9 16bc 19c9 e43c
000001a0: a55d 80bd 9ca3 9f3d 19e4 5fbd fd77 b83d
000001b0: 0333 043d d764 963d 4d67 8c3c 4880 fd3c
000001c0: 9b3c 9a3c 0570 f33c a33d 03bd a487 a4bc
000001d0: 5d68 cd3c 1060 2cbc 58ae 3fbd e557 1f3c
000001e0: 177e 66bc c4b6 bebc 0a9f aebc 1b58 193d
000001f0: a7a6 d9bb cd2c 99bd bd40 06bc ec04 8bbc
00000200: 78fc f73d 690f 803d f6f2 143d e1f1 7d3c
00000210: 8d10 663c d161 2f3d 4985 99bb 7c8d 513d
00000220: d4aa 5b3c 3a90 88bd 9b76 123d e165 4bbc
00000230: e35a 23bd 5852 213d 88f0 acbc 796c 173b
00000240: 5e63 82bc 9ef5 48bc a6ba 9dbc bc33 49bd
00000250: a753 0d3e 7a34 5dbc cec6 953c 4e44 e9bd
00000260: 0b55 c43d 75f7 1e3d 20ef 89bc 3afd 9ebc
00000270: c189 a43c 020f 4cbd 80a0 283e 0f38 c53d
00000280: 20dc 863c 6087 a33d 631a 113e b468 123d
00000290: cab2 17bd 5e61 1bbd e03f 393e 1157 453d
000002a0: 4505 1abd 52c4 6c3c 8ac2 95bd 27cf 3bbd
000002b0: aca7 86bc 0528 903d c448 79bc 3ee1 333b
000002c0: 95c6 c23d ce83 9dbc 1d22 c23c c9af 133c
000002d0: cc9a 5ebc 136d df3d efc1 dc3c 25a4 fd3c
000002e0: a5df 493c 58cf 92bd 93ff a0bb 5fb5 883d
000002f0: 81ef 4dbd 60f5 3ebc e0a0 153e 5b54 45bb
00000300: af7d 0abe 8800 60bd 3978 833a 7a4d 843d
00000310: 4585 3d3d 2c9d 41bd c1d9 0ebc dbe8 9cbc
00000320: ecc8 8b39 4d77 db3d 42eb 01bd 16b7 363e
00000330: da90 523d 34bb 333a f41c 2b3d f56e fe3c
00000340: 44d4 363c 2e24 12ba 4c03 5e3d f6aa 25bd
00000350: 712d f2bd f56b ed3c 94ab 80bd e8cb 0cbc
00000360: 9d9d 2abd ecfe 97bd b5af 8a3d 1d5a 9e3d
00000370: 6319 b8bc c7fa 783d 4118 a4bd f1de 73bc
00000380: 85ed 8fbc def5 9fbd 484e 8fbd a1c1 e8bb
00000390: 08c7 813d 11f1 1d3d a80f d9bd e624 2abd
000003a0: 9e53 d33d 22ef 9dbb c198 e0bc 8643 93bc
000003b0: 2846 a53c a2e3 9bbd 93f4 82bd b900 b43c
000003c0: 99bc 02be 7107 e73d c397 323b 786e 2e3d
000003d0: 3a5f d53d 3b33 8ebd a0fd 74bc ccb6 fb3c
000003e0: 32ea ab3c 9630 8a3d 41cf b03d 830e 8fbd
000003f0: 968c a83d b579 4cbb 7cdf 41bd 3925 96bd

1.key_conv.bias f4 [64]
-0.034680728 -0.00088253705 -0.015056628 -0.002479737 -0.037960723 0.06017473 -0.10743151 -0.06568102
0.09967262 -0.05638692 0.075612776 0.070179544 -0.09975629 0.074588835 0.09850093 0.03866996
-0.07034579 -0.0929237 -0.077378966 -0.024901252 -0.0037531694 0.06611131 0.0049032685 -0.047845807
0.07141555 0.080171086 -0.089853026 -0.09591938 0.09178288 0.03255566 -0.054539785 0.072032586
0.03953332 -0.08316232 0.039544072 0.031154707 -0.039272215 0.0038494822 0.028191913 -0.0047078393
-0.08669942 0.011196832 0.0133937495 -0.036981035 -0.026083916 0.00746085 0.024379957 0.06852398
0.08823045 0.11001133 -0.095158994 -0.06849796 -0.031136347 0.016168324 -0.07837736 -0.029988138
-0.041323066 0.04142592 0.07328479 0.08917412 0.09089436 0.012605858 0.0364232 -0.010686083
00000000: 610d 0ebd 0f5a 67ba 13b0 76bc 1583 22bb
00000010: b47c 1bbd c779 763d 0d05 dcbd c583 86bd
00000020: 2921 cc3d f9f5 66bd dfda 9a3d 4bba 8f3d
00000030: 074d ccbd 08c2 983d dbba c93d 6464 1e3d
00000040: 7411 90bd c84e bebd dd78 9ebd b6fd cbbc
00000050: bcf7 75bb 5e65 873d 99ab a03b f7f9 43bd
00000060: 5142 923d bd30 a43d dd04 b8bd 6171 c4bd
00000070: aaf8 bb3d 1559 053d 1c65 5fbd d285 933d
00000080: b1ed 213d 0251 aabd f7f8 213d 2838 ff3c
00000090: e7db 20bd 9847 7c3b baf2 e63c 3844 9abb
000000a0: 778f b1bd eb72 373c 7571 5b3c 6d79 17bd
000000b0: f0ad d5bc 257a f43b 7ab8 c73c 4d56 8c3d
000000c0: 2bb2 b43d 9f4d e13d b8e2 c2bd a948 8cbd
000000d0: a711 ffbc 6f73 843c 4f84 a0bd afa9 f5bc
000000e0: 6042 29bd 3aae 293d 5616 963d eca0 b63d
000000f0: d226 ba3d cd88 4e3c 7e30 153d ae14 2fbc
