checkpoints/SelfAttentionRelationNet/distance_net_on_Omniglot_100.pth (torch, 202271 bytes, 3 tensors)

0.weight f4 [8, 6272]
00000000: af85 1bbd 8351 a6bd 49c8 b3bd 4708 9fbd
00000010: 066f a1bd 4248 c5bd 99a6 57bc 6857 bbbb
00000020: f0a8 b8bd cc2a 8ebc e2d6 42bd 1730 e0bc
00000030: 2ebd 99bd 7b39 25bd f462 18bd e5ab debd
00000040: 7f0a b5bc a0a8 593d 2fa7 d93c e5dc 673b
00000050: e6d6 1dbc a6de c7bd d123 a2bc 7900 fb3c
00000060: 1850 f93c 1204 ff3c 72b0 a53c b9c9 46bd
00000070: 91de c9bd 7378 73bd d924 473d d042 903d
00000080: f5ec 5a3c 5de0 6a3c febf 44bd 6873 2dbd
00000090: a8b0 45bd 529a ec3c 198f 34bc 10c2 953c
000000a0: f829 7f3d e209 f7bc ba12 54bd d20e 92bd
000000b0: fda0 f4bc 0c16 b7bc 4e9c ea3c 4f24 753b
000000c0: 7b5c 9abd a1c1 08bd 8b0b 3bbd d078 14bd
000000d0: 87e1 7d3b eb23 153d 5b83 43bd f46c d1bd
000000e0: c82b d0bc afe8 9ebd 8bb6 42bd d826 243d
000000f0: c9a8 f53c 468d 883c 7a08 37bd 9920 23bd
00000100: 64f9 a6bd 3230 98bd 5c39 33bd e393 d6bd
00000110: d321 aebc 5027 0c3b c71b 623b 29e9 88bd
00000120: 3e5e 1dbd 7c4d a3bd 888c cbbd b283 9dbd
00000130: d4f7 08bd fd1b 883d c1c0 22bc 17db 50bd
00000140: 90f9 d3bc 4f40 aebd 0ec9 03bd 5264 503c
00000150: 345c 913d ab82 7f3c 1e25 4fbd b79b d3bd
00000160: b9c0 8cbd edd5 1cbc 824d 233c 9f0b 91bd
00000170: 55a1 763d a116 a53d 577a 71b9 a74d 0cbe
00000180: 272f 57bd ad1c 34bd cdb9 e1bb 5dba 35bd
00000190: 779d 9cbd 1f5c 82bc ca82 c23c aa98 1b3d
000001a0: e7f9 8e3d ef0b 4fbd 8bd3 99bc 33d8 dfbd
000001b0: be0c a8bd 39dc d2bd 48ea 02bd 2e2e d2bc
000001c0: 9763 a9bb 5600 2a3c a9c4 09bd 37b0 08bd
000001d0: 9307 1fbd b817 70bd 33d3 96bb 50ab fe3a
000001e0: 23d8 12bd 4699 07bd 87d2 f7bc fe87 f9bc
000001f0: ddc3 ddbc aaaf 563c 248f 49bd 45ca 0fbd
00000200: 1c13 023a 6311 22bd 24ee 22bc f950 8dbc
00000210: a2c5 a0bc a2a3 043d b605 57bd b2da 00bd
00000220: 5ba6 3bbd dd7a 87bd 68e2 9fbc b537 3cbd
00000230: 80f3 24bd bf15 8ebb 35b5 643c 757b 44bd
00000240: 1a36 aebc f015 4bbc cfa2 9a3c 79ae 74bd
00000250: 209c 27bd 54e2 c4bd 9939 6dbd b481 2fbd
00000260: 8d1d 2bbd 31a7 0c3d 3a4a 0abd 4449 29bd
00000270: f80f 00be 3e5f 77bd 7566 0bbd 9314 afbc
00000280: 6523 433b f4d0 793d 4de8 75bc bfa7 89bd
00000290: c1f9 89bc 3c28 c4bc cccc 7f3c 6f4e d0bc
000002a0: 2f12 4dbd 1fa6 05bd ca50 50bd d2fb 5abd
000002b0: 8509 a6bd 35b9 36bc 4a87 163c 8aa3 73bd
000002c0: 75f3 14bd ef11 d3bc 3961 fdbb 0875 a6bd
000002d0: c808 56bd d817 53bd 6824 2bbd 1e01 e1bc
000002e0: bc68 65bd afc8 4cbd 55df 72bd dcec e1bc
000002f0: b251 5ebd f428 e9bc 45f1 22bd 5b19 1cbb
00000300: 5532 1dbc e5c4 ebbc 750f bc3b a9a5 c6bb
00000310: 75dc b0bc 9469 20bd feff 84bd 3b6d 54bc
00000320: e6bd 663b 5258 763c c103 713d 13ec d63b
00000330: e974 77bd 61df 8dbd ba44 9bbd 81d2 94bd
00000340: 54b7 49bd f9a1 89bc 5221 e8bb b19a 49bd
00000350: 6662 c8bc 204c e0bb 4f23 58bd f2c1 78bc
00000360: 90a7 a0bc 034e f2bb cc61 3abd 2b9a 8dbd
00000370: 8c7a 8fbc 24c7 41bd 3b65 14bb b9d3 5ebc
00000380: 4ed9 35bd a009 60bd f563 2b3c 17ee debc
00000390: 33f4 83bd 378f 6ebd 0fc5 5bbb 1643 f0bb
000003a0: dfe8 07bd a266 92ba 2482 bfbd 89e8 bbbd
000003b0: d3de 6ebd 668e 33bd 3297 e3bc 40f2 db3c
000003c0: f9fd 143d d3d5 2abc 7572 603d 2d97 403d
000003d0: 786b 513d 005f 17bd d79b 62bd cada 92bd
000003e0: 4ba7 91bc 050e 5dbc 41ff 6ebd 238a ccbd
000003f0: 087d 22bc 3038 b6bc e372 05bd b4f5 023c
-0.037969287 -0.08121016 -0.08778436 -0.07765251 -0.07882504 -0.09632923 -0.013162279 -0.0057172067
-0.09016597 -0.017354392 -0.04756821 -0.027366681 -0.07506786 -0.04033802 -0.037203744 -0.1087263
-0.022099731 0.05313933 0.026568977 0.0035379466 -0.009633755 -0.09759264 -0.01979247 0.030639874
0.0304337 0.03112987 0.020225737 -0.04853222 -0.09856904 -0.05944104 0.048619125 0.070439935
0.013362159 0.014335719 -0.04803466 -0.042346388 -0.048264176 0.02888218 -0.011020445 0.018281013
0.062295884 -0.03015608 -0.05177567 -0.07131733 -0.029861921 -0.02234938 0.028638985 0.0037405675
-0.075371705 -0.033387784 -0.045665305 -0.03624803 0.003873916 0.036411207 -0.047732692 -0.10225859
-0.025411502 -0.077592246 -0.047537368 0.040076107 0.02998771 0.016668927 -0.04468582 -0.03982601
-0.08153036 -0.074310675 -0.043755874 -0.10477426 -0.021256363 0.0021385737 0.003450142 -0.06685097
-0.038419954 -0.07973763 -0.099389136 -0.076911345 -0.033439472 0.06645963 -0.009933651 -0.05099019
-0.025875837 -0.0850836 -0.032174163 0.012719231 0.070976645 0.0155951185 -0.050572507 -0.103324346
-0.068726964 -0.009572488 0.00996721 -0.07082295 0.060212452 0.08060957 -0.00023029126 -0.13701497
-0.052535202 -0.04397266 -0.0068886043 -0.044367183 -0.076472215 -0.015913067 0.023744006 0.03798739
0.06981259 -0.05054849 -0.01877763 -0.109299086 -0.082055554 -0.102959104 -0.03196171 -0.025656786
-0.0051693427 0.010376057 -0.033634815 -0.033371177 -0.038825583 -0.05861637 -0.0046028136 0.0019429717
-0.035850655 -0.033105157 -0.030251754 -0.030460354 -0.027070934 0.013103405 -0.049208775 -0.03510501
0.0004961954 -0.039567363 -0.009944472 -0.017250525 -0.019625489 0.032382615 -0.05249568 -0.031458564
-0.045812946 -0.06615231 -0.019517139 -0.045951564 -0.040271282 -0.0043360884 0.013959219 -0.0479693
-0.021266032 -0.012395367 0.018876461 -0.059736703 -0.040920377 -0.09613481 -0.057916258 -0.042848304
-0.04177623 0.034339134 -0.033762194 -0.041329637 -0.12506092 -0.060393564 -0.034033258 -0.021372115
0.0029775735 0.06099029 -0.015008998 -0.06721448 -0.016842725 -0.023944966 0.015612792 -0.025428025
-0.05006617 -0.03262913 -0.050858296 -0.05346281 -0.081072845 -0.011152555 0.009187529 -0.059482135
-0.03636499 -0.025765387 -0.007732537 -0.08127791 -0.05225447 -0.05153641 -0.041782767 -0.027466353
-0.056008086 -0.049996074 -0.059295017 -0.027578764 -0.05427713 -0.02846191 -0.039780874 -0.0023818824
-0.00959452 -0.02878041 0.0057391473 -0.0060622287 -0.021589497 -0.039163187 -0.06494139 -0.012965496
0.0035208403 0.015035706 0.05884147 0.006558904 -0.06041423 -0.06927372 -0.07581468 -0.07266713
-0.0492471 -0.016800867 -0.00708405 -0.04921979 -0.024460983 -0.0068450123 -0.052768048 -0.015182959
-0.01961115 -0.0073945536 -0.045503423 -0.06914171 -0.01751449 -0.047309056 -0.0022643346 -0.013600283
-0.04439669 -0.05469668 0.010460843 -0.02721314 -0.06443062 -0.05824205 -0.0033534204 -0.007332216
-0.033181068 -0.0011169503 -0.09350994 -0.09175212 -0.05831797 -0.043836974 -0.027782056 0.026848912
0.03637502 -0.010426956 0.054796655 0.047019172 0.05112788 -0.036955833 -0.0553244 -0.07170637
-0.017779967 -0.013492112 -0.058348898 -0.09987285 -0.009917505 -0.02224359 -0.032580268 0.0079931505

0.bias f4 [8]
00000000: 9777 e23c 639b 4bbd 7228 163d f22d 4cbc
00000010: 71fe b5bc d166 05bc 2880 523c fed2 033c
0.027644916 -0.049708735 0.036659665 -0.012462126 -0.022216054 -0.008142189 0.012847938 0.00804591

2.weight f4 [1, 8]
00000000: 889f 513d 2884 babc 4f9b 143d 2796 1abd
00000010: 25a5 06bd b724 13bd 4bb5 ea3c bd3d 143c
0.05117753 -0.022768095 0.036280926 -0.037740853 -0.032872338 -0.035923686 0.0286509 0.009047923
