checkpoints/SelfAttentionRelationNet/embedding_net_on_Omniglot_100.pth (torch, 458001 bytes, 24 tensors)

embedding.0.0.weight f4 [64, 1, 3, 3]
0.07319958 -0.0010757936 -0.049561806 -0.08795991 -0.004842648 -0.043620624 0.07525401 -0.04574622
-0.04734074 -0.016863395 -0.07561311 -0.055381414 -0.090745784 -0.1171214 -0.050828036 -0.017917736
-0.069889545 -0.012318536 -0.022257065 -0.070805416 -0.07600497 0.021310618 0.07663465 0.0902987
0.014506181 -0.033723675 -0.0069400994 0.059664384 0.048394732 -0.11730071 -0.015292015 -0.010988361
-0.022616269 0.04331425 0.020129304 -0.08924421 0.06966632 0.029781796 0.039650276 -0.12577161
-0.073859595 -0.061462604 0.054687064 0.028062476 0.047787506 0.025486173 -0.06499254 -0.015177849
0.07107037 -0.0030712 -0.07193292 0.03501948 -0.0925471 0.03418598 -0.024382018 -0.039506078
-0.07732671 -0.034939114 -0.020691196 0.02190298 -0.06947765 0.03964105 0.065803654 0.002625268
-0.09017179 -0.053915307 -0.09886428 -0.05037198 -0.025139606 -0.023187269 -0.09227877 -0.0007143316
-0.061938606 -0.05293587 0.06314882 -0.023841944 0.06643952 0.034047294 0.041483853 0.02857642
-0.038359784 -0.00018775379 -0.081483565 -0.01001023 -0.09317136 -0.07490577 -0.02450309 -0.0055301143
-0.03981241 0.008237168 0.06956925 -0.059218977 -0.0031934753 0.040851366 -0.084394045 0.029925961
0.014451292 -0.08241131 0.07911742 -0.03877201 -0.017934013 -0.09064466 -0.07990986 -0.018721571
-0.034422036 0.047745 0.0139257675 0.085212655 0.043024737 0.01790118 -0.03886543 -0.085066505
-0.037114 -0.046525482 0.014757043 0.077878885 -0.047138955 -0.045129266 0.02574205 0.004088415
-0.071173824 0.031334203 -0.014540658 -0.12803051 -0.0069949008 0.069529325 -0.017738732 -0.0466287
0.0041967127 -0.09799127 -0.042312305 -0.06152933 -0.04037912 -0.055477683 -0.04462512 0.006433984
0.021627573 -0.045597382 0.045791723 0.03943642 -0.097693786 0.04064322 0.046217445 -0.08022015
0.038495667 0.07634667 0.033033993 -0.10304151 0.020286197 -0.06501472 -0.01724884 -0.06791368
-0.034398217 -0.049963456 -0.08008851 -0.03925523 0.004767555 0.0047267852 -0.07079584 0.08506562
0.07894766 -0.11121133 0.04971429 0.061835818 0.11284177 -0.035305563 -0.00143981 -0.04952349
-0.0077501405 -0.062310703 -0.065758474 0.059449464 -0.068298385 0.013605776 0.005403759 -0.042252354
0.016736904 -0.032872602 -0.028790602 -0.022542328 0.056156702 0.015538372 -0.056364566 0.08015829
0.06440157 0.11668284 0.030743115 0.0087661715 0.03588778 0.048495904 0.016877381 -0.060939953
0.026259573 0.04348189 -0.069358416 0.06564007 -0.002885491 -0.08363722 -0.047310654 -0.06328542
-0.11512614 -0.0102116 0.04295458 -0.01619597 0.068544745 0.012991297 0.09033111 -0.08099826
-0.010961967 -0.043327726 -0.048960485 0.032884058 -0.005269038 -0.06981822 0.07390701 0.004302608
-0.01748988 0.07458598 -0.04203086 -0.07711987 0.073013306 0.009303519 -0.07381372 0.024441862
0.037513494 -0.06354952 -0.016201235 0.08227989 -0.07996361 0.034668364 0.03350505 -0.06063483
-0.076244116 0.019844554 -0.056540262 -0.081120014 -0.07949797 -0.024127653 0.005676128 0.05361261
0.06430632 0.08459339 0.028625736 -0.066172525 -0.09184663 -0.037099026 0.088741966 0.013146728
-0.033012502 0.02062408 0.027027229 0.008295928 0.053713337 0.069897644 0.084418125 0.043014463
00000000: a9e9 953d a501 8dba 5201 4bbd 5324 b4bd
00000010: 13af 9ebb 8aab 32bd c61e 9a3d 6360 3bbd
00000020: 5de8 41bd 1a25 8abc 0cdb 9abd 9fd7 62bd
00000030: edd8 b9bd 58dd efbd 0f31 50bd 37c8 92bc
00000040: 4022 8fbd afd3 49bc 7354 b6bc 6e02 91bd
00000050: 7ea8 9bbd 9b93 ae3c a1f2 9c3d 86ee b83d
00000060: 55ab 6d3c d621 0abd c669 e3bb a462 743d
00000070: 8e39 463d 5b3b f0bd 5c8b 7abc 8708 34bc
00000080: c145 b9bc 486a 313d 36e6 a43c abc5 b6bd
00000090: 37ad 8e3d f4f8 f33c 5468 223d 46ca 00be
000000a0: b343 97bd 36c0 7bbd 8bff 5f3d 47e3 e53c
000000b0: d5bc 433d 61c8 d03c cf1a 85bd 83ac 78bc
000000c0: 588d 913d 3046 49bb 9151 93bd 9670 0f3d
000000d0: 5589 bdbd 9906 0c3d ccbc c7bc 20d1 21bd
000000e0: 775d 9ebd 511c 0fbd 9580 a9bc e16d b33c
000000f0: 4c4a 8ebd a75e 223d 11c4 863d b00c 2c3b
00000100: fdab b8bd 4cd6 5cbd 5b79 cabd d952 4ebd
00000110: 93f1 cdbc 3af3 bdbc a7fc bcbd fb41 3bba
00000120: 56b3 7dbd 48d3 58bd 2b54 813d 2e50 c3bc
00000130: 7111 883d 2d75 0b3d f9ea 293d 1919 ea3c
00000140: 261f 1dbd c6df 44b9 dbe0 a6bd f301 24bc
00000150: a0d0 bebd 3268 99bd b4ba c8bc f635 b5bb
00000160: 5612 23bd 30f5 063c 537a 8e3d 998f 72bd
00000170: a049 51bb c353 273d c9d6 acbd 4a27 f53c
00000180: 1dc5 6c3c 43c7 a8bd 5008 a23d 66cf 1ebd
00000190: 5aea 92bc e8a3 b9bd c8a7 a3bd fb5d 99bc
000001a0: 1ffe 0cbd 4390 433d e728 643c f983 ae3d
000001b0: b53a 303d 7fa5 923c 5b31 1fbd 5937 aebd
000001c0: da04 18bd 8191 3ebd 86c7 713c f77e 9f3d
000001d0: c714 41bd 77d9 38bd fee0 d23c 1cf8 853b
000001e0: 95c3 91bd 4b58 003d f13b 6ebc 6e1a 03be
000001f0: 7b35 e5bb 6465 8e3d d150 91bc bcfd 3ebd
00000200: 9484 893b a6af c8bd ab4f 2dbd 2e06 7cbd
00000210: 9364 25bd 913c 63bd d4c8 36bd 2bd4 d23b
00000220: 4f2c b13c 52c4 3abd 1a90 3b3d 1588 213d
00000230: ae13 c8bd 8179 263d 814e 3d3d 764a a4bd
00000240: a2ad 1d3d a55b 9c3d a74e 073d 6d07 d3bd
00000250: 3d2f a63c 7026 85bd 704d 8dbc 5416 8bbd
00000260: 25e5 0cbd 7ba6 4cbd 7205 a4bd 18ca 20bd
00000270: 2639 9c3b 26e3 9a3b 69fd 90bd e236 ae3d
00000280: 50af a13d c4c2 e3bd 36a1 4b3d 8e47 7d3d
00000290: 9619 e73d 919c 10bd 02b8 bcba 25d9 4abd
000002a0: e4f4 fdbb 8239 7fbd 61ac 86bd 4881 733d
000002b0: 06e0 8bbd c3ea 5e3c 0412 b13b ce10 2dbd
000002c0: d51b 893c 6ca5 06bd 45da ebbc b0aa b8bc
000002d0: 9204 663d a894 7e3c 88de 66bd 082a a43d
000002e0: f8e4 833d 6af7 ee3d fcd8 fb3c fd9f 0f3c
000002f0: 11ff 123d a4a3 463d 6f42 8a3c 2c9c 79bd
00000300: 511e d73c 111a 323d c90b 8ebd 4d6e 863d
00000310: 811a 3dbb fe49 abbd d1c8 41bd c99b 81bd
00000320: 41c7 ebbd 8e4e 27bc 24f1 2f3d 69ad 84bc
00000330: 3061 8c3d 73d9 543c 84ff b83d 6ae2 a5bd
00000340: d299 33bc 6a78 31bd ca8a 48bd 6fb1 063d
00000350: e5a7 acbb dbfc 8ebd 8f5c 973d e4fc 8c3b
00000360: f046 8fbc 89c0 983d 8d28 2cbd 06f1 9dbd
00000370: 0088 953d c96d 183c a62b 97bd 4d3a c83c
00000380: c0a7 193d 4026 82bd 74b8 84bc 5c82 a83d
00000390: f6c3 a3bd 6a00 0e3d 973c 093d 3a5c 78bd
000003a0: e025 9cbd 0c91 a23c c396 67bd 4022 a6bd
000003b0: d5cf a2bd 5ba7 c5bc d0fe b93b e598 5b3d
000003c0: 08b3 833d 4d3f ad3d 8580 ea3c 7685 87bd
000003d0: 161a bcbd 26f5 17bd 59be b53d 6065 573c
000003e0: 1e38 07bd d5f3 a83c 3568 dd3c a5eb 073c
000003f0: 8402 5c3d 7f26 8f3d 69e3 ac3d ef2f 303d

embedding.0.0.bias f4 [64]
0.046922877 -0.03437863 -0.0029059623 -0.058901202 0.07805906 0.04696482 0.0032609226 -0.0033282423
-0.0074193752 0.039401617 -0.026689667 -0.09441848 0.011344387 0.0009093398 0.027967269 -0.0018212132
0.016099209 -0.018267818 0.053050667 0.029851468 -0.031475678 -0.0010081383 0.001686823 -0.076354384
0.044666402 -0.003033493 -0.009750594 -0.00089890836 0.006966344 -0.0073111355 0.06024525 0.035185277
0.036295768 -0.034671936 -0.015483504 0.038299028 0.063879214 -0.029423181 0.00049751217 -0.018901773
0.0036725176 -0.07061812 -0.0022273317 -0.004753386 -0.04659224 0.011512823 -0.052001417 -0.023331108
-0.031023862 -0.067387044 -0.040685296 0.046721283 0.046229012 -0.023254294 0.013669239 -0.011820565
-0.009968524 0.059613507 -0.01768909 -0.12200226 -0.011768506 0.0030122523 -0.013636841 -0.0029799773
00000000: 3432 403d 9bd0 0cbd f571 3ebb 6342 71bd
00000010: 6edd 9f3d 2f5e 403d 34b5 553b a41e 5abb
00000020: 3b1e f3bb 9763 213d 4aa4 dabc 7a5e c1bd
00000030: cfdd 393c c360 6e3a 9d1b e53c c6b5 eeba
00000040: 7de2 833c 64a6 95bc a84b 593d 118b f43c
00000050: a4ec 00bd 8223 84ba 6318 dd3a b05f 9cbd
00000060: 1ef4 363d 91cd 46bb f5c0 1fbc b8a4 6bba
00000070: ee45 e43b 4092 efbb b9c3 763d 701e 103d
00000080: dfaa 143d 2904 0ebd 86ae 7dbc 71df 1c3d
00000090: 1bd3 823d e208 f1bc 7a6b 023a e4d7 9abc
000000a0: 9fae 703b 3ca0 90bd 6df8 11bb 4bc2 9bbb
000000b0: 81d7 3ebd 48a0 3c3c 70ff 54bd e120 bfbc
000000c0: c125 febc 3802 8abd a0a5 26bd d15e 3f3d
000000d0: a25a 3d3d ca7f bebc f2f4 5f3c 0bab 41bc
000000e0: 0553 23bc 4b2d 743d b6e8 90bc 52dc f9bd
000000f0: b1d0 40bc 3569 453b 0f6d 5fbc b94b 43bb

embedding.0.1.weight f4 [64]
1.0483795 0.96372515 0.9733631 1.0056245 1.0938407 0.96646047 1.0782262 0.9783778
0.88761157 0.889721 1.1123523 1.0047227 1.0784425 0.95214367 0.95259327 0.98638433
0.99659085 1.0661213 1.0091889 0.9687032 0.92943126 1.0216491 0.9458399 1.018801
0.9573934 0.9883311 1.0227582 0.9914199 0.83506596 1.0138425 0.9872275 1.1612844
0.94797087 0.9241725 0.951078 0.97077394 0.8281921 1.0562236 1.021326 1.0575333
1.1550162 1.0708058 0.96056056 0.9466952 0.9083535 1.0670657 1.1225134 0.99262774
1.0549413 1.0900799 0.9847053 1.0273685 0.9485988 0.9815014 1.0141928 1.0161257
0.9708842 0.9990743 0.97286403 1.0749892 0.93599653 1.0822651 1.0707722 0.97050166
00000000: 4d31 863f b1b6 763f 532e 793f 4eb8 803f
00000010: f902 8c3f f469 773f 5103 8a3f f876 7a3f
00000020: 833a 633f c1c4 633f 8f61 8e3f c19a 803f
00000030: 670a 8a3f b0bf 733f 27dd 733f af83 7c3f
00000040: 9420 7f3f aa76 883f 1a2d 813f effc 773f
00000050: 35ef 6d3f 66c5 823f 9022 723f 1268 823f
00000060: bc17 753f 4403 7d3f bee9 823f b2cd 7d3f
00000070: e2c6 553f 97c5 813f f1ba 7c3f f8a4 943f
00000080: 38ae 723f 9296 6c3f d979 733f a484 783f
00000090: 6604 543f 5632 873f cfba 823f 405d 873f
000000a0: 92d7 933f 2a10 893f 4ce7 753f 9e5a 723f
000000b0: db89 683f 9c95 883f 85ae 8f3f da1c 7e3f
000000c0: 5108 873f bd87 8b3f a615 7c3f d080 833f
000000d0: 5fd7 723f ad43 7b3f 12d1 813f 6810 823f
000000e0: de8b 783f 55c3 7f3f 9e0d 793f 3f99 893f
000000f0: 789d 6f3f aa87 8a3f 100f 893f cc72 783f

embedding.0.1.bias f4 [64]
-0.056398146 -0.043951593 0.011379247 0.0046963845 -0.027496044 -0.040525675 -0.038286444 -0.017085066
-0.07870065 -0.05821255 -0.043012675 -0.01270687 -0.019635051 0.063603625 -0.011893748 -0.069292724
0.06854899 0.0026264384 -0.04784663 -0.12924336 -0.02443049 0.0019551474 -0.052378092 -0.048786227
0.006487651 0.04864802 -0.05195637 -0.0016226468 -0.13268511 -0.06604273 -0.0075683235 -0.0928056
-0.023266034 0.11401659 -0.035322595 -0.027461326 -0.23193732 0.0027019053 -0.041541494 -0.012870367
-0.041637763 -0.1024654 0.008143969 -0.04869923 0.06930262 -0.012644518 -0.0877909 -0.028073305
-0.029440923 -0.039700057 0.0046339743 -0.020128146 -0.02139707 -0.041623224 -0.023082789 -0.051095333
-0.034077633 -0.032821164 0.020560894 -0.059742894 -0.055268344 -0.054142218 0.013019213 -0.03611524
00000000: be01 67bd 9606 34bd 0570 3a3c 21e4 993b
00000010: 623f e1bc 40fe 25bd 3fd2 1cbd fbf5 8bbc
00000020: ce2d a1bd 4870 6ebd 0f2e 30bd 7a30 50bc
00000030: b0d9 a0bc 9e42 823d ffdd 42bc 58e9 8dbd
00000040: 6a63 8c3d 5320 2c3b d4fa 43bd 5f58 04be
00000050: 7322 c8bc ee21 003b 698a 56bd 11d4 47bd
00000060: 5c96 d43b 2543 473d 34d0 54bd feae d4ba
00000070: 9bde 07be 6941 87bd b3ff f7bb dd10 bebd
00000080: 6998 bebc 8881 e93d 6dae 10bd 93f6 e0bc
00000090: fa80 6dbe 7312 313b 6a27 2abd 3bde 52bc
000000a0: 5c8c 2abd 61d9 d1bd 486e 053c d878 47bd
000000b0: 88ee 8d3d f42a 4fbc b7cb b3bd fdf9 e5bc
000000c0: 172e f1bc 879c 22bd 98d8 973b c8e3 a4bc
000000d0: e848 afbc 1d7d 2abd 1e18 bdbc 5749 51bd
000000e0: fd94 0bbd 7c6f 06bd 526f a83c f7b4 74bd
000000f0: 0f61 62bd 3bc4 5dbd 8a4e 553c 93ed 13bd

embedding.0.1.running_mean f4 [64]
0.036334064 -0.07523365 -0.0034668364 -0.06565863 0.07862488 0.04041121 -0.007838367 -0.038109396
-0.0029603627 0.013577886 -0.02641827 -0.105131045 0.0030916322 -0.010021608 -0.0044397693 -0.0037556947
0.0063656433 -0.032596536 0.053209107 0.02169804 -0.0031579926 -0.002314162 -0.0012852089 -0.08827894
0.045229483 -0.013097424 -0.010234941 -0.0066189016 0.042534184 -0.008522789 0.049232274 0.022795985
0.035112735 -0.030503608 -0.021629894 0.03140768 0.10268129 -0.045858923 -0.009959597 -0.031800587
-0.0054738377 -0.07439286 -0.0036443972 -0.043674678 -0.040385205 0.0017872604 -0.06765272 -0.034766126
-0.03130842 -0.07764548 -0.041298598 0.049099818 0.013760735 -0.021722233 0.001981381 -0.015118614
0.021505365 0.050554156 -0.041867882 -0.13406302 -0.016812073 -0.00809428 -0.01143254 -0.003564795
00000000: 07d3 143d 1a14 9abd dd33 63bb 0878 86bd
00000010: 1506 a13d 3a86 253d 7e6c 00bc 9918 1cbd
00000020: a502 42bb c875 5e3c 216b d8bc f24e d7bd
00000030: fb9c 4a3b ac31 24bc 7c7b 91bb 1a22 76bb
00000040: e396 d03b f283 05bd cbf1 593d 17c0 b13c
00000050: 53f6 4ebb 32a9 17bb 7474 a8ba 97cb b4bd
00000060: 8d42 393d 9496 56bc 74b0 27bc 5fe3 d8bb
00000070: 5338 2e3d 2ba3 0bbc c8a7 493d a5be ba3c
00000080: 5fd2 0f3d b4e2 f9bc 2d31 b1bc 57a5 003d
00000090: 914a d23d 91d6 3bbd 942d 23bc 5541 02bd
000000a0: e15d b3bb 495b 98bd d7d6 6ebb 38e4 32bd
000000b0: f56a 25bd 8242 ea3a 828d 8abd ed66 0ebd
000000c0: 423d 00bd 9804 9fbd b828 29bd e41c 493d
000000d0: b574 613c d3f2 b1bc 0fda 013b 10b4 77bc
000000e0: 052c b03c e011 4f3d a87d 2bbd d147 09be
000000f0: 79b9 89bc df9d 04bc 8c4f 3bbc 569f 69bb

embedding.0.1.running_var f4 [64]
0.0011714458 0.008189994 0.00068876904 0.001412666 0.00081047305 0.0009967305 0.0013199936 0.005815868
0.00068064564 0.0036470124 0.00074795535 0.0016593196 0.00078747893 0.0017728327 0.004946344 0.0014669477
0.0015391011 0.0026212246 0.0016746089 0.0006118708 0.0042220666 0.0015643165 0.0018926087 0.00123962
0.00090402836 0.0020644446 0.0019098949 0.0012159318 0.0054157292 0.000647702 0.0016110293 0.0015136977
0.00057970406 0.0011249904 0.0012759671 0.0014778262 0.0066050813 0.0021930952 0.0017338246 0.0020799108
0.00088397815 0.0006298819 0.0011953171 0.007107098 0.0008294757 0.0012536002 0.002044305 0.0012284019
0.0018725452 0.0009328343 0.0005109302 0.0016917314 0.0048789755 0.000845197 0.001170683 0.0013386348
0.004767404 0.0010442435 0.0036884279 0.0013073286 0.0015925617 0.0012239906 0.0010459683 0.0010958405
00000000: 338b 993a 532f 063c 828e 343a 3529 b93a
00000010: ed75 543a baa4 823a a303 ad3a 0993 be3b
00000020: 5b6d 323a b702 6f3b 6f12 443a 877d d93a
00000030: d16e 4e3a 655e e83a f114 a23b 9946 c03a
00000040: aabb c93a dac8 2b3b 8d7e db3a f465 203a
00000050: 4359 8a3b c009 cd3a 6911 f83a bf7a a23a
00000060: 51fc 6c3a a24b 073b 7055 fa3a e75f 9f3a
00000070: 6e76 b13b 8cca 293a 2c29 d33a 4467 c63a
00000080: 48f7 173a 6a74 933a 5a3e a73a 9eb3 c13a
00000090: 706f d83b 08ba 0f3b 8041 e33a 1d4f 083b
000000a0: c5ba 673a a91e 253a 30ac 9c3a a9e2 e83b
000000b0: 2c71 593a d84f a43a bff9 053b 5402 a13a
000000c0: 3170 f53a 7389 743a f2ef 053a 16bd dd3a
000000d0: d0df 9f3b 3690 5d3a 9a71 993a 2175 af3a
000000e0: e237 9c3b ffde 883a 8db9 713b ab5a ab3a
000000f0: 81bd d03a 4f6e a03a df18 893a 4ea2 8f3a

embedding.1.0.weight f4 [64, 64, 3, 3]
-0.060971417 0.013032382 -0.0046533826 -0.062443577 -0.0051710755 -0.05470831 -0.02782234 -0.022239206
-0.007524811 -0.027426358 -0.095253214 -0.1453259 0.0034032313 -0.07698752 -0.039203983 0.02545954
-0.008357887 -0.06476727 -0.0025164979 0.014513918 0.10897234 0.02416591 0.094529465 -0.0069472576
0.0739668 0.06595983 0.062986545 -0.047181636 -0.023808619 -0.0126015255 -0.024250442 0.011237934
-0.014068155 0.026973354 0.0032818848 -0.045289677 -0.120338604 0.031457238 0.021092467 -0.06480819
0.067172155 0.0799419 0.030731764 0.085788846 0.08500539 -0.02039032 -0.055891845 -0.020763395
-0.009748489 0.05719297 -0.0015823412 0.023915876 -0.027146252 -0.0049707675 0.006431137 -0.06393967
0.0040570246 -0.02192754 -0.09332801 -0.06809553 -0.031869274 -0.036970027 -0.08496652 -0.0012238692
-0.0057021114 -0.14617299 -0.012896567 -0.047446676 -0.09575036 0.03300045 -0.035633776 -0.005307262
-0.07040476 0.022702537 0.13074131 0.011055107 0.064223856 0.038615555 0.07510307 0.07907168
0.052517537 -0.01948826 -0.06409143 -0.09736851 -0.009137344 -0.086286284 -0.012395341 -0.0050515058
0.022772575 -0.05662389 -0.030165505 0.010656278 0.05454226 0.057508837 0.09687295 0.023167562
0.1289289 0.052537076 -0.040900946 0.0021437933 -0.040066373 0.044281404 -0.011748029 0.018067537
0.015545016 0.029999375 0.018163355 0.021227432 -0.023910716 -0.028326893 -0.03228518 -0.07455093
0.020096136 0.010059079 -0.014147098 -0.017439937 -0.011961117 0.045264974 -0.053764526 0.08670398
-0.0086301 0.019309724 0.019115282 -0.0801456 -0.0445456 -0.13162015 -0.017355414 -0.0860953
-0.13033463 -0.03276427 -0.08233147 -0.068283185 0.025103023 0.022023128 -0.05095018 -0.012515733
-0.004781367 0.006191969 0.011858227 0.0626625 -0.029268663 0.043806884 -0.049652454 -0.07556995
-0.0804062 -0.046454865 0.015268752 -0.19192785 -0.041714817 0.013498905 -0.11303199 0.032084566
-0.0026429398 0.0008368424 0.045220222 -0.14677851 -0.1373259 0.055136986 -0.1714254 -0.084273234
-0.12695336 -0.19090872 -0.040326517 0.018504897 0.104757644 -0.020770954 -0.035916425 0.043007266
-0.06749903 0.0052235182 0.04849415 -0.008532986 0.001998536 0.005196764 -0.045104835 -0.105125815
0.008464992 -0.03981148 -0.018514529 0.0003618498 0.0383782 -0.030354666 0.06586512 0.01391641
0.0051456126 0.0013133506 0.06684088 0.052118536 0.05502044 -0.022204196 -0.026112042 0.022479946
0.009531119 0.04035808 -0.018080747 0.015558706 -0.03767978 -0.026767878 -0.029986845 -0.021226726
0.012195595 -0.02339466 0.03505443 -0.037787113 0.04800185 0.030296229 0.029568212 -0.007692964
-0.056410067 0.07518292 -0.026338583 -0.0059646983 -0.04432469 -0.024006218 -0.031748086 -0.036953427
0.03517034 -0.008369514 0.1041037 0.046867423 0.052126713 0.0020723087 -0.021387154 -0.017471103
-0.06315152 -0.03090408 -0.009373573 0.099159695 0.066612266 -0.0002978609 -0.014074115 -0.11505838
-0.07555117 -0.1725196 0.022844745 0.013496765 0.120226346 -0.0016324129 0.016669657 0.04609223
0.066875316 -0.008280545 0.10783728 -0.061617002 0.013750549 -0.04716135 -0.029911913 0.04822478
0.0038505222 0.041587796 -0.037985723 -0.012994326 -0.0011737088 0.031996958 -0.054895915 -0.010884158
00000000: 2abd 79bd c685 553c 677b 98bb d6c4 7fbd
00000010: 2072 a9bb d215 60bd adeb e3bc ff2e b6bc
00000020: b192 f6bb 3ead e0bc 1e14 c3bd 50d0 14be
00000030: bf08 5f3b a2ab 9dbd 5b94 20bd 8690 d03c
00000040: 85ef 08bc b4a4 84bd d4eb 24bb c9cb 6d3c
00000050: e42c df3d 96f7 c53c aa98 c13d d2a5 e3bb
00000060: e87b 973d f315 873d 17ff 803d 8841 41bd
00000070: 4b0a c3bc a176 4ebc dda8 c6bc 501f 383c
00000080: 1e7e 66bc 39f7 dc3c e414 573b ab81 39bd
00000090: 1674 f6bd 4ed9 003d 1cca ac3c 28ba 84bd
000000a0: 8e91 893d 94b8 a33d 2ec1 fb3c 10b2 af3d
000000b0: 4e17 ae3d 9a09 a7bc d9ee 64bd ff17 aabc
000000c0: 20b8 1fbc 2d43 6a3d 8f66 cfba 3aeb c33c
000000d0: d161 debc d2e1 a2bb 4abc d23b cdf2 82bd
000000e0: caf0 843b 62a1 b3bc c122 bfbd ab75 8bbd
000000f0: 5b89 02bd e26d 17bd ed02 aebd 3c6a a0ba
00000100: c7d8 babb 5fae 15be 1f4c 53bc 7257 42bd
00000110: c418 c4bd 7b2b 073d b9f4 11bd 8ae8 adbb
00000120: 5f30 90bd acfa b93c 0de1 053e 7b20 353c
00000130: cc87 833d 582b 1e3d a3cf 993d 55f0 a13d
00000140: a11c 573d d8a5 9fbc 5e42 83bd 2469 c7bd
00000150: ccb4 15bc ddb6 b0bd d415 4bbc 1a87 a5bb
00000160: 8d8d ba3c 74ee 67bd a61d f7bc ab97 2e3c
00000170: b467 5f3d 638e 6b3d 5365 c63d e6c9 bd3c
00000180: f005 043e 1e31 573d c087 27bd e27e 0c3b
00000190: a31c 24bd 6b60 353d ce7a 40bc 5f02 943c
000001a0: 86b0 7e3c 40c1 f53c 51cb 943c 27e5 ad3c
000001b0: 68e0 c3bc cd0d e8bc 773d 04bd 28ae 98bd
000001c0: a7a0 a43c d6ce 243c 3bc9 67bc 33de 8ebc
000001d0: 90f8 43bc c467 393d 3138 5cbd db91 b13d
000001e0: 4365 0dbc 6d2f 9e3c a797 9c3c 6023 a4bd
000001f0: 7275 36bd 6fc7 06be f12c 8ebc bc52 b0bd
00000200: 7176 05be d433 06bd 679d a8bd 0ed8 8bbd
00000210: dba4 cd3c d969 b43c 23b1 50bd ca0e 4dbc
00000220: 03ad 9cbb 00e6 ca3b 0249 423c 3255 803d
00000230: d6c4 efbc d96e 333d 5f60 4bbd 6bc4 9abd
00000240: 01ac a4bd 7547 3ebd ca29 7a3c bc88 44be
00000250: 28dd 2abd 832a 5d3c 517d e7bd 1b6b 033d
00000260: 2c35 2dbb 8b5f 5b3a d738 393d 1b4d 16be
00000270: 299f 0cbe 52d7 613d 248a 2fbe 7297 acbd
00000280: 1000 02be 937d 43be 6b2d 25bd 9597 973c
00000290: 2d8b d63d d927 aabc 1a1d 13bd 6328 303d
000002a0: ee3c 8abd 0c2a ab3b cda1 463d f0cd 0bbc
000002b0: dff9 023b 9e49 aa3b d9bf 38bd 344c d7bd
000002c0: c0b0 0a3c 5d11 23bd c8ab 97bc a8b6 bd39
000002d0: 7632 1d3d 59aa f8bc 4be4 863d a701 643c
000002e0: 879c a83b bc24 ac3a dfe3 883d 3f7a 553d
000002f0: 1d5d 613d 93e5 b5bc ece8 d5bc dd27 b83c
00000300: 6928 1c3c 844e 253d 131e 94bc f1e9 7e3c
00000310: 1d56 1abd 4f48 dbbc f9a6 f5bc ace3 adbc
00000320: 08d0 473c 28a6 bfbc 3c95 0f3d a9c6 1abd
00000330: 969d 443d cc2f f83c 0939 f23c 4215 fcbb
00000340: 3e0e 67bd 81f9 993d 03c4 d7bc 8473 c3bb
00000350: ce8d 35bd b0a8 c4bc 480a 02bd 7a5c 17bd
00000360: c60e 103d 4920 09bc 5234 d53d 0ef8 3f3d
00000370: d282 553d 92cf 073b 1d34 afbc 8f1f 8fbc
00000380: 9655 81bd 8e2a fdbc 9d93 19bc 3d14 cb3d
00000390: 036c 883d 372a 9cb9 1e97 66bc baa3 ebbd
000003a0: 92ba 9abd faa8 30be e724 bb3c 8921 5d3c
000003b0: 3b39 f63d b0f6 d5ba ce8e 883c 35cb 3c3d
000003c0: edf5 883d 1fab 07bc cbd9 dc3d 1c62 7cbd
000003d0: fc49 613c 422c 41bd d409 f5bc 5987 453d
000003e0: 0b59 7c3b f757 2a3d eb96 1bbd 27e6 54bc
000003f0: 22d7 99ba 3e0f 033d 8ada 60bd 7853 32bc

embedding.1.0.bias f4 [64]
0.00013455877 0.00020736008 0.00018656698 0.00026530906 0.0006856767 0.00014610148 0.00014985513 0.0006344715
0.0002373106 0.00028719255 -0.0002742419 -0.00035609788 7.4806216e-05 -0.00044208573 0.00018977722 -0.00093429023
0.0003485056 0.00023586233 -0.0001720277 -0.00014558084 -0.00025060988 -0.0004695009 0.0008119763 -0.0007957365
0.00029178624 -0.000426057 -0.00038497325 0.0004250068 -7.957073e-05 0.00017564248 0.0002932721 0.00069017056
-0.00048786314 0.00039314994 0.00014433602 0.00034699804 -0.0001395074 -0.0002254065 0.0008020979 0.00044963608
0.00070407876 -4.6826794e-05 -2.9505409e-05 0.00031622488 -9.17646e-05 -0.00043318947 -0.00019676471 -0.0002591864
-6.546558e-05 0.0002801632 -0.000336086 -6.4126e-05 -0.000666999 0.0003597452 -0.0005148537 0.00012971796
0.00032648657 -6.040179e-05 -0.00025227046 0.0002159244 0.00024154322 0.00048438978 -9.455133e-05 0.00012582641
00000000: 5818 0d39 cc6e 5939 31a1 4339 2e19 8b39
00000010: fcbe 333a d132 1939 6e22 1d39 a952 263a
00000020: 94d6 7839 5592 9639 20c8 8fb9 a6b2 bab9
00000030: 48e1 9c38 bec7 e7b9 effe 4639 28eb 74ba
00000040: a1b7 b639 d051 7739 5662 34b9 0fa7 18b9
00000050: 4a64 83b9 5827 f6b9 cfda 543a f998 50ba
00000060: e3fa 9839 6760 dfb9 3cd6 c9b9 72d3 de39
00000070: 36df a6b8 ab2c 3839 51c2 9939 90ec 343a
00000080: e2c7 ffb9 b11f ce39 e858 1739 4aed b539
00000090: bc48 12b9 195b 6cb9 e143 523a 22bd eb39
000000a0: ed91 383a e367 44b8 6282 f7b7 fcca a539
000000b0: bf71 c0b8 b51d e3b9 a052 4eb9 69e3 87b9
000000c0: 914a 89b8 dee2 9239 b334 b0b9 627b 86b8
000000d0: 8cd9 2eba 2f9c bc39 3ff7 06ba e604 0839
000000e0: 492c ab39 ee57 7db8 2b43 84b9 c469 6239
000000f0: c446 7d39 b2f5 fd39 dc49 c6b8 45f0 0339

embedding.1.1.weight f4 [64]
1.020913 0.9887842 1.0482044 1.000741 1.0198454 1.0600013 1.0093204 1.0968611
0.9819143 0.9672063 0.9207979 0.9703265 0.9429701 0.9831375 0.8021019 1.0587065
0.97991306 0.9780423 1.0791386 0.9540533 1.1314654 0.9054982 0.99912244 1.0953239
0.96941787 1.0277005 0.97643864 1.0080593 0.9550291 1.072201 0.9324303 0.94332665
1.0192144 1.049281 1.1051497 0.9568833 1.0420243 0.97558916 1.0705116 0.91849643
1.0093162 0.9692645 0.99209654 0.9857682 1.0196023 0.98829436 0.9536748 0.9395281
0.9102171 0.93082124 1.0569711 1.0299269 0.96251005 0.97299504 1.0570338 1.0926218
1.0067868 0.95741075 0.9396818 0.95160776 1.0306698 1.158075 0.9941692 1.0439732
00000000: 47ad 823f f620 7d3f 902b 863f 4818 803f
00000010: 4b8a 823f 1fae 873f 6931 813f f265 8c3f
00000020: bc5e 7b3f d59a 773f 69b9 6b3f 5167 783f
00000030: 7d66 713f e6ae 7b3f 8d56 4d3f b283 873f
00000040: 95db 7a3f fb60 7a3f 3721 8a3f d63c 743f
00000050: dcd3 903f bbce 673f 7dc6 7f3f 9333 8c3f
00000060: c52b 783f b18b 833f e2f7 793f 1608 813f
00000070: c97c 743f e23d 893f c1b3 6e3f db7d 713f
00000080: 9e75 823f d74e 863f 8c75 8d3f 4ef6 743f
00000090: 0d61 853f 36c0 793f 8606 893f 9522 6b3f
000000a0: 4631 813f b821 783f 0afa 7d3f 4e5b 7c3f
000000b0: 5482 823f dc00 7d3f 0824 743f ea84 703f
000000c0: fd03 693f 4d4a 6e3f d44a 873f a5d4 833f
000000d0: 0f67 763f 3416 793f e24c 873f 08db 8b3f
000000e0: 64de 803f df18 753f fd8e 703f 919c 733f
000000f0: fdec 833f cd3b 943f df81 7e3f eaa0 853f

embedding.1.1.bias f4 [64]
0.033530623 -0.022152903 -0.07284719 -0.065943316 -0.10275811 -0.045381416 -0.13939066 -0.09469295
-0.14612721 -0.021362515 0.025259862 -0.052694637 -0.066720635 0.079356365 -0.0026957204 -0.07677204
-0.08493601 -0.07740647 0.011177198 -0.017333787 -0.003067289 -0.10612508 -0.07111003 -0.08062755
-0.111141264 -0.1290145 -0.0717106 -0.0086778775 -0.059925906 0.06493193 0.015813163 -0.07631072
-0.053664867 -0.03227082 0.0718481 -0.18344668 -0.056050025 -0.07063307 -0.06393636 0.055560675
-0.102277145 -0.101985015 -0.066017225 -0.05271467 0.07607683 -0.1529073 0.016878927 0.07171577
0.034627162 0.0029048661 -0.0794926 -0.048721068 -0.06394702 -0.12393802 -0.048096284 -0.08548009
-0.04408054 -0.08884302 0.020309646 -0.06930095 -0.08248631 0.0034184018 -0.16548496 -0.111293204
00000000: 6857 093d 017a b5bc e830 95bd 4a0d 87bd
00000010: d872 d2bd dde1 39bd 6dbc 0ebe 61ee c1bd
00000020: 5fa2 15be 7100 afbc c5ed ce3c 55d6 57bd
00000030: d4a4 88bd 9785 a23d afaa 30bb a93a 9dbd
00000040: eef2 adbd 4987 9ebd 9120 373c 96ff 8dbc
00000050: 9204 49bb 1b58 d9bd 23a2 91bd 0f20 a5bd
00000060: 089e e3bd 611c 04be 02dd 92bd a82d 0ebc
00000070: de74 75bd 08fb 843d 9b8a 813c cb48 9cbd
00000080: b1cf 5bbd 682e 04bd 1925 933d 72d9 3bbe
00000090: b694 65bd 12a8 90bd 11f1 82bd 9793 633d
000000a0: ae76 d1bd 85dd d0bd 0a34 87bd 56eb 57bd
000000b0: 2bce 9b3d bb93 1cbe ad45 8a3c b8df 923d
000000c0: 36d5 0d3d 915f 3e3b 04cd a2bd be8f 47bd
000000d0: a8f6 82bd 37d3 fdbd 9c00 45bd 2f10 afbd
000000e0: cc8d 34bd 54f3 b5bd 6a60 a63c a8ed 8dbd
000000f0: 95ee a8bd 4407 603b e474 29be b1ed e3bd

embedding.1.1.running_mean f4 [64]
-0.48523313 -2.5649865 0.80483335 -0.5221489 0.034493912 -1.1407535 -0.19484852 0.42903456
-2.8955274 -0.98304945 -0.69504243 -1.1023691 -1.7107866 1.3865792 -0.2910632 -2.17531
-0.85272485 -1.6738579 2.2510355 -2.2761824 -0.4495998 -0.99420285 -1.8066664 -1.8700732
-1.1218129 -0.760913 -0.50707495 -0.70881397 -3.811032 0.6728186 -0.22061473 -1.6183988
-1.6394645 -0.47730085 2.3095074 -1.4834273 -0.013526608 -1.439492 -1.6169388 -0.29870573
-0.76663816 -1.7531343 -1.123713 -2.6456952 -5.511467 0.71886325 -1.4024103 0.7141107
0.14423202 -1.6155391 -2.1414633 -0.36747614 -0.6069931 -1.6200463 -2.6960275 -4.571664
-0.07728696 -1.1985213 -0.6313807 -2.5308447 0.0911307 -1.5955741 -1.3215096 -3.1751087
00000000: 7a70 f8be bd28 24c0 8f09 4e3f 8dab 05bf
00000010: 7d49 0d3d 3604 92bf 5f86 47be 6baa db3e
00000020: 5250 39c0 21a9 7bbf 4dee 31bf 6e1a 8dbf
00000030: 0efb dabf 6d7b b13f 3c06 95be 4738 0bc0
00000040: 2d4c 5abf fa40 d6bf f710 1040 f9ac 11c0
00000050: f231 e6be 1484 7ebf d840 e7bf 8f5e efbf
00000060: 9197 8fbf 32cb 42bf aacf 01bf d574 35bf
00000070: f3e7 73c0 d73d 2c3f d4e8 61be b127 cfbf
00000080: f9d9 d1bf c760 f4be f8ce 1340 f2e0 bdbf
00000090: b59e 5dbc 4641 b8bf daf7 cebf f5ef 98be
000000a0: 6642 44bf b466 e0bf d4d5 8fbf 1253 29c0
000000b0: f05d b0c0 6c07 383f 2e82 b3bf f5cf 363f
000000c0: 8fb1 133e fcc9 cebf bc0d 09c0 d525 bcbe
000000d0: e663 1bbf ad5d cfbf b78b 2cc0 124b 92c0
000000e0: a048 9ebd 2569 99bf 2aa2 21bf 5cf9 21c0
000000f0: bca2 ba3d c63b ccbf 3a27 a9bf fb34 4bc0

embedding.1.1.running_var f4 [64]
5.6016536 10.07325 4.345592 10.010189 13.256575 5.1300654 7.487554 5.6920786
15.203778 8.64203 11.701554 12.595209 11.724569 14.69375 14.500623 9.551716
6.084297 6.15554 14.466585 6.047972 15.047736 15.949195 10.47296 9.412681
12.06482 7.4533505 10.854217 9.245234 31.652784 8.418093 9.766275 8.542856
6.046462 3.997344 12.6423 11.945676 10.890408 11.032152 10.794216 15.987244
13.302432 9.299032 8.15594 15.450243 47.615 9.171991 16.287779 12.093877
18.757372 4.524048 16.785078 11.721464 12.217472 12.805818 15.408213 13.104455
8.0840435 12.449094 14.735949 12.512855 11.081249 13.200079 11.20257 18.602814
00000000: bf40 b340 082c 2141 170f 8b40 bc29 2041
00000010: ee1a 5441 7f29 a440 0b9a ef40 8225 b640
00000020: ad42 7341 c145 0a41 9139 3b41 fa85 4941
00000030: d697 3b41 9a19 6b41 8d02 6841 d4d3 1841
00000040: 90b2 c240 2ffa c440 2277 6741 fd88 c140
00000050: 87c3 7041 e72f 7f41 3f91 2741 579a 1641
00000060: 8109 4141 d981 ee40 dfaa 2d41 7aec 1341
00000070: e738 fd41 82b0 0641 aa42 1c41 8aaf 0841
00000080: 9e7c c140 7cd4 7f40 dc46 4a41 7d21 3f41
00000090: 1c3f 2e41 b283 3041 1cb5 2c41 c0cb 7f41
000000a0: c3d6 5441 d6c8 1441 bb7e 0241 3234 7741
000000b0: c375 3e42 7ac0 1241 5f4d 8241 8580 4141
000000c0: 190f 9641 00c5 9040 d747 8641 1e8b 3b41
000000d0: c47a 4341 a1e4 4c41 0a88 7641 d9ab 5141
000000e0: 3e58 0141 7d2f 4741 72c6 6b41 a734 4841
000000f0: cc4c 3141 8633 5341 ba3d 3341 90d2 9441

embedding.2.0.weight f4 [64, 64, 3, 3]
-0.094044 -0.10651746 -0.09030058 -0.0467601 -0.1126785 -0.01651855 -0.048348486 -0.083183
-0.03775594 -0.032104343 0.096321024 -0.030910939 -0.00903703 0.041085504 -0.03799624 0.032282952
0.029447429 -0.035268296 -0.029586587 0.026145162 0.033920534 -0.07076237 -0.035508204 0.02363109
-0.0033662233 -0.002954865 -0.029161794 -0.032838162 0.044337966 -0.03192798 -0.101918235 0.007809676
-0.064807124 -0.067960896 0.029631708 -0.0061390935 0.010337795 0.008007415 -0.037471157 -0.032633822
0.049388353 -0.03931515 -0.025691656 0.03965043 -0.008214351 -0.018358223 0.05731531 0.05213246
-0.0035168712 0.09184069 -0.045721795 0.0024016155 0.029824147 -0.029307337 0.032913547 0.05067406
-0.10781256 -0.053990964 0.044884056 0.008849825 0.031823955 -0.020600406 0.035949886 0.022420334
-0.036814447 -0.0381973 -0.06485787 -0.040553533 -0.06448402 -0.0068776915 -0.04451185 -0.059067972
0.042428974 0.12672415 0.00076697895 -0.030383253 0.04150992 -0.038992107 -0.100923024 -0.050822716
-0.0748145 -0.0041869776 0.07173788 0.03463295 -0.044406958 -0.013084439 0.0849863 -0.04043185
-0.110302866 0.049556244 -0.050772935 0.003519082 -0.09669944 0.014155113 0.03531628 -0.032698996
0.0045948005 0.045792513 0.058965396 0.055660177 0.057352223 -0.05340362 -0.030337851 0.07064208
0.011976208 -0.023911327 0.049586136 0.009627444 -0.0091745835 0.022138543 -0.019277448 -0.055760063
0.044438966 -0.08786334 -0.07227504 0.01611328 -0.043193195 -0.0622021 -0.055537507 -0.058379572
-0.05092281 -0.0658849 -0.0068766386 -0.058377597 -0.07839528 0.05859639 0.0044890656 0.0494592
-0.023224244 0.0030704679 -0.036168482 -0.024141833 -0.029159706 0.01196505 0.0012798855 -0.06200506
0.018314216 0.00309249 -0.059709337 -0.031417944 -0.062180907 -0.026840167 0.032282308 0.042433076
0.058831006 -0.016733412 -0.057448182 0.012573248 -0.008617022 0.00871651 -0.03882536 0.02179127
0.00065825775 -0.03849042 0.06382802 -0.015253742 -0.013468409 0.07055592 -0.053636916 -0.029980022
0.025481967 -0.016532537 -0.14178734 -0.10315894 -0.005638245 -0.038859576 -0.056909103 0.027154231
-0.056272198 -0.037813853 -0.05444918 0.0003223313 0.08364391 -0.051594097 -0.034822997 0.060481317
0.0019122587 -0.016463364 0.038356815 -0.0067771645 -0.040793017 0.11747536 0.12286537 -0.047396727
0.10113354 0.14607438 -0.12642483 -0.05367777 -0.03383903 -0.00027109188 0.040985405 -0.016563345
0.007410244 0.06780731 0.06720236 -0.01404965 0.029018637 0.030676372 -0.030164529 0.03923541
0.0014533334 0.0012414268 -0.0026448874 -0.043135963 0.01941586 -0.05344763 0.03707112 0.00027080136
0.017766645 -0.0010282688 -0.06193761 -0.053489827 -0.008730233 -0.01915695 -0.03067112 -0.050374858
0.009404405 0.03937731 -0.036678623 -0.06449177 0.04260474 0.043147534 -0.06690404 0.0036911943
-0.013096505 -0.038221862 0.046644244 0.0052545406 -0.003970544 0.0035447064 -0.0072543104 -0.033193976
0.020125208 -0.038275007 -0.03465122 0.011961712 0.009290089 0.01384733 -0.063926525 0.038490616
-0.013434357 0.0037156753 0.03231158 0.023498192 0.052713204 -0.04771636 0.016568586 -0.04434015
-0.015288662 -0.03573877 0.033608288 -0.054146998 -0.041501667 0.04922904 -0.013096783 -0.003997413
00000000: 249a c0bd d325 dabd 83ef b8bd 8587 3fbd
00000010: fcc3 e6bd e951 87bc 1009 46bd d95b aabd
00000020: f9a5 1abd d87f 03bd f543 c53d f038 fdbc
00000030: 0d10 14bc 4649 283d f2a1 1bbd 213b 043d
00000040: bc3b f13c 7d75 10bd 925f f2bc 612e d63c
00000050: 42f0 0a3d ddeb 90bd 0d71 11bd fd95 c13c
00000060: db9b 5cbb 69a6 41bb b7e4 eebc 4f81 06bd
00000070: ba9b 353d eac6 02bd 82ba d0bd 50e8 ff3b
00000080: 99b9 84bd 152f 8bbd 32be f23c 732a c9bb
00000090: db5f 293c 8831 033c 5b7b 19bd 0bab 05bd
000000a0: 714b 4a3d ec08 21bd 4f77 d2bc 7d68 223d
000000b0: 7c95 06bc fc63 96bc 75c3 6a3d d988 553d
000000c0: 4f7b 66bb f916 bc3d c746 3bbd 6c64 1d3b
000000d0: c551 f43c f115 f0bc 5bd0 063d 9a8f 4f3d
000000e0: d5cc dcbd a125 5dbd 58d8 373d dbfe 103c
000000f0: d659 023d 2fc2 a8bc 3040 133d d9aa b73c
00000100: bfca 16bd c674 1cbd 34d4 84bd 761b 26bd
00000110: 3310 84bd 425e e1bb 0f52 36bd 42f1 71bd
00000120: 01ca 2d3d fac3 013e 160f 493a 4de6 f8bc
00000130: 4e06 2a3d 30b6 1fbd bbb0 cebd 7b2b 50bd
00000140: 5838 99bd ea32 89bb 4feb 923d 48db 0d3d
00000150: 12e4 35bd 1d60 56bc 4c0d ae3d de9b 25bd
00000160: 78e6 e1bd 7dfb 4a3d 48f7 4fbd 66a0 663b
00000170: 5b0a c6bd d9ea 673c cea7 103d 62ef 05bd
00000180: fb8f 963b ee90 3b3d b385 713d edfb 633d
00000190: 2aea 6a3d c1bd 5abd 1687 f8bc cbac 903d
000001a0: db37 443c b0e1 c3bc d51a 4b3d 6dbc 1d3c
000001b0: fe50 16bc e45b b53c bdeb 9dbc aa64 64bd
000001c0: a205 363d b2f1 b3bd f004 94bd ffff 833c
000001d0: 59eb 30bd a1c7 7ebd 4c7b 63bd 6b1f 6fbd
000001e0: 7094 50bd aaee 86bd 6d55 e1bb 591d 6fbd
000001f0: b48d a0bd c502 703d 0319 933b bb95 4a3d
00000200: c540 bebc e739 493b 6725 14bd 18c5 c5bc
00000210: 56e0 eebc 0f09 443c d5c1 a73a 05f9 7dbd
00000220: b207 963c 5fab 4a3b c791 74bd 1ab0 00bd
00000230: 68b1 7ebd e9df dbbc 743a 043d 4ece 2d3d
00000240: c8f8 703d 8214 89bc c94e 6bbd 0600 4e3c
00000250: 692e 0dbc b1cf 0e3c 5707 1fbd 9b83 b23c
00000260: ee8e 2c3a 21a8 1dbd 44b8 823d d5ea 79bc
00000270: 9aaa 5cbc 9f7f 903d 62b2 5bbd aa98 f5bc
00000280: 8fbf d03c 3e6f 87bc b330 11be ff44 d3bd
00000290: 07c1 b8bb 382b 1fbd 8519 69bd 8d72 de3c
000002a0: ad7d 66bd b3e2 1abd 1a06 5fbd 93fe a839
000002b0: 804d ab3d 5554 53bd 8fa2 0ebd 42bb 773d
000002c0: c1a4 fa3a 2dde 86bc 091c 1d3d fa12 debb
000002d0: 9416 27bd ec96 f03d d7a0 fb3d 1223 42bd
000002e0: 1a1f cf3d 8694 153e 8375 01be 39dd 5bbd
000002f0: cb9a 0abd 5621 8eb9 50e0 273d daaf 87bc
00000300: a2d1 f23b 8fde 8a3d 64a1 893d 8130 66bc
00000310: 7eb8 ed3c 044d fb3c 9a1b f7bc 4fb5 203d
00000320: c77d be3a 5fb7 a23a d955 2dbb 56af 30bd
00000330: 020e 9f3c e7eb 5abd e3d7 173d 58fa 8d39
00000340: 5b8b 913c fac6 86ba 4bb2 7dbd 2618 5bbd
00000350: 4009 0fbc 09ef 9cbc 0042 fbbc de55 4ebd
00000360: ef14 1a3c 1a4a 213d 533c 16bd 4314 84bd
00000370: 4f82 2e3d 78bb 303d fc04 89bd f7e7 713b
00000380: b992 56bc 878e 1cbd 090e 3f3d 482e ac3b
00000390: 561b 82bb 4e4e 683b 91b5 edbb 68f6 07bd
000003a0: 9fdd a43c 41c6 1cbd 70ee 0dbd 0efb 433c
000003b0: 7535 183c e9df 623c e9eb 82bd 56a8 1d3d
000003c0: c71b 5cbc b082 733b 2659 043d 487f c03c
000003d0: cde9 573d 3b72 43bd d8ba 873c 049e 35bd
000003e0: 4c7d 7abc d162 12bd d8a8 093d 3ec9 5dbd
000003f0: a7fd 29bd 64a4 493d e493 56bc bbfc 82bb

embedding.2.0.bias f4 [64]
6.556145e-05 2.5142783e-06 -0.00023977726 -0.0006213116 0.00030170078 0.00048005543 -1.5690663e-05 8.130036e-05
0.0006059089 0.00015536623 -0.0010823109 0.00029516374 0.0001610348 1.5573869e-05 9.265754e-06 -0.0005782536
-0.00033983594 -9.8969824e-05 0.00036273693 0.00041936125 0.0004401652 -0.00026732535 -0.00010356832 -0.00045344222
-0.0001093832 -5.937255e-05 -0.00032690997 0.00030926833 0.00052646006 9.312308e-06 0.0010719878 -0.00031580037
0.0001297846 7.3764924e-05 -0.00025868337 -0.0003096571 0.0005080166 -8.450757e-05 0.00029882856 0.0005433955
0.00047575362 -0.00040841242 -0.00018340944 0.00043330315 0.0004302437 0.0005606266 -0.00043817132 0.00049598515
0.00019373662 0.00050705037 6.558485e-05 -0.00086118805 -0.00025226033 0.00010639134 0.00025614165 -0.00074679276
-5.3577576e-05 -0.00022078255 -0.00020052795 -0.00038849146 -0.0012290874 0.00032994227 2.2208862e-05 0.000421093
00000000: 097e 8938 f9ba 2836 b86c 7bb9 84df 22ba
00000010: 982d 9e39 f3af fb39 719f 83b7 cc7f aa38
00000020: dcd5 1e3a cee9 2239 54dc 8dba 35c0 9a39
00000030: 73db 2839 a1a4 8237 1c74 1b37 f195 17ba
00000040: 022c b2b9 058e cfb8 ba2d be39 b7dd db39
00000050: f9c5 e639 cd27 8cb9 d232 d9b8 fcbb edb9
00000060: a964 e5b8 ca06 79b8 1d65 abb9 4b25 a239
00000070: 2302 0a3a 0f3c 1c37 f181 8c3a 0292 a5b9
00000080: ca16 0839 3eb2 9a38 e59f 87b9 7959 a2b9
00000090: 6b2c 053a a839 b1b8 17ac 9c39 a872 0e3a
000000a0: 926e f939 3020 d6b9 9951 40b9 f72c e339
000000b0: 5592 e139 04f7 123a 5cba e5b9 0005 023a
000000c0: c725 4b39 93eb 043a 998a 8938 5ac1 61ba
000000d0: cf41 84b9 6a1e df38 c04a 8639 6ac4 43ba
000000e0: 7cb8 60b8 dd81 67b9 d044 52b9 71ae cbb9
000000f0: 5419 a1ba 1afc ac39 2b4d ba37 25c6 dc39

embedding.2.1.weight f4 [64]
1.0226431 0.9994379 1.0411546 1.0369675 1.005168 0.9833904 1.0471333 1.062941
1.0471331 0.98534435 0.94619876 0.9322056 0.93437517 0.93424374 0.9811342 1.040728
0.99739736 0.95216614 1.041396 0.89872706 0.9384573 0.988612 1.0562985 1.037341
0.98147285 0.9348134 0.92911243 0.9967474 1.0502431 0.97925967 1.0075555 1.0145838
0.9746985 0.9216473 0.95501214 0.9937776 0.93338525 1.0443561 1.031671 1.0685041
1.0404596 0.9959009 0.9669249 1.0471286 0.9998631 0.9806412 1.0289052 1.012001
0.97251225 0.92406243 1.0749958 1.0793626 0.94491905 0.9376676 1.0205461 0.97058195
0.98350686 1.0121533 0.9720242 1.0171033 1.0307252 1.0401059 0.98860663 0.92031235
00000000: f8e5 823f 2adb 7f3f 8e44 853f 5abb 843f
00000010: 58a9 803f 79bf 7b3f 7708 863f 730e 883f
00000020: 7508 863f 873f 7c3f 153a 723f 07a5 6e3f
00000030: 3633 6f3f 992a 6f3f 9c2b 7b3f 9336 853f
00000040: 6f55 7f3f 29c1 733f 774c 853f fa12 663f
00000050: bd3e 703f ad15 7d3f ca34 873f 97c7 843f
00000060: ce41 7b3f ee4f 6f3f 50da 6d3f d62a 7f3f
00000070: 5e6e 863f c3b0 7a3f 94f7 803f e2dd 813f
00000080: d785 793f 14f1 6b3f ad7b 743f 3568 7e3f
00000090: 56f2 6e3f 76ad 853f cc0d 843f bec4 883f
000000a0: c82d 853f 5df3 7e3f 6488 773f 4f08 863f
000000b0: 07f7 7f3f 4d0b 7b3f 2ab3 833f 4089 813f
000000c0: 90f6 783f 5b8f 6c3f 7699 893f 8e28 8a3f
000000d0: 37e6 713f fc0a 703f 41a1 823f 0f78 783f
000000e0: 1bc7 7b3f 3d8e 813f 94d6 783f 7130 823f
000000f0: ceee 833f 3122 853f 5315 7d3f 9799 6b3f

embedding.2.1.bias f4 [64]
-0.17026891 -0.13063237 -0.08211206 -0.06325305 -0.10479509 -0.08568962 -0.04742724 -0.09080937
-0.026620014 0.051060934 -0.054827638 -0.08965208 -0.13310626 -0.14776844 -0.1496738 -0.02060412
-0.16353469 -0.100956924 -0.058087647 -0.1383622 -0.12047632 -0.09219432 -0.1395881 -0.027880555
-0.0058580358 -0.18880615 -0.11179844 -0.08168988 -0.13659489 -0.030915422 -0.07163464 -0.16505452
-0.16103375 -0.11921529 -0.1854736 -0.17142993 -0.08301637 -0.15096785 -0.04432926 -0.045458894
-0.014433984 -0.1457631 -0.13750726 -0.0887691 -0.14109325 -0.18839446 -0.1438042 -0.10076778
-0.04949755 -0.17373535 -0.024535263 -0.06957749 -0.1896402 -0.08378135 -0.14468215 -0.07074793
-0.14613463 -0.09066747 -0.04107443 -0.092262276 -0.14933023 -0.13227876 -0.18633686 -0.15004568
00000000: f95a 2ebe 7ec4 05be 5e2a a8bd d18a 81bd
00000010: cf9e d6bd 0a7e afbd 1143 42bd 43fa b9bd
00000020: 3712 dabc 4525 513d f292 60bd 829b b7bd
00000030: 024d 08be 9c50 17be 1744 19be f9c9 a8bc
00000040: a375 27be 81c2 cebd 50ed 6dbd d2ae 0dbe
00000050: 4abc f6bd 60d0 bcbd 2ff0 0ebe c365 e4bc
00000060: c4f4 bfbb 6656 41be 95f6 e4bd 064d a7bd
00000070: 88df 0bbe 5742 fdbc 2fb5 92bd 0d04 29be
00000080: 08e6 24be 2527 f4bd cbec 3dbe 548b 2fbe
00000090: 7d04 aabd 5197 1abe 9992 35bd 1b33 3abd
000000a0: 847c 6cbc ec42 15be b4ce 0cbe 93cc b5bd
000000b0: c07a 10be 7aea 40be 6941 13be 565f cebd
000000c0: f1bd 4abd aee7 31be 2dfe c8bc a57e 8ebd
000000d0: 0a31 42be 8e95 abbd 8f27 14be 4ae4 90bd
000000e0: 51a4 15be deaf b9bd a93d 28bd 01f4 bcbd
000000f0: 06ea 18be 1574 07be 17cf 3ebe 93a5 19be

embedding.2.1.running_mean f4 [64]
-2.587571 1.7517446 -3.0495043 -0.3675538 -2.5314662 -3.63348 -0.36781242 2.0711608
0.056553114 1.5481641 2.4671366 -2.5200603 -3.3561559 -2.9126742 -4.102569 -2.8901484
0.62417954 -0.95982677 -1.6635402 -3.8069806 -2.6682549 -0.49358624 2.687094 -2.7501032
-2.8100784 -4.4948893 -5.9822264 -0.7094984 0.82809556 -3.8907413 -0.46178228 -5.8850465
-3.9318585 -4.1394887 -5.468911 -0.90159863 2.1019986 -3.8103254 -2.3616524 -3.962809
0.03753198 -5.7731028 -0.8196383 0.63001585 -2.571629 0.5729804 -2.6945581 -4.985735
-1.0790013 -4.600339 4.180963 -5.436973 -2.3176515 -4.316694 -1.5543721 -1.5333227
-1.3531568 -0.89290154 3.1899092 0.84884727 -1.229725 -1.5212055 -0.86922556 -3.4014132
00000000: c39a 25c0 2b39 e03f 142b 43c0 0330 bcbe
00000010: 8b03 22c0 f08a 68c0 e951 bcbe e68d 0440
00000020: 3da4 673d 3e2a c63f 91e5 1d40 ab48 21c0
00000030: 42cb 56c0 4169 3ac0 3f48 83c0 31f8 38c0
00000040: 3bca 1f3f 35b7 75bf e3ee d4bf 92a5 73c0
00000050: b0c4 2ac0 56b7 fcbe 59f9 2b40 b101 30c0
00000060: 53d8 33c0 22d6 8fc0 666e bfc0 b0a1 35bf
00000070: 12fe 533f e801 79c0 ba6e ecbe 4d52 bcc0
00000080: 92a3 7bc0 b176 84c0 5201 afc0 2bcf 66bf
00000090: 2587 0640 5fdc 73c0 5025 17c0 aa9e 7dc0
000000a0: 22bb 193d 42bd b8c0 d1d3 51bf b848 213f
000000b0: 9295 24c0 d8ae 123f a473 2cc0 248b 9fc0
000000c0: b71c 8abf fa35 93c0 73ca 8540 affb adc0
000000d0: 6754 14c0 5b22 8ac0 aaf5 c6bf eb43 c4bf
000000e0: 3e34 adbf 3295 64bf 7927 4c40 0e4e 593f
000000f0: a167 9dbf ddb6 c2bf 9185 5ebf c1b0 59c0

embedding.2.1.running_var f4 [64]
6.114305 10.271482 11.386549 9.481941 11.729053 14.919318 6.8757296 7.9420705
14.2967615 7.323616 9.944618 14.1903925 14.549201 13.073035 13.040152 14.664096
6.4014053 14.731644 6.6241956 20.036867 6.2038994 6.212415 11.032142 8.157636
11.908258 20.7655 13.857023 7.254476 10.546075 21.433928 11.780039 19.014713
13.283276 19.622875 12.863237 5.8867884 6.2500777 11.346909 11.022639 19.357077
11.289176 19.560934 14.907307 6.7023644 10.228013 8.5157795 8.288479 22.477854
8.694385 15.678154 8.527097 11.852163 8.576798 16.59359 7.6684136 8.899722
8.234549 15.714763 4.6585455 12.59985 10.058752 22.953194 21.490114 17.095116
00000000: 63a8 c340 fe57 2441 4e2f 3641 08b6 1741
00000010: 33aa 3b41 87b5 6e41 fa05 dc40 7125 fe40
00000020: 89bf 6441 105b ea40 281d 1f41 d90b 6341
00000030: 87c9 6841 272b 5141 76a4 5041 23a0 6a41
00000040: 50d8 cc40 d0b4 6b41 69f9 d340 814b a041
00000050: 5886 c640 1bcc c640 a783 3041 ad85 0241
00000060: 3a88 3e41 be1f a641 5eb6 5d41 ab24 e840
00000070: b9bc 2841 af78 ab41 0a7b 3c41 221e 9841
00000080: 4c88 5441 a6fb 9c41 d2cf 4d41 9260 bc40
00000090: a300 c840 f08c 3541 bb5c 3041 4bdb 9a41
000000a0: 77a0 3441 cb7c 9c41 5484 6e41 c579 d640
000000b0: f1a5 2341 a240 0841 9c9d 0441 a5d2 b341
000000c0: 331c 0b41 b8d9 7a41 fd6e 0841 76a2 3d41
000000d0: 913a 0941 acbf 8441 a563 f540 4365 0e41
000000e0: b6c0 0341 ab6f 7b41 ce12 9540 fc98 4941
000000f0: a6f0 2041 24a0 b741 c1eb ab41 ccc2 8841

embedding.3.0.weight f4 [64, 64, 3, 3]
0.15299204 0.09959487 0.03990918 0.057634734 0.05212684 0.063406736 -0.0038617686 -0.037889387
0.05895605 0.012322168 0.09536281 0.067504026 0.056143638 0.10166165 0.04978186 0.038761515
0.11637159 -0.011357414 0.0023463978 -0.042091455 0.025075968 0.008009703 -0.01575683 0.045963842
0.04460304 0.005273156 0.053363435 -0.04636319 -0.11361718 -0.09991213 -0.00040160914 -0.028834175
-0.041668694 -0.049988404 -0.044424865 -0.06008348 0.050224338 -0.037167832 -0.0002447194 -0.034526326
-0.07042032 -0.03334393 0.060619418 -0.054443907 -0.028310409 0.113466024 0.117656104 0.02546707
-0.049742058 0.056738216 0.027411094 -0.0096552465 0.11846399 -0.015892882 0.07585192 0.04650584
0.032566432 -0.024390949 0.029489221 0.018166868 -0.081487134 0.0117157 0.032838784 0.07929495
0.034550376 0.020862518 -0.008996599 0.03573857 0.087102756 -0.03485199 0.0004967757 0.090986125
0.11098735 0.07575127 0.09358322 0.07465538 0.0660011 0.053627443 0.02117037 0.03069193
0.09165655 -0.03621405 0.016804961 0.07091042 -0.024044229 0.019615272 0.105201 -0.04123829
-0.0049749413 0.01679831 -0.038807932 -0.020709718 0.0357672 -0.048259743 -0.035501484 0.030274715
-0.042919293 0.030559849 0.018458514 0.02674424 0.15772836 0.050089866 -0.016198788 0.096407175
0.044553388 0.004410571 0.06808654 0.06787475 -0.0062429155 -0.005038797 0.050824553 -0.033931483
-0.051854886 0.018772982 -0.053630833 -0.016300933 -0.0006775459 -0.0058585876 -0.01763312 -0.03191811
0.023470297 -0.02227714 0.01911982 -0.022366602 0.00876393 -0.0025328202 0.064022966 0.03260137
-0.025041845 0.050438147 -0.04540382 0.016072853 0.0024927014 -0.024607167 0.050624743 -0.04937351
-0.082530685 0.0014055396 -0.001294739 -0.03661788 0.0078577865 -0.000409717 -0.012183821 -0.022469563
0.09276194 0.10124307 0.0026603315 0.026764274 0.18008949 -0.005830373 0.04791553 0.08650357
-0.039056186 0.021065583 -0.011238362 -0.014752427 0.017751697 -0.020401172 0.04707406 -0.02092254
0.033527624 -0.033063 0.06693698 0.10965424 -0.042152256 0.027273206 0.10541148 -0.021965245
0.009797291 0.048752524 -0.05142649 0.009939744 0.0060410486 0.04696386 0.038580924 -0.030304186
-0.0008746892 -0.017986542 0.015665457 -0.00908062 -0.006828841 0.055849195 0.031219827 -0.033607285
0.06442423 0.08203754 -0.04094855 -0.04670009 0.0527923 0.037773713 0.15279756 0.03282864
-0.010316092 0.027464416 -0.037688754 0.0087901205 0.042596735 -0.019517723 0.103459775 0.14797871
0.060493942 0.079142414 0.10455879 0.0885831 0.011963343 0.049420923 0.07266032 -0.01321514
0.027130729 -0.0037040086 -0.013199474 0.018894693 -0.0144370645 -0.1273202 -0.09914838 -0.019351142
0.019519996 0.019238787 0.044400252 0.016809624 -0.020370603 0.01622592 -0.046500783 -0.056619275
0.029192938 0.07529495 0.034069855 0.05401084 0.07168409 0.058850896 0.087311916 0.041317027
0.03982603 0.04176043 0.008081866 0.0455557 0.004389189 -0.009770856 -0.021817023 0.025242176
-0.057760324 0.012225378 0.030696714 0.034569822 0.02241554 0.0056920326 -0.024604091 0.024378996
0.049056772 0.042465735 0.035750043 0.080894426 0.10899205 0.07364371 0.059670545 0.025170129
00000000: f2a9 1c3e 65f8 cb3d cf77 233d 6612 6c3d
00000010: f482 553d 64db 813d ba15 7dbb e731 1bbd
00000020: e67b 713d ebe2 493c 944d c33d 8d3f 8a3d
00000030: dff6 653d fc33 d03d 10e8 4b3d 65c4 1e3d
00000040: 3a54 ee3d 7214 3abc 06c6 193b 1768 2cbd
00000050: 1e6c cd3c 213b 033c 7814 81bc 9544 3c3d
00000060: adb1 363d 70ca ac3b 9e93 5a3d 54e7 3dbd
00000070: 20b0 e8bd bb9e ccbd 118f d2b9 a635 ecbc
00000080: cbac 2abd a4c0 4cbd d9f6 35bd 181a 76bd
00000090: 09b8 4d3d 4c3d 18bd af4d 80b9 7a6b 0dbd
000000a0: 8738 90bd a593 08bd 114c 783d 9300 5fbd
000000b0: 3beb e7bc e060 e83d aff5 f03d 51a0 d03c
000000c0: 54be 4bbd 5566 683d 3b8d e03c 0a31 1ebc
000000d0: 409d f23d ca31 82bc 4058 9b3d e87c 3e3d
000000e0: 6164 053d 87cf c7bc 6193 f13c afd2 943c
000000f0: bae2 a6bd 35f3 3f3c f681 063d 6465 a23d
00000100: b284 0d3d dfe7 aa3c 7966 13bc 9b62 123d
00000110: ee62 b23d f6c0 0ebd 0e3a 023a ef56 ba3d
00000120: 564d e33d 7b23 9b3d 8fa8 bf3d ebe4 983d
00000130: 962b 873d 73a8 5b3d 7c6d ad3c a46d fb3c
00000140: 6eb6 bb3d 2f55 14bd 8faa 893c 7b39 913d
00000150: 67f8 c4bc 35b0 a03c 9f73 d73d 7be9 28bd
00000160: d504 a3bb 9c9c 893c 11f5 1ebd 6da7 a9bc
00000170: a180 123d 02ac 45bd 016a 11bd ae02 f83c
00000180: 24cc 2fbd a658 fa3c 4f36 973c bd16 db3c
00000190: 8b83 213e 082b 4d3d 52b3 84bc 2071 c53d
000001a0: 9d7d 363d 8d86 903b f570 8b3d eb01 8b3d
000001b0: 5f91 ccbb 7e1c a5bb 682d 503d bdfb 0abd
000001c0: ca65 54bd ccc9 993c 01ac 5bbd 8989 85bc
000001d0: 569d 31ba 65f9 bfbb 5573 90bc 90bc 02bd
000001e0: c844 c03c 8c7e b6bc 2ba1 9c3c 2a3a b7bc
000001f0: 9696 0f3c acfd 25bb 791e 833d 0489 053d
00000200: 8e24 cdbc 3b98 4e3d 5bf9 39bd 37ab 833c
00000210: 975c 233b f894 c9bc e45b 4f3d e13b 4abd
00000220: d905 a9bd 153a b83a 3bb4 a9ba a1fc 15bd
00000230: f2bd 003c 49cf d6b9 a69e 47bc 1712 b8bc
00000240: f9f9 bd3d 8758 cf3d f558 2e3b c040 db3c
00000250: 6169 383e b70c bfbb 1343 443d c928 b13d
00000260: 61f9 1fbd bb91 ac3c 1b21 38bc 2ab4 71bc
00000270: 026c 913c 5c20 a7bc bbd0 403d bf65 abbc
00000280: 4354 093d 116d 07bd 4116 893d 6792 e03d
00000290: d8a7 2cbd 0f6c df3c f9e1 d73d 75f0 b3bc
000002a0: d184 203c bab0 473d 95a4 52bd 4fda 223c
000002b0: fdf3 c53b 2d5d 403d 0807 1e3d 7c40 f8bc
000002c0: 664b 65ba 8358 93bc d854 803c e1c6 14bc
000002d0: 78c4 dfbb 20c2 643d b9c0 ff3c cba7 09bd
000002e0: daf0 833d 4c03 a83d abb9 27bd 9848 3fbd
000002f0: bd3c 583d 9cb8 1a3d f776 1c3e 5377 063d
00000300: d304 29bc 0efd e03c 865f 1abd 7004 103c
00000310: ea79 2e3d a2e3 9fbc b8e2 d33d bb87 173e
00000320: 7fc8 773d 6b15 a23d eb22 d63d 0e6b b53d
00000330: e601 443c 986d 4a3d efce 943d 5184 58bc
00000340: 4341 de3c f4be 72bb 9b42 58bc 0bc9 9a3c
00000350: 7089 6cbc 3a60 02be 4e0e cbbd 4986 9ebc
00000360: 66e8 9f3c a99a 9d3c 0add 353d 56b4 893c
00000370: 40e0 a6bc 38ec 843c 9b77 3ebd 9de9 67bd
00000380: 0726 ef3c 3d34 9a3d d58c 0b3d 783a 5d3d
00000390: 1ccf 923d a30d 713d 97d0 b23d 0b3c 293d
000003a0: 9f20 233d fc0c 2b3d ce69 043c 9d98 3a3d
000003b0: 30d3 8f3b f115 20bc 9db9 b2bc aec8 ce3c
000003c0: 1796 6cbd f44c 483c ad77 fb3c 1699 0d3d
000003d0: cba0 b73c 3b84 ba3b 858e c9bc 76b6 c73c
000003e0: c1ef 483d 8df0 2d3d a36e 123d faab a53d
000003f0: 3937 df3d 83d2 963d 1a69 743d 9631 ce3c
