checkpoints/MatchingNet/embedding_net_on_Omniglot_100.pth (torch, 459429 bytes, 24 tensors)

embedding.0.weight f4 [64, 1, 3, 3]
000000 dd 19 72 3b 0e 87 86 3d 21 2f ed 3c e4 4a 01 ba
       0.0036941685 0.065687284 0.028953137 -0.0004932119
000010 54 89 b3 3c a9 40 ee bc d7 a4 d9 bd 2a 73 99 bd
       0.02191607 -0.029083567 -0.10627144 -0.07492669
000020 3b 4d 1e 3d 35 2e 61 bc 41 77 50 bc 42 f8 19 bc
       0.03864787 -0.013743927 -0.012723745 -0.009397568
000030 8f 14 c6 b9 44 fe e6 ba 1f 28 a5 bd 14 7e 89 3c
       -0.0003778082 -0.0017623384 -0.08064293 0.016783752
000040 f0 8b f2 3d 29 87 b5 bc 36 18 ff 3c b1 2b 99 bd
       0.11843097 -0.022159176 0.031139474 -0.074790366
000050 de 55 8f 3d d5 0c 27 bd 25 3f 09 bd c4 a4 b1 3d
       0.069988 -0.040783722 -0.033507485 0.08674005
000060 75 c1 df bc d3 1a 83 3c fb 94 d3 bc 15 2b a3 3d
       -0.027313927 0.016004002 -0.025827875 0.079672016
000070 02 13 9b 3d f6 54 cf 39 85 7f 27 3a 1b d3 37 ba
       0.07571985 0.00039545418 0.00063895463 -0.0007012353
000080 21 97 1e bc 5a be a5 bd cb 1e a1 bd 7d 13 bc 3b
       -0.009679587 -0.08092947 -0.078672014 0.005739628
000090 6a 62 21 3e 03 28 b6 3c bb 10 be bc 4c bb a8 3b
       0.15760198 0.022235876 -0.023201337 0.0051492807
0000a0 dd 4c 22 bc e9 3e 51 bb 65 c9 87 38 3e a2 44 bd
       -0.009906021 -0.0031928367 6.474814e-05 -0.04800629
0000b0 a8 88 45 3c 42 da e8 3c 76 bb 17 3d ac de d0 3c
       0.012056507 0.028424386 0.03704401 0.025496803
0000c0 c0 12 58 3d 36 8c ad 3c fb 41 84 bd 43 4b 08 3d
       0.052752256 0.021185022 -0.06457897 0.0332749
0000d0 15 5c 87 bb 3b 0a b4 bd e0 53 72 3c 58 ca 6f bd
       -0.00413085 -0.08791014 0.014790505 -0.05854258
0000e0 bc ba 54 bd a3 3c b8 3d f5 4e b8 3d 05 b0 f2 3c
       -0.051935896 0.089959405 0.08999435 0.029624948
0000f0 13 7c 30 bb 40 41 ab 3c 65 b8 81 3d 75 6a 98 3b
       -0.0026929423 0.020905137 0.063339986 0.0046513625
000100 98 4a fc 3d 67 e2 02 3d a0 25 ec bc 4f d0 b3 3b
       0.12318915 0.031954195 -0.028826535 0.005487479
000110 1b c4 59 ba 1d 36 56 bc 8b 8a d1 bc c9 d7 c3 bc
       -0.0008307115 -0.013074425 -0.025578758 -0.023906605
000120 8b 7e 35 3d b0 79 8a bc b9 7a 09 bc 42 cd b7 3d
       0.044310134 -0.016903728 -0.008391076 0.08974697
000130 51 75 4a 3c 8a db 28 bd 61 81 be 3d 06 69 8e 3c
       0.012357072 -0.041224994 0.09302021 0.017384063
000140 8c 1f ee bc e4 b2 84 3b 12 38 2b bd d9 e9 d6 bc
       -0.029067777 0.0040496457 -0.04180152 -0.026234554
000150 53 6a aa bd 10 05 a7 bc 1f c2 bb bb 98 e2 82 3d
       -0.08321061 -0.020388156 -0.005729928 0.063908756
000160 91 31 d3 3d 41 98 17 3d e1 3b cb bc 58 52 d6 3c
       0.103121884 0.037010435 -0.024808826 0.026162311
000170 3d 66 ef b9 e4 c6 c2 3c 01 b6 c6 3d 84 29 d4 bb
       -0.00045661806 0.023776479 0.09702683 -0.0064746756
000180 5d b4 93 3b ce cd 74 3a 9d ed f6 bd 44 8c 08 bd
       0.004507585 0.00093385286 -0.1205704 -0.033336893
000190 6d bc 5a bd e8 f0 81 3c de 7a f1 3c b7 33 25 3d
       -0.053402353 0.015861943 0.029477533 0.040332522
0001a0 1e e6 82 3b 6b 3a af 3d 4b 02 86 3d bb 9f 99 3d
       0.0039947173 0.08556064 0.06543406 0.07501169
0001b0 92 cb 57 bd a1 e1 33 bd f8 16 f0 3c 50 7f ed bc
       -0.052684374 -0.04391635 0.029307827 -0.028991371
0001c0 47 c4 1c 3c 5d 90 aa 3d f2 6d b9 3c 4a 95 78 3d
       0.009568281 0.08328316 0.022635434 0.06068925
0001d0 b5 43 2b 3d c5 d8 ac 3d 16 62 0d bc 25 38 96 bd
       0.041812617 0.08439783 -0.008629343 -0.073349275
0001e0 00 f2 ad 3d eb 80 74 39 44 96 97 bd 1d 30 db bc
       0.084934235 0.00023317679 -0.07401708 -0.02675634
0001f0 f3 13 87 3b 2f aa 37 3c 9a 91 4c 3d 91 96 8a 3d
       0.004122251 0.0112100085 0.049943544 0.067669995
000200 4c f4 bc bc f3 6f 75 bd 48 87 21 3d de 78 2a 3d
       -0.023065709 -0.059921216 0.039435655 0.041619174
000210 35 a4 ed bc 2a 8c 8a bc ad d5 46 3d 38 bd 80 3c
       -0.029008964 -0.016912539 0.04854362 0.015715227
000220 88 52 00 3e ec d6 2b 3d 5f 43 26 bd e2 ec 9f bb
       0.12531483 0.041953012 -0.040591594 -0.0048805336
000230 57 6e 39 3d a0 32 78 3c b7 ad 2a bc f9 ac b7 3d
       0.045271244 0.015148789 -0.010417393 0.08968539
000240 05 6b bf 3b 88 44 a2 bc 0e 20 80 3d 04 55 60 3c
       0.005841615 -0.019808069 0.06256114 0.013692144
000250 44 a1 a8 3d db 22 1b 3d 16 b1 3d 3d e3 86 a7 bc
       0.08233884 0.037875038 0.04631146 -0.020450061
000260 bb 23 7f bd c4 b9 40 3b db 65 bb 39 83 e1 06 ba
       -0.062289935 0.00294076 0.00035743308 -0.0005145298
000270 73 2a 7c 3a e6 28 ca 3d b7 00 47 3d c1 81 54 bd
       0.00096193625 0.09871082 0.048584666 -0.051881555
000280 ab a6 3c bd 93 28 65 bd c6 a9 a3 bc 48 81 1f bd
       -0.046057384 -0.055946898 -0.019978415 -0.03894165
000290 f7 b8 e3 bc 2c 2b ca 3d af 46 db 3d 02 c1 61 3d
       -0.027798159 0.09871516 0.10706841 0.055115707
0002a0 ad f9 24 bd 6d 57 b7 bc 02 e9 be 3b df fc d7 3d
       -0.040277172 -0.022380555 0.0058261165 0.10546278
0002b0 7e 98 13 3c 50 43 91 bd c1 34 dc 3d 11 83 8c 3c
       0.009008525 -0.07092917 0.107522495 0.017152341
0002c0 ca a7 98 bc b7 27 13 3a 82 eb c0 3b 47 c6 8b 3c
       -0.018634696 0.0005613523 0.0058874497 0.01706232
0002d0 f4 1c 6f 3c 4a 05 ed 3d 3b 00 83 bd ea 77 d0 bc
       0.014594305 0.115732744 -0.06396528 -0.025447804
0002e0 25 d0 b4 3d 99 82 bc 3c f9 bb 8e 3d 58 d5 40 bc
       0.08828763 0.023011493 0.06969447 -0.011769615
0002f0 00 e0 7e 3c d5 18 c7 3c 53 74 92 bc 5d c9 46 3d
       0.015556335 0.024303833 -0.017877733 0.04853188
000300 45 5b ce bb ba 15 af 3d 23 aa be 3c 51 bb c3 bc
       -0.0062975013 0.08549066 0.023274487 -0.02389303
000310 c6 d0 87 3d 8d 0f a2 bd 0c a6 89 bc 85 41 d6 bc
       0.06631617 -0.07913122 -0.01680281 -0.026154289
000320 23 6f da bb 00 1b 91 bb 14 d3 aa bd 33 b2 b3 bd
       -0.0066660806 -0.0044282675 -0.08341041 -0.08774223
000330 6d d0 00 bc 0b 2a b3 bd 6e ee 4c bd af 60 8b 3a
       -0.007862193 -0.087482534 -0.05003207 0.0010633672
000340 3c 2a ff 3c f7 b8 0c bd d0 0c 97 3d dc 6e 86 3d
       0.031148069 -0.034356084 0.07375491 0.065641135
000350 34 03 65 bc ef 86 9e bd 56 e1 80 bd fb 1c 20 3c
       -0.0139778145 -0.0774058 -0.062929794 0.0097725345
000360 ce 48 b4 bc 12 09 c3 3c ba 1b 02 3c 23 ef 8b 3d
       -0.022007372 0.023808036 0.007941181 0.06832721
000370 ff f0 a3 bd 98 c1 9b 3d 9d 61 58 3d 4f 22 5c bd
       -0.08004951 0.076052845 0.052827466 -0.053743657
000380 b3 da e6 3c b8 76 40 3d bb fd 5f 3c 5f 9e 50 bb
       0.028180456 0.04698822 0.013671334 -0.0031832678
000390 14 bf a3 3c 08 23 6e 3d 14 03 57 3d 61 fd ca bd
       0.019988574 0.058138877 0.05249317 -0.099116094
0003a0 30 19 1b bd fc 74 13 3d e0 43 21 3d dc f5 9c bc
       -0.037865818 0.036000237 0.03937137 -0.019160204
0003b0 5d 74 39 3d 38 e3 92 3d 03 8e a5 3c 0f ff 93 3d
       0.04527699 0.07172245 0.020209318 0.07226383
0003c0 3e c1 68 3c 44 3b 93 bd f0 63 dc 3c b6 d0 02 bd
       0.014206229 -0.071890384 0.026903123 -0.031937324
0003d0 17 5f 8a bd a6 26 02 3d 6d 34 8a 3c 35 38 46 3a
       -0.06756418 0.03177514 0.016870702 0.0007561476
0003e0 dd 41 cf bc 80 39 d4 3d 73 74 81 3d 76 5a 35 bb
       -0.02529996 0.1036253 0.06321039 -0.0027672327
0003f0 66 3e f6 bc 57 10 d2 3c c7 92 19 3e 93 36 91 3a
       -0.03005905 0.025642557 0.14997397 0.0011078886

embedding.0.bias f4 [64]
000000 05 1c 39 bd 38 11 46 bc f6 10 24 3b ed 48 7d bc
       -0.045192737 -0.012089066 0.0025034524 -0.015459281
000010 94 a0 49 3d f7 ff 31 3d 6f 82 7b 3d bf bf 12 3d
       0.049225405 0.043456998 0.061403688 0.035827395
000020 68 25 21 bd 5d 1b 0b bd 85 df 39 3d f0 6a 1a bd
       -0.039342314 -0.033961643 0.04537918 -0.03769964
000030 dc 44 e3 bc 97 86 67 bd 4a a5 be 3c 9f c7 7e bc
       -0.027742796 -0.05652484 0.023272175 -0.015550523
000040 88 c9 51 3d 52 8e 95 3d 1c 24 ef bc 36 48 68 3c
       0.051217586 0.07302536 -0.029192023 0.014177373
000050 04 bc 74 3d 52 27 09 3e 91 21 fe 3b eb 79 ad 3c
       0.05974962 0.13393906 0.0077554663 0.0211763
000060 08 dc 60 3c 7b db d7 bc 1e 03 46 3c 8c f5 12 3d
       0.013724335 -0.026349774 0.012085704 0.035878703
000070 9d db 29 3d 64 1b 1d bc e5 d5 2e 3c e9 a5 10 3c
       0.041469205 -0.00958905 0.010671114 0.008828619
000080 de 97 65 3d d1 15 23 3d 17 06 40 3d 6e 3f a4 3c
       0.056053035 0.039815728 0.046880808 0.020049777
000090 5c df 08 bd 08 25 c1 3c ea bf d2 3a 2f da d5 ba
       -0.033416137 0.023577228 0.0016078923 -0.0016315634
0000a0 d4 00 ca bc 71 14 c3 bd bd df fc bb 48 f8 fc 3d
       -0.024658598 -0.09525383 -0.0077171014 0.123520434
0000b0 2a 1c f0 3c af ce 15 bc 77 3a bc 3c 03 f8 94 bc
       0.029310305 -0.0091435155 0.022977097 -0.018184667
0000c0 4c ab 69 bc c5 bb 23 bd 42 9c 91 bb 3b 11 64 bc
       -0.014262032 -0.039973993 -0.004443676 -0.013920124
0000d0 fd ad d4 3c 49 e4 ad bc b9 b4 19 bd 10 ee b5 bc
       0.02596187 -0.021227019 -0.037525866 -0.022208244
0000e0 7a 5a 54 3d f5 53 57 bc a6 62 06 3d 2f 23 cd 3d
       0.051844098 -0.0131425755 0.032808922 0.10016476
0000f0 76 fb e9 3b 93 fe 90 bb c2 7a f4 bb 9b ce 1c 3d
       0.007140572 -0.004424879 -0.007460923 0.03828297

embedding.1.weight f4 [64]
000000 cb 99 49 3f a9 b3 67 3f d4 2e 77 3f a7 db 81 3f
       0.78750294 0.90508515 0.9655583 1.0145158
000010 9d 98 6e 3f 99 d8 71 3f 74 c0 92 3f 08 8e 7b 3f
       0.9320162 0.94471127 1.1464982 0.982636
000020 c9 ae 7b 3f b0 d3 81 3f 8a 7c 70 3f 1c 85 8b 3f
       0.98313576 1.0142727 0.9394003 1.0899997
000030 a8 5e 87 3f 13 13 7a 3f 07 c9 8f 3f df 55 88 3f
       1.0575762 0.97685355 1.1233224 1.0651206
000040 22 1d 8a 3f 5c 5c 70 3f 0d 0b 89 3f 2c 89 75 3f
       1.0790141 0.9389093 1.0706497 0.9591243
000050 49 33 83 3f e7 01 85 3f 35 ac 74 3f a9 9c 68 3f
       1.0250026 1.0391206 0.9557527 0.90864044
000060 17 c9 88 3f cc cb 84 3f 7a a2 89 3f c1 75 81 3f
       1.0686368 1.0374694 1.0752709 1.0114061
000070 b8 36 78 3f e6 82 72 3f 48 f7 67 3f ff 01 76 3f
       0.96958494 0.94730985 0.90611696 0.96096796
000080 10 14 64 3f 1a ea 75 3f 4e 9c 8d 3f b4 56 86 3f
       0.8909311 0.96060336 1.1063325 1.049521
000090 dc 91 63 3f fc 78 78 3f 57 2b 82 3f 89 c2 73 3f
       0.8889444 0.9705961 1.0169476 0.9521871
0000a0 e3 1e 8d 3f e2 b8 88 3f 72 e8 85 3f 36 7d 71 3f
       1.1025051 1.0681422 1.0461562 0.9433168
0000b0 e7 eb 89 3f 05 6c 68 3f 63 d4 4d 3f fe 91 6c 3f
       1.0775117 0.90789825 0.804022 0.92410266
0000c0 cb 63 57 3f 15 74 44 3f 59 17 91 3f 17 79 76 3f
       0.84136647 0.7673963 1.133525 0.9627852
0000d0 7d 10 7a 3f f7 d9 6f 3f 1b 64 85 3f aa a7 88 3f
       0.9768141 0.9369196 1.0421175 1.0676167
0000e0 78 bd 8b 3f 2f 52 87 3f 22 d1 8b 3f 18 ec 87 3f
       1.0917196 1.0571955 1.0923197 1.0618925
0000f0 c4 b3 8a 3f a4 9e 68 3f e4 28 8a 3f 81 16 7b 3f
       1.083611 0.90867066 1.0793729 0.98081213

embedding.1.bias f4 [64]
000000 ba 8a 70 be 7d 47 90 bd 4c be 4c be 59 11 c8 bd
       -0.2349042 -0.07044885 -0.19994467 -0.09768934
000010 a5 4d 47 bd a1 03 3f be 2d 12 9a 3d cb e6 86 bd
       -0.048658032 -0.18653728 0.07522998 -0.06586989
000020 72 be 9d bd 87 65 6f be 7e b7 9a bd 2e b0 22 bd
       -0.0770234 -0.23378573 -0.075545296 -0.0397188
000030 22 c6 b0 3c cc 6a e5 bc de 41 d5 3d 3d 74 0b 3e
       0.021578852 -0.028005026 0.10412954 0.1361856
000040 ce 52 f2 3d 40 24 0a be a9 1b 3f 3d b5 22 88 bd
       0.118322 -0.13490391 0.04665724 -0.06647245
000050 b6 c6 04 3e 33 bd 0e 3e 72 cc 8c be eb 2b b4 bd
       0.12966427 0.13939361 -0.2749973 -0.08797439
000060 95 3e 51 be 71 65 13 3c ec 9e 05 3e 5c 4e 0a bd
       -0.2043403 0.0089963535 0.13048905 -0.033766136
000070 6b 74 3d bd 1c 30 a7 bb 29 a3 a8 bd 31 3c 59 bd
       -0.046253603 -0.0051021706 -0.08234245 -0.05303592
000080 7b 59 5b bc ce 8f 93 bd 76 0f 16 3d 35 8e 82 bd
       -0.013388033 -0.07205163 0.03663584 -0.0637478
000090 b3 34 8b be 7b 16 b7 be 04 95 12 3d f1 0c b3 bc
       -0.27188644 -0.3575934 0.035786644 -0.021856757
0000a0 07 a3 47 3d 35 ec 0f 3e 85 f9 23 be 48 13 21 be
       0.04873946 0.1405495 -0.16013153 -0.15730011
0000b0 3b dc e5 3d 81 14 4b bd b8 78 00 be bb 6b 97 be
       0.11223646 -0.0495801 -0.1254605 -0.2957438
0000c0 37 f1 16 3b 31 4a 0f be fc 6c 09 bd 8d 5a 8a bd
       0.002303196 -0.13993146 -0.0335512 -0.067555524
0000d0 b5 2c 94 bd 4d a2 3d be a1 e9 3b 3e 58 22 f2 3d
       -0.0723509 -0.18518944 0.18350841 0.11822957
0000e0 c1 6a 80 bb 2a 42 cb 3d 72 a8 71 3e bb f9 58 bd
       -0.003918976 0.09924729 0.23599413 -0.052972537
0000f0 8c ac 1e 3e 6d 91 80 bd 02 1c a2 bd 51 c1 7d be
       0.15495509 -0.06277738 -0.07915498 -0.24780776

embedding.1.running_mean f4 [64]
000000 c8 c2 4c bd bb bc 49 bc 4d aa cb 3a 80 49 86 bc
       -0.049990445 -0.012313063 0.0015538424 -0.01639247
000010 4d 70 72 3d f4 7a 45 3d e3 9f aa 3d d8 21 33 3d
       0.05918913 0.04821296 0.08331277 0.043733448
000020 3a 45 be bc 06 0f 03 bd 59 4a 47 3d 91 9a 6d bc
       -0.02322637 -0.03199675 0.048654888 -0.0145021835
000030 92 74 77 bc 08 52 66 bd d2 f5 12 3d ad 0a 43 3c
       -0.015103476 -0.056230575 0.035878964 0.011904401
000040 af de 89 3d d5 a8 9a 3d a5 5b 65 bc 73 2f 04 3d
       0.06731927 0.075517334 -0.013998901 0.032271814
000050 34 7b ad 3d b1 0c 18 3e 0b 4f 03 bd a1 b5 b9 3c
       0.08470765 0.14848591 -0.032057803 0.022669615
000060 6d ce b8 3c f2 9e 82 bc 82 02 03 3d a2 6e 34 3d
       0.022559369 -0.015944932 0.031984814 0.04405082
000070 0f 96 66 3d 1f 58 d6 bb 08 9c 9a 3c 45 39 44 3c
       0.05629545 -0.0065412666 0.01887323 0.011976545
000080 e3 57 5f 3d 28 5d 3d 3d 26 6e 81 3d 8b 29 26 3d
       0.054527175 0.04623142 0.06319837 0.040566962
000090 3c cc 8a bd 1c 96 d6 bb 11 53 b6 3c 63 82 62 bb
       -0.06777236 -0.006548656 0.022256406 -0.003456258
0000a0 c2 3d e7 bb f0 94 9d bd c1 4a d9 bb 7d c1 fb 3d
       -0.0070569227 -0.07694423 -0.006631226 0.12292764
0000b0 2c 41 7c 3d 30 03 1b 3b c5 9a b7 3c 6e ee 61 bd
       0.06158559 0.0023653023 0.022412667 -0.055159025
0000c0 73 9f 7b bc ec 6d 27 bd 16 0c 39 3c 01 be 8b bb
       -0.01535784 -0.040876314 0.011294385 -0.0042645936
0000d0 65 61 d1 3c 2a ec 75 bc fb e7 af bc fa c8 89 bb
       0.025559137 -0.015009919 -0.021472922 -0.0042048665
0000e0 20 7a 78 3d 50 79 de 3b 02 62 74 3d cf 2e d3 3d
       0.060663342 0.006789364 0.05966378 0.103116624
0000f0 e7 1e e7 3c ce a9 b4 3b 27 2c 67 3b 72 ce 39 3d
       0.028212978 0.0055134064 0.003527412 0.045362897

embedding.1.running_var f4 [64]
000000 34 d2 3f 3c f6 4d fa 3b 5f a1 cb 3b ca 29 64 3c
       0.011707831 0.007638688 0.0062143053 0.013925979
000010 6b 45 5f 3c a2 97 3e 3c 6d 39 b0 3c 6a 95 23 3c
       0.01362739 0.011632832 0.021511758 0.009984354
000020 c2 0e a1 3c a2 86 3e 3c c4 86 0d 3c 5a b6 d1 3c
       0.019660357 0.011628779 0.008638088 0.025599647
000030 88 94 79 3c 92 20 4f 3c 8f 91 19 3c 19 eb e3 3c
       0.0152331665 0.012642043 0.009373083 0.027822064
000040 39 80 2d 3c 0a bd dd 3b 2e e6 53 3c 30 07 b2 3c
       0.010589653 0.00676692 0.012933297 0.021731943
000050 4c cb a8 3c ac 41 16 3c 5c 4b 41 3d d9 6d c8 3b
       0.020604752 0.009170931 0.04719101 0.0061166105
000060 b6 58 af 3b 74 66 35 3c 28 42 77 3c 9c 2d 41 3c
       0.0053511513 0.01107179 0.0150914565 0.011790659
000070 cd 68 75 3c c0 20 f9 3b 73 de 70 3c 3d 42 8e 3b
       0.0149786 0.007602781 0.0147014735 0.0043413923
000080 0a 2b 04 3c 36 4c a3 3b 64 12 4d 3c 5e eb d8 3c
       0.008066902 0.0049834503 0.012516592 0.02647942
000090 75 5b 09 3d ea bc e2 3c ca e6 e5 3c f5 18 f4 3b
       0.033534486 0.027677972 0.02806415 0.007449264
0000a0 40 f7 46 3c 86 e3 54 3c b8 a3 5d 3c 23 d9 41 3c
       0.01214391 0.012993699 0.013527803 0.011831555
0000b0 5d 37 15 3d 63 5c 3e 3c 7f 7e 93 3b dc 26 26 3d
       0.03642975 0.011618706 0.0045011635 0.040564403
0000c0 d9 90 90 3b b1 98 b7 3b 5b 09 40 3c a5 46 3c 3c
       0.0044117984 0.005602919 0.0117209805 0.011491452
0000d0 81 8f 81 3c 54 2f c8 3b c8 ba 23 3c 6b 05 45 3c
       0.015815498 0.0061091576 0.009993263 0.0120252175
0000e0 17 dd 42 3c f6 85 97 3c 74 b8 a8 3c 0c 8e ca 3b
       0.011893532 0.018496495 0.020595767 0.006181484
0000f0 d3 06 7a 3c c7 8e 55 3c da e3 95 3c 96 e1 29 3c
       0.015260416 0.013034529 0.018297125 0.010368725

embedding.4.weight f4 [64, 64, 3, 3]
000000 c2 70 0c bd 16 da f9 3c 81 a5 e2 bc 51 8b 85 bb
       -0.03428722 0.0304995 -0.027666809 -0.0040754457
000010 22 72 36 bd cb 94 57 bd 90 32 e5 3c 19 bb a9 3c
       -0.04454244 -0.052632134 0.027978212 0.020719098
000020 fd 9c 06 bd 16 5b 64 3c d1 0a eb 3d c7 66 28 3d
       -0.03286456 0.013937732 0.114766724 0.04111364
000030 8c 5d 3e 3d cc c6 9d 3d da 7f 0c bd 80 0e 41 3d
       0.046475932 0.07703933 -0.034301616 0.04713297
000040 a8 cf 36 3d c8 d2 9a 3c cb ac de bd e7 15 9c bd
       0.04463163 0.018899336 -0.108728014 -0.07621365
000050 bc f3 2a bc 52 a9 2a bd e4 6b fb bc 49 9f 97 3c
       -0.010434087 -0.041665383 -0.030691095 0.01850857
000060 fd b7 48 bc 73 ba 95 3c 00 37 44 3c c7 7a 7c 3d
       -0.0122508975 0.018277382 0.011976004 0.061640527
000070 b6 6f b6 3c 09 5d 4c bc 71 47 c4 3c b7 1c 69 bc
       0.022270065 -0.012473353 0.023959847 -0.014228038
000080 05 e7 00 bd d6 d9 4e 3d ec ba 34 3c 87 42 de bd
       -0.031470317 0.050500713 0.011030894 -0.10852533
000090 fc cb e9 3d a9 1b 06 bd ba 67 ce bc 26 d6 8a 3d
       0.1141586 -0.032741223 -0.025195945 0.06779127
0000a0 9c 8b 0d 3d f5 ab 5f 3d 1a ac 88 3d 39 a8 91 3d
       0.03455697 0.05460735 0.06673451 0.07112164
0000b0 a8 19 9e 3c 3f 06 4e 3d cc 47 b8 bd af 8f 4b bd
       0.019299343 0.050298925 -0.08998069 -0.049697574
0000c0 c1 11 93 3c 53 f5 61 bc d4 b1 0f bd 94 76 45 3d
       0.017952802 -0.0137914 -0.0350817 0.048208788
0000d0 74 59 9a 3d d3 12 67 3d 82 b5 01 3e 01 3b 95 3d
       0.07536593 0.056414437 0.12666896 0.07286645
0000e0 ad f4 ee 3c 2a 8d 7e 3d 79 55 7d bc 8d 9e c9 3c
       0.029169405 0.062146343 -0.015462273 0.024611736
0000f0 c0 6c a6 3c c8 c2 49 bd 04 06 7a bd cc 4c 2c 3d
       0.020315528 -0.049258024 -0.061040893 0.042065427
000100 1a 56 bd 3c 2f 72 7a 3c 34 f5 3b 3d b7 49 a2 bc
       0.023112345 0.015286013 0.04588814 -0.01981054
000110 3a 23 43 bc d4 13 a4 3c 78 a9 6c bd 5a d1 4f bd
       -0.011910254 0.020028986 -0.057778805 -0.050736763
000120 09 83 2f 3d 7b ea e7 3c c0 36 4a bc 3f 3f 64 3d
       0.042849574 0.028310051 -0.012342155 0.05572438
000130 77 b7 09 3b 7b 9a f6 3c be a0 83 3d 5b 7c a8 3d
       0.0021013895 0.030102959 0.064271435 0.08226844
000140 49 14 d6 3d 2c e7 cc 3d 4e f0 97 3d 33 63 95 bc
       0.10453088 0.1000503 0.07418881 -0.018235778
000150 3e 61 54 3d 55 07 1e 3d cf 99 bc bb 3c 01 d2 3d
       0.05185055 0.03858121 -0.00575564 0.10254142
000160 32 e7 5e 3d d0 f8 51 3c ed 2c 81 bc c0 6e 21 ba
       0.054419704 0.012815669 -0.015768493 -0.00061581656
000170 fb 2c 03 3b 4a d4 f3 3c 0d f5 a5 3d ac 0a 85 bc
       0.0020015824 0.029764313 0.0810338 -0.01624044
000180 81 1e 9b 3d 21 e8 e5 3d 17 68 0c 3d eb 74 a8 3d
       0.075741775 0.11225916 0.034278955 0.08225425
000190 49 fa 5d 3d eb 43 6e 3c 23 b3 a2 3d 8d 76 2d 3d
       0.05419377 0.01454256 0.07944324 0.042349387
0001a0 23 7c 10 bd e5 fd 69 3d e0 42 d0 ba d0 54 97 bd
       -0.035274636 0.0571269 -0.0015889071 -0.073892236
0001b0 a5 0a 43 bb c7 ea 57 bd e9 49 3c bd 72 7f dc ba
       -0.0029760983 -0.052714135 -0.045968924 -0.001682265
0001c0 3a 8b 00 bd 33 6d 26 bd 43 44 c0 3c 62 e2 76 3c
       -0.031382777 -0.040631484 0.02347005 0.015068622
0001d0 63 0b 3d 3b c7 87 4d 3d 23 87 8d 3c 7d f8 b3 bd
       0.0028845898 0.050178315 0.017276352 -0.0878763
0001e0 89 34 43 3d a0 a2 4c bc 26 5e 0b 3d 78 fb a3 bc
       0.047657523 -0.012489945 0.034025334 -0.02001737
0001f0 a6 83 56 3d 07 04 77 3d 91 47 24 3c 9f bb 64 bd
       0.052371643 0.060306575 0.010026828 -0.055842992
000200 e3 64 13 3b 58 e8 9b bd ca ab 84 3b b1 cc 04 3d
       0.0022490553 -0.076126754 0.004048799 0.03242177
000210 e6 65 9b bb ab ca 39 3d ec 61 55 3d 97 64 03 3d
       -0.004742372 0.045359295 0.05209534 0.03207835
000220 83 16 9c 3d 49 90 99 3d 0b d8 39 3d a0 10 c0 3d
       0.07621481 0.07498223 0.04537205 0.09378171
000230 af 36 e9 3d 89 5d 0d 3d 00 4d 5c 3d fa d9 ec 3d
       0.11387383 0.03451303 0.05378437 0.11565013
000240 fc f4 a2 3c 9a 05 1e bc 41 89 17 bd 0a f4 72 39
       0.019892208 -0.00964489 -0.03699613 0.0002316983
000250 8b 36 3c 3c 5a fd 31 bd 33 81 be bb d5 f8 04 3b
       0.011487613 -0.043454506 -0.0058137416 0.0020289917
000260 27 26 26 3b fb 17 23 bc 71 6a 2d bd dc e0 e7 bb
       0.002535233 -0.009954448 -0.04233784 -0.007076366
000270 47 f9 60 bb fb 62 e5 bc 19 ff 97 bd 8f 1e 47 bc
       -0.0034328268 -0.0280013 -0.07421703 -0.012153282
000280 57 34 48 3c c5 9b 03 bd 30 72 52 3d dc 5f 5b 3d
       0.01221951 -0.032130975 0.05137843 0.053558215
000290 56 a5 15 bd 03 52 95 3d 27 b1 df 3c 7f d2 84 bd
       -0.03653463 0.07291033 0.027306153 -0.064854614
0002a0 be 7e 95 bc 5c 62 09 bb 4b 86 2c bd d9 df 8e 3d
       -0.018248912 -0.0020963168 -0.04212026 0.06976289
0002b0 97 c0 d2 3c c8 33 c2 bc a4 26 c2 3d 77 bb 91 bb
       0.0257266 -0.023706332 0.09480026 -0.0044473964
0002c0 9c ba 66 3d 9b c1 6d 3d 01 f4 4a 3d f9 f3 74 3d
       0.05633031 0.058045965 0.049549107 0.059802983
0002d0 c2 27 97 3d 32 13 ff 3c 0b c1 49 3c fb b2 b2 3c
       0.0738063 0.031137083 0.012314091 0.02181386
0002e0 2a 80 e0 3c be dd 28 bd bd bd 85 bb f5 ab b1 3d
       0.027404863 -0.041227095 -0.0040814565 0.08675376
0002f0 e4 ce fa 3c c6 36 5b bc 65 d6 90 bd 2a 2c 46 3d
       0.030616231 -0.013379758 -0.070721425 0.048381962
000300 0f 12 77 3a 79 ba 41 3d 70 1b aa 3c 76 85 bf bc
       0.0009424993 0.047296975 0.020765036 -0.023379069
000310 43 9b 2f 3c ec 1d 70 3d af b9 97 3c c2 c1 2d 3d
       0.01071817 0.058622286 0.018521158 0.04242111
000320 8c 37 a4 3d c3 76 10 3c 80 b8 c5 3c b2 9c b2 3d
       0.08018407 0.0088173775 0.024135828 0.087212935
000330 9e bc be 3a 4e f3 68 bc 08 f0 ce 3d 5c d0 ce bb
       0.0014552062 -0.014218165 0.10104376 -0.0063114595
000340 12 c2 d3 3c 65 66 42 bd fb ae 2e 3c 75 2e 22 bd
       0.025849376 -0.047460932 0.010661836 -0.039595086
000350 a2 da 1d bd 2c 2c 0f 3d ba 28 c2 3c 3a c1 d9 3b
       -0.038538583 0.034954235 0.02370106 0.006645349
000360 df ac 11 bd d0 c1 89 bd 10 78 5a bd 96 44 a6 3c
       -0.035565253 -0.0672642 -0.053337157 0.020296376
000370 d3 0d b6 3c 51 31 93 3c 7d 1f 31 3d 33 95 28 3d
       0.022223389 0.017967852 0.04324292 0.041157912
000380 1b df 42 3c 6e 56 2d 3b b0 0d bd 3c 1b 76 ff 3c
       0.011894013 0.0026449221 0.023077816 0.031184247
000390 34 54 5f bd 30 71 ac bc 7e e7 ea bc 49 7b c5 3c
       -0.05452366 -0.021050066 -0.028674837 0.024106639
0003a0 6e e0 34 bd 8d 2f 8d bb be a5 ba 3b e0 6d 8c 3d
       -0.044159345 -0.004308647 0.0056960275 0.068568945
0003b0 21 54 58 3d c1 8f 65 3d 30 59 90 3d b4 cf 2d 3d
       0.052814607 0.056045298 0.07048261 0.04243441
0003c0 53 c8 cb bc bb 42 a0 39 a9 3f bb 3c 24 23 b8 3d
       -0.024875795 0.00030567296 0.022857504 0.089910775
0003d0 82 a8 07 3e 39 50 6a 3d a6 49 d6 3d 43 ab 4c 3d
       0.13247874 0.057205413 0.10463266 0.049968015
0003e0 0e b8 45 bc cc 26 d7 3d 1a 02 1e 3d 2d d4 0a bd
       -0.012067808 0.10505447 0.038576223 -0.033893753
0003f0 83 ce 34 3c 16 6f 80 ba 1c ae 65 3d 8f 38 65 3c
       0.011035564 -0.0009798731 0.056074247 0.013990535

embedding.4.bias f4 [64]
000000 63 e0 90 3a e8 0a bd 3a 28 43 3a bb 86 7e e6 3a
       0.00110532 0.0014422806 -0.0028421376 0.0017585314
000010 51 28 ab 3a 33 73 e1 ba 94 9d 7e ba 4f 24 bd ba
       0.001305828 -0.001720047 -0.0009712812 -0.0014430376
000020 71 b3 27 ba 9e 19 5e bb e7 b5 d1 ba 0a 68 66 bb
       -0.0006397283 -0.003388978 -0.0015999646 -0.0035157227
000030 72 78 9d 3b 82 08 9c 3a ee 17 c3 3b 3c 51 53 ba
       0.004805618 0.0011904391 0.0059537804 -0.0008061116
000040 cc 7e 40 3b 4d fc 98 3a d4 e9 ee ba 9f 0b 5a bb
       0.0029372452 0.0011671871 -0.0018227645 -0.0033271087
000050 3c b6 b2 b9 b6 1f d4 39 d2 53 84 3a 07 53 a3 39
       -0.0003408658 0.00040459418 0.0010095781 0.00031151643
000060 bb 9e bd 3b 5f 81 7b 3b 9a 3a bf 3a 64 82 5e 3a
       0.0057867444 0.0038376672 0.0014589608 0.00084880576
000070 9c a1 b6 3a 05 ba ad bb d0 eb f1 ba ee 71 aa 3a
       0.0013933661 -0.0053017163 -0.0018457118 0.0013003924
000080 1a a6 2a 3b b8 5d 78 3b 26 c8 ff 3a d1 5b 05 bc
       0.0026038946 0.0037897658 0.0019514605 -0.0081395665
000090 8e 8d 77 ba db fc 0b ba c8 21 16 bc 8d da af 3a
       -0.00094433955 -0.00053401076 -0.0091633275 0.0013416574
0000a0 aa 07 24 bb 8c b7 97 3b a3 49 8c 3b 93 9b b7 3a
       -0.0025028982 0.004630035 0.004281239 0.0014008157
0000b0 3f ab 0f bb a7 cf 45 3a fc 53 68 3b e8 1a 9c b9
       -0.002192214 0.0007545896 0.003545045 -0.00029774685
0000c0 26 ac c0 39 1a 86 65 b8 db f9 43 3b 28 e0 e4 bb
       0.00036749354 -5.4722746e-05 0.0029903564 -0.0069847293
0000d0 16 ac cd 39 db 52 9f 3a 18 2c 49 3b 5e cc b4 3a
       0.0003922886 0.001215543 0.0030696448 0.0013793816
0000e0 49 06 c8 3b 75 2e 0c ba 8f 3b 17 3b 28 51 d8 ba
       0.006104265 -0.0005347499 0.0023076271 -0.0016503679
0000f0 03 cc 2c bb 7f c9 0b 3a de 0e 2c 3b 7b 18 e6 38
       -0.0026366718 0.00053324545 0.0026253979 0.000109718145

embedding.5.weight f4 [64]
000000 c8 3a 52 3f 8b 21 60 3f 06 5a 8e 3f 33 f5 81 3f
       0.82120943 0.8755118 1.1121223 1.0152954
000010 57 07 76 3f 44 91 91 3f 09 59 6c 3f 1b 77 82 3f
       0.9610495 1.1372457 0.92323357 1.0192598
000020 f1 e5 8a 3f e5 0b 66 3f c7 3d 73 3f a5 09 6e 3f
       1.0851423 0.898619 0.9501614 0.92983466
000030 14 53 90 3f 71 2e 90 3f 19 9f 8f 3f 80 1d 7c 3f
       1.1275353 1.1264173 1.1220428 0.98482513
000040 77 bf 88 3f 52 eb 87 3f a5 04 78 3f 79 94 85 3f
       1.068343 1.0618689 0.96882087 1.0435935
000050 10 ab 80 3f c1 2a 85 3f 9b f4 58 3f a7 e5 61 3f
       1.0052204 1.0403672 0.8474824 0.88241047
000060 6a a7 6c 3f 24 66 78 3f ed 7f 45 3f 9b 52 98 3f
       0.92442954 0.97030854 0.77148324 1.1900209
000070 f3 d6 4d 3f e8 ba 72 3f a1 c2 43 3f 73 d9 85 3f
       0.8040611 0.94816446 0.76468855 1.0456985
000080 c6 cf 91 3f 9c 80 8a 3f f4 3e 7b 3f 67 56 7d 3f
       1.1391532 1.0820498 0.98142934 0.98959965
000090 a2 14 81 3f 40 45 6e 3f 29 95 7c 3f ac 8e 87 3f
       1.0084422 0.9307442 0.986651 1.0590415
0000a0 48 db 63 3f e8 3d 8a 3f cb 9e 93 3f 5c a6 70 3f
       0.8900647 1.0800142 1.1532835 0.94003844
0000b0 99 20 71 3f 64 de 8d 3f 1d 8f 6b 3f cc 4c 8c 3f
       0.94190365 1.1083493 0.9201525 1.0960937
0000c0 fc 83 7f 3f b9 eb 6e 3f eb 16 92 3f be 39 81 3f
       0.9981077 0.93328434 1.1413244 1.0095747
0000d0 41 1e 87 3f 3f 89 89 3f f9 c3 84 3f ce ec 66 3f
       1.0556108 1.0745009 1.0372306 0.90205085
0000e0 76 c6 8b 3f 30 24 55 3f ed 76 80 3f 77 60 7e 3f
       1.091994 0.8325834 1.0036293 0.99365944
0000f0 d5 37 6f 3f b3 8d 87 3f fc 42 76 3f 25 6b 5a 3f
       0.9344457 1.0590118 0.9619596 0.8531974

embedding.5.bias f4 [64]
000000 5a 4a b3 be 69 ad 96 be 6b 7e cd bd ce 7c 4f bd
       -0.35017663 -0.29429176 -0.10033878 -0.050656132
000010 34 f5 96 bd 4c 4d 0e bd 53 4c 9e be f6 c5 d9 bd
       -0.073709875 -0.034741685 -0.30917606 -0.10633461
000020 77 09 da bd 2d bf 98 be c3 19 26 be 0e bd 99 be
       -0.106463365 -0.29833356 -0.16220765 -0.3002705
000030 5e 65 71 bd ba 49 58 bd 32 2d af bd ad 42 15 be
       -0.058934562 -0.052804686 -0.08553542 -0.14576216
000040 6a 01 3c be c3 b9 1e be c8 3a e5 3b 1b e1 5e bd
       -0.18359914 -0.1550055 0.0069955327 -0.054413896
000050 4e 40 fc bd 2d 48 01 be 2c 07 bd be b9 e2 04 be
       -0.12316953 -0.12625189 -0.36919534 -0.12977113
000060 d3 2f 3e be ea 78 5c be 7c 48 97 be 7d 83 3b be
       -0.18572931 -0.215305 -0.2954749 -0.18311878
000070 0a 61 b8 be 87 a9 ef bc 25 84 84 be e4 66 32 bd
       -0.36011535 -0.029255642 -0.25882068 -0.043555155
000080 d9 6c 88 bc 95 a6 de bd 8f e5 b5 bd 85 e5 39 bc
       -0.016653465 -0.10871617 -0.088816755 -0.011346226
000090 22 08 1c bd 9a 51 1c be fd b3 44 be 33 5f 91 bd
       -0.038093694 -0.15265504 -0.19209285 -0.07098236
0000a0 d2 2f 8d be 85 39 5e 3d 65 0a 48 3d cd 0a f5 bd
       -0.27575547 0.054254074 0.048838038 -0.11964951
0000b0 30 8d 19 be c0 78 62 3d ac 9e ac be 88 e3 16 be
       -0.14995265 0.055290937 -0.33714807 -0.14735234
0000c0 60 e0 bd bd ea 91 fa bd 52 75 00 be e0 f1 78 3c
       -0.09271312 -0.12234862 -0.12544754 0.015194386
0000d0 09 63 77 bc 9c 09 78 bd 5a ae 8c be a1 a8 c2 bd
       -0.015099295 -0.06055604 -0.2747677 -0.0950482
0000e0 c8 09 df bd cb c8 ba be 09 ab fd bd b7 82 0a be
       -0.108905375 -0.36481318 -0.12386138 -0.13526426
0000f0 03 7c 80 be 4f 3e 77 bd cf f1 a0 be fb 73 02 be
       -0.25094613 -0.060362156 -0.31434485 -0.12739556

embedding.5.running_mean f4 [64]
000000 ec 80 6f 40 fc 84 23 c0 bf 2f a1 3f bf 96 1c c0
       3.7422438 -2.5549917 1.2592696 -2.4467008
000010 7d ad 2a c0 d9 9a aa bf 09 f9 82 c0 e6 45 73 bf
       -2.666839 -1.3328506 -4.0929 -0.9502853
000020 a0 bf ac c0 c0 21 ca 3f 4f fa 97 bf 61 c0 81 3f
       -5.3983917 1.579155 -1.1873263 1.0136834
000030 df b5 23 c0 9d da 83 bf 25 d3 19 3e fe 00 5e c0
       -2.5579755 -1.030109 0.15021951 -3.4688106
000040 a9 cf 2d bf e8 d1 98 3e 4a 6b 4b c0 fd 3e 97 bf
       -0.6789499 0.29847646 -3.1784234 -1.1816097
000050 51 17 e5 bf a2 91 2a c0 92 08 b3 be 77 7e 42 3e
       -1.7897741 -2.6651387 -0.34967476 0.18993555
000060 12 b8 4f c0 e2 a8 87 3e e7 e0 41 be 54 d1 d8 3f
       -3.2456098 0.26496035 -0.1893345 1.6938882
000070 a6 76 1e bf 75 d7 fb be 60 26 35 3f 76 e7 25 c0
       -0.61899793 -0.49187818 0.7076168 -2.5922523
000080 15 3b d1 bf 48 5f 57 c0 cd f1 51 bf 89 e7 95 be
       -1.6346155 -3.3651905 -0.82009584 -0.2927821
000090 d6 7d d2 bf 66 45 0b c0 a3 12 54 c0 61 a2 01 c0
       -1.6444652 -2.1761107 -3.3136375 -2.0255358
0000a0 fa 3a 06 c0 55 2d d4 bf b2 38 c0 be 75 a7 ae 3c
       -2.0973496 -1.6576334 -0.37543255 0.021320084
0000b0 cc 94 d5 be ed b7 f3 bf 22 ef 4e 3d 21 07 20 c0
       -0.41715086 -1.9040505 0.050521024 -2.500435
0000c0 e2 14 94 be bc de 04 c0 4d b1 c3 bf 83 b2 df 3e
       -0.28922182 -2.0760946 -1.5288483 0.4369088
0000d0 ed 7a c8 bf 6e da 42 c0 0a 61 9c c0 a9 46 c6 3f
       -1.5662514 -3.044582 -4.8868456 1.5490314
0000e0 8e e1 3c c0 6d c0 52 bf 25 94 b1 bf ad 5f 63 c0
       -2.9512668 -0.8232487 -1.3873335 -3.5527146
0000f0 f8 64 80 c0 89 15 4e bf 7b 74 85 c0 93 02 96 bf
       -4.0123253 -0.8050161 -4.170469 -1.1719536

embedding.5.running_var f4 [64]
000000 58 32 af 40 00 48 c5 3f 97 14 82 40 91 dc d6 40
       5.4748955 1.5412598 4.0650134 6.7144246
000010 2f 69 f7 3f 9d bd 9e 40 71 44 b4 3f 8f c6 6e 40
       1.9328974 4.960646 1.4083387 3.730869
000020 9e 5b 80 40 77 07 05 41 b4 58 36 40 11 d1 b7 40
       4.0111837 8.314322 2.849164 5.744271
000030 6e 28 bd 40 d1 39 c1 40 58 37 46 40 90 63 2f 40
       5.9111853 6.0383077 3.097128 2.7404518
000040 26 c4 7d 40 87 7b 28 40 c3 00 48 40 86 b7 6e 40
       3.965097 2.6325395 3.1250465 3.7299514
000050 1a 7c 90 40 4a 8b 11 40 f5 dc a8 40 5c 76 04 40
       4.515149 2.2741265 5.2769723 2.069724
000060 4f ba be 3f b9 e7 58 40 d4 d5 7a 40 a4 a6 5f 40
       1.4900607 3.3891432 3.919301 3.494546
000070 2e 0e 6e 40 ce e6 44 40 ad c4 41 40 b1 8f 83 40
       3.7196155 3.0765872 3.0276291 4.1112905
000080 41 cd 2b 41 c9 bf bc 40 76 c3 38 40 03 4a 22 40
       10.737611 5.8984113 2.88693 2.5357673
000090 80 d1 b7 40 49 0b 42 40 87 f9 ef 3f 97 b8 a5 40
       5.7443237 3.0319388 1.8748025 5.178783
0000a0 65 80 ac 3f db 7b f6 40 59 37 d3 40 34 e7 17 40
       1.3476683 7.702619 6.6005063 2.3734865
0000b0 13 c6 1a 40 85 46 f1 40 4d 75 71 40 5b a0 97 40
       2.4183395 7.5398583 3.7727845 4.7383246
0000c0 08 c0 a1 40 f6 0b 19 40 e6 2b 94 40 b0 c2 93 40
       5.0546913 2.391355 4.6303587 4.6175156
0000d0 be b6 38 40 44 93 6c 40 8c 06 0f 40 26 67 37 40
       2.8861537 3.6964884 2.2347746 2.8656707
0000e0 30 7f 81 40 ab ec 89 40 a7 4f f8 40 7a 20 22 40
       4.046776 4.31014 7.759723 2.5332322
0000f0 81 30 00 40 80 ca b5 40 8b 6f 0a 40 a2 0c fa 3f
       2.0029604 5.680969 2.163058 1.9535105

embedding.8.weight f4 [64, 64, 3, 3]
000000 fa 85 9f bc d7 01 f8 3c e5 21 9a 3b 72 90 29 bd
       -0.019473065 0.030274315 0.0047037476 -0.04139752
000010 c1 35 68 3c eb 86 84 3c 16 19 94 bd a6 b1 e1 3c
       0.014172972 0.016177615 -0.07231347 0.02755053
000020 24 cc 04 3d c7 da cc bc 0f 47 6d 3d f4 96 a8 3b
       0.032421246 -0.025006665 0.057929095 0.005144948
000030 93 fc 51 bd 01 f5 3b bc fa d5 0c bd 03 f2 80 bc
       -0.051266264 -0.011471988 -0.03438375 -0.0157404
000040 0a 08 1e 3d 3c de 28 bc d5 8f bb 3c 4d cc 4d bc
       0.038581885 -0.010306891 0.022895733 -0.012560916
000050 47 d8 03 bd 62 3a 17 3d 83 df 73 3c b7 03 97 3b
       -0.03218868 0.036920913 0.014884832 0.004608597
000060 96 75 17 3d 75 08 f1 3d 4b c8 9b 3d 73 28 67 3b
       0.036977373 0.11769191 0.07606562 0.0035271912
000070 a1 89 ab 3c 53 7e 05 bd d3 50 5d bd 82 c1 9e 3b
       0.02093965 -0.032591175 -0.054032158 0.0048448453
000080 ba 46 72 bd 42 0f cb bc fa 2b 08 3d 68 7c 4b bd
       -0.05914948 -0.024787549 0.033245064 -0.04967919
000090 0e 2d 0f bc 59 96 38 bc d0 e2 65 3d 1a c1 10 bc
       -0.008738769 -0.011266314 0.05612451 -0.0088351015
0000a0 d7 07 0f bd 28 4e 21 3d a4 1e 99 3c a3 91 52 bd
       -0.034919586 0.039381176 0.018691368 -0.05140842
0000b0 00 a2 d5 3b 1a 39 03 3c 0c a0 22 bd 1e 16 5c bc
       0.006519556 0.00800922 -0.039703414 -0.0134330075
0000c0 1b b1 56 bc e2 06 84 3b fe 65 ea bc 11 f7 99 3b
       -0.013103749 0.004029141 -0.028613087 0.004698642
0000d0 8b f4 8f bc a7 6b f8 ba 9e 18 91 bd 12 54 0c 3e
       -0.017572662 -0.0018952981 -0.070847735 0.13703945
0000e0 4c ca fc 3c 67 e8 1e bd 13 b5 17 bc 92 3d 01 3d
       0.030858181 -0.038795855 -0.00925948 0.03155286
0000f0 84 fc 50 bd c8 9b 37 3d 3d a1 ab bc 91 fe 90 bd
       -0.051022068 0.0448263 -0.020950908 -0.07079805
000100 88 8f f0 3b d9 2f 0b bd c9 76 44 bd 81 1d 3f bb
       0.007341329 -0.033981178 -0.047964845 -0.0029161873
000110 1e a8 ab bc 67 9d be bd a3 8d d8 bc 7c 13 d3 3c
       -0.020954188 -0.09307366 -0.026434725 0.025766127
000120 69 ed b1 3d f5 1d be 3d 9e 1e bd 3c 01 fe 1b 3d
       0.086878605 0.092830576 0.023085888 0.038084034
000130 8d 69 e1 3b f2 46 97 3d 0e bc 32 bc 27 e4 ba 3c
       0.0068790377 0.073865786 -0.010909094 0.02281387
000140 49 14 b0 3b 65 c5 bb bc d3 cb 33 3d fb 8a 55 3d
       0.005373512 -0.022921273 0.043895554 0.052134495
000150 d1 ad 99 bd 89 b8 b9 bc d4 fd 9c bc e3 e4 e2 bd
       -0.07503856 -0.022671001 -0.019164003 -0.11078813
000160 47 bf 7c 39 86 16 6e bd f2 82 95 bc 8a 19 f7 3c
       0.00024103849 -0.05812695 -0.018250916 0.030163545
000170 a0 cf af bc ea c1 9e 3c c1 df 80 3c 78 b8 71 3c
       -0.021461308 0.019379575 0.015731694 0.014753453
000180 8c af da bc bc 6c 01 3d 7e 8b dc bc 90 b3 e1 bc
       -0.026695035 0.031597838 -0.026921984 -0.027551442
000190 f6 ef 43 bd ef bb f0 3c 98 1d 0f bd e0 b4 1b bd
       -0.047836266 0.029386489 -0.034940332 -0.038014293
0001a0 af 5a 6c bd d3 38 20 bd 7e 53 3b bd ca 17 38 bd
       -0.05770367 -0.03911669 -0.04573392 -0.044944562
0001b0 70 24 b4 bb 2b b0 00 3c 81 50 8c b9 1e 2f b7 bd
       -0.0054975078 0.007854502 -0.0002676286 -0.08944534
0001c0 6e b2 ab bd 7b 7e a4 bd 15 f1 cc bc bb 07 01 bd
       -0.08383642 -0.08031937 -0.0250173 -0.031501513
0001d0 0e 02 0c be ac cd 08 3c 04 3e ec 3c f8 ac 07 3d
       -0.13672659 0.008349817 0.028838165 0.03312394
0001e0 03 8e 09 bd 62 d1 1b ba 54 57 7d 3b d6 9d 0b 3d
       -0.0335827 -0.0005943981 0.0038656788 0.03408607
0001f0 0a 9d 6e bc dd 48 99 3d 37 98 a5 3d 98 1a b0 bc
       -0.014563808 0.07484601 0.08085673 -0.021497056
000200 99 11 2f bd 0b d9 68 3d 3c e5 19 3d fe eb 40 3d
       -0.04274139 0.056847613 0.03757213 0.04710006
000210 80 53 35 3d 8a 3a 36 3d 79 a0 2e bc 99 6e 0b bb
       0.044269085 0.04448942 -0.010658377 -0.0021275638
000220 41 49 0f 3e b1 1f e3 3c ea 7c b7 bd a6 99 0b bd
       0.13992788 0.027725073 -0.08959372 -0.034082077
000230 10 92 01 3e 41 97 3e 3c 82 7c ff 3c 41 6f aa 3d
       0.12653375 0.011632741 0.0311873 0.08322001
000240 5c 72 15 bd b8 c6 b2 bd 28 3e 0a bd 2b 09 e9 3c
       -0.036486015 -0.08729309 -0.033750683 0.028446754
000250 62 cd e2 bb 73 97 0c bd 5c 67 65 bd a5 f3 a6 3b
       -0.006921456 -0.03432412 -0.056006774 0.0050949627
000260 81 3c 35 bd f2 b5 f0 3c 0b 01 b8 bb a5 f9 84 bd
       -0.044247154 0.029383633 -0.0056153587 -0.064929284
000270 f7 42 0e 3d 2e 07 66 3d 18 97 06 bd e4 c0 fa 3b
       0.03473183 0.05615919 -0.032858938 0.007652389
000280 6b 5c 81 3d 8d 28 32 3d 02 da 45 3d 06 28 b0 3d
       0.063164555 0.043495703 0.04830361 0.08601384
000290 da 13 1c 3d 74 de 08 3b b2 5a 48 3d 1c 32 bf bc
       0.03810487 0.0020884546 0.04891462 -0.023339324
0002a0 0d f6 c0 b8 be 7d 5a 3d 62 14 06 3d 37 98 7f 3d
       -9.201104e-05 0.053342573 0.032734282 0.062401023
0002b0 71 e9 a8 bc c7 9d 9e bc 18 27 05 3d 97 43 84 bc
       -0.020619126 -0.019362343 0.032507986 -0.01614551
0002c0 2b 18 d9 3c 0c 64 f2 bc 8f 52 dc bc 08 44 e0 bc
       0.026500782 -0.029588722 -0.026894836 -0.02737619
0002d0 5b 30 35 3d f0 7c f0 3c 9a bd fb bc 3c ff 81 bc
       0.04423557 0.02935645 -0.030730058 -0.015868776
0002e0 8b 56 24 3d 93 73 9e 3c b0 87 b5 3c c8 3d 6f 3c
       0.040121596 0.01934222 0.022159427 0.014602132
0002f0 f1 74 09 be 89 f5 02 3e 32 33 50 3c 1e e4 bf 3d
       -0.13423516 0.12788977 0.012707518 0.09369682
000300 2b 24 88 3c 89 89 d4 bc 47 58 4d 3d a1 8e a1 bc
       0.016618809 -0.025944488 0.050133016 -0.019721331
000310 82 dc a7 3c a2 f3 dd 3c 7d 14 65 bd 36 54 f9 3c
       0.020490889 0.027093712 -0.055927742 0.030435663
000320 94 b8 81 3c 7b b3 b9 bd 45 84 55 bc c8 f2 43 bc
       0.015835084 -0.09067436 -0.013032024 -0.011959739
000330 4c 1c 8a bd 45 1e 5d 3c 1d 57 6c bc 57 dc 77 3b
       -0.067436785 0.013495986 -0.014425066 0.0037820542
000340 20 0b 00 3c 0f 0f 88 3c 24 9e b7 bc 03 c4 69 3d
       0.007815152 0.016608743 -0.022414275 0.057071697
000350 82 e2 fd 3c 3b 26 a8 3b 5b 05 06 3d b1 71 24 bc
       0.030991796 0.0051315106 0.03271995 -0.010036872
000360 5f e9 13 bd 76 89 02 bc 1e 8f 62 3c 69 78 be bd
       -0.036111232 -0.007967344 0.013828067 -0.0930031
000370 1e 0e e7 bc 44 11 69 bd 15 5c d3 bc 73 34 4c 3d
       -0.028204974 -0.05690123 -0.025800744 0.049854707
000380 2f 5d ed 3b c5 8c a3 3b b6 b2 57 bd 81 ce 74 bc
       0.0072437744 0.0049911463 -0.052660666 -0.0149418125
000390 75 fa 63 3d 4b 53 11 3b 98 56 70 bd 6b 75 73 bd
       0.055658776 0.002217489 -0.058676332 -0.05943815
0003a0 ab 10 5b 3d f5 94 17 bd d0 4d 13 3c 36 4a 21 3c
       0.053482693 -0.03700729 0.00899072 0.009844353
0003b0 e8 f0 5d 3d 27 ec e3 bd 05 32 4a bd 66 f5 0c 3d
       0.054184824 -0.11129027 -0.04936411 0.034413718
0003c0 4e eb 7e bd f9 8f 4a bd e9 e5 d8 b9 15 43 61 bc
       -0.062236123 -0.04945371 -0.00041370027 -0.013748904
0003d0 74 23 e8 bd 82 fd cd bd 6c d4 64 bc 29 e9 8e 3b
       -0.11334887 -0.100581184 -0.013966661 0.004361291
0003e0 58 4f 1f bd ce 91 18 bc 28 29 b1 bd 5a c4 59 bd
       -0.038894027 -0.009312106 -0.08650428 -0.05316577
0003f0 ff 7e 72 bd 1f 1b 11 3e 63 7b 27 bc df 81 7a bd
       -0.059203144 0.14170502 -0.010222289 -0.06115901

embedding.8.bias f4 [64]
000000 cf d3 30 3b c1 2e bf ba b2 0b 31 3b a5 0f d8 b8
       0.0026981717 -0.0014586077 0.0027015028 -0.00010302597
000010 a3 97 eb 3a b6 c1 00 3b 2f f3 6e bb 20 82 e4 b9
       0.0017974268 0.001964671 -0.0036460867 -0.000435845
000020 b0 e0 1c bb 71 38 3a bb 7c 08 4a bb 56 c4 47 3b
       -0.0023937635 -0.002841499 -0.003082781 0.0030482016
000030 74 08 c9 ba 66 60 4d 39 35 79 c5 3b a6 a9 96 bb
       -0.0015337602 0.00019586235 0.006026412 -0.0045978604
000040 d1 f0 bc b9 22 e4 5c bb a6 21 80 ba f0 83 99 39
       -0.00036037577 -0.0033705314 -0.0009775653 0.00029280735
000050 73 d5 17 b9 9b 7c 86 3a fd 20 61 ba 6a 54 ec 3a
       -0.00014479998 0.0010260524 -0.00085879845 0.0018030528
000060 6b 66 ed ba 47 fd 12 bb 02 7f 53 39 dc 1b 96 3a
       -0.0018112188 -0.0022428797 0.00020169842 0.0011452395
000070 39 49 05 bb 58 58 70 3a 54 8f 65 bb 57 c9 25 3b
       -0.0020337834 0.00091684377 -0.0035028057 0.002529701
000080 cd 90 15 3b 46 08 fb 3a d1 6e 20 3b 20 60 5f bb
       0.0022821904 0.0019152246 0.0024480114 -0.0034084395
000090 1f 55 28 3b 22 0b 70 3a 92 05 f7 ba ed ae 22 3b
       0.0025685502 0.00091569324 -0.0018846265 0.0024823502
0000a0 ab a6 00 bb b5 3c 95 3b 2a ed a0 39 96 f8 be 3b
       -0.0019630592 0.004554356 0.0003069428 0.0058279736
0000b0 6d 0d 2c 3a fc e0 24 b9 9a 8c 3f ba ef bb 66 bb
       0.000656328 -0.00015724072 -0.0007307023 -0.0035207232
0000c0 31 19 67 ba 44 69 50 ba e3 17 76 3b 38 25 cb b9
       -0.00088157045 -0.0007950256 0.0037550859 -0.00038746907
0000d0 a1 a9 5f b8 df e7 39 bb 93 55 85 ba a5 2f 0b b9
       -5.3325322e-05 -0.0028366966 -0.0010172598 -0.00013273822
0000e0 ca 99 81 3a d4 5d ab 3b 79 d7 38 ba 9f bc db ba
       0.0009887752 0.005229691 -0.0007051151 -0.0016764587
0000f0 18 c3 0b 3b b7 b3 55 b9 ff 49 41 3b ec 4b 13 3b
       0.0021326002 -0.00020380212 0.0029493568 0.0022475673

embedding.9.weight f4 [64]
000000 51 f0 7a 3f ce c5 86 3f b0 40 85 3f d7 af 69 3f
       0.98022944 1.0529115 1.0410366 0.91283935
000010 45 d7 66 3f 1c e6 75 3f b3 74 75 3f d0 f5 75 3f
       0.90172225 0.96054244 0.95881194 0.96078205
000020 a8 e1 78 3f 7c 32 85 3f 05 30 6f 3f 40 ca 79 3f
       0.97219324 1.0406032 0.93432647 0.97574234
000030 cd 50 7f 3f 08 42 4f 3f 3f 80 66 3f 10 0e 7d 3f
       0.9973267 0.8096013 0.9003944 0.9884958
000040 78 ff 7b 3f 62 17 8a 3f e7 75 85 3f 85 22 85 3f
       0.9843669 1.0788386 1.0426606 1.040116
000050 00 41 83 3f 5c 8d 84 3f c0 fc 87 3f 6a e8 64 3f
       1.0254211 1.035564 1.0624008 0.89417136
000060 2e eb 7e 3f 53 e1 86 3f 27 9b 86 3f 7b ee 5c 3f
       0.99577606 1.0537513 1.0516099 0.8630139
000070 7a 4e 7e 3f 07 17 83 3f 6a 6f 4e 3f cb 7b 6e 3f
       0.99338496 1.0241402 0.80638754 0.93157643
000080 40 b6 8e 3f 64 4b 83 3f 84 49 80 3f dd 6b 78 3f
       1.1149368 1.0257382 1.0022435 0.97039586
000090 97 b8 86 3f ac a4 6b 3f 43 88 7e 3f ad 37 8a 3f
       1.0525082 0.92048144 0.9942667 1.0798241
0000a0 0b 2b 73 3f 2c aa 55 3f 86 70 65 3f 83 cb 65 3f
       0.94987553 0.83462787 0.8962482 0.8976366
0000b0 54 86 80 3f 9c 40 8e 3f a9 c4 86 3f 7e 2b 66 3f
       1.0040994 1.1113467 1.0528766 0.89910114
0000c0 b1 74 73 3f d8 cf 52 3f e3 b4 79 3f 14 98 71 3f
       0.9509993 0.82348394 0.97541636 0.9437268
0000d0 07 71 85 3f e1 c3 83 3f d9 ac 65 3f f2 b4 5c 3f
       1.0425118 1.0294152 0.8971687 0.862136
0000e0 87 ae 8f 3f f6 52 82 3f e2 1b 85 3f 2e ae 7f 3f
       1.1225137 1.0181568 1.0399134 0.9987515
0000f0 f6 8c 71 3f 0c a1 79 3f 56 0c 86 3f 50 8e 8b 3f
       0.94355714 0.97511363 1.0472515 1.0902805

embedding.9.bias f4 [64]
000000 06 78 c4 bd 45 91 10 be 73 52 99 bd 67 81 90 be
       -0.09593205 -0.14117916 -0.07486429 -0.28223726
000010 c8 4d 01 be 76 d7 70 be dc 07 cf bd 75 a0 24 be
       -0.12627327 -0.23519692 -0.10108921 -0.16076834
000020 b8 2b 45 be ba f9 16 be d8 52 c2 bd 09 25 2a be
       -0.19254959 -0.147437 -0.094884574 -0.1661569
000030 85 10 e6 bd 6e ae 2f be 43 a8 40 be b1 ce 0f be
       -0.112336196 -0.17156383 -0.18814187 -0.1404369
000040 0c e0 70 be 03 d1 36 be 77 68 24 be 55 25 e7 bc
       -0.23522967 -0.17853169 -0.16055475 -0.028216043
000050 5e 9f b7 bd db b7 f8 bd 0b b1 62 be d5 55 58 be
       -0.08965944 -0.12144443 -0.22137849 -0.21126492
000060 f1 8f f7 bd 06 af 58 be 64 1a f6 bd 39 ba 7b be
       -0.120880015 -0.21160516 -0.12016752 -0.24582757
000070 95 4c 87 be 57 0b ba bd 5c f0 68 be 72 c4 5a be
       -0.26425615 -0.09084194 -0.2274794 -0.21364
000080 b4 7d 33 be 85 41 3e be c5 03 35 be 9b 1d e3 bd
       -0.1752842 -0.18579681 -0.17677219 -0.11089631
000090 24 44 2a be e9 29 4f be 7f f6 46 be 4d 78 27 be
       -0.16627556 -0.20230831 -0.19429968 -0.16354485
0000a0 03 b6 00 be 0f 7e 69 be ae 76 59 be ce 68 81 bd
       -0.12569432 -0.22801994 -0.21236679 -0.06318818
0000b0 0e 79 48 be e7 3e b1 be ec d0 77 be 4d 8b 84 be
       -0.19577429 -0.34618303 -0.24200791 -0.25887528
0000c0 01 cc 83 bd 1e 84 8f bd 38 c9 0f be fb 8a ec bc
       -0.06435395 -0.07007621 -0.14041603 -0.028874865
0000d0 96 08 c4 bd f0 d1 97 bd 15 60 6a be c4 d6 d4 bd
       -0.0957195 -0.07413089 -0.22888215 -0.10392526
0000e0 ef 65 4b be 6c d6 12 be eb f6 7e bc fe 0a 22 be
       -0.19863103 -0.14339608 -0.0155617995 -0.15824506
0000f0 d3 39 88 be 6a d5 5d be 1f 69 18 be d4 f7 9c be
       -0.26606616 -0.21663442 -0.1488385 -0.30657828

embedding.9.running_mean f4 [64]
000000 e0 b3 c4 bf 31 3b 9a c0 0b e8 52 c0 80 bc 15 bf
       -1.5367393 -4.8197255 -3.2954128 -0.58490753
000010 13 6b be 3e 83 b1 94 bf fe 89 0e c0 ba a8 89 c0
       0.37191066 -1.1616672 -2.2271724 -4.3018465
000020 02 be 1e c0 15 6d 5d c0 48 c8 cf bf fa a9 94 bf
       -2.4803472 -3.4597828 -1.6232996 -1.1614373
000030 01 06 ad bf d3 f6 18 bf f3 c0 f7 bf 98 99 29 c0
       -1.3517457 -0.59751624 -1.9355758 -2.6499996
000040 db 45 e6 be e3 ed 67 bf 08 b5 15 c0 79 11 48 c0
       -0.4497517 -0.9059736 -2.3391743 -3.1260664
000050 0d fa 39 c0 c1 36 1b c0 20 4a 6b bf 2c b0 06 c0
       -2.905887 -2.425217 -0.9190998 -2.1045027
000060 13 50 4f c0 d9 72 fa bf 05 67 00 c0 87 ec f2 bf
       -3.2392623 -1.9566299 -2.0062878 -1.8978432
000070 0b e4 8b bf d2 f4 bd bf 23 71 d4 bf 3a 5e cf bf
       -1.0928968 -1.4840338 -1.6597027 -1.6200631
000080 57 e3 dc bf db 21 a4 bf c9 00 f4 bf 59 91 4e c0
       -1.7256879 -1.2822832 -1.906274 -3.2276213
000090 35 1f 7b bf 14 28 7f bf 2a 52 84 bf 2f 5a 5d c0
       -0.98094493 -0.9967053 -1.0337574 -3.4586294
0000a0 1d f6 63 bf bf 19 73 be c9 34 75 be 81 85 02 c0
       -0.89047414 -0.2374029 -0.23945917 -2.0393984
0000b0 bb c2 a2 bf 3f 47 98 bf 6a 65 16 c0 4c 98 ab bf
       -1.2715677 -1.1896743 -2.3499398 -1.3405852
0000c0 a6 11 20 bf 09 5e e2 be dc 6d 87 bf 70 7d 66 c0
       -0.6252693 -0.44212368 -1.0580401 -3.601406
0000d0 41 a3 ad bf f1 f7 3d c0 39 58 7e bf d9 1e 97 be
       -1.3565446 -2.9682581 -0.9935337 -0.29515722
0000e0 9f c9 e6 bf 63 8e 0d c0 3f 82 b5 c0 c3 32 86 c0
       -1.803028 -2.2118156 -5.672149 -4.1936965
0000f0 f2 b5 b5 be 25 7e e4 bf c1 14 de bf a8 3f 6b bf
       -0.35490376 -1.7850996 -1.7350084 -0.91894007

embedding.9.running_var f4 [64]
000000 9e 9e 25 40 cd 76 a2 40 02 c8 96 40 14 22 e6 3f
       2.5878062 5.077002 4.711915 1.797915
000010 3f 45 71 40 24 8a 2f 40 f5 13 1b 40 8d 78 7e 40
       3.7698514 2.7428064 2.423093 3.9761078
000020 cd 45 46 40 ac 44 8d 40 c1 ea 17 40 d7 22 81 40
       3.0980103 4.414633 2.3737032 4.035503
000030 b6 da 17 40 9f 59 49 40 dd 7d 2c 40 87 e3 43 40
       2.372724 3.146095 2.695182 3.0607622
000040 73 2b f5 3f be db 4c 40 36 61 4f 40 a1 12 8a 40
       1.9153885 3.200912 3.2403083 4.314774
000050 ac a4 37 40 2a df 63 40 79 11 1d 40 03 40 be 3f
       2.8694258 3.5604959 2.4541914 1.4863285
000060 a4 40 45 40 49 e6 80 40 59 ad 85 40 60 86 21 40
       3.0820704 4.028111 4.1774106 2.5238266
000070 ee 4f 3b 40 9d 97 8d 40 ca 2a 05 40 10 04 16 40
       2.9267535 4.4247575 2.0807366 2.343998
000080 9d 47 78 40 29 aa 1f 40 d0 56 87 40 c1 f5 32 40
       3.879371 2.4947608 4.229347 2.7962496
000090 60 69 24 40 59 38 76 40 0b 11 f1 3f 71 3a 1f 40
       2.5689316 3.8471892 1.8833326 2.487942
0000a0 9c ae f0 3f 3f 1a 4b 40 90 d0 fe 3f 37 b4 1f 40
       1.8803287 3.173477 1.9907398 2.4953744
0000b0 2a 3b 6a 40 3c a4 29 40 fc 23 65 40 78 d2 3c 40
       3.659861 2.650649 3.5803213 2.950346
0000c0 c6 0d 45 40 b7 2d af 3f 16 8a 5d 40 0e f9 5e 40
       3.0789657 1.3685826 3.461553 3.483951
0000d0 cf 84 6f 40 31 57 5b 40 ca 9c 55 40 30 3a 34 40
       3.742481 3.4271967 3.3376946 2.8160515
0000e0 70 db af 40 09 88 64 40 80 7c 6b 40 85 ed 7a 40
       5.495537 3.570803 3.6794739 3.920747
0000f0 dd fa ce 3f 61 1f 2e 40 26 58 3c 40 92 78 8c 40
       1.6170307 2.7206652 2.9428802 4.389718
