checkpoints/MatchingNet/embedding_net_on_Omniglot_100.pth (torch, 459301 bytes, 24 tensors)

embedding.0.0.weight f4 [64, 1, 3, 3]
-0.018473094 0.14751966 -0.014983588 -0.015436226 0.017786043 -0.047104314 -6.120556e-05 -0.054881573
-0.020219406 -0.0076860674 -0.020636875 0.03329981 0.020196136 -0.08738031 0.08194597 0.004408663
-0.06874962 0.0549437 -0.08885283 0.08452897 -3.2481927e-05 -0.082856834 0.08550736 0.0073182103
0.0012280465 0.00017429778 -0.007015853 -0.002270079 0.09156001 -0.034377854 0.03292162 -0.018451842
0.10418648 -0.06176485 0.120351166 -0.06487209 -0.060080156 0.07976518 0.05909969 0.09545462
-0.006587773 0.01911702 -0.02352725 0.024037732 0.048901714 -0.030671805 -0.008923765 0.0030059568
0.025169054 0.09325254 0.07349285 0.009984399 -0.07911697 -0.0758135 -0.01861546 -0.07074683
0.0014610619 0.06388881 0.100705646 0.055903997 -0.07164572 0.033172414 0.049725905 0.06355074
0.08929427 0.009166359 0.01449664 0.0025570283 -0.016010294 -0.08474717 -0.08706784 0.016841587
0.015258467 0.011820575 0.016949076 -0.0144349 0.00012737307 0.13574795 -0.11501166 -0.007842191
0.012376225 0.19655283 0.009762881 -0.01384263 0.012969921 -0.010734731 -0.011229591 -0.009762241
-0.01488175 -0.0069798934 0.030234076 -0.040784664 0.0163145 -0.05549005 -0.043961942 0.036349267
0.04907668 0.05864789 0.055214006 -0.07138368 0.0034808225 0.06431749 0.1078522 0.030009698
0.011036612 0.037855815 -0.027202684 0.042376116 0.08160829 -0.07456088 0.054940693 0.11665241
-0.064416766 -0.0030338562 -0.032663524 0.023602696 -0.016551767 0.07834082 0.060271498 0.028277405
0.0009233368 0.021465579 0.057891782 -0.05621094 0.042514898 0.08659711 0.030305156 -0.019050896
0.011964625 0.06399868 -0.09400184 -0.036865078 0.069427244 0.02205293 0.028275464 0.0669464
0.040090322 0.045650475 0.021453504 0.070836306 0.0802114 -0.047464903 -0.06656298 0.019695688
0.064062685 0.047264546 0.05475453 0.013621909 -0.021396143 -0.03950226 0.011678238 -0.031969752
0.044032056 0.024059491 0.052819323 -0.058258954 -0.047875635 0.11950376 -0.029474344 -0.010936012
0.01825651 0.04036688 -0.10420321 0.09918579 -0.0018115537 -0.05508118 0.082105204 -0.00088750775
0.022552842 -0.042775735 0.0023611027 0.003521659 -0.07889987 -0.06979403 -0.0011618586 0.021540977
-0.0005033135 0.059541248 0.09486116 0.0695489 0.03782355 -0.048870325 0.06466724 0.06192686
0.07587714 0.085894786 0.038592614 -0.07863385 -0.007476947 -0.0016099307 0.081820615 0.038024426
-0.0391178 -0.061513472 -0.01304345 0.04513342 0.080359004 -0.020891022 -0.059055455 0.028220633
0.013282242 -0.05675645 0.06972848 0.02602229 0.031031977 0.043737043 0.013130276 0.08863386
-0.008436654 0.00014327602 0.007260253 -0.08777422 0.02383791 -0.0078185685 -0.00044606157 0.065721594
0.06727806 0.061629865 0.07152159 -0.02483803 -0.010423407 -0.01611549 0.0255992 -0.057057753
0.02721532 -0.05294372 -0.056342684 -0.04925092 -0.004729586 0.037636027 0.017691894 0.077759355
0.112874985 0.05675582 0.059352554 0.12319559 0.06475305 0.0007822513 0.009446431 -0.00028442728
-0.05670151 -0.066902176 -0.065311216 0.0075507644 0.08384377 -0.0064155525 -0.05305441 0.054981664
-0.047038916 0.020528527 0.060703967 0.013243223 0.16030896 0.0072292476 -0.012852803 0.029338654
00000000: e354 97bc 650f 173e b97d 75bc 39e8 7cbc
00000010: 09b4 913c 74f0 40bd 7c5b 80b8 80cb 60bd
00000020: 2ba3 a5bc 68db fbbb aa0e a9bc 6265 083d
00000030: 5e72 a53c 73f4 b2bd 4ad3 a73d 8c76 903b
00000040: 9acc 8cbd a50c 613d 79f8 b5bd 861d ad3d
00000050: 343d 08b8 d8b0 a9bd 7c1e af3d 99cd ef3b
00000060: 67f6 a03a b4c3 3639 3ee5 e5bb 9bc5 14bb
00000070: d183 bb3d cbcf 0cbd d2d8 063d 5128 97bc
00000080: b95f d53d 24fd 7cbd ac7a f63d a9db 84bd
00000090: 9c16 76bd ed5b a33d 8412 723d b67d c33d
000000a0: 3fde d7bb 4c9b 9c3c 38bc c0bc c7ea c43c
000000b0: 2a4d 483d 7043 fbbc fc34 12bc 96ff 443b
000000c0: 552f ce3c 30fb be3d 6b83 963d 9b95 233c
000000d0: 1408 a2bd 1c44 9bbd 737f 98bc b7e3 90bd
000000e0: 1a81 bf3a 23d8 823d c33e ce3d 97fb 643d
000000f0: feba 92bd ccdf 073d 64ad 4b3d e426 823d
00000100: eadf b63d 7f2e 163c 5183 6d3c d193 273b
00000110: 0528 83bc ed8f adbd a050 b2bd 5ef7 893c
00000120: a6fe 793c 16ab 413c cad8 8a3c 5c80 6cbc
00000130: 738f 0539 8301 0b3e 3c8b ebbd 887c 00bc
00000140: a6c5 4a3c 2545 493e 7ef4 1f3c 33cc 62bc
00000150: cb7f 543c bae0 2fbc 52fc 37bc cef1 1fbc
00000160: 95d2 73bc 97b7 e4bb 74ad f73c d20d 27bd
00000170: fca5 853c 8949 63bd 7011 34bd f8e2 143d
00000180: a104 493d c538 703d 1528 623d 9b31 92bd
00000190: 831e 643b e3b8 833d 9de1 dc3d e6d6 f53c
000001a0: e8d2 343c b30e 1b3d 2ad8 debc 9492 2d3d
000001b0: 3f22 a73d 60b3 98bd 7e09 613d 75e7 ee3d
000001c0: f0ec 83bd a9d3 46bb 30ca 05bd 715a c13c
000001d0: 9297 87bc 2771 a03d 3fdf 763d 04a6 e73c
000001e0: 150c 723a 95d8 af3c ef1f 6d3d 713d 66bd
000001f0: 1a24 2e3d d359 b13d 8542 f83c a010 9cbc
00000200: 4607 443c bd11 833d 0984 c0bd d6ff 16bd
00000210: df2f 8e3d 59a8 b43c f2a1 e73c 321b 893d
00000220: c035 243d fefb 3a3d 42bf af3c a012 913d
00000230: e045 a43d 8f6a 42bd 2c52 88bd da58 a13c
00000240: 4c33 833d 7898 413d 4946 603d 6d2e 5f3c
00000250: f746 afbc 1fcd 21bd 1556 3f3c b7f2 02bd
00000260: f55a 343d 6918 c53c 1359 583d f1a0 6ebd
00000270: 3e19 44bd 63be f43d 2e74 f1bc f52c 33bc
00000280: ad8e 953c be57 253d 7e68 d5bd eb21 cb3d
00000290: a871 edba ce9c 61bd c626 a83d a3a7 68ba
000002a0: bdc0 b83c 9c35 2fbd bbbc 1a3b a2cb 663b
000002b0: 4196 a1bd 2cf0 8ebd 8149 98ba b476 b03c
000002c0: ccf0 03ba 86e1 733d 9146 c23d a76f 8e3d
000002d0: deec 1a3d 402c 48bd 4270 843d 05a7 7d3d
000002e0: 7965 9b3d 9be9 af3d 4a13 1e3d c90a a1bd
000002f0: 2d01 f5bb 4f04 d3ba 9191 a73d 80bf 1b3d
00000300: fc39 20bd 8df5 7bbd 32b4 55bc d2dd 383d
00000310: 4393 a43d a623 abbc 22e4 71bd f52e e73c
00000320: c39d 593c 7479 68bd cecd 8e3d b32c d53c
00000330: c636 fe3c 9d25 333d 5f20 573c ab85 b53d
00000340: e439 0abc 5d3c 1639 6be7 ed3b f8c2 b3bd
00000350: b847 c33c 7419 00bc 5fdd e9b9 0b99 863d
00000360: 14c9 893d 996f 7c3d e979 923d 2079 cbbc
00000370: f0c6 2abc a204 84bc 6ab5 d13c 64b5 69bd
00000380: aaf2 de3c 84db 58bd 96c7 66bd 55bb 49bd
00000390: a5fa 9abb 3c28 1a3d 97ee 903c 4c40 9f3d
000003a0: 002b e73d ca78 683d aa1b 733d f84d fc3d
000003b0: 3f9d 843d ff0f 4d3a 34c5 1a3c 2f1f 95b9
000003c0: d83f 68bd 0204 89bd e3c1 85bd 676c f73b
000003d0: 48b6 ab3d 8e39 d2bb 954f 59bd 7434 613d
000003e0: e1ab 40bd 712b a83c b9a4 783d 1afa 583c
000003f0: 0828 243e 53e3 ec3b 9094 52bc 9e57 f03c

embedding.0.0.bias f4 [64]
-0.012011696 -0.00015615033 0.005060618 0.009893387 -0.011873794 -0.01812553 -0.0026852624 9.493277e-05
0.015405234 0.01791222 0.0089118695 0.016216584 -0.009708645 0.009148221 0.007882374 -0.036014397
0.007887009 0.032394994 0.062394362 -0.0070978682 0.017954297 0.008306422 -0.018510925 0.02606003
0.023862088 0.0021454077 -0.009078279 0.0026959279 -0.0058547114 0.009364079 0.00203324 -0.0068288464
0.015267581 0.04233911 0.018023884 -0.011536972 -0.0055287266 -0.020299086 -0.00010035979 0.025889149
-0.016434 -0.028426783 0.0054672137 0.032758027 0.00047321356 0.028502665 0.026601966 -0.015937254
0.020337673 -0.053555124 0.037672877 -0.025333725 0.016682258 0.027955394 -0.05410059 -0.012464378
0.042455863 -0.021202879 -0.0054031657 0.0035770542 -0.039109185 -0.0005733478 -0.021399735 0.002842041
00000000: b4cc 44bc 49bc 23b9 8ad3 a53b df17 223c
00000010: 4d8a 42bc fe7b 94bc 3afb 2fbb a516 c738
00000020: 3c66 7c3c a6bc 923c 1703 123c a4d8 843c
00000030: 0211 1fbc 6ce2 153c 1325 013c d583 13bd
00000040: 8338 013c 9db0 043d 3b91 7f3d 3c95 e8bb
00000050: e414 933c a917 083c 39a4 97bc d87b d53c
00000060: 6d7a c33c f899 0c3b 10bd 14bc 2aae 303b
00000070: e1d8 bfbb cb6b 193c 1b40 053b 84c4 dfbb
00000080: e024 7a3c c66b 2d3d d3a6 933c 9105 3dbc
00000090: 522a b5bb 454a a6bc 4178 d2b8 7b15 d43c
000000a0: 99a0 86bc 49df e8bc 5026 b33b 482d 063d
000000b0: a619 f839 6c7e e93c 5eec d93c d88e 82bc
000000c0: 319b a63c 9e5c 5bbd e04e 1a3d ac88 cfbc
000000d0: 3ba9 883c b602 e53c 9598 5dbd 6437 4cbc
000000e0: 33e6 2d3d a9b1 adbc 0a0d b1bb 036d 6a3b
000000f0: f430 20bd b84c 16ba 7f4e afbc 8941 3a3b

embedding.0.1.weight f4 [64]
0.9899484 0.96763366 0.98189896 1.0762241 1.0525701 1.0278587 1.0005883 0.91166836
0.95339555 0.9629125 0.91923094 1.113892 0.9091612 1.039898 0.9068981 1.1227908
0.9818141 1.0087808 0.9731897 1.0214337 1.1740941 0.9247294 1.0121195 0.94940627
1.0311501 1.013963 0.8844899 1.0936477 0.9358818 0.99607795 1.1220177 0.8736206
1.0375623 0.9728215 1.0770885 0.8754779 1.0147771 0.97948205 1.0542904 0.9627063
0.95287484 0.9289605 0.9588136 1.0077921 0.9171513 0.91302025 0.94098055 0.81155294
0.9780597 0.9257347 0.9579205 1.104322 1.014203 0.93649894 0.97172046 1.1230843
0.94690657 0.9539641 0.9973174 1.1155277 1.10561 0.9239989 0.8983631 0.93149745
00000000: 426d 7d3f d7b6 773f bb5d 7b3f b6c1 893f
00000010: 9eba 863f e090 833f 4713 803f 1963 693f
00000020: bb11 743f 6f81 763f b852 6b3f 0394 8e3f
00000030: cabe 683f 611b 853f 792a 683f 9cb7 8f3f
00000040: 2b58 7b3f bb1f 813f f622 793f 57be 823f
00000050: b748 963f 11bb 6c3f 228d 813f 4a0c 733f
00000060: bafc 833f 8ac9 813f ee6d 623f a6fc 8b3f
00000070: f395 6f3f f7fe 7e3f 479e 8f3f 9aa5 5f3f
00000080: d7ce 843f d40a 793f 09de 893f 521f 603f
00000090: 37e4 813f 56bf 7a3f fdf2 863f ec73 763f
000000a0: 9bef 733f 5bd0 6d3f cf74 753f 55ff 803f
000000b0: 6dca 6a3f b2bb 693f 1ae4 703f efc1 4f3f
000000c0: 1f62 7a3f f3fc 6c3f 473a 753f 6c5a 8d3f
000000d0: 67d1 813f 65be 6f3f acc2 783f 3ac1 8f3f
000000e0: 7868 723f fe36 743f 3150 7f3f 9dc9 8e3f
000000f0: a184 8d3f 318b 6c3f 20fb 653f 9e76 6e3f

embedding.0.1.bias f4 [64]
-0.052324794 -0.12947097 -0.072653964 0.120045796 0.17509188 0.057791855 0.10527766 -0.08109806
0.109350234 0.026149409 -0.18078361 0.19259498 -0.05825596 0.13546167 -0.043030404 0.022881119
-0.08839237 -0.018786859 -0.081085406 -0.07812091 0.20412305 -0.02429279 -0.033956233 -0.039399482
-0.059300255 -0.12410321 -0.10938104 0.016506346 -0.015960231 -0.27692756 0.18704008 -0.07246632
0.13190363 -0.029857172 0.021199241 -0.0077287527 -0.06354073 0.012925896 0.17685218 -0.112069145
-0.04708022 -0.12475859 -0.08035339 -0.11235824 -0.12064549 0.021215484 -0.031974647 -0.10364572
-0.046731584 -0.31043363 -0.03498025 0.102533236 -0.21388043 0.1336949 0.03909195 0.17682943
-0.07409039 0.09887946 -0.008951103 0.16725455 0.16387598 -0.052981492 -0.015207078 0.0050385855
00000000: 8652 56bd 0a94 04be 9acb 94bd 92da f53d
00000010: 494b 333e 27b7 6c3d d09b d73d bd16 a6bd
00000020: 04f3 df3d 4937 d63c 571f 39be 9e37 453e
00000030: cd9d 6ebd 77b6 0a3e a640 30bd 2f71 bb3c
00000040: 0f07 b5bd e6e6 99bc 1b10 a6bd dbfd 9fbd
00000050: a205 513e ac01 c7bc b115 0bbd 5a61 21bd
00000060: d3e4 72bd d329 febd 2b03 e0bd 5138 873c
00000070: 08bf 82bc 73c9 8dbe 6f87 3f3e 3969 94bd
00000080: bf11 073e 0797 f4bc 08aa ad3c 7a41 fdbb
00000090: a421 82bd 23c7 533c bd18 353e 8284 e5bd
000000a0: 30d7 40bd 6e81 ffbd 5190 a4bd 141c e6bd
000000b0: fc14 f7bd 18cc ad3c d9f7 02bd 3544 d4bd
000000c0: 9e69 3fbd 28f1 9ebe 7347 0fbd f2fc d13d
000000d0: 7903 5bbe 51e7 083e e11e 203d c612 353e
000000e0: b4bc 97bd 5081 ca3d a6a7 12bc c744 2b3e
000000f0: 1bcf 273e 1f03 59bd 1c27 79bc b81a a53b

embedding.0.1.running_mean f4 [64]
-0.011673853 -0.001403017 0.007516737 0.030165896 0.013584977 -0.014441392 0.014993156 0.00094848213
0.022351211 0.03219609 0.017843954 0.0373832 -0.002396155 0.042680003 0.013047432 -0.010877958
0.020872874 0.04602099 0.06477998 0.003180768 0.042392693 0.018609663 -0.0055385116 0.031756528
0.037015527 0.017525556 -0.0014847779 0.01773135 0.0065302914 -0.042214327 0.029285382 0.011240861
0.045908317 0.05532646 0.03597928 -0.0088722175 -0.0054800534 -0.009643572 0.02888697 0.042642005
-0.002443277 -0.059740417 0.009327686 0.034474332 -0.001635904 0.03492967 0.039176274 -0.01918656
0.04469993 -0.06964458 0.043910906 -0.011360941 0.020804407 0.027833197 -0.053512964 0.01079784
0.058634434 -0.021643994 0.003814176 0.03062355 -0.01833413 0.016429905 -0.02218899 0.017620165
00000000: b043 3fbc 70e5 b7ba f64e f63b 781e f73c
00000010: 8693 5e3c 979b 6cbc dba5 753c 8fa3 783a
00000020: e319 b73c 0ce0 033d 7c2d 923c 201f 193d
00000030: cf08 1dbb 3ad1 2e3d e5c4 553c 7639 32bc
00000040: 97fd aa3c 8180 3c3d 5eab 843d 6f74 503b
00000050: f6a3 2d3d 4b73 983c 677c b5bb 2213 023d
00000060: 989d 173d c191 8f3c e19c c2ba 5641 913c
00000070: 0efc d53b eee8 2cbd e6e7 ef3c 972b 383c
00000080: 5c0a 3c3d 009e 623d 025f 133d c75c 11bc
00000090: 0592 b3bb 1300 1ebc 5ea4 ec3c 62a9 2e3d
000000a0: 631f 20bb 5eb2 74bd 27d3 183c f534 0d3d
000000b0: d46b d6ba 6a12 0f3d 4d77 203d 222d 9dbc
000000c0: 4617 373d d1a1 8ebd ecdb 333d 3e23 3abc
000000d0: 016e aa3c 7202 e43c 6930 5bbd 6ce9 303c
000000e0: a92a 703d bf4e b1bc 41f7 793b 3dde fa3c
000000f0: 7531 96bc 0298 863c afc5 b5bc 2a58 903c

embedding.0.1.running_var f4 [64]
0.0083992435 0.007479196 0.008832265 0.014141759 0.018692976 0.007221539 0.016257096 0.014499842
0.0168584 0.020433828 0.008050473 0.014457231 0.008275412 0.03453763 0.008337659 0.026870675
0.0083470065 0.009662613 0.007199696 0.020598436 0.02103387 0.0065596653 0.010179877 0.005133278
0.011097743 0.026445126 0.025077198 0.009856919 0.014994217 0.06890568 0.025524868 0.014055821
0.028697757 0.018581929 0.019208878 0.0076307645 0.015559283 0.012139128 0.025922265 0.01924505
0.0139408875 0.029388443 0.0071352064 0.0080030495 0.014892272 0.015768792 0.016439304 0.008581959
0.028268797 0.00977762 0.005394679 0.016703954 0.007838853 0.008837421 0.009126872 0.015941095
0.016188191 0.020576961 0.01213592 0.02850322 0.020653322 0.01956161 0.01061163 0.018657094
00000000: fb9c 093c 0b14 f53b 34b5 103c d6b2 673c
00000010: 0322 993c a9a2 ec3b 9a2d 853c bf90 6d3c
00000020: a11a 8a3c d864 a73c 22e6 033c 06de 6c3c
00000030: 9895 073c 5477 0d3d ad9a 083c e41f dc3c
00000040: e2c1 083c f04f 1e3c 6deb eb3b 0dbe a83c
00000050: 394f ac3c 76f2 d63b 80c9 263c 0f35 a83b
00000060: 4fd3 353c 73a3 d83c b26e cd3c ea7e 213c
00000070: 4eaa 753c 6c1e 8d3d 8719 d13c 634a 663c
00000080: 8f17 eb3c 2139 983c f05b 9d3c 7e0b fa3b
00000090: 5dec 7e3c 31e3 463c ee5a d43c cca7 9d3c
000000a0: 5268 643c 08c0 f03c 73ce e93b 391f 033c
000000b0: b7fe 733c 8e2d 813c b8ab 863c 589b 0c3c
000000c0: f793 e73c 5032 203c d9c5 b03b bbd6 883c
000000d0: 886e 003c d5ca 103c e088 153c e696 823c
000000e0: 199d 843c 0491 a83c bdd5 463c 967f e93c
000000f0: 2831 a93c ab3f a03c 67dc 2d3c c3d6 983c

embedding.1.0.weight f4 [64, 64, 3, 3]
0.03848619 -0.033075705 0.03427611 0.014089113 -0.06609181 0.002999204 0.09356635 0.017825544
0.08818041 -0.015839621 0.027409986 -0.07491576 0.08037972 0.055676386 0.006987313 0.010702887
-0.023281781 -0.037242316 0.014728648 -0.03195941 0.053380847 0.034531504 0.0020368996 0.115870066
0.013566216 -0.10638051 0.07710651 -0.08334261 -0.056526255 0.014260485 -0.010920954 -0.10876309
-0.015447243 -0.0278058 -0.083342575 -0.047052283 -0.09765217 -0.0670867 -0.07568513 -0.0065169344
-0.07931297 -0.07706243 -0.05423554 -0.12381674 -0.0395507 0.062245335 -0.0314572 0.010216211
-0.053829897 -0.057380766 0.003806 0.0058481162 -0.010870981 -0.0011270733 -0.008015387 -0.05260974
-0.028463475 0.06088921 -0.075039946 0.07608774 -0.016546529 -0.14626317 -0.06646603 -0.0028804487
0.031654373 0.0065118056 -0.028968226 -0.060971923 -0.054613944 0.0448966 0.020523401 0.055645317
-0.013041136 -0.042851325 0.009804832 0.07408937 0.0011296177 0.06482794 0.04022758 -0.05395109
-0.04001 -0.0027729291 0.04620421 -0.008759203 -0.048202302 -0.04628219 0.040813625 0.028841384
0.10671053 0.044520184 0.0066466853 0.006142762 -0.016851354 0.006237944 -0.025503762 -0.04719206
-0.04219618 -0.050698034 0.0044148974 -0.016753374 -0.04506078 -0.09294346 0.024477072 -0.0827345
-0.12412939 -0.113749705 -0.144677 -0.08598435 -0.010402485 -0.034787647 -0.049384378 -0.05215851
-0.019332169 0.013181002 -0.025874121 0.008755236 0.01879864 -0.11985057 -0.060311347 -0.070726916
0.050191924 -0.05099092 -0.02990629 -0.004390107 -0.11969476 -0.14008163 -0.042150754 -0.020642957
-1.2413549e-05 0.0012108999 0.008139655 0.04577673 -0.037073564 -0.014896689 0.033451676 0.038926873
0.05450194 0.027175123 -0.016835956 -0.1095467 -0.05683199 0.06952343 -0.012977907 -0.020954264
0.037557803 0.054864086 -0.019649547 -0.034578227 -0.07540932 -0.04929153 0.05570402 -0.0042527374
0.031813376 -0.048148848 -0.034506854 0.016264085 0.041868992 -0.0114157535 0.13765937 0.018320864
-0.06874081 0.014670084 -0.0048404373 -0.045628738 0.078154735 0.0100991605 -0.009472344 0.05918524
0.04130636 -0.087236926 0.07427196 0.03849332 0.037867434 -0.032929964 0.059653293 0.034392916
-0.046669282 -0.0781441 -0.03633123 -0.0076973247 -0.008376791 -0.0044289012 -0.02757268 -0.08263948
-0.1259573 -0.068898454 -0.08395665 -0.06208775 -0.07342833 -0.0004187013 0.03579867 0.031991746
-0.024167784 0.0038305677 0.024815744 -0.04785313 -0.0710036 -0.011777421 -0.004942762 -0.0763285
0.015657559 0.053908877 0.016471086 0.08878138 -0.059904847 -0.09292844 -0.023912428 0.0053760605
0.044443727 -0.06384323 0.0041044 0.034502935 0.0020090113 -0.037171025 0.0060484805 0.021317132
0.013984577 -0.0046385447 -0.018043285 -0.029354598 -0.033064514 -0.06789043 0.06258805 0.029811807
-0.00469763 0.03220587 0.028697511 0.0009349076 0.0026363041 -0.0005303006 0.022233319 -0.085516594
-0.02013245 -0.04349479 0.030071825 0.011779607 0.016958136 -0.05332776 -0.06321043 -0.040487826
0.024986278 0.044949327 0.016569877 -0.05679837 -0.09937656 0.026615623 0.026683357 -0.01379825
0.07496727 -0.01136845 -0.09190432 0.0016540828 -0.014157429 0.035305068 -0.019126063 -0.05490356
00000000: b2a3 1d3d 647a 07bd 1b65 0c3d 06d6 663c
00000010: 255b 87bd 4b8e 443b b79f bf3d e006 923c
00000020: ee97 b43d 18c2 81bc e88a e03c 6f6d 99bd
00000030: 1f9e a43d ec0c 643d d4f5 e43b 295b 2f3c
00000040: 6fb9 bebc 668b 18bd 6d50 713c dfe7 02bd
00000050: e0a5 5a3d e870 0d3d 817d 053b 494d ed3d
00000060: d644 5e3c 06de d9bd 05ea 9d3d 88af aabd
00000070: 1388 67bd cfa4 693c cded 32bc 2fbf debd
00000080: 6f16 7dbc fdc8 e3bc 83af aabd e5b9 40bd
00000090: dcfd c7bd c064 89bd ce00 9bbd 028c d5bb
000000a0: d76e a2bd e8d2 9dbd 1626 5ebd a293 fdbd
000000b0: eaff 21bd f7f4 7e3d 44d9 00bd e561 273c
000000c0: bd7c 5cbd 1808 6bbd 166e 793b 8ea1 bf3b
000000d0: 331c 32bc 4eba 93ba f852 03bc 507d 57bd
000000e0: 3c2c e9bc f766 793d 8bae 99bd e4d3 9b3d
000000f0: 968c 87bc 03c6 15be 581f 88bd e9c5 3cbb
00000100: 04a8 013d fc60 d53b c64e edbc b2bd 79bd
00000110: dfb2 5fbd 7fe5 373d b120 a83c 58ec 633d
00000120: 7daa 55bc df84 2fbd 72a4 203c 2bbc 973d
00000130: ae0f 943a 83c4 843d adc5 243d d1fb 5cbd
00000140: 87e1 23bd 08ba 35bb a040 3d3d c382 0fbc
00000150: c76f 45bd 6592 3dbd 302c 273d c444 ec3c
00000160: 0d8b da3d cc5a 363d 70cc d93b 3949 c93b
00000170: da0b 8abc ab67 cc3b 44ed d0bc 764c 41bd
00000180: e7d5 2cbd bea8 4fbd d8aa 903b 5f3e 89bc
00000190: a791 38bd 2459 bebd 2484 c83c b570 a9bd
000001a0: 8d37 febd 9bf5 e8bd 3526 14be 9018 b0bd
000001b0: 2f6f 2abc 7e7d 0ebd 4647 4abd 29a4 55bd
000001c0: 7f5e 9ebc 21f5 573c f7f5 d3bc 1f72 0f3c
000001d0: 9bff 993c 3774 f5bd 0809 77bd 46d9 90bd
000001e0: 0c96 4d3d dbdb 50bd 09fe f4bc e3da 8fbb
000001f0: 8722 f5bd 8f71 0fbe 45a6 2cbd 6b1b a9bc
00000200: c943 50b7 0fb7 9e3a 305c 053c 6180 3b3d
00000210: 73da 17bd 3e11 74bc a004 093d c971 1f3d
00000220: 6d3d 5f3d 5d9e de3c 8feb 89bc 055a e0bd
00000230: a9c8 68bd 4d62 8e3d 4aa1 54bc 47a8 abbc
00000240: 36d6 193d 2ab9 603d 16f8 a0bc e6a1 0dbd
00000250: 3470 9abd eae5 49bd e629 643d 8c5a 8bbb
00000260: be4e 023d ba37 45bd 0f57 0dbd 423c 853c
00000270: d27e 2b3d 2409 3bbc 94f6 0c3e a315 963c
00000280: fbc7 8cbd cb5a 703c 889c 9ebb 33e5 3abd
00000290: 970f a03d f376 253c e431 1bbc 396c 723d
000002a0: dc30 293d 46a9 b2bd e61b 983d 2cab 1d3d
000002b0: e21a 1b3d 92e1 06bd 0357 743d 96df 0c3d
000002c0: 4a28 3fbd 040a a0bd 0ed0 14bd d739 fcbb
000002d0: cf3e 09bc 5120 91bb 1ae0 e1bc e33e a9bd
000002e0: f3fa 00be a21a 8dbd 77f1 abbd b94f 7ebd
000002f0: 9861 96bd 2385 dbb9 a0a1 123d c709 033d
00000300: 84fb c5bc 430a 7b3b 634a cb3c a501 44bd
00000310: 566a 91bd 16f6 40bc e5f6 a1bb 1e52 9cbd
00000320: 4844 803c 8ecf 5c3d 5fee 863c 03d3 b53d
00000330: c95e 75bd 4451 bebd ffe3 c3bc aa29 b03b
00000340: a00a 363d 3dc0 82bd 347e 863b f352 0d3d
00000350: 9ea9 033b a540 18bd 5532 c63b 44a1 ae3c
00000360: 911f 653c effe 97bb 83cf 93bc 0e79 f0bc
00000370: a86e 07bd 230a 8bbd 2a2e 803d e437 f43c
00000380: 94ee 99bb 4dea 033d 0b17 eb3c 9614 753a
00000390: d8c5 2c3b df03 0bba a622 b63c 5323 afbd
000003a0: cfec a4bc 9827 32bd 3059 f63c 41ff 403c
000003b0: caeb 8a3c 366e 5abd 7874 81bd 90d6 25bd
000003c0: 06b0 cc3c c91c 383d 8dbd 873c 68a5 68bd
000003d0: f085 cbbd 0209 da3c 0e97 da3c 0e12 62bc
000003e0: 7188 993d bc42 3abc 5538 bcbd cfcd d83a
000003f0: 90f4 67bc 0c9c 103d 43ae 9cbc 8ee2 60bd

embedding.1.0.bias f4 [64]
0.0012842881 -5.5723644e-06 0.000103649494 -0.00050627853 4.4034838e-05 -0.00041872644 0.00048266703 -7.607039e-05
-0.0008464222 0.00017336378 2.0202626e-06 0.00041434407 0.00058409915 -9.910785e-05 -0.0005603348 -0.00018907174
0.0001973714 -0.00037433457 -0.00050071365 0.00032321396 -0.00029151328 -3.8081384e-05 -0.0014338032 -8.095744e-06
-7.721928e-05 0.0009946479 -0.0014054602 0.00019334549 0.00041332896 0.00039537478 -0.00078561134 -2.3181872e-05
-0.00010821801 0.0003261697 0.000579745 0.0005424161 -0.00073780544 -9.849123e-05 0.0011794125 -0.00018661744
-0.00028749273 -0.00028957086 -3.937763e-05 -0.00029613607 -0.00026874675 0.0004967116 -0.00014829742 -0.00058507244
0.0012413728 -0.00017628625 -0.0005820489 -0.00020559199 0.00051313435 -0.00023113491 -0.0009307035 -0.00026108744
0.0006353645 0.0010286132 2.2559912e-05 2.5566726e-05 -0.001073023 0.002044895 -0.00164309 -0.0012635891
00000000: 8f55 a83a 3ffa bab6 665e d938 c7b7 04ba
00000010: 0cb2 3838 8388 dbb9 790e fd39 fb87 9fb8
00000020: 6fe2 5dba fcc8 3539 d993 0736 523c d939
00000030: 3b1e 193a 1fd8 cfb8 6fe3 12ba 8f41 46b9
00000040: 7bf5 4e39 5642 c4b9 5342 03ba 0b75 a939
00000050: 40d6 98b9 93b9 1fb8 74ee bbba f5d2 07b7
00000060: c9f0 a1b8 d85e 823a 6b37 b8ba c9bc 4a39
00000070: 13b4 d839 4e4a cf39 7cf1 4dba b176 c2b7
00000080: 1af3 e2b8 c201 ab39 07fa 173a ee30 0e3a
00000090: 4969 41ba 148d ceb8 8496 9a3a bdae 43b9
000000a0: 9fba 96b9 8bd1 97b9 6929 25b8 b642 9bb9
000000b0: 94e6 8cb9 c035 023a 4980 1bb9 8c5f 19ba
000000c0: 8fb5 a23a 7bd9 38b9 a494 18ba 2e94 57b9
000000d0: dd83 063a ce5c 72b9 74fa 73ba 90e2 88b9
000000e0: 978e 263a 88d2 863a 0b3f bd37 2078 d637
000000f0: ada4 8cba a503 063b f45c d7ba 049f a5ba

embedding.1.1.weight f4 [64]
0.9603596 1.0431467 1.0096887 1.0629627 0.902585 1.0825535 1.0811808 1.0311509
1.0612502 1.1322433 1.0849255 0.9458216 1.0408965 0.96145034 0.9368207 0.860699
0.859883 1.0690689 1.0143951 0.97091407 0.85911727 0.9439456 1.0213646 0.9553691
1.0671054 0.93285877 1.141721 0.9177319 1.0184377 1.0659025 1.0212458 0.8925376
1.0328621 1.1306798 1.0316311 0.9668638 1.0994055 0.8768034 0.93871564 0.8433164
1.015363 0.9080263 1.0807503 0.9662629 0.97029793 0.89876235 1.1640437 1.0795174
1.0068532 0.90007615 1.043988 0.852152 0.9056849 0.9768551 0.9886682 1.0103792
1.0564358 1.0867083 0.9171979 1.0450865 0.9822987 0.99378717 0.9947146 0.9157374
00000000: 20da 753f d585 853f 7b3d 813f 290f 883f
00000010: d00f 673f 1d91 8a3f 2264 8a3f c1fc 833f
00000020: 0cd7 873f 59ed 903f d7de 8a3f 5d21 723f
00000030: 193c 853f 9c21 763f 7bd3 6f3f c556 5c3f
00000040: 4b21 5c3f 40d7 883f b3d7 813f d38d 783f
00000050: 1cef 5b3f 6ba6 713f 13bc 823f 1293 743f
00000060: e996 883f d5cf 6e3f ea23 923f 7af0 6a3f
00000070: 2b5c 823f 7e6f 883f 2fb8 823f 587d 643f
00000080: d334 843f 1eba 903f 7d0c 843f 6384 773f
00000090: 52b9 8c3f 3076 603f ab4f 703f 95e3 573f
000000a0: 6af7 813f 6974 683f 0756 8a3f 015d 773f
000000b0: 7265 783f 4a15 663f 62ff 943f a02d 8a3f
000000c0: 91e0 803f 646b 663f 66a1 853f a226 5a3f
000000d0: f7da 673f 2d13 7a3f 5c19 7d3f 1b54 813f
000000e0: 4a39 873f 4219 8b3f 7bcd 6a3f 65c5 853f
000000f0: ed77 7b3f d668 7e3f 9ea5 7e3f c46d 6a3f

embedding.1.1.bias f4 [64]
-0.109986015 -0.095005564 -0.18340798 -0.03424619 -0.16476181 0.08741118 -0.01702442 -0.024201488
0.038947564 -0.074812375 -0.0627101 -0.19672018 -0.089176 -0.07475298 -0.15015376 -0.20549439
-0.25848097 -0.0856245 -0.083002426 -0.14042121 -0.13352127 -0.06423171 -0.053698756 -0.16224691
-0.06275701 -0.067299575 -0.03834388 -0.036638584 -0.036803175 -0.054824803 -0.099177815 -0.17258266
-0.072068535 -0.011884583 -0.0013685249 -0.24422903 -0.0630321 -0.2252868 -0.091185935 -0.15567571
-0.112016894 -0.2873173 -0.064170405 -0.1943707 -0.1464305 -0.03046238 -0.110690996 -0.052021243
0.010884263 -0.086017475 -0.23670605 -0.19445556 -0.27456614 -0.21496883 0.04607918 -0.08347469
-0.07791166 -0.06357457 0.027637286 -0.20479633 -0.017291004 -0.26311132 -0.09306747 -0.18821557
00000000: 5940 e1bd 4792 c2bd 4dcf 3bbe bc45 0cbd
00000010: 52b7 28be a204 b33d cc76 8bbc 3342 c6bc
00000020: 7b87 1f3d 3b37 99bd 276e 80bd 0471 49be
00000030: e8a1 b6bd 1718 99bd e8c1 19be 1f6d 52be
00000040: 9e57 84be e65b afbd 2dfd a9bd 94ca 0fbe
00000050: cdb9 08be ea8b 83bd 3af3 5bbd 0e24 26be
00000060: bf86 80bd 5cd4 89bd 790e 1dbd 5712 16bd
00000070: edbe 16bd f98f 60bd bd1d cbbd 82b9 30be
00000080: ab98 93bd 8eb7 42bc 1360 b3ba 2d17 7abe
00000090: f916 81bd 95b1 66be b1bf babd 7469 1fbe
000000a0: 1d69 e5bd 411b 93be c66b 83bd 1d09 47be
000000b0: e1f1 15be 3e8c f9bc f6b1 e2bd 3a14 55bd
000000c0: e853 323c ee29 b0bd 1263 72be 5c1f 47be
000000d0: ef93 8cbe ca20 5cbe 86bd 3c3d c7f4 aabd
000000e0: 2690 9fbd 6233 82bd 9767 e23c 21b6 51be
000000f0: dda5 8dbc 87b6 86be 289a bebd 95bb 40be

embedding.1.1.running_mean f4 [64]
-3.731758 -1.6054183 -5.778104 -2.4483638 -3.103484 -4.290697 -0.3792058 -0.0424747
0.68081236 -5.8011317 -3.4309742 -4.2494817 -3.0350277 -1.746644 0.30504584 -3.015807
-3.991206 0.3259264 0.30942953 -1.2927586 -0.26514342 0.40184325 -2.004771 -0.42462313
-1.8471402 -2.6252785 -0.5497205 -0.27437702 0.5392035 -0.074271634 -0.5061207 -2.5132825
-4.214748 -3.81412 -0.025209585 -2.2858138 -1.6117997 -5.0301366 -1.1581452 -2.2900808
-4.9551077 -3.2917423 0.2720143 0.19373773 -0.29254022 -0.03683531 -0.77626723 -0.08312439
0.95485365 -1.9877572 -3.3826635 -2.8974493 -2.5829868 -2.6433408 -0.6429356 2.099521
-2.165456 0.7917732 -2.9818494 2.1197388 -3.2647915 -3.665588 -3.6612968 -6.3790236
00000000: 20d5 6ec0 597e cdbf 3ae6 b8c0 feb1 1cc0
00000010: 7b9f 46c0 644d 89c0 4327 c2be f3f9 2dbd
00000020: b849 2e3f dfa2 b9c0 1595 5bc0 c1fb 87c0
00000030: e53d 42c0 0892 dfbf f82e 9c3e fb02 41c0
00000040: eb6f 7fc0 d3df a63e 8c6d 9e3e 1d79 a5bf
00000050: e1c0 87be 66be cd3e 2b4e 00c0 3468 d9be
00000060: 176f ecbf 9004 28c0 7cba 0cbf 257b 8cbe
00000070: 3e09 0a3f ba1b 98bd 2091 01bf 9fd9 20c0
00000080: 37df 86c0 8b1a 74c0 5584 cebc c64a 12c0
00000090: 744f cebf e1f6 a0c0 1a3e 94bf af90 12c0
000000a0: 3e90 9ec0 e8ab 52c0 7545 8b3e 2f63 463e
000000b0: d5c7 95be 9fe0 16bd 73b9 46bf 1f3d aabd
000000c0: 4a71 743f d46e febf 8f7d 58c0 cf6f 39c0
000000d0: a84f 25c0 7f2c 29c0 6d97 24bf 8d5e 0640
000000e0: d596 0ac0 a6b1 4a3f 9fd6 3ec0 cda9 0740
000000f0: 58f2 50c0 fe98 6ac0 b052 6ac0 f620 ccc0

embedding.1.1.running_var f4 [64]
3.9213374 4.702982 3.8777971 6.007384 4.0778556 7.165104 5.1855426 6.257628
3.7161002 4.304527 5.283369 2.9835203 2.1099222 4.8060765 5.7072053 4.504149
2.8695827 6.2102633 4.7015986 5.9117265 5.076794 5.8976245 4.2262216 2.9145522
6.8440795 3.464992 7.1476007 3.903705 5.426414 5.4276714 10.112626 4.3254943
12.94834 5.8335996 7.299398 3.667342 6.9500175 2.1609406 3.1420765 5.188289
2.865581 2.290075 1.9777038 4.8143334 4.9153743 4.8765745 3.0575602 3.557664
3.7247515 2.5861013 10.376594 5.8566785 4.379905 8.563994 4.852274 5.475784
9.951097 6.0337873 5.6681943 6.2987723 2.2030246 2.681752 2.1299841 2.237429
00000000: 31f7 7a40 d47e 9640 d42d 7840 7d3c c040
00000010: cb7d 8240 8848 e540 f7ef a540 7d3e c840
00000020: 96d4 6d40 afbe 8940 5c11 a940 fff1 3e40
00000030: f708 0740 61cb 9940 6da1 b640 fd21 9040
00000040: 3ea7 3740 7aba c640 7f73 9640 dd2c bd40
00000050: 1975 a240 57b9 bc40 353d 8740 0688 3a40
00000060: b302 db40 6ec2 5d40 25b9 e440 4dd6 7940
00000070: 2fa5 ad40 7caf ad40 51cd 2141 736a 8a40
00000080: 672c 4f41 d9ac ba40 ab94 e940 bbb5 6a40
00000090: 8b66 de40 da4c 0a40 c817 4940 7706 a640
000000a0: ae65 3740 9790 1240 6625 fd3f 050f 9a40
000000b0: bf4a 9d40 e60c 9c40 11af 4340 c4b0 6340
000000c0: 5462 6e40 af82 2540 8706 2641 e969 bb40
000000d0: 2f28 8c40 1f06 0941 d445 9b40 9f39 af40
000000e0: b137 1f41 c914 c140 d961 b540 8b8f c940
000000f0: 5bfe 0c40 d3a1 2b40 a951 0840 0932 0f40

embedding.2.0.weight f4 [64, 64, 3, 3]
-0.035358123 0.14822096 0.08554895 0.013538139 0.04100344 -0.007985493 -0.03051205 0.041849453
0.037565798 0.02620846 0.050852615 0.033723366 -0.00778991 -0.023510419 -0.037341397 0.032521334
0.047137983 -0.020477062 0.0032912607 0.081497505 0.03260778 -0.043626025 0.06178084 0.0109863635
-0.07396532 0.04097137 0.0017738582 -0.00505342 -0.029909432 0.057470582 -0.024817055 -0.03918267
-0.033323314 -0.034614287 -0.106167905 -0.07976412 0.0011627913 0.021799717 -0.010151584 -0.013145059
0.015649982 -0.029962685 -0.024113927 0.08202577 -0.018839385 -0.00044068464 -0.0049559926 0.0902097
-0.006765441 -0.08291425 -0.01022069 -0.07270566 0.032457273 -0.0062662903 -0.0064252825 0.032692067
-0.03523575 0.023844952 -0.027166655 0.03396814 0.041722026 0.015066906 -0.027959459 0.004944171
-0.032333337 -0.041222975 -0.0013432961 -0.052732017 -0.08913751 -0.03421224 -0.056371156 -0.014545822
0.045826342 0.032657728 0.05125025 -0.04835335 -0.05239048 0.037800353 0.001999879 0.0068387603
0.068509154 -0.01998572 0.09745116 0.07450686 -0.0047801794 0.0525429 0.06061379 -0.042323645
0.050534587 0.01173086 -0.015031755 -0.04834549 -0.050455485 0.040323824 -0.020795658 0.014787107
0.0075380905 -0.06801342 -0.008895384 0.018183045 0.09599128 0.08164165 0.03324811 0.033954337
0.041865025 0.033346765 0.038453046 -0.013127832 -0.054186977 0.05229465 0.024022931 0.016141957
0.015617129 -0.010095603 -0.021894762 0.08173464 0.07014368 0.063113235 -0.018205168 -0.026074927
0.055377148 -0.03936353 -0.033730555 0.027561314 -0.06412023 -0.026164863 -0.02440886 -0.0065719564
0.021513315 -0.124152996 -0.1206381 -0.07042914 -0.0886835 -0.090787575 -0.006412757 0.0038634029
0.052996736 0.06787233 -0.028356094 0.047966674 0.05093193 -0.08217118 0.08023475 0.0057554804
0.026784375 0.015312512 -0.029171323 0.0062516937 0.034303688 0.029921094 0.0031798761 0.048005007
-0.004376547 -0.021156948 -0.02108883 0.035576053 -0.06629901 -0.10241847 -0.00050068967 -0.045763694
-0.061826356 -0.03544067 0.0035383143 0.018101273 -0.0077180094 0.03716974 0.03318613 -0.05954356
-0.01163713 -0.018467532 -0.008558467 0.042006828 -0.046291407 0.03520024 0.013496863 0.020552631
0.03065315 -0.0022526628 -0.069802955 -0.041373923 0.04453237 0.09077888 0.05008487 -0.0002528718
-0.011823871 0.00068490277 -0.03236574 0.0053488556 -0.029861024 0.06484329 0.055330347 0.07965695
0.012599211 -0.051447198 -0.0459768 0.027591318 -0.0539445 -0.052688397 0.040666603 0.06822424
0.088720314 0.09699806 -0.01075875 0.015679728 0.049918044 0.019032396 0.10171939 0.08202461
0.09574695 0.030470267 -0.011104007 0.03944846 -0.0625079 -0.0014888128 0.070469454 0.06984126
-0.067799255 -0.005047263 -0.031380583 -0.08762655 -0.061740838 -0.07175561 -0.011263355 -0.10751798
-0.039987326 0.012647899 0.07135228 0.085256815 0.029478567 0.044274744 0.06914387 0.066452496
0.016546551 -0.02368874 -0.046865936 -0.07617221 -0.02727763 -0.009841514 -0.046596706 -0.027389709
0.037519008 -0.062247444 0.003472232 0.049466755 0.01581102 0.0500037 0.014100657 -0.082463115
-0.077582374 -0.03892052 -0.020329056 -0.010208434 -0.058317807 0.0088314945 -0.013657719 -0.08210669
00000000: aed3 10bd 3cc7 173e 4a34 af3d 12cf 5d3c
00000010: 39f3 273d 96d5 02bc 68f4 f9bc 556a 2b3d
00000020: 98de 193d 20b3 d63c d54a 503d 8321 0a3d
00000030: 8042 ffbb ec98 c0bc 4bf3 18bd 1735 053d
00000040: c213 413d 83bf a7bc 31b2 573b 2ae8 a63d
00000050: bc8f 053d 34b1 32bd e80d 7d3d 2600 343c
00000060: 217b 97bd 98d1 273d ce80 e83a 2997 a5bb
00000070: a004 f5bc 4666 6b3d 234d cbbc 027e 20bd
00000080: 077e 08bd b6c7 0dbd 8f6e d9bd 5f5b a3bd
00000090: cd68 983a 5295 b23c d452 26bc 605e 57bc
000000a0: 6434 803c 4e74 f5bc 928a c5bc 20fd a73d
000000b0: 0e55 9abc b10b e7b9 e165 a2bb ddbf b83d
000000c0: a2b0 ddbb f2ce a9bd ae74 27bc b4e6 94bd
000000d0: ebf1 043d 7455 cdbb 2d8b d2bb 1ee8 053d
000000e0: 5d53 10bd 7d56 c33c 9b8c debc 2d22 0b3d
000000f0: b7e4 2a3d 2fdb 763c 3c0b e5bc b602 a23b
00000100: f66f 04bd 6cd9 28bd 8a11 b0ba 87fd 57bd
00000110: ba8d b6bd 2222 0cbd 71e5 66bd 9951 6ebc
00000120: 67b4 3b3d 1cc4 053d c8eb 513d 2a0e 46bd
00000130: 6697 56bd 8bd4 1a3d 6710 033b ae17 e03b
00000140: 874e 8c3d 18b9 a3bc 7994 c73d 0d97 983d
00000150: 0da3 9cbb 3937 573d 2a46 783d 8f5b 2dbd
00000160: 5bfd 4e3d cb32 403c c047 76bc ec05 46bd
00000170: 69aa 4ebd 982a 253d a85b aabc 9f45 723c
00000180: 1602 f73b 9f4a 8bbd f2bd 11bc 9cf4 943c
00000190: 1497 c43d bd33 a73d 2c2f 083d b413 0b3d
000001a0: a97a 2b3d 9e96 083d f180 1d3d 1e16 57bc
000001b0: 2af3 5dbd ea32 563d bdcb c43c 233c 843c
000001c0: fdde 7f3c 0768 25bc a55c b3bc 7e64 a73d
000001d0: 7da7 8f3d 8341 813d 0123 95bc 169b d5bc
000001e0: 26d3 623d a73b 21bd 0d29 0abd 44c8 e13c
000001f0: 7851 83bd b257 d6bc 17f5 c7bc 9159 d7bb
00000200: b13c b03c ed43 febd 1c11 f7bd 273d 90bd
00000210: b29f b5bd d6ee b9bd 1b22 d2bb 2531 7d3b
00000220: 1b13 593d a600 8b3d 0a4b e8bc b478 443d
00000230: 009e 503d 5d49 a8bd 1e52 a43d 7898 bc3b
00000240: e86a db3c 55e1 7a3c b3f8 eebc 02db cc3b
00000250: 0682 0c3d 151d f53c 7865 503b e6a0 443d
00000260: 2369 8fbb 5651 adbc 7bc2 acbc 32b8 113d
00000270: c6c7 87bd c6c0 d1bd b740 03ba b672 3bbd
00000280: a23d 7dbd 3c2a 11bd 10e3 673b 1f49 943c
00000290: 5be7 fcbb 4c3f 183d 2eee 073d f3e3 73bd
000002a0: a9a9 3ebc 3949 97bc d038 0cbc 5a0f 2c3d
000002b0: 0f9c 3dbd 202e 103d f221 5d3c fe5d a83c
000002c0: 511c fb3c 69a1 13bb daf4 8ebd b477 29bd
000002d0: 9367 363d 47ea b93d cb25 4d3d e193 84b9
000002e0: e9b8 41bc 0c8b 333a f091 04bd 7445 af3b
000002f0: 1b9f f4bc 8fcc 843d 13a2 623d 2f23 a33d
00000300: ec6c 4e3c 4cba 52bd 2b52 3cbd 3007 e23c
00000310: e8f4 5cbd cacf 57bd 0692 263d 26b9 8b3d
00000320: ffb2 b53d eba6 c63d 7845 30bc c672 803c
00000330: dd76 4c3d d4e9 9b3c 4152 d03d 85fc a73d
00000340: fa16 c43d c89c f93c 95ed 35bc b594 213d
00000350: 2404 80bd 4524 c3ba 4a52 903d ef08 8f3d
00000360: 56da 8abd 8363 a5bb ed88 00bd 8c75 b3bd
00000370: f6e3 7cbd 9bf4 92bd ef89 38bc 6332 dcbd
00000380: c0c9 23bd 2239 4f3c 2521 923d 209b ae3d
00000390: 097d f13c 6f59 353d 4d9b 8d3d 3f18 883d
000003a0: a28c 873c e30e c2bc 7ff6 3fbd 2d00 9cbd
000003b0: 5675 dfbc 4d3e 21bc 30dc 3ebd 6260 e0bc
000003c0: 88ad 193d 2df7 7ebd 638e 633b a79d 4a3d
000003d0: 1d86 813c aed0 4c3d 7106 673c 6ce2 a8bd
000003e0: 82e3 9ebd 206b 1fbd 1f89 a6bc 4741 27bc
000003f0: a7de 6ebd f9b1 103c a0c4 5fbc 8d27 a8bd

embedding.2.0.bias f4 [64]
-0.0012111886 -0.0007936532 -0.00017048657 0.00017051677 0.0003738933 -0.000119276025 -0.00050084596 0.0008199237
-0.00084217265 0.0002352502 -0.00026869297 0.00011124903 -0.00017241405 0.00031837498 0.0011174986 2.7019223e-05
0.00086409395 -0.000407015 -0.001594047 -0.0002756756 0.000533932 0.000529621 0.0001228877 -0.0003215252
-0.00030242535 0.0008604104 -0.000902243 0.000101304846 -3.2309767e-05 -0.0004189839 0.00011724214 -0.0007810302
-0.0008126389 -0.00069814315 0.0004206934 -6.5544045e-06 6.1826836e-06 -7.656328e-05 0.00067041354 -0.0010069927
-0.00020006108 -5.5682038e-05 0.0004604577 -0.00018970258 -5.100062e-05 0.00012227129 -0.00066485745 -7.2454466e-05
-0.00063670264 0.0004453555 0.00066097797 -0.0012508496 -0.0005145332 -5.308265e-06 0.000568451 -0.00028440394
-0.000110672525 0.00026868886 -0.0005417774 -0.0007391146 -9.4131814e-05 -8.629266e-05 0.0004939852 0.0001707524
00000000: bfc0 9eba 2a0d 50ba a4c4 32b9 bfcc 3239
00000010: 1c07 c439 d423 fab8 344b 03ba 26f0 563a
00000020: 40c5 5cba 7fad 7639 5cdf 8cb9 5e4e e938
00000030: 0bca 34b9 91eb a639 0879 923a 57a7 e237
00000040: 5d84 623a a164 d5b9 57ef d0ba 8d88 90b9
00000050: 92f7 0b3a 43d6 0a3a 6adb 0039 6292 a8b9
00000060: d88e 9eb9 2a8d 613a 8184 6cba a073 d438
00000070: 5984 07b8 11ab dbb9 e5df f538 0dbe 4cba
00000080: 4607 55ba 9803 37ba 8390 dc39 e8ed dbb6
00000090: d974 cf36 9990 a0b8 b1be 2f3a 11fd 83ba
000000a0: 7dc7 51b9 228c 69b8 9669 f139 e6ea 46b9
000000b0: 80e9 55b8 f335 0039 d449 2eba b2f2 97b8
000000c0: 64e8 26ba 9a7e e939 7b45 2d3a 8cf3 a3ba
000000d0: bde1 06ba a61d b2b6 1a04 153a 0d1c 95b9
000000e0: dc18 e8b8 cfde 8c39 1106 0eba 24c1 41ba
000000f0: a268 c5b8 05f8 b4b8 c97e 013a 000c 3339

embedding.2.1.weight f4 [64]
1.0158814 1.0332044 1.0142053 0.98705703 1.0352569 0.96454066 0.98059386 0.9610546
0.94135964 0.9852652 1.1021843 0.86288023 1.0041221 0.93982446 0.95522946 0.96208346
0.9837013 0.9335095 1.0653104 1.0310539 1.0193597 0.9692478 1.0282984 0.9592464
0.91114223 1.0260803 0.9663476 1.0467227 0.9089199 1.0068798 1.0290977 1.0126467
0.93715674 0.9648194 1.0395584 1.0424026 0.979899 0.88631046 1.0298346 1.0194353
1.0776458 0.96873474 1.0956789 1.0593764 0.981744 0.9120691 0.9401081 0.99817526
1.0480185 0.8780756 0.9551575 1.0401951 0.9917149 0.9642798 1.074203 1.0019242
0.8716466 0.9003315 0.99308383 1.0521036 1.0702747 0.91276354 1.0002164 1.0469872
00000000: 6708 823f 0b40 843f 7bd1 813f c5af 7c3f
00000010: 4c83 843f 23ec 763f 3308 7b3f ad07 763f
00000020: f2fc 703f 573a 7c3f 6014 8d3f b8e5 5c3f
00000030: 1387 803f 5698 703f eb89 743f 1a4b 763f
00000040: d9d3 7b3f 7bfa 6e3f 175c 883f 93f9 833f
00000050: 617a 823f a020 783f 489f 833f 2c91 753f
00000060: 9e40 693f 9956 833f 8e62 773f 02fb 853f
00000070: f9ae 683f 70e1 803f 79b9 833f 689e 813f
00000080: 81e9 6f3f 67fe 763f 4010 853f 736d 853f
00000090: a9da 7a3f 3ee5 623f 9fd1 833f db7c 823f
000000a0: 4cf0 893f 00ff 773f 353f 8c3f a599 873f
000000b0: 9353 7b3f 5c7d 693f edaa 703f 6a88 7f3f
000000c0: 7825 863f 90c9 603f 3485 743f 1d25 853f
000000d0: 07e1 7d3f 0adb 763f 7c7f 893f 0d3f 803f
000000e0: 3b24 5f3f 207c 663f be3a 7e3f 55ab 863f
000000f0: c3fe 883f dfaa 693f 1707 803f ad03 863f

embedding.2.1.bias f4 [64]
-0.079546735 -0.17698283 -0.07646361 -0.108006 -0.089669764 -0.07318897 -0.026834246 -0.10062507
0.030905984 -0.03468325 -0.006804843 -0.0718909 -0.06929065 -0.060059935 -0.06783937 -0.07941898
-0.07536253 -0.016749013 -0.044645455 -0.18587652 -0.15055043 -0.047916807 -0.091371454 -0.10120016
-0.037537586 -0.0010615351 -0.0038091252 -0.094855264 -0.133251 -0.096216865 -0.08103952 -0.17122798
-0.02145205 -0.1082657 -0.10162645 -0.06568195 -0.017281462 -0.2234803 0.0026850232 -0.044179793
-0.026972242 -0.04035035 -0.035652433 -0.14702506 -0.12544559 -0.05652826 -0.057307187 -0.05266901
0.002790689 -0.051958065 -0.108214505 -0.2070302 -0.06484765 -0.18305008 -0.17575085 -0.113414645
-0.09033811 -0.20943937 -0.092290424 -0.08687801 -0.1343928 -0.23212805 -0.080916755 -0.10004424
00000000: 66e9 a2bd fd3a 35be f498 9cbd 4032 ddbd
00000010: c8a4 b7bd 19e4 95bd 7ed3 dbbc 8414 cebd
00000020: 8c2e fd3c 0610 0ebd 29fb debb 893b 93bd
00000030: 42e8 8dbd 6801 76bd 5eef 8abd 6ba6 a2bd
00000040: ac57 9abd 3a35 89bc 27de 36bd 6a56 3ebe
00000050: e429 1abe 6a44 44bd f520 bbbd 0842 cfbd
00000060: 03c1 19bd 3523 8bba 84a2 79bb 7a43 c2bd
00000070: f372 08be 590d c5bd 0cf8 a5bd 6356 2fbe
00000080: 36bc afbc 68ba ddbd 8721 d0bd 4284 86bd
00000090: da91 8dbc 05d8 64be 37f7 2f3b dff5 34bd
000000a0: e4f4 dcbc 6946 25bd 4908 12bd bd8d 16be
000000b0: cf74 00be 2d8a 67bd f1ba 6abd 76bb 57bd
000000c0: fee3 363b fbd1 54bd 919f ddbd baff 53be
000000d0: d8ce 84bd 7b71 3bbe 08f8 33be f045 e8bd
000000e0: 3003 b9bd 4677 56be c302 bdbd 19ed b1bd
000000f0: 449e 09be fab2 6dbe afb7 a5bd ffe3 ccbd

embedding.2.1.running_mean f4 [64]
1.0117801 -0.43562695 0.14432304 -1.3274714 -1.3753031 -2.0355814 -0.8686188 -0.9504693
1.2639351 0.027335024 -1.1994117 -1.3949078 0.06243993 -1.7799805 -1.5661315 0.4958152
-3.3805714 1.8929938 -2.0011868 -0.591276 -0.12386011 -1.7731324 -3.4982133 -0.099153526
-1.3560328 -2.0894146 -0.80194527 -2.4255872 -3.2285483 -1.1170135 -4.0357523 -0.15324359
-0.5986577 -0.65697396 1.3646615 1.1041687 0.62124866 -0.37920243 1.6780173 -0.95476997
0.032739755 -2.7453606 -1.3123761 0.65218985 -4.13818 -7.3389845 0.624754 -0.51680416
-0.79564613 -3.7198822 -0.54828656 -2.9099123 -3.143569 -3.6404183 -2.3031483 -2.9145358
0.5221609 -3.123157 0.981848 0.11548474 -2.2203624 -1.4230043 -0.66523564 -1.2275805
00000000: 0382 813f 7f0a dfbe 6bc9 133e 95ea a9bf
00000010: ef09 b0bf f746 02c0 cd5d 5ebf f551 73bf
00000020: a0c8 a13f b3ed df3c 5386 99bf 578c b2bf
00000030: 03c1 7f3d 67d6 e3bf ff76 c8bf 7ddb fd3e
00000040: 485b 58c0 9f4d f23f 7213 00c0 dd5d 17bf
00000050: 5faa fdbd 01f6 e2bf bae2 5fc0 0111 cbbd
00000060: 7c92 adbf f8b8 05c0 494c 4dbf d23c 1bc0
00000070: 89a0 4ec0 4cfa 8ebf e224 81c0 e3eb 1cbe
00000080: a241 19bf 722f 28bf 3aad ae3f 6655 8d3f
00000090: 270a 1f3f d226 c2be 45c9 d63f ce6b 74bf
000000a0: 1f1a 063d fdb3 2fc0 f1fb a7bf eaf5 263f
000000b0: f86b 84c0 f6d8 eac0 e1ef 1f3f 474d 04bf
000000c0: 77af 4bbf 8d12 6ec0 825c 0cbf 013c 3ac0
000000d0: 3c30 49c0 9dfc 68c0 c866 13c0 c187 3ac0
000000e0: 56ac 053f cee1 47c0 645a 7b3f 4383 ec3d
000000f0: 6b1a 0ec0 0125 b6bf e24c 2abf 5c21 9dbf

embedding.2.1.running_var f4 [64]
7.57257 7.772915 4.3412304 6.3691573 9.338675 7.4028983 10.630424 8.436323
4.761881 5.0005584 5.549127 5.5720468 6.7166123 4.3266234 3.7235324 4.6031966
14.321331 6.295388 5.6361947 8.90794 3.6803033 3.8166003 12.223378 7.440017
8.564887 7.2443843 5.773431 4.4488254 7.339123 7.504717 9.454254 6.639097
3.2043965 4.66307 9.48301 9.129899 8.622847 10.253217 4.7810965 5.812335
5.2846556 6.2617006 11.122713 5.398265 12.155846 14.64081 7.7644053 3.224483
4.9699483 11.079055 7.365066 16.577478 6.3422832 11.129452 6.44112 5.741741
6.7556486 5.2077904 5.60693 5.890742 4.6599655 6.2788906 4.4714217 5.8150396
00000000: 7e52 f240 b8bb f840 5ceb 8a40 23d0 cb40
00000010: 366b 1541 8be4 ec40 3716 2a41 2efb 0641
00000020: 5461 9840 9304 a040 7392 b140 354e b240
00000030: 7dee d640 b373 8a40 5b4e 6e40 634d 9340
00000040: 2c24 6541 d273 c940 b55b b440 ec86 0e41
00000050: 178a 6b40 2e43 7440 f592 4341 9f14 ee40
00000060: c709 0941 ffd1 e740 f2bf b840 c75c 8e40
00000070: 18da ea40 a426 f040 a044 1741 7c73 d440
00000080: d514 4d40 df37 9540 69ba 1741 1114 1241
00000090: 2ef7 0941 2d0d 2441 befe 9840 a6fe b940
000000a0: e61b a940 da5f c840 a2f6 3141 96be ac40
000000b0: 587e 4241 c240 6a41 0276 f840 ee5d 4e40
000000c0: d109 9f40 cf43 3141 9fae eb40 ad9e 8441
000000d0: fcf3 ca40 3c12 3241 a81d ce40 58bc b740
000000e0: 462e d840 38a6 a640 f86b b340 f580 bc40
000000f0: 701e 9540 acec c840 e315 8f40 ce14 ba40

embedding.3.0.weight f4 [64, 64, 3, 3]
-0.01288098 -0.020453688 0.0069041927 -0.01785763 0.036781814 0.065053314 -0.05784138 0.07118577
0.03622455 -0.02899761 -0.017675826 -0.020695386 -0.014144315 0.015213414 0.041112132 -0.04951466
-0.066329785 0.021448795 -0.060921118 -0.06049343 0.037264034 -0.08583003 -0.0033019618 0.034498893
-0.053204603 -0.016140949 0.11226023 0.03548406 -0.013480414 0.05333808 -0.04018139 0.025944985
0.038690124 0.015790652 -0.052099198 0.0012894383 -0.007710918 0.01347468 0.061889336 -0.017698823
-0.0013240617 0.021738924 -0.058964748 0.014474845 0.020294372 0.01502638 -0.0056206663 -0.03603022
-0.04427883 -0.019526223 0.009386511 0.013302844 -0.023315601 -0.02032753 -0.029246751 0.048017092
-0.012809787 -0.04499499 0.0031944278 -0.015538321 0.005907537 -0.0357412 -0.046530362 -0.0014263274
0.040696416 -0.020326244 -0.03908875 0.026177503 0.02626366 -0.05084534 -0.03127926 -0.0076386724
-0.024222976 0.038607474 0.06880522 0.008648839 0.094928995 0.028046036 -0.022533758 0.028074123
-0.007437034 -0.060459755 0.0766562 0.01994247 -0.07473807 0.105772965 0.015524127 -0.07920258
0.10314982 0.019377885 -0.023172695 -0.03754653 0.046613123 -0.005536649 0.08409965 0.030568311
-0.018329918 0.024671387 -0.07372384 0.04748115 0.009213532 -0.0018626141 0.027537823 0.009781186
-0.010535166 -0.013741035 -0.021573598 0.0070039853 -0.07994358 -0.012336315 0.01249911 -0.05690531
0.033444665 0.022825304 -0.08272719 0.0048768427 0.021996045 0.047198858 0.017840242 0.023395797
0.023855207 -0.01120247 -0.036753237 0.078272305 -0.10975798 -0.025027096 -0.08471383 0.031546935
0.0637637 -0.056824163 0.03168997 0.03839921 -0.008865167 0.028452534 0.02377528 -0.05003205
0.0816159 0.053894807 -0.06407446 0.123941354 -0.020617582 -0.027557721 0.12075259 0.006383135
-0.06097688 -0.016362106 -0.04019794 -0.053694747 -0.025731154 -0.04889062 0.00038386992 -0.014294544
-0.03316653 -0.046474125 -0.019371169 0.06000471 -0.03141091 0.039541867 0.05814588 -0.08099582
-0.0067884163 0.03198139 -0.0290941 0.04379485 0.01364275 -0.057313662 0.04095483 0.032314423
0.03579901 0.039734162 -0.055916738 7.2359806e-05 -0.029665543 0.05042518 -0.11291844 -0.021503408
0.010634941 -0.053960662 -0.0704332 0.046530418 -0.045414165 -0.002378636 -0.012020417 -0.067545585
0.048751842 -0.0059724674 -0.06730283 0.052587204 -0.035631154 -0.052758113 -0.023867289 0.021236697
-0.062080197 0.021630004 0.09421665 -0.027080184 0.052261963 0.07103781 -0.043919507 0.01776916
0.032498874 -0.13259102 0.04205801 0.054275695 -0.03397848 0.018809628 0.10548612 0.014338939
0.063433416 0.014601235 -0.043159842 -0.06829347 0.002183618 -0.0013615427 -0.04020484 0.023778254
0.034044787 0.002797755 0.030367397 -0.05404577 -0.035333212 -0.06751181 0.028021365 -0.04044324
0.018159226 -0.021132238 -0.022653135 0.030947482 -0.05590119 -0.0060885497 0.07471886 -0.09113964
3.812424e-05 0.110238455 -0.02457083 0.01579003 0.035618454 -0.08580619 -0.039780084 0.11745329
-0.10028375 -0.0016700786 0.10808851 -0.051122855 0.0016901039 0.012534108 -0.039323222 0.04064131
0.09014379 -0.05725442 0.0037078327 0.114882566 -0.01295014 0.09541961 0.043866593 0.012739473
00000000: bf0a 53bc 7e8e a7bc 913c e23b 2a4a 92bc
00000010: 87a8 163d ac3a 853d 15eb 6cbd d8c9 913d
00000020: 3260 143d 658c edbc e5cc 90bc 5f89 a9bc
00000030: 8fbd 67bc af41 793c 3265 283d e2cf 4abd
00000040: e9d7 87bd 62b5 af3c 6c88 79bd f5c7 77bd
00000050: 2ca2 183d a8c7 afbd ba65 58bb b64e 0d3d
00000060: 12ed 59bd 063a 84bc b1e8 e53d bc57 113d
00000070: f4dc 5cbc 0879 5a3d 3e95 24bd 948a d43c
00000080: 8979 1e3d 665b 813c f865 55bd 5f02 a93a
00000090: deab fcbb e7c4 5c3c ac7f 7d3d 1ffd 90bc
000000a0: 238c adba d415 b23c 0585 71bd e627 6d3c
000000b0: 6240 a63c 3531 763c 912d b8bb 6d94 13bd
000000c0: b85d 35bd 75f5 9fbc e1c9 193c 2cf4 593c
000000d0: 5c00 bfbc ec85 a6bc e296 efbc 92ad 443d
000000e0: 24e0 51bc ab4c 38bd 9b59 513b 7194 7ebc
000000f0: 0394 c13b 5d65 12bd 9f96 3ebd 9bf3 baba
00000100: 49b1 263d 3983 a6bc 861b 20bd 3472 d63c
00000110: e326 d73c 3443 50bd ae1e 00bd d44d fabb
00000120: 436f c6bc df22 1e3d c0e9 8c3d dcb3 0d3c
00000130: 226a c23d cdc0 e53c b798 b8bc b4fb e53c
00000140: 5db2 f3bb a6a4 77bd edfd 9c3d 645e a33c
00000150: 4610 99bd 7f9f d83d e858 7e3c f634 a2bd
00000160: 3640 d33d 5fbe 9e3c aad4 bdbc 64ca 19bd
00000170: 67ed 3e3d c76c b5bb 703c ac3d 656a fa3c
00000180: a028 96bc a61b ca3c 86fc 96bd 987b 423d
00000190: 5bf4 163c f522 f4ba 0097 e13c 4441 203c
000001a0: b09b 2cbc 1422 61bc 1dbb b0bc b081 e53b
000001b0: 76b9 a3bd 411e 4abc 11c9 4c3c 8b15 69bd
000001c0: 46fd 083d 22fc ba3c df6c a9bd eccd 9f3b
000001d0: 0d31 b43c 9753 413d b325 923c 8ba8 bf3c
000001e0: ff6b c33c 918a 37bc 908a 16bd 3b4d a03d
000001f0: cbc8 e0bd a005 cdbc 727e adbd 5c37 013d
00000200: 8b96 823d 74c0 68bd 58cd 013d 7d48 1d3d
00000210: 353f 11bc 4a15 e93c 60c4 c23c 68ee 4cbd
00000220: 3d26 a73d cdc0 5c3d 7839 83bd f7d4 fd3d
00000230: 34e6 a8bc bbc0 e1bc 224d f73d 9e29 d13b
00000240: e5c2 79bd d309 86bc 98a6 24bd 06ef 5bbd
00000250: 24ca d2bc 8841 48bd 2642 c939 aa33 6abc
00000260: a1d9 07bd a75b 3ebd 49b0 9ebc 80c7 753d
00000270: baa8 00bd a7f6 213d 602a 6e3d 23e1 a5bd
00000280: 5d71 debb ebfe 023d c056 eebc 3b62 333d
00000290: d785 5f3c bbc1 6abd 40c0 273d 215c 043d
000002a0: fca1 123d 4ac0 223d f308 65bd e0bf 9738
000002b0: 2705 f3bc a28a 4e3d c841 e7bd ea27 b0bc
000002c0: 2d3e 2e3c db05 5dbd 483f 90bd ae96 3e3d
000002d0: 3404 3abd e4e2 1bbb 48f1 44bc 5755 8abd
000002e0: 03b0 473d b0b4 c3bb 11d6 89bd ae65 573d
000002f0: f9f1 11bd e418 58bd 5585 c3bc 95f8 ad3c
00000300: ce47 7ebd 6831 b13c a9f4 c03d 43d7 ddbc
00000310: a410 563d 457c 913d f1e4 33bd a190 913c
00000320: 8a1d 053d f1c5 07be 0545 2c3d 3150 5e3d
00000330: 052d 0bbd a616 9a3c 1b09 d83d dfed 6a3c
00000340: 61e9 813d 053a 6f3c 60c8 30bd 72dd 8bbd
00000350: 081b 0f3b cb75 b2ba d5ad 24bd 9dca c23c
00000360: 8c72 0b3d 8a5a 373b 0cc5 f83c 195f 5dbd
00000370: 8fb9 10bd a243 8abd 108d e53c d0a7 25bd
00000380: a8c2 943c 841d adbc 1193 b9bc 9385 fd3c
00000390: a5f8 64bd 7582 c7bb 3406 993d 6ba7 babd
000003a0: 97e7 1f38 b3c4 e13d c448 c9bc 185a 813c
000003b0: a8e4 113d 28bb afbd 71f0 22bd 5a8b f03d
000003c0: 9161 cdbd 8ae6 daba 825d dd3d 3366 51bd
000003d0: 7a86 dd3a dc5b 4d3c 6311 21bd 8177 263d
000003e0: 4f9d b83d 9c83 6abd 1cff 723b 8d47 eb3d
000003f0: d32c 54bc 5b6b c33d 75ad 333d 39b9 503c
