checkpoints/MatchingNet/embedding_net_on_Omniglot_100.pth (torch, 458065 bytes, 24 tensors)

embedding.0.0.weight f4 [64, 1, 3, 3]
-0.06727034 0.0077504017 0.011710374 -0.07696675 0.022980444 0.08841136 0.023126848 -0.054102547
-0.014202092 0.0055050086 0.11680421 0.0048997267 -0.060766544 -0.048861466 -0.06533208 0.018513927
-0.028095666 0.012677054 0.0036559051 0.071362644 0.047130574 -0.05715705 -0.10133631 0.022181991
0.050939064 0.0022397307 -0.02103643 0.046315327 0.027010009 0.027146239 0.004033482 -0.13242517
0.02386229 0.03578941 0.039193694 0.04166608 -0.04067864 0.037014212 0.02566374 0.03769419
0.020818377 0.061794836 0.032936145 0.0503534 0.04809701 -0.06507718 -0.112413846 -0.036900505
0.014071824 0.02056104 -0.013494574 0.024499832 0.09508198 0.009284337 -0.021366041 0.0049050525
0.06278006 0.024784042 -0.12729342 0.017855119 0.061633665 -0.008263927 -0.010473763 0.03001558
-0.015858969 -0.036762673 0.05895292 0.018777873 -0.08782669 -0.043502316 0.08013761 -0.029359708
-0.012963692 -0.030349612 0.025748827 -0.081242785 0.03590217 0.031744022 -0.056430724 0.09740282
-0.023001831 0.027705628 0.030675674 0.040534496 -0.06587503 -0.0936289 -0.02669849 0.037790935
0.057409767 -0.02389209 -0.08484489 -0.0147360405 0.059165165 0.023719944 -0.123840295 0.008251261
0.03518712 -0.0018665212 -0.058573008 -0.037547424 -0.076441914 -0.025478795 -0.0065892725 0.073420234
0.08697952 0.03771316 -0.010326891 -0.06739433 0.03116203 0.034396112 0.0778131 0.037901662
0.030586306 -0.12303708 0.015613569 0.012304188 0.011201202 0.0059364466 0.07129958 -0.059992753
-0.10953289 0.042607114 0.07403902 -0.0107493065 -0.051982597 0.01095142 0.021903245 -0.057489987
0.032599512 -0.014539528 -0.011634745 -0.0035725352 0.072829366 0.023204504 -0.1015349 0.0022379905
0.02513176 0.021899123 -0.027432645 0.094343364 -0.024847528 -0.070227325 -0.08972129 -0.064689755
0.046518903 -0.031203892 0.03642626 0.053794168 -0.03733254 -0.021325974 -0.11988454 -0.025634656
-0.028872976 0.028962426 0.0816328 -0.0810395 -0.03518903 -0.09774465 -0.024560848 -0.012473153
0.02149204 -0.0007803316 -0.034033097 -0.0324822 0.114559844 0.034736846 0.06935777 -0.029753191
-0.038709972 0.0335829 -0.046768952 -0.04397671 0.07144613 0.011261273 -0.056482434 -0.070707075
-0.02876004 0.029626936 -0.0031175108 0.0025855391 0.03817281 -0.052195475 -0.039681524 -0.052797962
0.05953175 0.019266168 0.06439444 -0.007914042 -0.100117475 -0.009250834 -0.001850421 0.008538868
-0.052201886 -0.058398675 -0.051255833 0.061778277 0.048814014 0.047008596 -0.08322703 -0.06942845
-0.086086854 -0.012234793 0.10169549 0.00084534776 0.00029373923 0.01807496 -0.0014760767 -0.003010963
-0.021741588 -0.07562405 0.017764656 0.11371763 -0.06702913 -0.00166031 0.0014558376 -0.07864649
-0.010978889 0.05409577 -0.09259759 0.0410493 0.026376303 0.06301695 -0.030634087 -0.09725503
-0.00080645987 0.041185264 -0.02295264 -0.023572832 -0.017538311 0.08001793 -0.040333927 -0.08008354
-0.0030812242 0.060979433 -0.06134209 -0.06823768 -0.05221356 -0.00898395 0.011500584 -0.06027692
0.06992916 0.008879613 -0.10063351 0.047387477 0.038054075 -0.02127012 -0.14049643 0.0036981748
-0.009890836 0.03960788 -0.022900946 0.022193074 0.0019022276 -0.08483234 0.020678222 0.059100833
00000000: 08c5 89bd 15f7 fd3b dedc 3f3c bea0 9dbd
00000010: 7c41 bc3c 0411 b53d 8474 bd3c a29a 5dbd
00000020: e4af 68bc 5c63 b43b 0c37 ef3d e38d a03b
00000030: 57e6 78bd f622 48bd d3cc 85bd 85aa 973c
00000040: e228 e6bc 6bb3 4f3c e997 6f3b 9426 923d
00000050: fd0b 413d 831d 6abd 6989 cfbd 02b7 b53c
00000060: 7ba5 503d 72c8 123b 9754 acbc 24b5 3d3d
00000070: 1844 dd3c ca61 de3c 4d2b 843b 779a 07be
00000080: d97a c33c eb97 123d 9189 203d 0daa 2a3d
00000090: a59e 26bd 379c 173d c33c d23c 3965 1a3d
000000a0: 4d8b aa3c 951c 7d3d 0de8 063d 5e3f 4e3d
000000b0: 5f01 453d 2f47 85bd 3b39 e6bd fc24 17bd
000000c0: 828d 663c a06f a83c 5918 5dbc dfb3 c83c
000000d0: 57ba c23d 551d 183c d607 afbc 90ba a03b
000000e0: d592 803d e707 cb3c 3559 02be e644 923c
000000f0: 9573 7c3d 6c65 07bc 259a 2bbc 3ce3 f53c
00000100: abea 81bc 7594 16bd 9e78 713d 0ed4 993c
00000110: 7bde b3bd 7c2f 32bd 301f a43d c583 f0bc
00000120: aa65 54bc c09f f8bc 34ef d23c 9e62 a6bd
00000130: 270e 133d 0506 023d e723 67bd 217b c73d
00000140: 566e bcbc eaf6 e23c 8d4b fb3c 8007 263d
00000150: 7de9 86bd 82c0 bfbd cbb6 dabc abca 1a3d
00000160: 8126 6b3d 58b9 c3bc 28c3 adbd 6f6f 71bc
00000170: 2c57 723d 5450 c23c fb9f fdbd 4c30 073c
00000180: 5f20 103d 0fa6 f4ba 40ea 6fbd 54cb 19bd
00000190: 948d 9cbd e8b8 d0bc d3ea d7bb 595d 963d
000001a0: 5222 b23d 1d79 1a3d 1f32 29bc 0a06 8abd
000001b0: 8347 ff3c f0e2 0c3d 795c 9f3d c63e 1b3d
000001c0: 2290 fa3c ddfa fbbd 0ed0 7f3c 8197 493c
000001d0: 3f85 373c 8686 c23b 8405 923d f6ba 75bd
000001e0: c852 e0bd cc84 2e3d c5a1 973d dc1d 30bc
000001f0: b4eb 54bd 966d 333c 6f6e b33c 9f7a 6bbd
00000200: 1187 053d 3337 6ebc a89f 3ebc 3221 6abb
00000210: 9027 953d 5f17 be3c 88f1 cfbd 40ab 123b
00000220: 1fe1 cd3c ca65 b33c 6dba e0bc 1837 c13d
00000230: 0b8d cbbc 58d3 8fbd ccbf b7bd 107c 84bd
00000240: 9b8a 3e3d 4e9f ffbc b433 153d 4657 5c3d
00000250: 01ea 18bd cfb3 aebc 0786 f5bd c5ff d1bc
00000260: 0587 ecbc 9c42 ed3c 192f a73d 0af8 a5bd
00000270: 5f22 10bd 592e c8bd d533 c9bc 325c 4cbc
00000280: 1310 b03c 2b8f 4cba 4a66 0bbd 0e0c 05bd
00000290: 5a9e ea3d 3948 0e3d 720b 8e3d f7bc f3bc
000002a0: 598e 1ebd 398e 093d cd90 3fbd ec20 34bd
000002b0: 5952 923d 3481 383c 205a 67bd dfce 90bd
000002c0: 2d9a ebbc 30b4 f23c 274f 4cbb 2672 293b
000002d0: 185b 1c3d ecca 55bd 1889 22bd ad42 58bd
000002e0: 90d7 733d 15d4 9d3c 3be1 833d e6a9 01bc
000002f0: 640a cdbd cf90 17bc d389 f2ba 9ce6 0b3c
00000300: a5d1 55bd 7333 6fbd a3f1 51bd 380b 7d3d
00000310: 34f1 473d 168c 403d ef72 aabd 8130 8ebd
00000320: 4e4e b0bd 7174 48bc ba45 d03d 549a 5d3a
00000330: 0301 9a39 f011 943c ea78 c1ba 9453 45bb
00000340: 6a1b b2bc c8e0 9abd 2f87 913c cae4 e83d
00000350: 9246 89bd c29e d9ba ced1 be3a 6911 a1bd
00000360: cce0 33bc 8793 5d3d cea3 bdbd 5023 283d
00000370: 1e13 d83c 080f 813d 56f4 fabc a52d c7bd
00000380: 9b68 53ba e1b1 283d 2d07 bcbc d01b c1bc
00000390: 81ac 8fbc 71e0 a33d 3035 25bd d702 a4bd
000003a0: 5dee 49bb 92c5 793d d841 7bbd 32c0 8bbd
000003b0: e3dd 55bd 6b31 13bc f26c 3c3c efe4 76bd
000003c0: 0537 8f3d cc7b 113c f118 cebd 5f19 423d
000003d0: 97de 1b3d ad3e aebc 4cde 0fbe 145d 723b
000003e0: 2c0d 22bc df3b 223d c49a bbbc 40ce b53c
000003f0: 2b54 f93a 94bc adbd 6065 a93c b713 723d

embedding.0.0.bias f4 [64]
-0.010009664 -0.011164437 -0.021562196 0.020945836 -0.0036268507 0.00940151 0.016685775 0.032929763
0.004323613 -0.0022357665 0.0018267134 0.01918156 0.00491232 -0.020099822 0.015973814 0.030341644
-0.014368354 -0.028733946 0.01755433 0.009719877 -0.02157042 0.00496654 0.020043861 -0.00044378673
0.013321376 0.009083646 -0.005573868 -0.004909744 0.0049485965 -0.041538455 0.0076552997 -0.014519359
0.014031889 0.013220687 -0.016733468 -0.00090432767 0.006480311 -0.057785854 0.025507335 0.016238376
0.0076521365 -0.026708227 0.015091714 0.020082757 0.014943222 0.008068507 -0.014265409 0.007842518
-0.005443736 -0.0036456198 0.048116446 -0.008749758 0.020351121 0.0130909225 0.031311527 0.048884064
0.02560215 -0.042870715 0.0125371795 -0.017571164 -0.03271249 -0.022042276 0.0028891694 0.0076281233
00000000: 93ff 23bc 0beb 36bc 34a3 b0bc 9a96 ab3c
00000010: 75b0 6dbb ca08 1a3c 9bb0 883c 5ce1 063d
00000020: 18ad 8d3b f085 12bb 556e ef3a a622 9d3c
00000030: 87f7 a03b 62a8 a4bc 84db 823c 0a8f f83c
00000040: 3f69 6bbc 7463 ebbc 19ce 8f3c 1e40 1f3c
00000050: 73b4 b0bc 5bbe a23b 0633 a43c 0cac e8b9
00000060: e741 5a3c 93d3 143c fea4 b6bb ebe1 a0bb
00000070: d627 a23b 3a24 2abd 4fd9 fa3b 9be2 6dbc
00000080: 02e6 653c 959b 583c a014 89bc 6710 6dba
00000090: ca58 d43b dcb0 6cbd c2f4 d03c 5806 853c
000000a0: c6be fa3b 36cb dabc 3d43 773c 9884 a43c
000000b0: 6ad4 743c c531 043c 76b9 69bc e87d 003c
000000c0: 5e61 b2bb 5aeb 6ebb c015 453d 255b 0fbc
000000d0: 65b7 a63c 4f7b 563c 8440 003d a83a 483d
000000e0: 9abb d13c 3499 2fbd be68 4d3c 67f1 8fbc
000000f0: 88fd 05bd 0192 b4bc 3858 3d3b 56f5 f93b

embedding.0.1.weight f4 [64]
0.94163704 1.0772188 0.91223013 0.86425215 0.89028513 1.030311 0.9687839 0.95905006
0.98693424 0.8919743 1.2081528 1.0095032 0.78955233 0.98801297 0.891309 1.1610222
1.0969807 1.2114372 0.883727 1.1228435 0.9349907 0.9056534 1.1618444 1.1234862
0.86309665 0.87887156 1.3107338 0.8741771 1.0015291 1.0012257 0.77628124 1.2279265
1.1580117 0.84950584 1.0872154 0.8316955 1.0065123 1.1443717 1.1039505 0.8516133
1.0754668 1.1044948 0.81215173 0.94020873 0.73475164 0.85194796 1.1548877 1.0298952
0.92320275 1.1123397 1.2074969 0.8271349 0.9880557 1.0905067 0.91735965 0.91715455
1.1058477 0.9045555 0.9344444 0.83643746 1.1016382 0.9732932 0.94700867 1.0706847
00000000: 200f 713f 4ee2 893f ea87 693f a13f 5d3f
00000010: bae9 633f 3be1 833f 3902 783f 4e84 753f
00000020: b9a7 7c3f 6d58 643f c0a4 9a3f 6737 813f
00000030: 1a20 4a3f 6bee 7c3f d42c 643f 609c 943f
00000040: dd69 8c3f 6010 9b3f ef3b 623f 56b9 8f3f
00000050: 8d5b 6f3f e7d8 673f 51b7 943f 65ce 8f3f
00000060: e7f3 5c3f bafd 603f 20c6 a73f 12ca 5f3f
00000070: 1b32 803f 2a28 803f 5eba 463f b22c 9d3f
00000080: ba39 943f 3779 593f e029 8b3f ffe9 543f
00000090: 65d5 803f c67a 923f 404e 8d3f 5403 5a3f
000000a0: e5a8 893f 1660 8d3f 2de9 4f3f 85b1 703f
000000b0: af18 3c3f 4319 5a3f 5cd3 933f 9bd3 833f
000000c0: 0457 6c3f 2661 8e3f 428f 9a3f 1dbf 533f
000000d0: 38f1 7c3f b995 8b3f 15d8 6a3f a4ca 6a3f
000000e0: 6b8c 8d3f f390 673f c037 6f3f c420 563f
000000f0: 7b02 8d3f be29 793f 296f 723f 320c 893f

embedding.0.1.bias f4 [64]
-0.091784015 -0.02364576 -0.068041705 -0.33406 -0.26798114 0.0019083552 -0.14986189 -0.11141112
-0.08423019 -0.11245683 0.17821111 -0.09071426 -0.34170222 -0.13054234 -0.051808592 -0.23439695
-0.01678917 -0.09512335 -0.3102255 -0.09645412 0.17932282 -0.052857276 -0.30322877 -0.28482807
-0.14775859 -0.2708881 0.04831328 0.0012715065 -0.049180876 -0.10273787 -0.37970158 -0.0018427201
-0.32656422 -0.30049098 0.025606792 -0.4106089 -0.29981488 -0.014038235 0.04711567 -0.34626436
0.19020928 -0.25073114 -0.13970347 -0.21467346 -0.2896306 -0.38813993 -0.19025621 -0.047519825
-0.15827048 -0.07306937 -0.23622549 -0.15633969 -0.23888752 0.057981133 -0.13253924 -0.1420323
-0.26041788 -0.061133534 -0.24844153 -0.31456402 -0.350615 0.005969956 -0.055242978 -0.30551982
00000000: 42f9 bbbd c1b4 c1bc 7359 8bbd ea09 abbe
00000010: d334 89be c621 fa3a 6575 19be 832b e4bd
00000020: e180 acbd c44f e6bd f97c 363e 66c8 b9bd
00000030: 98f3 aebe e4ac 05be 3f35 54bd c105 70be
00000040: 7189 89bc 08d0 c2bd e0d5 9ebe bd89 c5bd
00000050: 67a0 373e df80 58bd cd40 9bbe fcd4 91be
00000060: 074e 17be d8b1 8abe 25e4 453d aea8 a63a
00000070: e371 49bd 3b68 d2bd 3f68 c2be 6d87 f1ba
00000080: 6d33 a7be f4d9 99be 56c5 d13c 543b d2be
00000090: 5681 99be a000 66bc 5cfc 403d 9049 b1be
000000a0: 39c6 423e d55f 80be 6d0e 0fbe 5cd3 5bbe
000000b0: 764a 94be 47ba c6be 86d2 42be 26a4 42bd
000000c0: a811 22be 65a5 95bd 18e5 71be 8317 20be
000000d0: ee9e 74be a07d 6d3d 5eb8 07be ea70 11be
000000e0: 7e55 85be 2867 7abd 7567 7ebe 890e a1be
000000f0: cf83 b3be 9f9f c33b 7646 62bd 186d 9cbe

embedding.0.1.running_mean f4 [64]
-0.014839661 -0.014850896 -0.020082088 0.030230517 0.01895273 0.004092853 0.017058967 0.030833283
0.0032370437 -0.0035569377 -0.011170834 0.01706739 0.015464892 -0.02236123 0.012818759 0.019345403
-0.024888963 -0.038610086 0.023370273 0.0024484552 -0.02745472 0.004402337 0.009197024 -0.009908886
0.009385462 0.008640878 -0.027134491 -0.008509754 -0.00063714315 -0.043336708 0.023860695 -0.027309373
0.0033727102 0.03815238 -0.022790756 0.01686541 -0.0016634235 -0.065194905 0.017303659 0.0338113
-0.006497288 -0.03268216 0.018436162 0.012963045 0.027442537 0.03872061 -0.029571649 -0.0005547326
-0.006500494 -0.0059901183 0.03684423 -0.009605874 0.011863857 0.006523538 0.028574854 0.045757517
0.015694788 -0.04310884 0.01270803 -0.0033385924 -0.04451089 -0.024257094 0.0036423134 -0.004836521
00000000: 0d22 73bc 2c51 73bc 3183 a4bc fda5 f73c
00000010: c142 9b3c 571d 863b 3fbf 8b3c 1596 fc3c
00000020: 9524 543b 831b 69bb e005 37bc e9d0 8b3c
00000030: 7560 7d3c e62e b7bc c605 523c 407a 9e3c
00000040: f0e3 cbbc 9c25 1ebd 0473 bf3c 4376 203b
00000050: b9e8 e0bc 7b41 903b 1daf 163c e158 22bc
00000060: 7bc5 193c 7892 0d3c 2749 debc 7f6c 0bbc
00000070: f405 27ba d581 31bd 8177 c33c e8b7 dfbc
00000080: b008 5d3b ac45 1c3d aeb3 babc 5429 8a3c
00000090: 3b07 daba e884 85bd 67c0 8d3c b87d 0a3d
000000a0: 34e7 d4bb bbdd 05bd 6f07 973c f462 543c
000000b0: 2ccf e03c 8199 1e3d 3e40 f2bc 7a6b 11ba
000000c0: 1902 d5bb c148 c4bb fae9 163d f561 1dbc
000000d0: 9f60 423c 67c3 d53b d015 ea3c 3c6c 3b3d
000000e0: 5b92 803c e592 30bd 5735 503c 49cc 5abb
000000f0: 0d51 36bd d0b6 c6bc e1b3 6e3b ae7b 9ebb

embedding.0.1.running_var f4 [64]
0.00087663607 0.00074066495 0.00055401184 0.00061143294 0.0025211961 0.0017596433 0.00052445254 0.00080487994
0.0007233225 0.00051288476 0.0014012707 0.000588079 0.0009826865 0.0006838 0.0005835123 0.0015036875
0.001216445 0.0009075207 0.0006419609 0.0006241646 0.0005824704 0.00065026677 0.0014399298 0.0012733643
0.00054455356 0.0003578605 0.0028983005 0.0004648808 0.00040154113 0.00058767194 0.0011222395 0.0012802912
0.0013117786 0.0030355186 0.0007514973 0.0017738322 0.0010138218 0.0009143841 0.00085499376 0.0014559396
0.0012918252 0.0008516919 0.0006899716 0.00059266324 0.0007689583 0.00434224 0.0018978317 0.00075583183
0.00055295555 0.0009446929 0.0012333747 0.00025383226 0.001241087 0.00085878046 0.00034261213 0.0005497246
0.0012137707 0.00069723336 0.0005176991 0.0011527971 0.0012510167 0.0009783474 0.0006269009 0.001734655
00000000: 0dce 653a 2f29 423a 1b3b 113a 9248 203a
00000010: a73a 253b d5a3 e63a 6a7b 093a 94fe 523a
00000020: 5a9d 3d3a 1d73 063a d8aa b73a 5029 1a3a
00000030: 7dcd 803a 0b41 333a d9f6 183a 6117 c53a
00000040: 1f71 9f3a afe6 6d3a 4449 283a fa9e 233a
00000050: edb0 183a aa76 2a3a 07bc bc3a 04e7 a63a
00000060: 5fc0 0e3a 399f bb39 6af1 3d3b 3fbb f339
00000070: f085 d239 ff0d 1a3a 1c18 933a 72cf a73a
00000080: fcef ab3a 8def 463b 2100 453a ef7f e83a
00000090: 37e2 843a 47b3 6f3a a921 603a 3ad5 be3a
000000a0: 7652 a93a 1344 5f3a 36df 343a f55c 1b3a
000000b0: eb93 493a 5949 8e3b aac0 f83a 0423 463a
000000c0: 38f4 103a 44a5 773a 30a9 a13a ca14 8539
000000d0: f8ab a23a c81f 613a 9fa0 b339 651b 103a
000000e0: 6317 9f3a 8ac6 363a 33b6 073a 7419 973a
000000f0: 28f9 a33a e43b 803a 9b56 243a 5d5d e33a

embedding.1.0.weight f4 [64, 64, 3, 3]
0.0034351633 0.046749152 -0.023880867 -0.027138786 -0.05006891 -0.053700168 -0.04321005 -0.08462349
0.03924593 0.021488152 0.05119953 -0.0539227 -0.051752996 0.008287277 -0.050488465 -0.0038116476
0.11922011 0.053215753 0.05194262 0.06899868 0.075696014 0.032027785 0.06649496 -0.030133875
0.022240393 0.082319856 0.0372619 0.058118332 0.018989775 -0.033694196 0.01503805 0.004915967
-0.039210018 -0.033007625 -0.012770914 -0.08442778 0.017998517 0.03235066 -0.051267564 -0.00091313146
0.030908195 -0.025826728 -0.032417316 -0.067648605 -0.058371272 0.02965318 0.03589131 -0.061644156
0.082498915 -0.020224433 0.008773184 -0.020561662 0.072956994 0.02382673 0.046773486 0.016442394
0.040273543 0.06811121 0.041335363 -0.036955595 0.02663239 -0.044985708 0.021223644 -0.032298066
0.11343315 0.013202106 -0.046389867 0.023589257 0.031172272 0.012139821 0.012979374 0.0043695983
0.0074675186 0.07393551 -0.042733822 0.008579798 -0.046236847 -0.038032897 -0.06753938 -0.08837799
0.017112035 0.0008140844 -0.0037766707 0.0070294426 0.046800453 0.016791102 0.029909275 0.018772747
0.04689226 -0.0151721 -0.048550136 -0.034410536 -0.07448056 -0.05782061 -0.11708368 -0.01048917
-0.07372941 0.009865512 0.049218036 0.07364448 0.036860533 -0.014150031 0.13347906 0.018927611
-0.06059799 -0.06357692 0.009077995 0.047608063 0.066543646 0.061454497 0.0023229695 0.037947297
0.041779194 -0.06902391 0.043888625 0.007599944 0.021500086 -0.010587511 -0.028684396 -0.01597311
0.04449306 -0.06716882 -0.02321412 -0.0214841 -0.07271458 0.025610361 -0.012255412 0.01540603
0.05411782 0.04483712 -0.0782821 0.005211131 0.021290522 -0.06849336 -0.02871745 0.0057172957
0.044360552 0.018066054 -0.0954965 0.06565461 -0.09297469 0.021811523 0.06329675 -0.012639139
0.13643233 -0.0050555863 0.021002594 -0.0021501372 0.026189825 0.07945666 -0.013532678 0.0050775832
0.09507508 0.012745192 -0.021089075 -0.030156042 -0.009819887 0.013982234 -0.006201889 -0.029720692
0.11869021 0.08607457 0.031712018 0.08396737 0.02089626 0.025963435 0.054498386 -0.06096114
-0.05063589 -0.015883492 -0.029178908 -0.03882982 -0.011865158 -0.0075227115 0.00852103 -0.04809539
0.027959315 -0.00917755 0.05781693 0.039515987 -0.00493787 0.065257356 0.045284364 0.018544372
-0.0720148 -0.054998007 -0.022746248 -0.08050129 0.05758721 -0.05605988 0.042682737 0.012431749
0.116440095 0.00539588 0.01858905 0.0155530535 0.07073261 0.004791235 -0.040172506 0.019858016
-0.098362945 0.0139109865 -0.024140447 0.00045585397 -0.09341719 -0.052732356 -0.026434986 -0.13647017
0.030284312 -0.02446997 -0.045673795 0.0631285 0.03606404 -0.030905109 -0.048329458 0.053041406
0.02885124 0.006810408 0.038978685 0.056061473 0.012079726 0.034561038 -0.0019092405 0.08375938
0.0009038685 0.06886975 0.0074326 0.021995889 0.08662452 0.025188435 0.04433173 -0.01185317
-0.009495149 -0.0285485 -0.06183081 0.007083424 -0.01862513 0.07481156 0.00510938 0.014587136
0.05529283 0.054467548 0.051061723 -0.0054037184 0.02423468 -0.004722964 0.038615808 0.0071833064
-0.0735387 -0.02456593 0.042054653 -0.0026600286 -0.0032608954 -0.0018466238 -0.024036383 -0.036587466
00000000: 7a20 613b 0a7c 3f3d cfa1 c3bc 2952 debc
00000010: 0f15 4dbd b5f4 5bbd 05fd 30bd 154f adbd
00000020: 57c0 203d ec07 b03c 99b6 513d 0dde 5cbd
00000030: f3fa 53bd 5cc7 073c fecc 4ebd d6cc 79bb
00000040: ac29 f43d c3f8 593d c9c1 543d 2e4f 8d3d
00000050: 8306 9b3d 912f 033d 822e 883d 51db f6bc
00000060: 7c31 b63c 5097 a83d ef9f 183d 7d0d 6e3d
00000070: 7290 9b3c ed02 0abd 2762 763c 1f16 a13b
00000080: af9a 20bd 0133 07bd 183d 51bc 79e8 acbd
00000090: a071 933c 2082 043d f0fd 51bd 375f 6fba
000000a0: 2f33 fd3c 9392 d3bc 05c8 04bd 5a8b 8abd
000000b0: b716 6fbd 3aeb f23c c402 133d 957e 7cbd
000000c0: 31f5 a83d b6ad a5bc 67bd 0f3c ee70 a8bc
000000d0: 7a6a 953d 4630 c33c 8e95 3f3d 33b2 863c
000000e0: dff5 243d e47d 8b3d 454f 293d c05e 17bd
000000f0: 2c2c da3c ef42 38bd 35dd ad3c fa4a 04bd
00000100: a44f e83d a54d 583c 4d03 3ebd 423e c13c
00000110: fe5c ff3c 1ae6 463c 71a7 543c d92e 8f3b
00000120: 16b2 f43b 806b 973d a909 2fbd 4892 0c3c
00000130: d962 3dbd 62c8 1bbd 1652 8abd 85ff b4bd
00000140: 8a2e 8c3c 4768 553a 0582 77bb 3d57 e63b
00000150: d5b1 3f3d 7e8d 893c 4c04 f53c 4ec9 993c
00000160: 1912 403d 6694 78bc 82dc 46bd 10f2 0cbd
00000170: 4489 98bd 4ed5 6cbd 92c9 efbd c5da 2bbc
00000180: 72ff 96bd f5a2 213c da98 493d ebd2 963d
00000190: 12fb 163d 88d5 67bc bcae 083e 140e 9b3c
000001a0: 9935 78bd 9e34 82bd dfbb 143c ac00 433d
000001b0: 0948 883d b6b7 7b3d f63c 183b a06e 1b3d
000001c0: a920 2b3d 685c 8dbd 8fc4 333d f308 f93b
000001d0: f320 b03c 3d77 2dbc 8afb eabc 0ada 82bc
000001e0: 5b3e 363d ce8f 89bd 8a2b bebc 6cff afbc
000001f0: 62eb 94bd d2cc d13c ecca 48bc 9369 7c3c
00000200: a6aa 5d3d 21a7 373d 5e52 a0bd 23c2 aa3b
00000210: 7669 ae3c 3f46 8cbd dc40 ebbc 2758 bb3b
00000220: 69b3 353d 43ff 933c ab93 c3bd ed75 863d
00000230: 8469 bebd 14ae b23c baa1 813d 6414 4fbc
00000240: ebb4 0b3e 55a9 a5bb a20d ac3c 51e9 0cbb
00000250: 0b8c d63c 2cba a23d 2ab8 5dbc db61 a63b
00000260: b9b6 c23d 36d1 503c ffc2 acbc ce09 f7bc
00000270: 97e3 20bc bd15 653c 3739 cbbb cf78 f3bc
00000280: da13 f33d dd47 b03d 76e4 013d 16f7 ab3d
00000290: a22e ab3c 45b1 d43c b339 5f3d 63b2 79bd
000002a0: 9467 4fbd 191e 82bc 9b08 efbc 040c 1fbd
000002b0: 1466 42bc 1481 f6bb ca9b 0b3c acff 44bd
000002c0: ef0a e53c 6f5d 16bc 72d1 6c3d 84db 213d
000002d0: dbcd a1bb a6a5 853d 197c 393d 5eea 973c
000002e0: 7f7c 93bd 9745 61bd 5756 babc dcdd a4bd
000002f0: 91e0 6b3d 0b9f 65bd 18d4 2e3d 89ae 4b3c
00000300: 2578 ee3d eccf b03b 1048 983c 3cd2 7e3c
00000310: 42dc 903d cbff 9c3b ed8b 24bd 47ad a23c
00000320: 8372 c9bd e8ea 633c 30c2 c5bc afff ee39
00000330: 8351 bfbd e2fd 57bd 2f8e d8bc d6be 0bbe
00000340: ce16 f83c 3f75 c8bc 7214 3bbd 8449 813d
00000350: e3b7 133d b62c fdbc 1cf5 45bd f241 593d
00000360: 7059 ec3c d829 df3b 1da8 1f3d b7a0 653d
00000370: 0bea 453c e08f 0d3d 7b3f faba 0a8a ab3d
00000380: 97f1 6c3a 950b 8d3d 2b8d f33b b930 b43c
00000390: 3268 b13d fa57 ce3c 3095 353d cc33 42bc
000003a0: 8b91 1bbc 8bde e9bc 4e42 7dbd 111c e83b
000003b0: bb93 98bc ce36 993d 966c a73b e2fe 6e3c
000003c0: bc7a 623d 5d19 5f3d 1926 513d ad11 b1bb
000003d0: cf87 c63c 18c3 9abb 9c2b 1e3d f161 eb3b
000003e0: 759b 96bd 7d3e c9bc 8041 2c3d e053 2ebb
000003f0: bfb4 55bb 6a0a f2ba f3e7 c4bc bddc 15bd

embedding.1.0.bias f4 [64]
2.0124067e-05 5.0103175e-05 8.389016e-05 3.9997303e-05 0.00011176676 -1.96155e-05 -1.9270603e-05 -5.6840145e-05
-0.00010390935 6.6381865e-05 2.449536e-05 -3.186298e-05 -2.6898033e-05 3.6401612e-05 -4.2105217e-05 1.9905694e-05
4.9403927e-05 2.2247943e-05 3.833779e-06 -2.4300361e-05 -9.092503e-06 0.00010421586 -3.275544e-05 3.241197e-05
-7.5926546e-05 -4.3004868e-05 1.8545023e-05 1.6636077e-05 -4.477638e-05 0.00011434126 -1.8171286e-05 2.8852584e-05
1.5692265e-05 -8.100716e-05 -4.290235e-06 2.275364e-05 -6.5206127e-06 5.114588e-05 5.5881297e-05 9.726047e-05
-2.0609303e-05 -0.00011329798 -0.00010982429 -7.646638e-05 -6.1722705e-05 0.0001685555 9.938094e-05 3.12145e-05
3.2108187e-07 0.0001340275 1.3799845e-05 -0.000115104376 4.4128537e-05 -7.40637e-05 6.36107e-06 -0.000120031786
-3.7978825e-05 -7.8656536e-05 2.680269e-05 7.655213e-05 -7.5485514e-05 7.0048004e-06 -5.2009662e-05 -9.166125e-06
00000000: 1bd0 a837 e025 5238 30ee af38 c7c2 2738
00000010: 5364 ea38 f78b a4b7 4ea7 a1b7 a467 6eb8
00000020: e8e9 d9b8 7e36 8b38 637b cd37 9da4 05b8
00000030: 16a3 e1b7 efad 1838 229a 30b8 27fb a637
00000040: 1037 4f38 18a1 ba37 e9a3 8036 a1d8 cbb7
00000050: 018c 18b7 778e da38 e362 09b8 16f2 0738
00000060: c13a 9fb8 2060 34b8 2291 9b37 b48d 8b37
00000070: 46ce 3bb8 7fca ef38 8a6e 98b7 7408 f237
00000080: e2a2 8337 63e2 a9b8 d7f4 8fb6 12df be37
00000090: a3cb dab6 7885 5638 1662 6a38 51f8 cb38
000000a0: 24e2 acb7 649a edb8 7751 e6b8 935c a0b8
000000b0: 2071 81b8 46be 3039 bc6a d038 50ec 0238
000000c0: 2861 ac34 bc89 0c39 e285 6737 3164 f1b8
000000d0: a816 3938 a552 9bb8 2d71 d536 93b9 fbb8
000000e0: 744b 1fb8 68f4 a4b8 57d6 e037 9d8a a038
000000f0: fa4d 9eb8 c70a eb36 f324 5ab8 35c8 19b7

embedding.1.1.weight f4 [64]
0.90226567 1.0750932 1.0833706 1.0395738 1.07856 0.9085455 0.8757764 0.90395796
0.9769016 1.0702152 1.1335882 1.0762088 0.84024143 0.8630464 0.99232167 0.937114
0.9746229 0.9191761 1.0484084 0.8693758 1.1241305 0.94579375 0.849875 1.1518335
1.1684343 1.0087935 1.0744117 1.0560869 0.9528288 1.1865535 0.85476494 0.96747243
1.0408094 1.0245713 1.1739465 0.82008064 1.0384256 1.0360657 0.97160095 1.0647329
0.9544142 1.0072424 1.0037912 1.0123614 0.8427925 1.0681162 1.065715 0.9820785
0.8405866 1.0019706 0.85271925 1.1954031 1.2060951 1.1327417 0.8930065 1.0088626
0.9808669 0.8710223 1.0052258 1.0232081 0.9683973 0.84578586 1.0291027 0.9297209
00000000: e2fa 663f a79c 893f e3ab 8a3f c110 853f
00000010: 410e 8a3f 7096 683f e232 603f ca69 673f
00000020: 3916 7a3f d0fc 883f 6b19 913f 36c1 893f
00000030: 101a 573f 9cf0 5c3f cb08 7e3f b4e6 6f3f
00000040: e380 793f 204f 6b3f 3f32 863f 6a8f 5e3f
00000050: 82e3 8f3f 8a1f 723f 6891 593f 486f 933f
00000060: 418f 953f 2520 813f 5386 893f db2d 873f
00000070: 97ec 733f fce0 973f e0d1 5a3f 46ac 773f
00000080: 3e39 853f 2725 833f e143 963f cef0 513f
00000090: 21eb 843f cd9d 843f d7ba 783f 2b49 883f
000000a0: 7d54 743f 52ed 803f 3b7c 803f 0f95 813f
000000b0: 40c1 573f 08b8 883f 5969 883f 7f69 7b3f
000000c0: af30 573f 9340 803f cf4b 5a3f f802 993f
000000d0: 5361 9a3f aefd 903f 139c 643f 6922 813f
000000e0: 181a 7b3f 51fb 5e3f 3dab 803f 7cf8 823f
000000f0: e3e8 773f 6c85 583f a3b9 833f 3002 6e3f

embedding.1.1.bias f4 [64]
-0.16615348 -0.26771203 -0.074000806 -0.1735611 -0.08559259 -0.1504323 -0.18532456 -0.26190975
-0.2562686 -0.016527062 -0.058499154 -0.04531886 -0.061595418 -0.25712588 -0.1830755 -0.08918437
-0.16254108 -0.29157645 -0.14328595 -0.3172621 -0.022918044 -0.22601324 -0.1915977 -0.11030353
0.038852416 -0.09132841 -0.03249526 -0.20212445 -0.2309097 -0.097199 -0.23766969 0.031815607
-0.13619757 -0.10128586 0.0036069357 -0.027421474 -0.19375366 -0.07260174 -0.1132413 -0.03563937
-0.05665263 -0.31611106 -0.110081896 -0.2063665 -0.22739656 -0.023903977 -0.11541776 -0.19099364
-0.27361983 -0.18121508 -0.24057126 -0.010500391 -0.037426926 -0.1333228 -0.37651262 -0.15073314
-0.06727822 -0.044599283 0.024663432 -0.2316361 0.06987476 -0.16132782 -0.064133205 -0.20440537
00000000: 2324 2abe 8d11 89be bc8d 97bd 00ba 31be
00000010: 2b4b afbd ed0a 1abe b9c5 3dbe 0919 86be
00000020: a335 83be c363 87bc cf9c 6fbd 45a0 39bd
00000030: 7a4b 7cbd 01a6 83be 2578 3bbe 4ca6 b6bd
00000040: 2b71 26be 8249 95be 8db9 12be 2e70 a2be
00000050: 9fbe bbbc 0470 67be 3032 44be d1e6 e1bd
00000060: b623 1f3d 640a bbbd c019 05bd b6f9 4ebe
00000070: 9873 6cbe 4510 c7bd af5f 73be 1551 023d
00000080: 6077 0bbe f66e cfbd 5762 6c3b 00a3 e0bc
00000090: 5c67 46be 39b0 94bd 0eeb e7bd 97fa 11bd
000000a0: 970c 68bd 4fd9 a1be 9e72 e1bd bd51 53be
000000b0: a5da 68be 46d2 c3bc 2660 ecbd d693 43be
000000c0: e617 8cbe 7290 39be 5058 76be d509 2cbc
000000d0: fa4c 19bd c685 08be 43c6 c0be ca59 1abe
000000e0: 2ac9 89bd bdad 36bd f70a ca3c 0432 6dbe
000000f0: 801a 8f3d 1f33 25be 4558 83bd a44f 51be

embedding.1.1.running_mean f4 [64]
0.40158412 -2.0715656 -1.8215095 -2.0728354 -0.55309427 -0.5068611 0.6315035 0.24690571
-1.6460783 -0.14131212 -1.609427 -2.6154642 1.877297 0.14657022 -0.65987074 0.6834885
-0.18604156 0.18003376 -0.45069313 -1.5606903 -2.3968043 -0.940837 1.5723923 -1.0625434
-0.13354981 -1.1734815 0.69914395 -0.96515834 -1.0003699 -0.9400364 0.56824195 -1.445918
1.1040674 -0.29160464 -0.9199377 1.7611694 -1.2172443 0.6389222 -1.2034369 -1.258063
-1.6481359 -1.2153771 0.2692892 -1.0153557 0.057268966 0.3223378 -0.3553594 -0.2192525
0.1577832 -0.8747192 -0.797419 0.51657534 0.51828974 0.75828165 -1.1628543 -1.0316659
-1.1430926 0.22188607 0.38490185 -1.310018 -1.2383637 -0.05465391 -0.08379876 -2.352768
00000000: 6f9c cd3e 8894 04c0 3927 e9bf 56a9 04c0
00000010: 9697 0dbf a6c1 01bf 37aa 213f dad4 7c3e
00000020: b2b2 d2bf 20b4 10be b401 cebf c463 27c0
00000030: 454b f03f 8116 163e 4aed 28bf 1af9 2e3f
00000040: ae81 3ebe c55a 383e 40c1 e6be b3c4 c7bf
00000050: 3e65 19c0 b2da 70bf 2744 c93f 6c01 88bf
00000060: 48c1 08be a434 96bf 19fb 323f 9e14 77bf
00000070: 1f0c 80bf 3aa6 70bf 4e78 113f d713 b9bf
00000080: 1552 8d3f 344d 95be 0981 6bbf 006e e13f
00000090: a9ce 9bbf 6890 233f 380a 9abf 3508 a1bf
000000a0: 1ef6 d2bf 7a91 9bbf 46e0 893e 2df7 81bf
000000b0: dd92 6a3d 7609 a53e abf1 b5be ba83 60be
000000c0: eb91 213e 99ed 5fbf a723 4cbf 483e 043f
000000d0: a3ae 043f bf1e 423f 69d8 94bf a10d 84bf
000000e0: dc50 92bf 1a36 633e db11 c53e abae a7bf
000000f0: b482 9ebf c7dc 5fbd af9e abbd c093 16c0

embedding.1.1.running_var f4 [64]
3.682813 2.1161222 5.4200068 2.449321 2.356425 3.0912502 6.1019645 3.9592385
1.7028927 1.3149683 5.627403 8.419958 5.490915 3.425308 3.1075675 3.9892035
4.4674025 1.4101706 4.4858766 1.8973658 8.609124 2.7985086 7.137639 5.086476
4.303595 3.5049756 1.0833172 3.607189 4.2677007 3.3270586 2.8506968 2.4171863
6.2443547 3.9739401 5.438414 4.368375 4.9232945 2.564 4.8585286 4.512889
1.7371787 1.9915581 1.8971944 3.259424 2.903242 3.3302753 2.2436476 4.12966
3.2658272 4.208747 2.2031078 3.276039 1.6399629 1.4173028 1.2272166 3.3848305
2.001827 1.9030607 2.725392 2.3644955 2.8919256 2.5769167 2.632117 2.499003
00000000: 35b3 6b40 8c6e 0740 b270 ad40 adc1 1c40
00000010: abcf 1640 0bd7 4540 4b43 c340 2a64 7d40
00000020: 63f8 d93f e250 a83f af13 b440 26b8 0641
00000030: 93b5 af40 3f38 5b40 63e2 4640 1c4f 7f40
00000040: f6f4 8e40 7880 b43f 4d8c 8f40 e2dc f23f
00000050: f9be 0941 c41a 3340 8a67 e440 69c4 a240
00000060: 0db7 8940 8551 6040 23aa 8a3f 2fdc 6640
00000070: 0191 8840 87ee 5440 d171 3640 2eb3 1a40
00000080: c1d1 c740 0955 7e40 7d07 ae40 bac9 8b40
00000090: a18b 9d40 9318 2440 1179 9b40 9669 9040
000000a0: df5b de3f 60eb fe3f 44d7 f23f 679a 5040
000000b0: b8ce 3940 3b23 5540 ec97 0f40 2d26 8440
000000c0: 5003 5140 0eae 8640 b8ff 0c40 9faa 5140
000000d0: 4eea d13f 2e6a b53f 6f15 9d3f 10a1 5840
000000e0: ef1d 0040 7e97 f33f d36c 2e40 e553 1740
000000f0: 4f15 3940 34ec 2440 9b74 2840 aaef 1f40

embedding.2.0.weight f4 [64, 64, 3, 3]
0.027624907 -0.040338714 -0.030184487 -0.02813026 0.0173098 -0.045186676 0.043409374 0.005637796
0.0068347617 -0.030782353 -0.104892634 -0.030738318 0.005553829 -0.1481657 -0.038975675 0.0024733024
-0.09927449 -0.045968533 -0.015114057 -0.003131345 -0.011354444 -0.0038918597 0.021443352 0.01629397
-0.06579204 0.027771093 -0.05386152 -0.0011067288 -0.04054817 -0.074905105 0.059821855 0.055748392
0.016357636 -0.010945864 0.013845664 -0.03471098 -0.015553506 -0.055962972 -0.04801033 0.027333358
-0.03787779 -0.06727178 -0.02557397 -0.0030630233 -0.08171489 -0.0038780961 0.09862956 0.024345856
-0.008222255 0.07802694 -0.009830387 0.035273846 0.03175948 0.0052169114 -0.04929933 -0.03570762
-0.04299284 0.001667859 0.009239015 0.031116858 0.0040422874 0.029132377 -0.05659285 0.07495414
-0.06312274 0.03659586 0.05516994 -0.017665243 0.0058625196 0.10515151 -0.005512117 -0.022033244
0.021313174 0.011015194 -0.060034744 -0.012651232 -0.056031287 -0.06707609 -0.016191386 -0.0019519385
-0.055287663 0.017323278 -0.053168844 -0.09970481 0.110280536 -0.01271051 0.08374239 0.025363535
-0.0042746477 0.042447682 -0.003972599 0.078046426 -0.0011331034 0.0031005628 0.03183377 -0.022045383
-0.016173657 -0.0061289873 -0.14527239 -0.06102932 -0.15479997 0.018704917 -0.08267584 -0.15533118
-0.08198694 -0.0052710394 -0.05037467 -0.08038847 0.044763695 -0.06813427 -0.034112267 -0.04987451
-0.012626961 -0.01208394 0.05711746 -0.019376356 -0.045833703 -0.024315981 -0.03712245 0.008563605
-0.040553298 -0.059862927 -0.043675527 0.01080374 -0.061603438 -0.08410288 0.069254324 0.046310883
-0.03213791 0.0023021756 0.069172464 -0.024961738 0.021647781 0.045262545 0.015664224 -0.025084319
-0.010094751 -0.00062892004 -0.0031756775 0.047060102 0.1154965 -0.011514348 0.027739173 0.0742236
-0.020795092 0.012068122 -0.014888758 0.054707997 0.04570099 0.039321285 0.014304256 0.121890835
-0.028639035 -0.110552005 -0.039894372 -0.05569916 -0.0003057741 -0.012980145 0.06931107 0.013579893
-0.05575266 -0.12458627 0.025779625 -0.008350126 -0.037330054 0.009295441 0.030870548 0.06412948
0.035056613 0.033236638 0.011752061 0.051206045 -0.033223446 -0.007696921 0.0022761193 -0.00024937067
0.048855387 0.028191008 -0.04547158 -0.019387325 -0.02992113 -0.049078826 -0.038149502 -0.015682295
-0.06686675 0.054836743 -0.042784534 -0.048058506 -0.06279648 -0.058770806 -0.03758892 -0.06787363
-0.010938664 -0.040778965 -0.04331145 -0.05147183 -0.016056105 -0.08146473 0.011816023 -0.083598115
-0.020172156 -0.011645946 -0.055172123 -0.006522119 0.00012379538 -0.045065753 -0.05070318 -0.046224482
-0.070430964 -0.10986757 -0.03942982 -0.12716638 -0.07696366 -0.01672399 -0.058376823 -0.062299434
0.004440199 -0.05758383 0.010806334 -0.04720693 -0.10866987 -0.111406215 -0.029508332 -0.13980481
-0.078245215 0.024884908 -0.04907216 -0.04721073 -0.04403154 -0.030640563 -0.04992184 0.04036623
-0.023735955 -0.015915662 0.09683007 0.06648146 -0.029635914 0.09027325 0.1434033 0.03800188
0.11948627 0.09339716 0.0768034 -0.006980982 -0.067229204 -0.033331662 0.02384874 -0.03251075
-0.04956425 0.025527012 -0.032389633 -0.05838003 0.0074212817 0.035633042 -0.029646885 0.10841282
00000000: a14d e23c 353a 25bd 7545 f7bc 6e71 e6bc
00000010: 48cd 8d3c aa15 39bd 07ce 313d 43bd b83b
00000020: 23f6 df3b 462b fcbc f3d1 d6bd edce fbbc
00000030: e5fc b53b c0b8 17be f5a4 1fbd 2117 223b
00000040: 6c50 cbbd 8049 3cbd f3a0 77bc 4037 4dbb
00000050: fd07 3abc 920e 7fbb f8a9 af3c ef7a 853c
00000060: fabd 86bd 3480 e33c e69d 5cbd a80f 91ba
00000070: d715 26bd d967 99bd c307 753d 6d58 643d
00000080: 7300 863c 4856 33bc edd8 623c 1a2d 0ebd
00000090: 22d4 7ebc 6e39 65bd 7ba6 44bd 35ea df3c
000000a0: be25 1bbd c9c5 89bd 8180 d1bc 01bd 48bb
000000b0: 235a a7bd a827 7ebb 4bfe c93d f670 c73c
000000c0: a3b6 06bc 97cc 9f3d a20f 21bc 4f7b 103d
000000d0: 3a16 023d a0f2 aa3b 18ee 49bd 2742 12bd
000000e0: 4319 30bd 109c da3a 3d5f 173c c8e8 fe3c
000000f0: 2a75 843b 06a7 ee3c e7cd 67bd 8e81 993d
00000100: 7f46 81bd 8ae5 153d e0f9 613d b3b6 90bc
00000110: 611a c03b ad59 d73d fd9e b4bb 107f b4bc
00000120: f798 ae3c 1279 343c fee6 75bd 1d47 4fbc
00000130: 1081 65bd 305f 89bd cca3 84bc 30d8 ffba
00000140: 5175 62bd 8ce9 8d3c 93c7 59bd 0932 ccbd
00000150: c3da e13d be3f 50bc 2181 ab3d 30c7 cf3c
00000160: 5812 8cbb 9fdd 2d3d 932c 82bb ced6 9f3d
00000170: a484 94ba d032 4b3b 2164 023d 8598 b4bc
00000180: 9e7e 84bc acd5 c8bb 49c2 14be e1f9 79bd
00000190: e283 1ebe 0e3b 993c f351 a9bd 230f 1fbe
000001a0: c5e8 a7bd afb8 acbb ac55 4ebd b6a2 a4bd
000001b0: 235a 373d fb89 8bbd 4eb9 0bbd 3749 4cbd
000001c0: 50e1 4ebc b8fb 45bc fff3 693d 2abb 9ebc
000001d0: 1fbc 3bbd 4f32 c7bc b60d 18bd 5d4e 0c3c
000001e0: 371b 26bd d432 75bd 1ce5 32bd 2b02 313c
000001f0: e353 7cbd 213e acbd 36d5 8d3d 7bb0 3d3d
00000200: 0ba3 03bd 19e0 163b 4baa 8d3d 8f7c ccbc
00000210: b056 b13c 3865 393d 4252 803c a17d cdbc
00000220: 7464 25bc 1cde 24ba 071f 50bb 18c2 403d
00000230: 6e89 ec3d ada6 3cbc 433d e33c 8b02 983d
00000240: 785a aabc 5fb9 453c faef 73bc 7e15 603d
00000250: f630 3b3d 5b0f 213d 665c 6a3c e7a1 f93d
00000260: 699c eabc 1769 e2bd 4868 23bd cd24 64bd
00000270: 4e50 a0b9 adaa 54bc f6f2 8d3d 337e 5e3c
00000280: e75c 64bd 1627 ffbd cb2f d33c f8ce 08bc
00000290: 66e7 18bd e84b 183c 3be4 fc3c 5156 833d
000002a0: 8697 0f3d 2423 083d b78b 403c 6ebd 513d
000002b0: 4f15 08bd 7436 fcbb f22a 153b f7bd 82b9
000002c0: 961c 483d d4f0 e63c 6840 3abd 2bd2 9ebc
000002d0: 281d f5bc e106 49bd a742 1cbd 2878 80bc
000002e0: 6ff1 88bd 7e9c 603d d63e 2fbd ffd8 44bd
000002f0: 719b 80bd a8b9 70bd d7f6 19bd 5401 8bbd
00000300: 1538 33bc d807 27bd 5967 31bd 20d4 52bd
00000310: 1888 83bc fbd6 a6bd fe97 413c 7d35 abbd
00000320: 1440 a5bc a3ce 3ebc 2afc 61bd 80b7 d5bb
00000330: 12cf 0139 de96 38bd 23ae 4fbd e255 3dbd
00000340: 1c3e 90bd 4002 e1bd 2a81 21bd e737 02be
00000350: 209f 9dbd c000 89bc 891c 6fbd b12d 7fbd
00000360: 177f 913b 06dd 6bbd 0d0d 313c 0e5c 41bd
00000370: 4f8e debd f128 e4bd 75bb f1bc fe28 0fbe
00000380: 073f a0bd 6fdb cb3c e4ff 48bd 0a60 41bd
00000390: 6b5a 34bd eb01 fbbc d87a 4cbd 0f57 253d
000003a0: e871 c2bc 9061 82bc d84e c63d 6f27 883d
000003b0: 04c7 f2bc 2fe1 b83d 51d8 123e dca7 1b3d
000003c0: 38b5 f43d 0347 bf3d 1a4b 9d3d b9c0 e4bb
000003d0: 77af 89bd c886 08bd 6f5e c33c fe29 05bd
000003e0: e203 4bbd 061e d13c feaa 04bd e61f 6fbd
000003f0: 392e f33b f4f3 113d 06de f2bc 8a07 de3d

embedding.2.0.bias f4 [64]
1.741263e-05 -2.2170019e-08 -3.6928315e-05 -3.8518618e-05 9.697989e-05 2.203809e-05 -3.055678e-05 0.00011219117
1.9311627e-05 2.0889381e-06 4.3299067e-05 2.490913e-06 3.7584923e-05 -4.5961697e-05 2.0123358e-05 -6.433778e-05
7.726356e-06 8.6782384e-05 4.135818e-05 -2.7000478e-05 1.5029186e-05 -8.892505e-06 -3.249261e-05 -7.307137e-05
5.4460328e-05 -1.2893605e-05 -2.6444404e-06 3.1329369e-06 7.542175e-05 1.2717794e-05 7.184068e-05 3.5525895e-06
-4.918012e-06 3.7258008e-06 -3.1381824e-05 -0.00010797413 -7.0136026e-05 -5.4092467e-05 -6.515462e-05 -3.362365e-05
8.155862e-06 2.5001646e-05 -5.5009346e-05 7.42419e-05 0.0001942064 3.164495e-05 3.6199977e-05 -3.4791963e-05
-3.2591997e-05 7.316026e-05 4.5235342e-06 -2.5164269e-05 6.740217e-05 3.4610275e-05 2.8946142e-05 -4.8450704e-05
-8.338596e-06 6.422678e-05 -9.0314e-06 -5.510142e-06 -2.1911146e-05 2.6805978e-05 4.6287758e-05 5.461151e-05
00000000: 5711 9237 6370 beb2 7ae3 1ab8 0d8f 21b8
00000010: af61 cb38 70de b837 182a 00b8 2d48 eb38
00000020: 67ff a137 af2f 0c36 059c 3538 8f29 2736
00000030: 81a4 1d38 ffc6 40b8 95ce a837 15ed 86b8
00000040: 72a0 0137 f0fe b538 0278 2d38 167f e2b7
00000050: dd25 7c37 0531 15b7 ad48 08b8 e53d 99b8
00000060: 556c 6438 9d51 58b7 2477 31b6 723f 5236
00000070: be2b 9e38 825e 5537 2ca9 9638 0669 6e36
00000080: 6705 a5b6 c508 7a36 fa9f 03b8 2b70 e2b8
00000090: fe15 93b8 58e1 62b8 9fa3 88b8 1f07 0db8
000000a0: 29d5 0837 a0ba d137 d6b9 66b8 51b2 9b38
000000b0: e2a3 4b39 82ba 0438 6ed5 1738 96ed 11b8
000000c0: 64b3 08b8 9e6d 9938 ddc8 9736 db17 d3b7
000000d0: 445a 8d38 802a 1138 5ed1 f237 8c37 4bb8
000000e0: ffe5 0bb7 7db1 8638 9185 17b7 c2e3 b8b6
000000f0: d4cd b7b7 66dd e037 1a25 4238 aa0e 6538

embedding.2.1.weight f4 [64]
1.0054027 0.9314003 0.97611064 1.0196594 1.0658503 1.094488 0.9943633 1.1172652
1.1532397 0.87896824 0.8973233 0.9620004 0.94578564 1.0695952 1.0051577 1.0266185
0.9273802 0.90929186 0.9682392 0.9722984 0.9943818 0.9288564 0.9797861 1.0425633
0.96543837 0.90782636 1.0237869 1.0986912 1.0470741 0.9535832 1.0014241 0.95395404
0.9258938 0.9558349 1.0219059 0.97592986 1.0026295 0.9547171 1.0481427 0.954416
0.9851345 0.9572486 0.9692665 1.0161717 0.9984156 0.91427535 0.9918998 1.0532782
1.0162495 0.9720661 0.98591644 0.98594385 1.0349909 0.9978883 0.9977587 0.98799187
1.0351902 0.9425164 0.9610062 1.0239037 1.051737 1.0357198 1.012883 1.0194445
00000000: 09b1 803f 4070 6e3f 63e2 793f 3384 823f
00000010: c86d 883f 2f18 8c3f 988e 7e3f 8c02 8f3f
00000020: 5c9d 933f 1004 613f fbb6 653f a945 763f
00000030: 021f 723f 7fe8 883f 02a9 803f 3c68 833f
00000040: ca68 6d3f 5ac7 683f 86de 773f 8ce8 783f
00000050: ce8f 7e3f 88c9 6d3f 43d3 7a3f b772 853f
00000060: f826 773f 4f67 683f 730b 833f eaa1 8c3f
00000070: 8606 863f 071e 743f aa2e 803f 5536 743f
00000080: 6007 6d3f 99b1 743f d0cd 823f 8ad6 793f
00000090: 2a56 803f 5768 743f 8a29 863f 9b54 743f
000000a0: c631 7c3f 3f0e 753f d921 783f ea11 823f
000000b0: 2a98 7f3f f30d 6a3f 25ed 7d3f d2d1 863f
000000c0: 7714 823f 53d9 783f 0565 7c3f d166 7c3f
000000d0: 957a 843f 9c75 7f3f 1d6d 7f3f 09ed 7c3f
000000e0: 1d81 843f c148 713f 8104 763f 470f 833f
000000f0: 519f 863f 7792 843f 26a6 813f 287d 823f

embedding.2.1.bias f4 [64]
-0.03185414 -0.21658972 -0.11838987 -0.18087164 -0.01222026 -0.10181449 0.030128453 -0.19616847
-0.01662417 -0.09089966 -0.21908632 -0.04619974 -0.120373264 -0.07122947 -0.11737603 -0.12827656
-0.10785298 -0.13509361 -0.14649776 -0.18824837 -0.07900064 -0.2057526 -0.00053453725 -0.15929306
-0.23894641 -0.1604594 -0.1404466 -0.079118885 -0.12273975 -0.16700687 -0.20014693 -0.043418493
-0.10936944 -0.016674213 -0.040882874 -0.08717686 -0.037472617 -0.13152602 -0.15637867 -0.20903791
-0.10541389 -0.05816872 0.018856712 -0.20811139 -0.14685424 -0.17499556 -0.21570452 -0.10971327
-0.24345994 -0.23030813 -0.25536832 -0.052558053 -0.16466905 -0.14622466 -0.113783374 -0.10306168
-0.11202331 -0.17189538 -0.14622983 -0.07187859 -0.010881355 -0.10957414 -0.04574315 -0.23820297
00000000: 7d79 02bd b2c9 5dbe 6376 f2bd 6a36 39be
00000010: 7c37 48bc 1e84 d0bd f2cf f63c 63e0 48be
00000020: 692f 88bc 9a29 babd 2a58 60be f03b 3dbd
00000030: 4286 f6bd c2e0 91bd d862 f0bd ee5a 03be
00000040: 06e2 dcbd fb55 0abe 8203 16be 2ec4 40be
00000050: 16cb a1bd cfb0 52be 3020 0cba b81d 23be
00000060: 5eae 74be 784f 24be 3cd1 0fbe 1509 a2bd
00000070: fa5e fbbd d903 2bbe 51f3 4cbe 97d7 31bd
00000080: 16fd dfbd 5c98 88bc cd74 27bd c889 b2bd
00000090: e37c 19bd c2ae 06be bb21 20be 090e 56be
000000a0: 3de3 d7bd 5342 6ebd 6479 9a3c 271b 55be
000000b0: f560 16be 0932 33be a5e1 5cbe 5ab1 e0bd
000000c0: 904d 79be e5d5 6bbe a3bf 82be 1d47 57bd
000000d0: 019f 28be ebbb 15be 4207 e9bd 0112 d3bd
000000e0: 7a6c e5bd 5805 30be 46bd 15be 1535 93bd
000000f0: b647 32bc 6868 e0bd 2b5d 3bbd 7beb 73be

embedding.2.1.running_mean f4 [64]
-1.4934342 -2.4844072 -1.1989588 -1.0087149 0.9102188 -0.22692698 -0.4436291 -1.5166141
-1.4747324 0.28440613 -1.5147396 0.027696699 -1.5689476 0.39532733 -2.6775482 -0.8370894
-1.8376633 0.86693305 -1.8815042 0.2706186 -0.8432625 -0.6082415 0.9251374 -1.3840908
-1.1548933 0.22060321 -2.0208137 -1.1613417 -1.8817819 -0.7696306 -1.6705688 -2.6700869
-0.73205805 -0.076080084 1.3684005 0.006909145 -2.371735 0.48637167 -0.16650763 -0.14970502
-0.46849248 0.044983067 0.5317958 -0.911209 -0.018772516 -2.0830758 -1.1898853 -0.2603804
-2.0453746 -0.5473465 -0.45853585 -1.6622815 -1.3882713 0.33273125 0.06664736 0.08123824
-2.3599918 -0.9636353 -2.3872368 -2.2769015 0.897703 -0.23170844 0.42715296 0.15857768
00000000: da28 bfbf 8700 1fc0 7b77 99bf 921d 81bf
00000010: 1904 693f 8c5f 68be 5a23 e3be 6920 c2bf
00000020: 08c4 bcbf ae9d 913e fde2 c1bf 30e4 e23c
00000030: 46d3 c8bf 5868 ca3e f35c 2bc0 7e4b 56bf
00000040: 8d38 ebbf 53ef 5d3f 21d5 f0bf 858e 8a3e
00000050: 0de0 57bf b7b5 1bbf ced5 6c3f e329 b1bf
00000060: 8bd3 93bf cfe5 613e 0355 01c0 d8a6 94bf
00000070: 3bde f0bf 8306 45bf 33d5 d5bf b4e2 2ac0
00000080: 2868 3bbf e0cf 9bbd bf27 af3f 1c66 e23b
00000090: 82ca 17c0 b505 f93e fa80 2abe 464c 19be
000000a0: 3fde efbe 2a40 383d c523 083f fe44 69bf
000000b0: d2c8 99bc 1d51 05c0 294e 98bf 9450 85be
000000c0: 6be7 02c0 e61e 0cbf 36c5 eabe a4c5 d4bf
000000d0: e0b2 b1bf c05b aa3e 697e 883d 3c60 a63d
000000e0: 1b0a 17c0 ceb0 76bf 7dc8 18c0 c1b8 11c0
000000f0: ddcf 653f fa44 6dbe cbb3 da3e 3062 223e

embedding.2.1.running_var f4 [64]
4.390342 6.4834466 4.497695 2.1785061 5.004473 5.9485135 3.309071 8.432689
2.357104 3.2639751 2.915653 4.5483847 4.265891 3.6920767 9.126317 2.3635793
5.33213 4.424672 4.114279 3.6353574 2.410486 3.976541 2.4481628 5.075772
2.168398 2.6611953 4.180784 6.0903835 3.4465158 4.303065 5.1472497 6.354828
4.38111 4.847078 8.874433 2.3815904 5.524055 4.755493 3.84871 2.5663939
3.5594957 3.8236303 2.186716 7.4897246 2.2044175 4.428525 3.3017693 4.174966
4.571398 3.4397578 5.48746 5.9246655 4.778848 3.2512429 4.62024 4.7272997
3.5087364 3.7128398 4.0000014 5.614491 2.763013 4.4513755 4.4600863 3.960133
00000000: af7d 8c40 6578 cf40 1eed 8f40 a56c 0b40
00000010: a524 a040 395a be40 d2c7 5340 4bec 0641
00000020: cbda 1640 f8e4 5040 0f9a 3a40 5e8c 9140
00000030: 2e82 8840 fc4a 6c40 6505 1241 e244 1740
00000040: cfa0 aa40 ea96 8d40 2ca8 8340 b2a9 6840
00000050: 6745 1a40 a67f 7e40 b3ae 1c40 b96c a240
00000060: 08c7 0a40 0651 2a40 fcc8 8540 6ce4 c240
00000070: b793 5c40 b5b2 8940 45b6 a440 c05a cb40
00000080: 0e32 8c40 431b 9b40 adfd 0d41 fa6b 1840
00000090: 0fc5 b040 002d 9840 4451 7640 cc3f 2440
000000a0: c7ce 6340 5cb6 7440 28f3 0b40 d3ab ef40
000000b0: 2d15 0d40 7ab6 8d40 3050 5340 5299 8540
000000c0: e448 9240 fe24 5c40 4699 af40 dc96 bd40
000000d0: 53ec 9840 5d14 5040 02d9 9340 0a46 9740
000000e0: 238f 6040 2b9f 6d40 0300 8040 e9a9 b340
000000f0: 34d5 3040 ab71 8e40 07b9 8e40 d272 7d40

embedding.3.0.weight f4 [64, 64, 3, 3]
0.08165497 -0.07146102 -0.018113904 -0.05210088 -0.07392012 -0.042561542 -0.06510483 0.0019081829
0.0023141224 -0.010072483 0.008929579 0.015870359 0.036150694 0.018095925 -0.019568317 0.007785434
-0.016594348 -0.00043259884 -0.0779887 -0.04954378 -0.023524549 -0.0010075287 0.024393369 -0.003587852
0.012503534 -0.02431338 -0.00880696 0.026962105 0.011452629 0.026659984 0.041063745 0.024248876
0.04505957 0.04256544 0.017388234 0.009804989 -0.07029501 -0.11327628 -0.020636315 -0.06167063
-0.01959407 -0.02674095 0.02347092 0.001175351 0.064929396 -0.05691737 -0.0613342 -0.003570817
-0.048913892 0.053518213 0.017391725 0.031470843 -0.012896226 -0.0047602765 -0.055515684 -0.03942022
-0.046113893 0.025349464 0.021758163 0.0526591 0.009968272 0.04928276 0.039212957 -0.014496882
-0.09419632 -0.026314916 -0.0011743593 0.016230287 -0.037146486 -0.025669316 -0.050513692 -0.062783584
0.035789363 -0.039760873 -0.07605143 -0.01576397 -0.047056217 -0.04196195 0.04852528 0.029766805
-0.02893965 0.04385294 0.010513964 0.0060537495 0.036040895 0.091230445 0.08653672 0.03143003
0.040707387 0.015412313 -0.05337225 -0.016414395 -0.016011415 0.008241762 0.013265895 -0.010515788
0.019857306 0.04689585 0.042302262 -0.050650835 0.00089665235 0.00391331 0.031098258 0.058117755
0.011230511 0.048567105 0.062552385 -0.011363214 -0.014550695 -0.023584612 0.038175162 0.025556969
0.08490338 0.08776536 0.036516894 0.054087784 0.03933701 -0.037609365 -0.045163635 -0.015443325
-0.03712888 0.032750156 -0.05904006 0.066915266 -0.0008764849 0.04442801 0.025629552 -0.025917223
0.035813157 -0.009220508 -0.039820034 -0.028277176 0.058859684 0.03217268 0.04811722 -0.038342133
0.013422206 -0.04758823 -0.006760938 -0.03238756 -0.07030534 0.0087901745 0.032440014 0.028751833
0.020461963 0.048833713 0.14395538 -0.022732433 0.05277131 0.03882133 0.014583232 0.011045651
0.025855293 -0.059347294 0.012539617 -0.06264664 0.011840102 0.0071353097 0.02224912 -0.004472006
-0.020326177 0.013952236 -0.00878474 0.044828344 0.032179844 0.04331715 0.037137695 -0.009452565
0.013620125 0.028081916 0.034601767 -0.06904669 -0.0025879804 -0.016562063 0.017543526 0.04971573
0.0732433 0.022628807 -0.005367635 0.023305913 -0.051076114 -0.06179479 0.042583723 -0.03518337
-0.01628922 -0.046413813 -0.021062821 0.027516598 -0.054191876 -0.014265066 0.026998863 0.018035479
-0.013700652 -0.014274356 0.041105025 0.011478694 -0.0041649034 0.0090874 -0.028354185 -0.05160352
-0.060719136 -0.00040940833 0.01868174 -0.01106997 0.035022043 0.05704845 0.010471689 -0.0019114681
-0.021052403 0.076232485 -0.0065609887 -0.0935152 -0.017276619 0.06063164 0.04461278 0.023267414
-0.05992053 -0.052593615 -0.041649416 -0.06409262 -0.014226611 -0.019424837 -0.0068835877 -0.0063784737
-0.0025620281 -0.07554182 -0.06354864 0.006576168 -0.018371567 0.045320347 0.07706643 0.011022635
-0.040174134 0.004408994 -0.05805022 0.006645414 0.034369107 -0.0016295513 0.0017941989 -0.0733725
0.04315793 0.010798895 0.036239684 -0.12525743 -0.09989792 -0.15952101 -0.019992052 -0.043881733
0.015132676 0.002339369 0.05117605 0.0120248785 0.016889378 -0.042974032 0.012723628 -0.024589652
00000000: b93a a73d 285a 92bd 9c63 94bc bb67 55bd
00000010: 6f63 97bd 0355 2ebd ae55 85bd fe1b fa3a
00000020: 88a8 173b 0e07 25bc 5e4d 123c 8e02 823c
00000030: c012 143d e83d 943c bc4d a0bc f41c ff3b
00000040: dff0 87bc 6fce e2b9 8ab8 9fbd 6bee 4abd
00000050: 8eb6 c0bc 0e0f 84ba 9ad4 c73c 2b22 6bbb
00000060: 9fdb 4c3c da2c c7bc 114b 10bc a2df dc3c
00000070: cfa3 3b3c 0a66 da3c 7532 283d 94a5 c63c
00000080: 6290 383d 1959 2e3d c571 8e3c 1ba5 203c
00000090: d5f6 8fbd 65fd e7bd 7d0d a9bc 589a 7cbd
000000a0: be83 a0bc d60f dbbc 1646 c03c 3c0e 9a3a
000000b0: b4f9 843d 3022 69bd 9239 7bbd 5e04 6abb
000000c0: ef59 48bd ea35 5b3d 1779 8e3c 92e7 003d
000000d0: b14a 53bc 18fc 9bbb 6a64 63bd 1977 21bd
000000e0: ece1 3cbd aea9 cf3c 2d3e b23c 12b1 573d
000000f0: f751 233c b8dc 493d c49d 203d 5584 6dbc
00000100: 00ea c0bd 6192 d7bc f6ec 99ba 61f5 843c
00000110: ea26 18bd 7548 d2bc 72e7 4ebd ae94 80bd
00000120: de97 123d 4cdc 22bd dac0 9bbd 7123 81bc
00000130: 05be 40bd 4be0 2bbd 72c2 463d 84d9 f33c
00000140: d812 edbc 249f 333d c342 2c3c 885e c63b
00000150: 9e9f 133d 07d7 ba3d 2a3a b13d c6bc 003d
00000160: cabc 263d ed83 7c3c dc9c 5abd 7b77 86bc
00000170: 5f2a 83bc 7508 073c 3259 593c 694a 2cbc
00000180: caab a23c dd15 403d 2345 2d3d 4077 4fbd
00000190: 520d 6b3a 393b 803b c6c1 fe3c e20c 6e3d
000001a0: 2d00 383c 4dee 463d 771b 803d c62c 3abc
000001b0: 0a66 6ebc 8434 c1bc 8f5d 1c3d d95c d13c
000001c0: d3e1 ad3d 53be b33d bd92 153d 278b 5d3d
000001d0: d81f 213d 470c 1abd 81fd 38bd 0006 7dbc
000001e0: 7414 18bd 0725 063d fdd3 71bd df0a 893d
000001f0: e8c3 65ba 25fa 353d 11f5 d13c 5b50 d4bc
00000200: d1b0 123d 9d11 17bc 551a 23bd 89a5 e7bc
00000210: da16 713d 80c7 033d 9016 453d a40c 1dbd
00000220: d0e8 5b3c e0eb 42bd dc8a ddbb d1a8 04bd
00000230: 3ffc 8fbd aa04 103c d2df 043d f788 eb3c
00000240: d99f a73c dc05 483d 0a69 133e 5e39 babc
00000250: bb26 583d 1d03 1f3d 82ee 6e3c d1f8 343c
00000260: 7bce d33c 2616 73bd f772 4d3c e24c 80bd
00000270: fdfc 413c 51cf e93b c943 b63c e889 92bb
00000280: 1583 a6bc eb97 643c dfed 0fbc ed9d 373d
00000290: 03cf 033d 536d 313d b21d 183d eede 1abc
000002a0: f226 5f3c 0c0c e63c 95ba 0d3d 5a68 8dbd
000002b0: 1b9b 29bb 2aad 87bc 71b7 8f3c b9a2 4b3d
000002c0: 9500 963d 0c60 b93c fce2 afbb 0bec be3c
000002d0: 3035 51bd 891c 7dbd 456c 2e3d 701c 10bd
000002e0: f870 85bc 691c 3ebd f08b acbc 7d6a e13c
000002f0: 4df8 5dbd 06b8 69bc b82c dd3c 24bf 933c
00000300: b378 60bc fdde 69bc be5d 283d 2211 3c3c
00000310: be79 88bb 51e3 143c 0947 e8bc 365e 53bd
00000320: a1b4 78bd dba5 d6b9 730a 993c d25e 35bc
00000330: 4673 0f3d a3ab 693d 7291 2b3c 3a8a faba
00000340: 1776 acbc c71f 9c3d 90fd d6bb e684 bfbd
00000350: b287 8dbc e258 783d e4bb 363d 4e9b be3c
00000360: 3b6f 75bd 676c 57bd 9498 2abd fe42 83bd
00000370: bb16 69bc d620 9fbc b88f e1bb 8402 d1bb
00000380: b3e7 27bb abb5 9abd ca25 82bd e57c d73b
00000390: f87f 96bc d4a1 393d 01d5 9d3d 4898 343c
000003a0: a28d 24bd 5379 903b 11c6 6dbd c6c1 d93b
000003b0: 9fc6 0c3d ab96 d5ba 532b eb3a 5244 96bd
000003c0: 5fc6 303d d9ed 303c 1070 143d 7c43 00be
000003d0: 4897 ccbd 7a59 23be 5fc6 a3bc 55bd 33bd
000003e0: 0bef 773c 1950 193b fa9d 513d ff03 453c
000003f0: 985b 8a3c 8a05 30bd c476 503c 3d70 c9bc
