checkpoints/MatchingNet/fce_net_on_Omniglot_100.pth (torch, 102607 bytes, 8 tensors)

fce.weight_ih_l0 f4 [128, 64]
00000000: a10c 533d db8c a63d 8b27 07be 9978 0fbe
00000010: cf83 c73c 5702 003c bc62 1ebe 67f3 5e3c
00000020: 8766 bfbd 703c b0bd 2d90 223d cfd1 12bd
00000030: cc7b 0b3d 7d38 babd 18d2 7dba 8c18 9b3d
00000040: 147b 22be 43ed 0d3d 2001 96bd 4e0b e3bd
00000050: a5e6 91bd 8f7f ab3d 1f05 6dbc 6faa f93d
00000060: c5e0 40bd 1ef8 bfbd 0c60 553d f285 2bbe
00000070: 31f8 623d 50d5 f5bd ce70 033d f649 a43d
00000080: c13c 183e 553a 86bd 8ce5 23bd 5300 32bd
00000090: d48e ccbc 94f7 b2bd f4c2 763d 8b7b 35be
000000a0: abcc 89bd 2d30 5f3d 3862 7bbd d4d3 d1bd
000000b0: 9abc d2bd e1a3 eebd 52ca 7b3d 5a6c 28be
000000c0: b09e eebd 4f91 acbd 688b 683d 49ad e73c
000000d0: 207b 81bc 9f9f de3d 49e9 01bd b13d 243e
000000e0: 96e2 fcbd e3b5 c8bd 0dd3 5c3e 9411 12be
000000f0: 8d1b c23d 2b9c e5bc f9a7 89bd fa00 943d
00000100: daf3 0cbe acdf 703d b2d7 91bd e1ce d8bd
00000110: ead6 e7bd 22f2 78bc b7f1 fa3c cf1c 23be
00000120: 7819 efbc 6834 7b3d f39d a03d 419f 603d
00000130: 6c30 3cbd c481 a93d 7c1c 973d fce9 42be
00000140: fbc9 20be 6fef 8c3d f980 c23c be53 08bd
00000150: db16 0dbe 448f 57be 928c 10be 3e13 35be
00000160: 3da6 bcbd d981 36be 97c5 fdbd 06a0 b9bd
00000170: 5d75 52bd 62f4 00be 5a7d e3ba 7e55 1d3b
00000180: d667 133d 6c01 fcbb 27d7 dd3d a91d 033e
00000190: a7ad dbbd c786 65be 7ac4 0a3c 9285 063a
000001a0: 33ab 6cbe 490e 6abd 5e12 9f3d 018e 743d
000001b0: 9659 babd e2c6 08be deba e7bc 17ed 0dbd
000001c0: 6b6b 3fbe cd13 8e3d 8602 0fbe bb4b edbd
000001d0: 9845 61bd b523 3c3c df74 acbb 18dd 6cbe
000001e0: 4237 2ebe 5330 70bd 0ee4 2dbd f833 c33b
000001f0: a0ad 46be 7c0f b6bd 4fe7 27be 41aa fa3d
00000200: 31ba 3dbd 37c8 003e 5e27 e4bd fa78 24bb
00000210: 6b5d c3bc bdf4 4ebd 41cc d5bd 4b6d 1bbe
00000220: 2d35 f73d f65d ca3d 43c2 9c3d 0338 843d
00000230: e6e8 da3d d5ef b1bb 5e53 fc3d 51ba 073e
00000240: c9e9 2bbe cfc9 27be dac0 cf3d ca10 67be
00000250: c8fb 0ebe 614c 003e 0e55 b03d 9637 c03d
00000260: 0e98 86be afa2 953d db6d 23be 28eb 30bd
00000270: 1aa8 79bc 5c6f bcbc 6486 b0bd a949 bebd
00000280: 62d7 92bd 6627 10be 1ac4 a13d 4d7c eb3d
00000290: 0080 993d 452e 6e3d f5e4 5f3d 044a f3bd
000002a0: eb22 c5bd 9ff2 df3d 3708 033e 2d27 dcbd
000002b0: 3e8e ee3d fe0a 98bd a4f0 743d b1ad 85bc
000002c0: 05ef 843c 8801 81bd b9ac 95bd e2a2 ea3c
000002d0: 6120 6abd f50b 403d 2e58 2cbe cd70 90bd
000002e0: 113a 91bd baa4 753d 80e3 1d3e 2921 08bd
000002f0: 2a8f 28be 3f93 c2bc 4594 863d 04ea 27be
00000300: 2d2e 6b3d e8f9 3fbe b81d 05bd d641 083d
00000310: 15e0 043e 390a a23c 56d8 c83e 2b7d c03d
00000320: 7be0 64bd 02a4 18be 8f5a c93d 2879 6e3e
00000330: 22d8 70bc 4c32 2e3e f9c1 0d3e be57 bebd
00000340: 447b 043e f1b4 01be e899 0a3d 76ed 0c3e
00000350: a2b6 57be abc7 32be c9bd 7dbd aec0 96bd
00000360: f3e6 0c3f aee7 3cbe e132 25be e43b 003d
00000370: d883 fd3d aad9 1ebd 110c acbd 95e5 fe3d
00000380: 5769 cdbd befb c3bd bf3f 8d3c 7095 64bd
00000390: 2c9d 3cbe 124b 8fbb d619 ac3c 5d8f 733c
000003a0: fdc7 883d 6586 733d 9b5b 09be 995e 143e
000003b0: d29c 32be 8122 5dbe b656 c3bd b396 483d
000003c0: d97c edbc 1e58 9c3d b7c4 6fbd d1a2 a63d
000003d0: a52e 91bc 0f80 2ebd 3e2c 5b3e bf7f 313e
000003e0: 2bd4 ba3d 2166 d53c 69f0 33be b1d9 01be
000003f0: 9f61 d8bd 78d9 f6bb 230e 2fbd 03d2 833c
0.051525716 0.08132335 -0.13198678 -0.14010848 0.024354843 0.007813058 -0.15467352 0.013607836
-0.093457274 -0.086052775 0.039688278 -0.03584462 0.03405361 -0.090928055 -0.00096824905 0.07573041
-0.15867263 0.0346501 -0.07324433 -0.110861406 -0.0712407 0.08373939 -0.014466553 0.12190711
-0.047089357 -0.093734965 0.05209355 -0.16750315 0.055412475 -0.12003577 0.03209 0.080219194
0.14866926 -0.06554095 -0.040013835 -0.04345734 -0.02497045 -0.08738628 0.060244516 -0.17722909
-0.067284904 0.054489303 -0.061372966 -0.10245481 -0.10289879 -0.11652351 0.061472245 -0.16447583
-0.11651361 -0.08426153 0.056773573 0.028280871 -0.01580578 0.10870289 -0.03171662 0.16039158
-0.12347905 -0.09800317 0.21564884 -0.14264518 0.09477911 -0.028028568 -0.06721491 0.07226749
-0.13764897 0.05880706 -0.07121219 -0.10586334 -0.113202885 -0.015194448 0.030632837 -0.15928958
-0.02918695 0.061329275 0.078426264 0.054839376 -0.045944616 0.08276704 0.0737848 -0.1903457
-0.1570205 0.06881606 0.02374314 -0.033282988 -0.1377825 -0.21050745 -0.14116123 -0.17683122
-0.09211395 -0.1782297 -0.12391203 -0.09063725 -0.051381458 -0.12593225 -0.0017356083 0.0024007256
0.035987698 -0.007690599 0.10832053 0.12804283 -0.10726481 -0.22414695 0.008469695 0.0005131598
-0.23112182 -0.05714253 0.07767175 0.059705738 -0.090991184 -0.13357118 -0.028287347 -0.034649935
-0.1869332 0.069373704 -0.13965806 -0.1158671 -0.05499801 0.011483123 -0.0052629556 -0.23131216
-0.17013267 -0.058639836 -0.042453818 0.005957123 -0.1940217 -0.08889672 -0.16396831 0.122395046
-0.046320144 0.12576376 -0.11140321 -0.0025096522 -0.023848256 -0.05052637 -0.10439349 -0.1517841
0.12070689 0.09881203 0.0765424 0.06455996 0.10688953 -0.0054302015 0.123205885 0.13254668
-0.167884 -0.16385578 0.101442054 -0.22564998 -0.13963234 0.12529136 0.08609973 0.09385602
-0.26287884 0.0730642 -0.15959875 -0.043193012 -0.015237832 -0.023002319 -0.08619383 -0.09291393
-0.07169987 -0.1407753 0.078987315 0.11498318 0.07495117 0.058149595 0.05466171 -0.11879352
-0.09625801 0.10934948 0.12796102 -0.1074966 0.11648224 -0.074239716 0.059799805 -0.016318174
0.016227255 -0.0629912 -0.07308335 0.028642122 -0.057159785 0.046886403 -0.16830513 -0.07052765
-0.070911534 0.05997155 0.15418816 -0.03323475 -0.16460863 -0.023751853 0.06571249 -0.16397864
0.057417084 -0.18747675 -0.032499045 0.03326591 0.12976106 0.019780265 0.3922755 0.09398874
-0.055878144 -0.14906314 0.09831726 0.23288405 -0.014699968 0.17011374 0.13843526 -0.09294079
0.12937647 -0.1266668 0.033838183 0.13762459 -0.21065763 -0.1745898 -0.06194857 -0.073609695
0.550399 -0.18447754 -0.1613269 0.031307116 0.12378663 -0.0387818 -0.08400739 0.12446133
-0.100298576 -0.095695004 0.01724231 -0.055806577 -0.18419331 -0.0043729628 0.021008413 0.014865723
0.0667877 0.05945434 -0.13413851 0.14489211 -0.17442635 -0.21595193 -0.09538023 0.048971843
-0.028990196 0.076339945 -0.05853721 0.081365235 -0.017722437 -0.042602595 0.21403596 0.17333888
0.09122499 0.026049675 -0.17572178 -0.12680699 -0.10565495 -0.0075332485 -0.04273809 0.016091352

fce.weight_hh_l0 f4 [128, 32]
00000000: 55c7 3b3b b267 8abd 9cf2 ee3c 5776 e53b
00000010: ba45 a6bc 4a41 133d 6be3 8cba 9fdf 6a3d
00000020: e7ea d63c 448e 923c c057 fa3c 0f25 b4bc
00000030: dbef 1d3d 1166 863c 21be 81bc c0e0 d0bc
00000040: 74f6 ae3d 2485 84bc 8c6b 953c 7c22 66bc
00000050: 1c82 913a f67f a0bd 9110 cabc 2cd6 01bd
00000060: b8bf 973b 295d 02bc b71c fcbc 1bfa 633c
00000070: d80c 6f3d c5ff a4bd f87f f23c 7cf3 78bb
00000080: 4947 2abd 6bd5 97bd a9eb 89bd 4a3d f83d
00000090: c92a 0a3e fbaa 933d 42c8 6bbc 89fb aabd
000000a0: 9263 8d3d b011 293e 5314 5dbd 8c3c 90bc
000000b0: 4eb8 9cbd 2100 a03d e10b 94bd d548 8bbd
000000c0: e903 16be 1bb2 c5bd e63a 9f3c 971a 3b3d
000000d0: cff9 073c 5ff2 4abc a4da 983d 0036 49bd
000000e0: 718f f53d 5d8d e03d 48c7 0ebe ec57 a8bc
000000f0: 4c21 e9bd 8821 11bc dd03 f9bb aa95 c2bd
00000100: 17ae 1d3d 16ee 923c 86e9 74bb da55 953c
00000110: afbe 953b a2b5 acbd 7be6 d3bc 4f9e ae3d
00000120: 9a55 653d 7e19 453d a3a5 4c3d 5840 b13c
00000130: e845 ee3c bd20 173d 7822 e03c 8192 20bd
00000140: 02e6 f13c f0ae 44bd 2e79 f1bc ff50 50bd
00000150: bcf2 92bc e8f2 0abe fd0b bc3c 4559 58bd
00000160: 83f5 ffbc 9dc9 4e3d 86e3 64bc ad47 713d
00000170: 5a46 973d 612d 27bd a4e4 36bc 263a 00bd
00000180: d063 49be e9ed acbc c81f 48be 5eed bdbd
00000190: 6566 4b3e d6cb 5d3d 9cba b23d b5c5 12be
000001a0: 0ba2 c2bd 5c41 503e 377d 863d 2aec a6bd
000001b0: 9a93 28bc 0bc5 ddbd 5386 eeba 978a 2abe
000001c0: e9c4 cb3d 5dd3 b13c afe5 fb3d 1bb3 43be
000001d0: 3445 493e e39f 01bd 9903 29bd de5f af3d
000001e0: 069e adbd 1bb9 eabc 3c57 8cbd d8ab cabd
000001f0: 95ea 153d ad7e a9bd d876 5b3d 4d1f 563d
00000200: 2513 09be e775 153e fce6 dd3c 3708 ab3b
00000210: f30f c8bd b5ad 51bd 44d0 b7bd 764b 293d
00000220: a7b1 803d 66b2 5a3d 40f6 14be 441f d1bd
00000230: 9593 333e 4d8f a03d d0d0 e2bb 971b 073e
00000240: c777 3a3d ec1b bfbd 6ec3 f6bc 9b43 06be
00000250: cb2e c8bc 1618 0c3e bd76 84bd 72c8 f3bd
00000260: 1698 bbba 296b 2cbc d439 a4bd 1b27 2b3c
00000270: 62d2 8ebd 8932 b23c 4d93 77bd a826 013d
00000280: 7e2b ff3d dded 8bbd cc4c 823d 7eaa 333b
00000290: 1537 163d 682c 1abe 2027 96bd 5b08 b43d
000002a0: 2677 603d 9100 60bd c5dc b83d 4f5a c43d
000002b0: 61fb 5ebd 892a 283c 6b26 5d3c 1756 063e
000002c0: 941a 1c3c bc08 d6bd 454a 233e a36d 71bc
000002d0: e7fa d0bb 00af 093d 9989 f0bd 8d27 c53d
000002e0: 6379 2b3c 4728 9dbc 60c2 7dbd 52f3 0cbe
000002f0: 9c3a 8c3d ecad 863d 0796 213e 60fe d5bc
00000300: c88f 333c 7c06 59bd 2936 a9bd 15bf 78bb
00000310: 2997 3c3c 12ce 863d c7d2 783d 4aca c93c
00000320: 80c2 8b3d d5d4 f6bc b288 9cbc f2c6 5d3c
00000330: baeb a4bd 78d4 8bbd 94e8 8e3c 657f 93bd
00000340: 60e6 73bc c957 cabd d17f 37bd 86c6 663d
00000350: 8861 0bbd 1577 993a f432 9dbd 46d0 193d
00000360: 427c 993b 735a e1ba 92de b0ba 360a 6e3c
00000370: 1476 143c 32c4 f43c 2230 853c 098f aabd
00000380: 40c6 0c3d a772 5cbd 476f ef3c 050e 1bbd
00000390: eac6 f83c 2403 ea3c 98de 2cbc 39fa ed3c
000003a0: 25d2 ee3c 564e bf3c 9b21 563d 8c37 d0bc
000003b0: 9be8 473c a338 bcbc f31b a03c cad6 35bd
000003c0: 4b98 f43c 77ac d0bb b2e8 96b9 d741 3e3d
000003d0: 80b2 953c 215d b8bd 9721 55bb ae00 cbbc
000003e0: 330a c33b 6abc 2d3d dabe 7c3b d5ce 9d3b
000003f0: 8ced 673d 10e8 aabc 464e 023d 58bd cabc
0.0028652747 -0.067580596 0.02916842 0.0070026326 -0.02029692 0.035950936 -0.0010748928 0.057342168
0.026235057 0.017890103 0.03055942 -0.021990327 0.038558822 0.01640609 -0.01583773 -0.025497794
0.08543101 -0.016176768 0.018239759 -0.014046308 0.0011101398 -0.078369066 -0.024666103 -0.03169839
0.004631009 -0.007956781 -0.030775411 0.01391461 0.058361858 -0.08056597 0.029602036 -0.0037986925
-0.04157189 -0.07413753 -0.06734402 0.12121065 0.13492884 0.07210346 -0.014391007 -0.08348758
0.06903757 0.16510653 -0.05397446 -0.017606996 -0.07652341 0.078125246 -0.07228828 -0.06801001
-0.14649929 -0.096531115 0.019437265 0.045679655 0.008299305 -0.012386887 0.074635774 -0.049123764
0.1199025 0.10964463 -0.13943207 -0.020549737 -0.11383304 -0.008858092 -0.0075993375 -0.095012024
0.038496103 0.017935794 -0.0037370636 0.018229414 0.0045698504 -0.08433081 -0.025866738 0.08526289
0.05598984 0.048120014 0.04996265 0.021637127 0.029086068 0.036896456 0.027360186 -0.039202217
0.029528622 -0.048018396 -0.029476728 -0.050858494 -0.01793801 -0.13569224 0.022954935 -0.05281951
-0.031244999 0.050485242 -0.013970261 0.058906246 0.07386465 -0.04081476 -0.011162911 -0.031305455
-0.19666982 -0.021109538 -0.19543374 -0.0927379 0.19863279 0.05414947 0.08726999 -0.14333232
-0.095035635 0.20337433 0.065668516 -0.081505135 -0.010289097 -0.108285986 -0.0018197991 -0.1665443
0.09949667 0.021707231 0.12299668 -0.19111292 0.19655305 -0.03164662 -0.041263197 0.08563207
-0.08477406 -0.028652718 -0.06852576 -0.09896058 0.036600668 -0.082761146 0.053580135 0.052275945
-0.1338621 0.14595757 0.027087681 0.005219485 -0.09768667 -0.05119105 -0.089752704 0.04133173
0.062838845 0.05339279 -0.14547062 -0.102110416 0.17536767 0.078398325 -0.006921865 0.13194118
0.045524385 -0.093314976 -0.030122485 -0.13111727 -0.024436375 0.13681063 -0.0646796 -0.11903466
-0.0014312293 -0.010523596 -0.08018842 0.010446335 -0.06973721 0.021752613 -0.06044321 0.031531006
0.12459467 -0.06832478 0.06362304 0.0027414854 0.036673624 -0.15056002 -0.07331681 0.08790656
0.05480113 -0.05468804 0.090264834 0.095875375 -0.054438952 0.010264047 0.013497929 0.13118778
0.009527821 -0.10450885 0.159463 -0.014735612 -0.006377566 0.03361416 -0.11744995 0.09626684
0.010465953 -0.019184245 -0.06195295 -0.13764694 0.06847116 0.06576142 0.15779887 -0.026122272
0.010959573 -0.0529847 -0.08262283 -0.003795569 0.011510649 0.065822735 0.060747888 0.024632592
0.06824207 -0.030130783 -0.01910815 0.013536202 -0.08052774 -0.068276346 0.017444886 -0.07202033
-0.014886469 -0.09880025 -0.04479963 0.05634167 -0.03402856 0.0011708463 -0.07675734 0.03755214
0.004684002 -0.0017193094 -0.0013494065 0.014528802 0.009061355 0.02987871 0.016258303 -0.08328063
0.034368753 -0.05382028 0.029227866 -0.037855167 0.030368287 0.02856595 -0.010551117 0.02904998
0.02915294 0.023352783 0.052278142 -0.025417112 0.012201454 -0.022976225 0.019544577 -0.044394292
0.029857775 -0.0063682157 -0.000287836 0.04644951 0.018273592 -0.09002138 -0.0032521242 -0.024780598
0.0059521436 0.042416014 0.0038565905 0.004815916 0.056623027 -0.02086261 0.03181293 -0.02474849

fce.bias_ih_l0 f4 [128]
00000000: 4d87 043e 0345 a83b 9a45 ec3c 2f66 043e
00000010: ab12 b93d f524 7bbe 9e5a eeba 5f21 0f3e
00000020: d401 7e3d 6897 20be 617f 27be f500 66bd
00000030: eb07 13be adc7 1abc 9770 00be 11d3 92bc
00000040: c58f cd3c 55e8 4bbe 68d2 e33c 4ae5 8a3d
00000050: 71ea d53d 3ca5 5c3d ffa4 45be 585c 6d3d
00000060: 2534 913d 4c1c 843d 422d 38bd 8975 25bd
00000070: 7ad8 ac3d a3e0 3fbe fc14 0bbd d6a0 c33d
00000080: 415c 8abd f166 61be 9a22 cfbd 064c 3dbe
00000090: 7e86 9ebd dce6 023b de52 26bd e01a 4dbe
000000a0: c15c 81bc d3f3 70be 75bf 83be 18f2 27be
000000b0: a375 81be 3d3f 01be 610f 18be 5226 89be
000000c0: 1eb7 b4bd be34 61be 884f 7bbd fe39 08be
000000d0: 8ce5 f3bd eb7e 993c 8138 a9bd cf03 81be
000000e0: 3c2b 01bd 4b82 4abe c87f a2bc e91b 29be
000000f0: cf2d 943d 9877 30be 5010 2dbe 3188 11bd
00000100: 673d 593d 7180 03bd df4f 0fbe 3b12 163e
00000110: 5eb4 de3d e19f adbd fb23 80bd 83b7 2cbe
00000120: 6371 1ebb 28eb 203e ea4b 083d 9be4 15be
00000130: 601c 90bd 3368 3bba ed02 f53d 0bfb 1e3e
00000140: 5bb2 153e f3ff 56bd b49c 4f3e 7b63 5b3d
00000150: 3d54 a43d 3612 a93c f508 2b3e f895 0e3e
00000160: b3dc 143e 4974 71bd b017 063e c2d5 ad3d
00000170: 5e32 d03d 6691 9fbd cf7c 0e3d 5eb5 04be
00000180: a531 8c3d c7eb 62be 33ff 8e3d 9c71 7d3d
00000190: 9438 08be d0cf 07be 253d 37bc 05ec 813b
000001a0: f6b4 133e 3ae9 2ebe 1f89 55be 5b05 8bbe
000001b0: 0428 17be 1127 0cbe 13ad ccbd a5c5 ebbc
000001c0: 868a f5bc f786 d73d 0b2b 3cbe 46ab 27be
000001d0: e40d ee3d 09f6 c2bd 4e18 bbbd 7d76 70bd
000001e0: ca05 14be 1005 e8bd 278d 9dbe 16c7 8dbe
000001f0: 29d3 30be 5dcb f23d c4d4 643c 0f5f 9ebe
0.12942238 0.00513518 0.028841782 0.12929605 0.09036764 -0.24525817 -0.0018184965 0.13977574
0.062013462 -0.15682757 -0.16357185 -0.056153256 -0.14358489 -0.0094470205 -0.1254295 -0.01792291
0.025092969 -0.19912846 0.02781029 0.06782015 0.10445107 0.053868517 -0.19301222 0.057949394
0.07090024 0.0645071 -0.044965036 -0.040395293 0.08439727 -0.18738036 -0.03395556 0.095521614
-0.06755877 -0.22011925 -0.101140216 -0.18486032 -0.07740496 0.0019974029 -0.040606372 -0.20029783
-0.015791299 -0.23530512 -0.25732008 -0.16400945 -0.25285062 -0.1262178 -0.14849617 -0.2678705
-0.08823989 -0.21992776 -0.061355144 -0.13303372 -0.11909017 0.018737277 -0.082627304 -0.25198218
-0.031535372 -0.19776265 -0.019836321 -0.16514553 0.072353 -0.17233121 -0.16900754 -0.035530273
0.053037073 -0.032104913 -0.13995312 0.14655392 0.10874246 -0.0847776 -0.06256863 -0.16866879
-0.002417647 0.15714705 0.033275522 -0.14637987 -0.07036662 -0.0007149011 0.11963449 0.15525453
0.14618818 -0.052490186 0.20274621 0.05356167 0.0802388 0.020638566 0.16702636 0.13924396
0.14537315 -0.05894879 0.13094974 0.08488037 0.10165857 -0.077914044 0.034786996 -0.12959811
0.068454064 -0.22160254 0.06982269 0.061875924 -0.13302833 -0.13262868 -0.011184012 0.0039649033
0.144245 -0.17081156 -0.20853089 -0.27152523 -0.14761358 -0.13686778 -0.09993949 -0.028780768
-0.02997328 0.105237894 -0.18375795 -0.1637393 0.11623743 -0.09519584 -0.09135495 -0.05870675
-0.14455333 -0.113290906 -0.30771753 -0.27690953 -0.17268051 0.11855195 0.013966743 -0.309319

fce.bias_hh_l0 f4 [128]
00000000: 267d d43d 38f7 26bd 4821 24be 9a26 1d3e
00000010: a446 6bbe b68c 81be d621 b4bd 63a1 35be
00000020: 65af 29be ea3f 37be 2b0d 1fbe 123d 61bd
00000030: f390 b33d 678f 21be df90 30be 5dd7 20be
00000040: 4a13 7d3d 97d8 7ebe 887c 7d3d 7499 5e3c
00000050: 3021 cfbc 4836 6c3d 2a96 87bd 1a7a a5bd
00000060: 6be6 023c ae82 9d3d ffe5 75bc 36e3 113c
00000070: 6e76 89bd 0019 e03d e0d3 0aba 27a5 aabd
00000080: ff83 d4bd 2b70 acbd 670d c0bd 1798 37bb
00000090: d0ec efbd 6f74 9ebd ee71 cebd 6b18 01bc
000000a0: 6849 bfbd ada0 a6bd 5228 26be eb65 3fbd
000000b0: 96cf bfbc c473 80be d122 f7bc ad47 c4bc
000000c0: 8cd4 27be 873d 43be 28a4 50bd cd65 1abe
000000d0: dfa8 91be b795 49be f46e 23be a034 11be
000000e0: cebf f73b c86d 1ebe a991 38be 16f0 603d
000000f0: b82c 12be d4e8 6fbe f9a0 c9bd 1180 3ebe
00000100: 0d9b 3cbd d8c4 03be a012 e43d 7dbe 033d
00000110: cc99 b03d 24bb db3d 4181 cbbd 529e 1d3e
00000120: 7097 2fbc ff7a 173e a493 a3bd a133 b43d
00000130: 71c5 f03d ea7f 77bd dd3d febd 0a55 1dbd
00000140: 452e 123d 69a7 373d b26d a0bd 1b72 033e
00000150: b639 b2bc 67e9 e5bd 9ce8 ac3d 7bc0 963a
00000160: ec24 c4bc c088 923d 7068 33bb 41db aa3d
00000170: 0ccc f43d dfbb ec3d b6d8 43be 8e5a 323d
00000180: e481 f1bd ff5f caba a642 893d f740 c13d
00000190: c160 08be 1994 d03c 31cf 093e 540e 2f3b
000001a0: ea74 debd 6309 1abe c0df 86bc 9374 15bd
000001b0: fd7a bf3d 50c6 35be 3872 5f3d a37e fabd
000001c0: 4e6d 36be 9937 ae3d ad49 63be 9576 1a3c
000001d0: f877 ec3c 4ab0 68be 9e88 f6bd 249e 4abd
000001e0: d55b 3fbe 606e c2bd 2ec5 67be 1cb6 543c
000001f0: d03a fbbd e3dc 283b 911f 29be d9b3 62be
0.10375433 -0.04076311 -0.16028321 0.15346757 -0.22976166 -0.25302666 -0.08795516 -0.17737345
-0.16570814 -0.17895475 -0.15532367 -0.05498988 0.08767881 -0.1577736 -0.17242764 -0.15707155
0.061785974 -0.2488731 0.06188634 0.013586391 -0.02528438 0.057668954 -0.066204384 -0.0807993
0.007989506 0.07690941 -0.015008449 0.008904269 -0.06712042 0.10942268 -0.0005295854 -0.083322816
-0.10376739 -0.08419832 -0.09377556 -0.0028014237 -0.1171509 -0.07737052 -0.10080324 -0.007879357
-0.09340173 -0.08136115 -0.16226318 -0.046728056 -0.023414414 -0.25088322 -0.030167969 -0.023959959
-0.16389674 -0.1906644 -0.0509378 -0.15077896 -0.2844915 -0.19686018 -0.15960294 -0.14180231
0.0075607067 -0.15471566 -0.18024315 0.054916464 -0.14274871 -0.2342866 -0.09845156 -0.18603541
-0.046046305 -0.12868059 0.11136365 0.032164086 0.086230844 0.107290536 -0.099367626 0.15392426
-0.010717258 0.14793013 -0.079871446 0.0879891 0.11756409 -0.060424723 -0.12414143 -0.038411178
0.035688657 0.04483739 -0.07833423 0.12836497 -0.021756034 -0.112261586 0.08442804 0.0011501455
-0.023943387 0.07154989 -0.0027375482 0.083426006 0.11952981 0.11559271 -0.19125637 0.04354339
-0.11792353 -0.0015439986 0.06702165 0.09436219 -0.13318159 0.025461243 0.13457943 0.002671142
-0.10862143 -0.15042643 -0.016464114 -0.036488127 0.0934963 -0.17751431 0.054552287 -0.12231185
-0.17815134 0.08506698 -0.22196074 0.009427686 0.0288658 -0.22723499 -0.120377764 -0.04946722
-0.18687375 -0.094937086 -0.22633812 0.012982871 -0.12267077 0.0025766424 -0.16515948 -0.22138919

fce.weight_ih_l0_reverse f4 [128, 64]
00000000: 428e 9e3d d312 32be 3878 b53d 1755 24be
00000010: 0695 ba3b 1180 a63d 6040 8d3d 14d1 e93c
00000020: 9e41 b63d bac4 fabd ae09 23be 92b0 3abe
00000030: 3e03 0dbe 37e0 7abe afa7 0fbd f556 703d
00000040: 1334 563d 6ecd bebd 484a 873c d62d 00be
00000050: 04a5 7c3d f842 1fbe ad91 76be 99da 9abd
00000060: 0d37 933d 4e77 ef3d 5646 b8bd 3270 2c3b
00000070: 4b35 9e3c 255e 1bbe a6a2 023e 0497 a73d
00000080: aa4f cc3c 793e 813c e842 bd3c 1608 79bd
00000090: e88e 04bd b7bd 883d 3e0d 193e 0fcd afbd
000000a0: d5ae dc3c fd4c 0d3e e829 39bd 8f21 63be
000000b0: 4cc4 a0ba 29ed 17bd 331c dabd 53cb 4abe
000000c0: 83e6 2bbe ffb5 0bbd f860 3ebe ebd7 cf3c
000000d0: b1c6 06be 2dd9 80bd 39af cebd 9cf5 843d
000000e0: f879 53be b79e b1bd 9b72 ef3d ab1e 4bbe
000000f0: 592a e8bd 5a54 cfbd e6a3 56be 4346 db3d
00000100: f1b7 cfbc 25e3 ccbd 0737 71bd 46f2 96bd
00000110: 529a fe3c f5d7 ffbb c5b0 5abe c4a2 7938
00000120: dc40 60be d56d 09bd 5d2d 25bd 1ea0 453c
00000130: 0d81 7cbe 286d e53c de18 d43d 5a3b d6bd
00000140: f848 9dbd 94d1 a3be a856 ff3c 12b6 95be
00000150: 7bd9 7abe d8d3 3d3c 88ef c9bd 5598 5ebe
00000160: 9281 c5bd 7a19 f6bd 5503 b53d e19d 24be
00000170: 1204 3cbe d3e2 2dbe 8951 53be d106 823d
00000180: 2134 87bd 9ce5 893d ef14 cb3d 171e 29be
00000190: 08e8 d6bb c5ab 563d d538 2fbe 4a74 f2bd
000001a0: 817d d33c 297e 5fbd 6532 cdbc 60db a3be
000001b0: d7fd 42be 2608 69be a7ec 26bd 00c8 99bd
000001c0: c6b2 52bd d3ce 823b 474d 6fbe abf5 523d
000001d0: 558d e63c 3385 a7bc a77f 213d 0be2 73be
000001e0: 8dbf e1bd 800b c73d 586d 0fbe d422 88be
000001f0: b6dd 35be e5c3 b53d f077 93be edc6 d63d
00000200: 2054 1a3b 2f24 b3bd a7e3 2f3c 2cfe 39be
00000210: f698 773c 0f15 d1bd db40 7fbe dab8 60be
00000220: d5bc 4cbe 6c0a 343d 5510 23bd c047 65bd
00000230: 8848 80bb 8c88 d53c 3ef3 07bd a702 05be
00000240: 2def 03bd 7438 57bc 52d5 65be d86d ecbe
00000250: b912 8f3b 6d7a d43d c257 d4bd de32 293d
00000260: 3956 51bd 3a36 d03d 2179 02be 7259 f8bd
00000270: cbf5 003b 18e1 21be 9573 3fbd 7ecb 31be
00000280: ba14 63be 8f82 5dbd 1c92 f2bd adfd 07be
00000290: 8dc3 f6bd add4 86ba 1911 19be d120 1a3d
000002a0: 7354 1fbd 4127 bd3d 5aed e1bd bff5 32be
000002b0: 3dba 5cbe 7022 44be 728a 51be 016d f3bd
000002c0: a367 6ebd 60fa debd c1d4 04be c91c b5bd
000002d0: 9ba2 3cbe e560 41be 1e32 babd dd22 8e3c
000002e0: 482c 7c3d 75dd 90bc 5c22 a03d 8c10 d13d
000002f0: 9cdc acbc e53a d43a 7c8a cebd ea15 f13c
00000300: acdf 323d d83d 0f3d 9e28 d3bc 7025 37be
00000310: 02cd 12be 605a 32be 2e1b a1bd a04e 023e
00000320: 423a ccbd cf19 50be 2ced 413c 9637 f93c
00000330: 3b97 70bd 7155 903d 5725 813d c0ad ebbd
00000340: 937b d63c 49e9 16be 3d70 a73d 8144 6ebe
00000350: 8ae2 a4bd 28ee a63d 8935 56be 5efc 08be
00000360: 4c3a 3abe 19e0 b93c b63e 6f3d fe7a a6bd
00000370: c99c e23c d141 86bd 268d 253d fab8 c53c
00000380: 8400 e0bd 6908 f2bd d307 db3d 4d9c 8f3a
00000390: 4d86 14be aaea 4abd 11ca 48be c88d 993d
000003a0: 8562 42bd b495 31be fc72 edbd f9e4 95bd
000003b0: 4974 22be f567 32be 35f2 0abd f2b2 e9bd
000003c0: f9bf 8ebd 1a6c 4ebe 8811 aa3d 9089 053c
000003d0: d69f 4fbe a193 07be dfc2 01be c90f a03d
000003e0: 3141 d3bd 6928 1c3d 5518 38bb 53ed 3ebd
000003f0: e31f cc3d be21 18be f547 bbbd 5f27 e8bd
0.07741977 -0.17389993 0.088608205 -0.16048084 0.0056940345 0.081298955 0.06897044 0.028542079
0.08899234 -0.12244554 -0.15921661 -0.18231419 -0.13770768 -0.24499594 -0.035072025 0.05867668
0.052295756 -0.09316526 0.016514912 -0.12517485 0.06168081 -0.1555289 -0.24079008 -0.075612254
0.071882345 0.116926774 -0.089977905 0.002631199 0.019312521 -0.15172632 0.12757358 0.08183101
0.02494033 0.01577686 0.023103192 -0.060798727 -0.03236285 0.0667681 0.14946458 -0.08584034
0.026938835 0.137989 -0.04520598 -0.2218077 -0.0012265532 -0.037091408 -0.1064991 -0.19804125
-0.16787152 -0.034109112 -0.18591678 0.025371512 -0.13161732 -0.06291423 -0.10092015 0.06492159
-0.20651996 -0.086728506 0.11691781 -0.19835918 -0.11336202 -0.10123511 -0.2096096 0.10706761
-0.025356265 -0.10004262 -0.05889037 -0.07370429 0.031079445 -0.0078077265 -0.21356495 5.9517813e-05
-0.21899742 -0.03355201 -0.040326465 0.012062101 -0.24658604 0.028006151 0.103563055 -0.10460539
-0.07679933 -0.31995833 0.03116925 -0.2924047 -0.24497025 0.011586152 -0.0986014 -0.21737798
-0.09643854 -0.12016578 0.08838526 -0.16075851 -0.18360928 -0.16981058 -0.20636572 0.063489564
-0.0660174 0.06733248 0.09916102 -0.16515385 -0.006558422 0.052409906 -0.17111523 -0.11838587
0.02581668 -0.054563675 -0.025048444 -0.32003307 -0.19042145 -0.22757015 -0.040753033 -0.0750885
-0.051440023 0.0039919405 -0.23369323 0.05150382 0.028143564 -0.020449257 0.03942838 -0.23816697
-0.110228635 0.0971899 -0.14006555 -0.26589072 -0.17760357 0.088752545 -0.28802443 0.10487161
0.0023548678 -0.08747136 0.010735429 -0.18163365 0.015112152 -0.10209095 -0.24927084 -0.21945515
-0.19993909 0.04395525 -0.039810497 -0.05597663 -0.0039148964 0.026066087 -0.03319096 -0.12989293
-0.032210518 -0.013136018 -0.22444656 -0.46177554 0.0043662456 0.10374913 -0.10368301 0.041308276
-0.05110762 0.10166593 -0.1274152 -0.12126435 0.0019677754 -0.15808523 -0.046741087 -0.17362782
-0.22175875 -0.05407959 -0.118442744 -0.13280363 -0.12049017 -0.0010286771 -0.14947928 0.037628952
-0.038898896 0.09236003 -0.11031599 -0.17476557 -0.2155542 -0.19153762 -0.20462969 -0.11886025
-0.058204304 -0.10887599 -0.12971784 -0.08843381 -0.18421404 -0.18884619 -0.0909159 0.017350608
0.061565667 -0.017683724 0.078190535 0.10208234 -0.021101288 0.0016191868 -0.100850075 0.029429395
0.04367034 0.03497109 -0.025776204 -0.17885375 -0.14336017 -0.17417288 -0.07866512 0.12725306
-0.09972049 -0.20322345 0.011836331 0.030422013 -0.058737975 0.07047547 0.0630595 -0.115077496
0.026181972 -0.14737429 0.08175705 -0.2326832 -0.080510214 0.081508934 -0.2091886 -0.1337752
-0.18186301 0.022689866 0.058409415 -0.08128928 0.027662652 -0.06555522 0.040417813 0.024136055
-0.10937598 -0.1181801 0.10694852 0.0010956615 -0.14504357 -0.0495402 -0.19608332 0.07497746
-0.047457237 -0.17342263 -0.11594197 -0.07319064 -0.15864672 -0.17422469 -0.033922393 -0.11411084
-0.0697021 -0.20158425 0.08304125 0.008150473 -0.20275816 -0.1323991 -0.12671994 0.07815511
-0.10315169 0.038124476 -0.0028090675 -0.04661305 0.099670194 -0.14856622 -0.09144584 -0.113356344

fce.weight_hh_l0_reverse f4 [128, 32]
00000000: f6bd f53d 4d52 07bd c0da fdbc d6ae c93d
00000010: c5f3 99ba c0cb 603b 4c03 9abd a7ab d9bb
00000020: 29ab 8d3d ac3a f13d 6ab2 e03c bc3c 58bd
00000030: c8ce e1bd 8207 bf3d 6954 d43d 64f7 68bd
00000040: f824 163e a3de 613a 6c18 cb3d e518 40bc
00000050: 4d8f b23d b612 44bd 7e82 4b3b 5114 7d3d
00000060: 6b04 103d 8571 dabd 5893 24be d40e b03c
00000070: 46f9 2ebd 393c 9c3d 2d02 c5bd 62ea a0bd
00000080: 1f78 86bb 63ae 68bc 3473 f5bd 5f31 eb3d
00000090: 25d8 6dbd fbca 67bd 1fb1 893d 2e11 24bd
000000a0: 0bfd b3bd 64fa 003e 8b0d f5bd 7864 123e
000000b0: d9c2 d03c bee9 943d f04a 2abe f128 0bbe
000000c0: 26a8 d0bc 96b4 793c 57a7 213d 9141 e9bd
000000d0: cd9a b2bd dfef 553d f4d9 dabd 70d2 1c3e
000000e0: e949 223d d676 16bd 09a8 84bc 57db e5bd
000000f0: cdc0 033d bce5 a03d 3334 c03d 38a3 653d
00000100: 1e02 02be 1fd9 b53d 16c4 343e 4f2d 23bd
00000110: 7eb2 06bc 42d1 bbbc f679 f83a c930 65bd
00000120: 6a2c 8f3b 3a2b 9dbc 74da b53b d9fb 713d
00000130: c3c2 f93d 3aa3 003d 5ece 893d 61ee 8ebd
00000140: b9d4 1cbd 6288 9abd 2c17 22be 1b40 29bd
00000150: 606a ed3d c8cc 643d 85ca 8ebd 44f2 e1bd
00000160: b801 88bc 5eb9 c5bd 2957 e1bc 9def b83d
00000170: 3f52 f73d 2ccc a73d b37a 293e 5d83 653c
00000180: 5fbe e7bd 7ef8 803d e4c9 f3bc bb1e 4abd
00000190: 0d86 bdbc d034 bfbd 49d0 be3d b4a1 a9bd
000001a0: b8ed cd3c 8228 d43d dd69 c93d fba4 87bd
000001b0: 0a34 e63d 5c14 8abd ac93 9c3b 3fb9 cb3d
000001c0: b383 0c3d 8ebc 58bc c34a ecbd feef d23c
000001d0: 8b14 5a3c 807f 3d3d d3fa 9dbd 004b 7c3d
000001e0: 9ea7 d43b 7d3d c93d 80ad 803d 4b3e 8cbd
000001f0: 5594 733d 6825 073e 815e 3e3d d644 453d
00000200: ff1f 64bd c5d2 863c c45c 64bd 1668 3d3b
00000210: dbba 3b3d a807 5b3c 3ed1 29bd dcc8 8a3d
00000220: 007c f0bc 5419 6a3b 748a 893c d945 2d3d
00000230: bb45 ec3c 2315 46bd 5cd6 fb3b 14cf 24bc
00000240: 7fdf d6bc 9174 18bb 7645 5a3d 4de6 113c
00000250: 105b 673c 744a 333d 66db 9cbc b832 91bd
00000260: 12b0 60bd 812f acbc 7954 87bc a61c 2b3d
00000270: 9e73 9cbd d81c 34bd 1821 803d 3e71 14bd
00000280: 2ea9 35bd 1480 a7bd f434 80bd ec47 963d
00000290: 05bb e53c baa0 9bbd 58bb 963d 3376 87bd
000002a0: e76d 05be 5f19 fabd 3e21 18bb 9908 253c
000002b0: a664 44bd 92c0 f8bd 4308 613c 1470 b83d
000002c0: 15f1 c03b 07a2 6c3d 53e3 bbbd 69c3 5ebd
000002d0: 43c5 b2bd 2202 8ebd c163 0ebe 8005 91bc
000002e0: da50 8dbd 773f eb3c c67b babc 1b1f 1f3e
000002f0: 6fd3 1b3d 1740 17bd 7605 c83d 227e a1bd
00000300: f350 e0b9 950e 703d 3514 cbbd 1772 81bd
00000310: 7870 08bd 5467 9b3d 00c9 013e 00bb 823d
00000320: b9ee bbbd 36a5 0239 317c 70bd a73a 02bc
00000330: 9f39 223d 990a acbd 067f 6b3b 7c57 eabd
00000340: f79a 673d 648a 8b3d b4d4 87bd 8385 50bd
00000350: 5091 6f3d 1288 4a3d d8e6 4cbc 839c 8bbd
00000360: f763 243d ab76 a33d d2df 4039 9d78 3f3e
00000370: 78c0 d03d a53b 113d b4b8 11bc 9ab2 7f3c
00000380: e732 23be 3722 443c 9473 d73d 643b 8cbc
00000390: 4dff aabd c42a f23c 7cc7 e53d c299 9abd
000003a0: f625 90bd bca6 713d 17bf f0bc a1ab d5bc
000003b0: 5ad3 61bd ef0e cc3d 8f77 823c 3e9a 1abc
000003c0: 20b4 053e fa74 de3c c6b9 a7bd e212 c63d
000003d0: dae0 493d 44de a5bd ef72 d1bd bab8 09be
000003e0: 9b30 afbd 3a6d 32bd 024d f03d e3b3 a83d
000003f0: 1f61 5cbd f850 023d 904c 0b3e 483e b63c
0.11999123 -0.033037473 -0.030988097 0.098478004 -0.0011745623 0.0034301132 -0.0752016 -0.006642777
0.06917412 0.11778769 0.027428824 -0.052792296 -0.110257685 0.09327604 0.103676625 -0.056876555
0.1466254 0.00086162443 0.099167675 -0.011724685 0.08718739 -0.047869407 0.0031053121 0.061786953
0.035160463 -0.106661834 -0.16071832 0.021491446 -0.042718194 0.07628674 -0.096195556 -0.07857205
-0.004103675 -0.014201733 -0.11984864 0.11484026 -0.05806746 -0.05659006 0.06723236 -0.040055446
-0.087884985 0.12595516 -0.11965474 0.14296138 0.025483536 0.07271145 -0.16630149 -0.13589837
-0.025470804 0.015240809 0.03946623 -0.11389459 -0.08720932 0.052230712 -0.106861025 0.1531465
0.039621267 -0.036734425 -0.016193407 -0.112234764 0.03216629 0.07856318 0.09384956 0.05606386
-0.1269612 0.08879303 0.17652926 -0.03983813 -0.008221267 -0.02292693 0.0018957246 -0.05595473
0.0043693082 -0.019185651 0.0055497233 0.05907807 0.12195351 0.031405665 0.067288145 -0.06979061
-0.038288806 -0.07545544 -0.15829152 -0.0413209 0.11592555 0.055859357 -0.06972221 -0.110325366
-0.016602382 -0.096544966 -0.027507382 0.090300776 0.12076234 0.081932396 0.16550712 0.01400837
-0.11315607 0.06297396 -0.029759355 -0.049345713 -0.02313521 -0.09336245 0.09317071 -0.082827955
0.025137767 0.10359289 0.09834645 -0.066232644 0.112403944 -0.067421645 0.004778346 0.09947442
0.034305286 -0.013228549 -0.11537697 0.025749203 0.013310562 0.04626417 -0.077138565 0.061594963
0.006489708 0.09826181 0.062830925 -0.06847819 0.059467632 0.13197863 0.046476845 0.04816135
-0.055694576 0.016457925 -0.05575253 0.0028901151 0.045832496 0.013368525 -0.041459315 0.06776592
-0.029356003 0.0035720663 0.016789652 0.04230294 0.028841844 -0.04836 0.0076854657 -0.010059137
-0.026229618 -0.0023262838 0.0532889 0.008905006 0.014120832 0.043772176 -0.019147586 -0.07089752
-0.054855414 -0.021018745 -0.016519772 0.04177537 -0.0763924 -0.04397282 0.06256312 -0.03624081
-0.044350795 -0.08178726 -0.062601 0.07337937 0.02804328 -0.075990155 0.07359952 -0.066143416
-0.13030206 -0.122118704 -0.0023213173 0.010072851 -0.04794755 -0.12146105 0.01373488 0.09005752
0.005888114 0.05777171 -0.09174218 -0.054385576 -0.08729031 -0.069340006 -0.1390524 -0.017702818
-0.06900187 0.028716786 -0.022764098 0.1553921 0.038043436 -0.036926355 0.097666666 -0.07885386
-0.0004278492 0.058607657 -0.099159636 -0.06320589 -0.033310384 0.07588068 0.12674332 0.06383324
-0.09176392 0.00012459312 -0.05871219 -0.007948554 0.039605733 -0.08400459 0.0035933866 -0.114424676
0.05654427 0.06813505 -0.06632367 -0.050908577 0.05848819 0.049446173 -0.012506209 -0.068169616
0.040134396 0.079816185 0.00018393926 0.18698354 0.101929605 0.035457272 -0.008894134 0.015606547
-0.15937386 0.011971048 0.10520092 -0.017118163 -0.08349476 0.029561408 0.11219689 -0.07548858
-0.070384905 0.0589969 -0.029387994 -0.026082816 -0.0551332 0.09963786 0.01592615 -0.009436188
0.13056993 0.027155388 -0.0818973 0.0967157 0.0492867 -0.080990344 -0.10227 -0.13449374
-0.08554193 -0.043561198 0.11733438 0.08237436 -0.05380356 0.0318155 0.13603425 0.022246495

fce.bias_ih_l0_reverse f4 [128]
00000000: 7095 31bd bf3e a0bd 17ac 84be 4024 2abe
00000010: ba11 babb 8f80 40be c552 43be 9889 dc3b
00000020: f1ab acbd c635 703b f7aa 85be 0e51 75be
00000030: bb6a 3fbe e3b6 46bd c6bd 83be 6a7f bebd
00000040: d795 4ebe 9880 34be 4b8e 4fbe 79e3 42be
00000050: c79e 67be 4cba b5bd e153 e0bd 9f5a 3dbd
00000060: a5c3 1dbe 97cc 383d e846 69be d59f e23a
00000070: ecb0 d9bc 1f4f 76bd a735 983d ab96 81be
00000080: 680c 8abc 5b6c 153c f73d 8cbe 7ab8 023d
00000090: f74b 55be 4715 56bc a542 80be c626 cc39
000000a0: 2a04 35be 3a55 77be 664d 33be dc21 8ebe
000000b0: caad 65be c08f 5bbe 741a 82be ff56 71be
000000c0: 37ef 66be 4f39 39be 5185 e9bd 690b 46bd
000000d0: ee9f 3dbe e986 52bd 391c 87be db8b 40be
000000e0: 6269 ed3c a82a 33be 78cd 70be ed17 83bd
000000f0: 43fe 76bd 1a3b f3bd e06c ddbd f025 973c
00000100: d564 fc3d 7d6b e83c db34 873d b265 bcbd
00000110: 4d96 b73d f1ae 23bd 32df 0e3d 3f3b 8cbd
00000120: be4e 933d 3f4e 24bd e8aa 03bc 9a2d 8b3d
00000130: cc87 1dbe 5257 303e 66b5 6cbb 2028 933d
00000140: 2e82 15be d75f 343d ac54 0bbe 9308 2fbe
00000150: 9fc6 cfbd d3a4 f53b 31d3 9bbd aa48 d63d
00000160: fc3a 28be 1487 cabc 2a2a d23d f973 d6bc
00000170: 4598 4ebb 2353 95bb 4f1d 663d 3a2f 163d
00000180: 5514 2abe 632f 7cbe ec5b 8d3d 22dc 74be
00000190: e02c 9fbd 27f9 8db9 fe82 7ebb 7968 763a
000001a0: 8615 52bc 0a1d 70be ac24 a4bb c9dc 3e3d
000001b0: 1082 7ebe 45fd 71be 35f3 47be c4ec 39be
000001c0: a0d2 bcbc 33f3 9e3d c20d 54be c5fb 96be
000001d0: 5518 2ebe 5907 ce3c 2836 2fbe fb0e e4bd
000001e0: 7449 d4bd a27d 18be 84ed 44be c58c 40be
000001f0: 27a9 8abe 6cab 23be d603 cdbc 114d 57bd
-0.043355405 -0.07824468 -0.25912544 -0.16615391 -0.0056783827 -0.18799041 -0.19074543 0.0067302696
-0.08431233 0.0036653145 -0.26106998 -0.23956701 -0.18693058 -0.048514258 -0.25730723 -0.09301646
-0.20174347 -0.1762718 -0.20269124 -0.19032086 -0.22619162 -0.08873424 -0.10953499 -0.046229
-0.15406664 0.045116987 -0.22780955 0.0017290065 -0.02657362 -0.06013405 0.07432108 -0.25310263
-0.016851619 0.009120072 -0.27391025 0.03191421 -0.2082976 -0.013066596 -0.25050846 0.000389388
-0.1767737 -0.24153605 -0.17509994 -0.27760208 -0.22429577 -0.21441555 -0.25410807 -0.23568343
-0.2255219 -0.18088268 -0.11402381 -0.048350725 -0.1851804 -0.05139819 -0.2638872 -0.1880335
0.028980915 -0.17496741 -0.2351588 -0.06401048 -0.060301077 -0.11876507 -0.10811782 0.018450707
0.1232392 0.028371567 0.06601878 -0.09199084 0.089642145 -0.03996176 0.034880824 -0.06847238
0.07192753 -0.040113684 -0.008036353 0.06795807 -0.15383834 0.1722081 -0.0036118864 0.071853876
-0.14600441 0.044036712 -0.13606519 -0.17093115 -0.10145306 0.007496455 -0.07608641 0.10463078
-0.16428751 -0.024722613 0.102619484 -0.026178347 -0.0031523865 -0.00455703 0.056180295 0.036666133
-0.16609319 -0.24627452 0.06902298 -0.23912099 -0.07772231 -0.0002707925 -0.0038835402 0.0009399723
-0.012822514 -0.23448578 -0.0050092544 0.046597276 -0.24854302 -0.23631771 -0.1952637 -0.18156725
-0.023049653 0.0776123 -0.20708373 -0.2948896 -0.1700147 0.025149988 -0.17110503 -0.1113567
-0.103655726 -0.14891675 -0.1923123 -0.188037 -0.27082178 -0.15983361 -0.025026243 -0.05256373

fce.bias_hh_l0_reverse f4 [128]
00000000: 6200 1ebe 3f16 a6bd 89bf aabd e988 b03c
00000010: 154f 0f3e 5c60 0dbe 239a 51be 964b 82be
00000020: 520c 05be ef60 67be fce0 50be adb2 84be
00000030: 61a9 87ba a1e9 2cbe 4aac 343c 5708 34be
00000040: 3d7c 38be a6fd 10be cdf4 93bd a0bd a53d
00000050: 191a dcbd 650c 5fbe b780 11be de33 7fbe
00000060: 64fc 1dbe c8a9 70bd fcfa 17be bf06 b23d
00000070: 80e1 29be 692e 73be ee80 3a3d c15f 71be
00000080: 88d6 4e3d 6222 3bbe 272d a0bd fb37 8e3d
00000090: a14f 7c3a 2af7 043d 7e67 8dbe 61a8 e5bc
000000a0: 4631 e2bd 4d58 fd3c ea87 00be 0ac5 333b
000000b0: f150 473c 0de5 56be 6eae e1bd 820a 54be
000000c0: a09d a2bd 75fe 853d d1d1 ebbc c5ef b3bd
000000d0: 9b32 23be 93ef acbd d9a2 8dbe ada0 ad3a
000000e0: 6bce 3e3b 3a45 ee3c af7e 11bd 51d7 8fbe
000000f0: 560d d2bd 4ba7 35be 7eac dabd 95fe 71be
00000100: 1f8e 923b c4a3 8f3d 0ed8 123e 973b bcbd
00000110: 1138 a23d a34c c2bc ea8a 7d3d 60af a83d
00000120: 5eb1 fdbd fee4 8ebd ebf2 c53c 8f8b d73d
00000130: 2890 6c3c 22e6 433c 0859 b23d 0e37 cf3d
00000140: 0f6b 2f3e ed55 65bd e123 9d3c 0cad cc3b
00000150: 6ca4 15bd ecbe 13be 1fba 9e3d c09c 0dbe
00000160: 29cd 1f3e e8d1 09be a0b2 343c dbf3 e43d
00000170: a375 fe3d b327 ca3d 5b05 963c 12d4 013e
00000180: df3b 19be f253 e73c 6b17 5abe 788a b9bd
00000190: cafb babd 1e41 95be d06a 78be de11 343d
000001a0: 6629 01be ec1b 11be ce0d ed3b 91d3 dabd
000001b0: 2efa f73c 8b35 4bbe d40c 2bbe b989 f3bd
000001c0: e2e8 1abd f7a8 76be ff57 643d f13d 1b3d
000001d0: e009 05bd af49 80be dead da3b b273 0ebc
000001e0: 1576 c3bc fa0b f0bb c667 a5bd b393 2fbd
000001f0: f4e6 22be 63f1 97bd 441c 39be c4c4 77be
-0.15429834 -0.08109712 -0.08337314 0.021549659 0.13995011 -0.1380629 -0.20468955 -0.25448292
-0.12992981 -0.22595571 -0.20398325 -0.2591757 -0.0010350161 -0.16885997 0.011027405 -0.17581306
-0.18016143 -0.14159259 -0.072244264 0.08092809 -0.10747165 -0.21782072 -0.14209257 -0.2492213
-0.1542831 -0.058755666 -0.14841837 0.08692693 -0.16589928 -0.23748173 0.045533113 -0.23571683
0.05049756 -0.18274835 -0.07821112 0.06944271 0.0009624903 0.032462277 -0.2761802 -0.02803439
-0.110445544 0.030925894 -0.12551847 0.0027430677 0.012165294 -0.20985813 -0.11019598 -0.20707133
-0.07940221 0.065426745 -0.028786572 -0.08785967 -0.15937273 -0.08444133 -0.27663305 0.0013246738
0.0029114734 0.029085744 -0.035521206 -0.2809396 -0.1025645 -0.17739598 -0.106774315 -0.23632272
0.0044725086 0.07013658 0.14340231 -0.09191053 0.0792085 -0.023718184 0.061900057 0.08236575
-0.12387346 -0.069772705 0.024163684 0.105246656 0.014438666 0.011956723 0.087083876 0.10117923
0.17130683 -0.05599015 0.019182147 0.0062462147 -0.036533758 -0.144283 0.077503435 -0.13829327
0.15605606 -0.13458979 0.011028916 0.11179324 0.12424781 0.09870853 0.0183131 0.12678555
-0.14964245 0.02823827 -0.21297996 -0.09059614 -0.09130056 -0.29151243 -0.24259496 0.043962352
-0.12613449 -0.14170808 0.0072343117 -0.10684884 0.030270662 -0.19844644 -0.16704112 -0.11891503
-0.03781975 -0.24087892 0.055747982 0.03790087 -0.03248012 -0.25056216 0.0066735586 -0.008694576
-0.023860017 -0.0073256465 -0.08076434 -0.042865466 -0.15908414 -0.07419088 -0.18077189 -0.24196154
