checkpoints/MatchingNet/fce_net_on_Omniglot_100.pth (torch, 103279 bytes, 8 tensors)

fce.weight_ih_l0 f4 [128, 64]
000000 ae 11 03 3e b4 18 34 bd 0c 49 45 bd 08 34 6f 3d
       0.12799713 -0.04396887 -0.048165366 0.05839923
000010 51 41 b6 bd 50 2c 12 3e 3e 01 88 bd 58 a1 fc 3d
       -0.08899177 0.14274716 -0.06640862 0.123354614
000020 4e d6 0f 3e e7 36 1d 3d 1c 9c f2 3c 3d 9f d8 3c
       0.14046595 0.038382437 0.029615454 0.026443118
000030 4f 9d a0 3d 01 db ec bc 2a e7 9d 3d 5d 58 c1 3d
       0.07842504 -0.028913023 0.07710107 0.09440682
000040 b2 ed aa bd 20 88 b3 3d bf 74 0a be 22 9f 1e 3c
       -0.08346118 0.08766198 -0.13521098 0.009681495
000050 12 39 e1 3d 35 1c 27 bd f8 5f 5b 3d fb e8 1f bd
       0.109972134 -0.040798385 0.05355832 -0.039040547
000060 9a 7d 0b be f6 4f 8a bd 99 a8 db bd e9 e3 1c 3e
       -0.13622132 -0.067535326 -0.10725517 0.15321316
000070 91 9c c8 3d a7 2f 85 bd 63 1c e6 3d 7c ce ab 3e
       0.09795488 -0.065032296 0.11235883 0.33555973
000080 3d fa de bd 0c cf bf bc c1 3f a4 3d f3 d7 13 3e
       -0.10887573 -0.023414157 0.080199726 0.14437847
000090 5a ab 9a bd ec 48 85 3c 77 b9 b2 3d 16 86 79 3d
       -0.07552214 0.016270123 0.08726781 0.06091889
0000a0 20 9f b1 bc 30 2d 15 be 72 49 d0 bd f9 22 d9 bd
       -0.021682322 -0.14568019 -0.101702586 -0.10602374
0000b0 a3 b6 21 be d9 84 bf 3b ac 46 08 bd 95 fe 31 be
       -0.15792327 0.005844694 -0.033270523 -0.17382272
0000c0 9f c0 a2 3c 16 61 89 bd 63 6a 2c 3e 60 08 86 bc
       0.01986724 -0.06707971 0.16837458 -0.016361415
0000d0 88 f4 27 3e a8 13 30 3d af 1a 37 be 5a 9d 57 3d
       0.16401875 0.042987496 -0.17881273 0.052640297
0000e0 82 43 9a bd 66 91 0d 3c a4 41 16 3e 1d 2d 12 3e
       -0.07532407 0.008640623 0.14673477 0.14275022
0000f0 bf d2 64 3d 26 91 96 3d 6b 24 67 bd 18 51 0b 3e
       0.055865046 0.073519036 -0.056431215 0.13605154
000100 e1 ca af bd 40 6a d3 bd 6e 91 4b 3e db 62 73 3d
       -0.08583618 -0.10323 0.19879696 0.059420448
000110 9e c3 d2 bd 1e cf c3 bd be 1f 34 bd ec 3f 09 3e
       -0.10291217 -0.09560989 -0.043975584 0.1340329
000120 b3 d2 b5 3d c6 8a 02 3e 7d 49 b6 bd 69 0a b1 bd
       0.08878078 0.1274825 -0.089007355 -0.08644564
000130 e5 42 11 3d e3 55 ac bd 38 5d d2 bd 1c 53 88 3d
       0.035464186 -0.08414819 -0.10271686 0.06656477
000140 97 a1 91 3c 6f 42 e6 bc af fc a0 3d 68 75 ce 3d
       0.017777247 -0.02810785 0.078606956 0.10080987
000150 70 c4 51 bd bf 45 91 bd 76 49 0c 3e 62 5b dc 3d
       -0.051212728 -0.07093381 0.13699898 0.107596174
000160 49 e8 38 3e f1 79 8e bd 77 23 b5 3c c0 79 39 3d
       0.1805736 -0.06956852 0.022111638 0.045282125
000170 10 78 9b 3d 79 5a 22 3e 57 71 6b 3d 93 e9 35 bd
       0.075912595 0.15854825 0.057481136 -0.044412207
000180 c9 8c 0f be dd 12 5f 3d 60 a5 99 3d f7 b5 1d 3e
       -0.14018549 0.05446135 0.07502246 0.15401445
000190 f6 32 b9 bd 8d fd 0d be 69 a3 c1 3d b4 0f 02 3e
       -0.09042923 -0.13866253 0.09454996 0.12701303
0001a0 b4 83 17 be aa ea 84 bd 0c 76 a9 bd 24 c6 8b bc
       -0.14796335 -0.06490071 -0.08274469 -0.017062254
0001b0 0b 52 d1 bd c5 41 47 3e 70 c1 e5 3d 27 3d f7 bc
       -0.102207266 0.19458683 0.11218536 -0.030180527
0001c0 66 2e a0 3d 3a 96 38 bd 12 36 15 bd a4 0a 11 3e
       0.0782135 -0.045065142 -0.03642852 0.14164215
0001d0 12 2d 2e 3e 86 89 1e 3e 37 1e 30 bc 60 99 55 3d
       0.1700938 0.15482149 -0.010749391 0.052148223
0001e0 46 57 91 bd 66 22 22 3c 53 3c 15 3d 8a 4c 3b 3c
       -0.07096724 0.009895897 0.036434483 0.011431823
0001f0 33 f8 97 3c 51 64 09 3e 2a b9 a4 bd 97 11 11 3d
       0.018550968 0.13417174 -0.0804313 0.035417166
000200 f7 36 96 bd fe 1f 77 3d 75 74 af bd ea 04 da bd
       -0.073347025 0.060333245 -0.08567134 -0.106454685
000210 4c 4a 00 bb b5 b1 e9 bc 1f e0 51 be ea 79 a7 3d
       -0.0019575534 -0.02852712 -0.20495652 0.0817755
000220 35 4b 24 3c e3 4c a8 3d e0 53 8e bd 8f a4 2d bd
       0.010027696 0.0821779 -0.06949592 -0.042393263
000230 54 8e bc bd fa 81 80 3d 19 a2 bd 3b 92 82 c3 3d
       -0.092068344 0.06274791 0.005787146 0.09546389
000240 3d 1b 29 be fe 2a 26 be 7d 62 c1 3d 7d c0 52 3c
       -0.16514297 -0.16227338 0.09442613 0.012863276
000250 1f 48 4b bd ae ba 82 be 0c 2a 41 be 85 7a 11 be
       -0.049629327 -0.2553305 -0.18863696 -0.14206894
000260 26 25 84 be 5b e6 5c be 82 f6 10 be e1 1c 2b be
       -0.25809592 -0.21572249 -0.14156535 -0.16710235
000270 92 ef 80 be 05 fc 35 be e6 29 00 3d 6d d3 bc bd
       -0.25182778 -0.17771919 0.031289957 -0.09220014
000280 52 b9 01 be a9 a8 da bd 8b 02 95 bd fa 79 3b be
       -0.1266835 -0.106767006 -0.07275876 -0.18308249
000290 6a 8a 1f be bc aa 3a 3d 5b 49 c9 3d 6f 88 bd bc
       -0.15580145 0.04557298 0.098284446 -0.023136346
0002a0 2e a9 4d be bb 23 d0 bd 2a c7 22 be 4e f8 71 bd
       -0.20084068 -0.10163065 -0.15896288 -0.059074692
0002b0 ac 5a 4e 3d 25 cd d5 bd 01 50 9b 3d 04 b7 55 bd
       0.05037944 -0.10439519 0.07583619 -0.05217649
0002c0 65 d1 81 be 1e 8b 22 be 07 5f 18 3d 36 21 23 3d
       -0.25355068 -0.15873381 0.0372 0.039826594
0002d0 62 7c aa 3d 79 00 a5 bd 9d 20 5b be da d9 f8 3c
       0.083245054 -0.08056731 -0.2139916 0.030377317
0002e0 3b 04 1a bd 11 24 02 be 4b ef 07 bc e1 6c fb 3d
       -0.03760169 -0.1270907 -0.008296798 0.122766264
0002f0 4f f6 54 be cf bb 64 3d 27 a2 50 be 5b ba 13 3c
       -0.20797084 0.05584317 -0.20374356 0.009016599
000300 0b a5 11 be d9 1e cb 3d ff 28 26 3e 87 a5 c1 bd
       -0.14223115 0.09917993 0.16226576 -0.094554
000310 6d f0 a1 3c cb b1 94 bd 03 d7 73 bd 94 46 e0 3d
       0.019767964 -0.07260474 -0.059531223 0.10950962
000320 ef 93 49 bd 0d c8 41 3c d2 6c c2 bc 7e 42 31 3d
       -0.049213346 0.011827481 -0.02373353 0.043276303
000330 02 22 87 3d 7e 7e c0 bd 22 55 d3 3d 5c 33 30 bd
       0.06598283 -0.093991265 0.10318972 -0.04301773
000340 b6 65 f3 3d 35 9e 64 bd ea aa 33 be 6b cc dd 3d
       0.11884634 -0.05581494 -0.17545667 0.10830005
000350 43 eb c3 bd fc 37 0c bc 29 83 32 be 53 2c 23 be
       -0.09566357 -0.00855827 -0.17432846 -0.15934877
000360 12 17 ba 3c 46 aa de bd 9b 1b 03 3e 9f 23 8f 3d
       0.022716079 -0.10872321 0.128035 0.06989216
000370 de b5 5b 3d 15 2f 37 bd 1f 37 25 3e 0b ea c6 3c
       0.05364024 -0.044722635 0.16134308 0.024281522
000380 3f 4a 75 bc 29 b9 63 bd 8c f0 f4 3d 72 17 e5 bc
       -0.014971315 -0.055596504 0.11959943 -0.027965281
000390 c2 cb da bd b8 83 fa bd bb 0c 77 3e e7 9d b5 3d
       -0.10683395 -0.122321546 0.2412595 0.08868008
0003a0 16 dc 14 3e 4b 42 2a bd 70 b1 8d bd e6 33 1e bd
       0.14537081 -0.04156713 -0.06918609 -0.038623713
0003b0 9d b5 05 3e f5 c4 65 bb e2 5e 30 be f4 c8 e6 3b
       0.13057561 -0.0035060022 -0.17223695 0.0070429984
0003c0 54 bb 9a 3d ca 9a 03 be 7f 36 a9 3d 1c 18 03 3d
       0.07555261 -0.12852016 0.082623474 0.032005414
0003d0 58 2b 76 3e 8d ca 49 3e aa bb 82 3d f1 f9 81 3d
       0.24039972 0.19706173 0.0638345 0.06346501
0003e0 ee c7 d6 bc 27 bb 23 be bd 17 3c be 12 13 0a 3e
       -0.02621838 -0.15989362 -0.1836843 0.13483837
0003f0 d9 f2 89 bc ee fb a9 3d 29 f3 31 3d 6d 4d 77 be
       -0.016839432 0.08300005 0.043444786 -0.2415063

fce.weight_hh_l0 f4 [128, 32]
000000 ef 58 2e 3d b8 0e 88 39 2b 7e 10 3c 36 0d f8 bc
       0.042565282 0.00025950908 0.008819143 -0.030279737
000010 88 56 67 3d 99 02 e8 bc 5a b7 04 bd e8 df 71 3b
       0.056479007 -0.028321551 -0.03240142 0.003690714
000020 8c 58 8c bd 64 d4 4d bd 7e 13 fa 3c 37 f0 b5 bc
       -0.068528265 -0.05025138 0.030526873 -0.02220927
000030 a7 ca 98 bd 4f 9a f6 bc 8b 18 8b ba c4 2f 9c 3c
       -0.07460528 -0.030102877 -0.0010612173 0.019065745
000040 43 67 8b 3c a0 81 d9 bd 43 51 4f 3d 82 c5 ac bc
       0.017017012 -0.10620427 0.050614607 -0.021090273
000050 53 d3 57 bc 6a 2a cb 3c 9d 49 cd 3c 65 62 b3 bc
       -0.013172942 0.024800498 0.025059516 -0.021897504
000060 66 9e 3e 3c 40 7b a0 bb a3 92 6d bb 74 24 ad 3c
       0.011634445 -0.004897505 -0.0036250732 0.021135546
000070 7d ba 26 bd 29 0f 54 bd c9 25 97 3d 96 e8 d0 3c
       -0.040705193 -0.05177227 0.07380254 0.02550153
000080 2b 46 54 3d 36 b8 3b bd 8a c1 32 3c 1a 3b 11 3d
       0.05182473 -0.045829974 0.010910401 0.035456754
000090 2f b7 6a 3d 44 bb 06 bd c3 fd 68 bd b8 fd 33 bd
       0.057303604 -0.032893434 -0.05688263 -0.043943137
0000a0 85 03 e1 3b 2a cd df bc 62 75 9a 3d f9 9f 3b bc
       0.0068668746 -0.02731951 0.0754192 -0.011451715
0000b0 82 3f e4 bd 39 a8 97 3c d4 08 2a 3d c7 cb ea bc
       -0.11144926 0.018512832 0.041512325 -0.028661622
0000c0 97 ae e4 3c 53 2e 84 bd 0c d5 7a 3d 2a a8 61 bc
       0.027915282 -0.06454148 0.061238334 -0.013773004
0000d0 ac 2f 94 3d f6 ce 55 3c 30 a0 4e 3d c6 c9 83 3b
       0.07235655 0.013049832 0.050445735 0.004021856
0000e0 38 16 92 3b 4c c9 ab 3d 27 69 02 bd e7 0e 7e bc
       0.004458215 0.08388004 -0.031838562 -0.015506483
0000f0 7b d4 04 3c 93 21 99 bd 5a 7f fe 3c 9a 64 ea bc
       0.0081073 -0.07477107 0.031066585 -0.028612424
000100 05 5d 7c bb 31 e6 63 3d 7e e7 f3 bd 6e bb af 3d
       -0.0038507592 0.05563945 -0.11909388 0.08580671
000110 f8 ad 15 3e b1 05 de bd 6e 89 b5 bd 14 83 96 bd
       0.14617145 -0.10840929 -0.08864103 -0.0734922
000120 dc b5 0d 3d db 6f 0e 3c 87 ac 85 3d c5 80 ca 3d
       0.034597263 0.008693661 0.065270476 0.09887842
000130 f7 70 36 bd 55 99 00 3e 12 9c 67 bc 60 e6 91 bd
       -0.044541325 0.12558492 -0.014136331 -0.07124019
000140 42 1f c1 3d 78 d6 ce 3d 16 7d 7b bd 1b 5b 4c bd
       0.0942979 0.100995004 -0.061398588 -0.049891572
000150 09 3f bd 3d fb e3 86 bd 9e 87 05 3d 20 25 91 bd
       0.092405386 -0.065864526 0.032600038 -0.07087159
000160 a6 90 fa bd 17 ca ae 3d 50 88 1c 3e e1 96 00 be
       -0.12234621 0.08534639 0.15286374 -0.12557556
000170 6c d2 fd 3d 8b 39 ce 3d 05 7e 04 be 9a a1 16 3d
       0.123936504 0.10069569 -0.12938698 0.03677521
000180 f0 29 c1 3c 6f c5 06 3c 21 74 d3 bc 04 62 92 3d
       0.023579568 0.008225783 -0.02581221 0.07147601
000190 72 e2 6d bc 5f 30 97 bb 72 51 89 bd 1c 5b 13 bd
       -0.014519321 -0.0046139206 -0.067049876 -0.03597556
0001a0 4f 7c 1e bd 24 aa 6e 3c 84 9b 5b bc e6 0f 63 bd
       -0.03869277 0.014566932 -0.013403777 -0.055435084
0001b0 99 ff 8b bc 49 85 eb 3c ea 12 6e 3c 9b b9 0f 3b
       -0.017089652 0.028750079 0.014530877 0.0021930698
0001c0 66 49 cd bc 04 0c 37 3b f7 1e 78 3c 2e 83 23 3d
       -0.025059413 0.0027930746 0.015144101 0.039920025
0001d0 9f b0 9a 3d f4 a8 5f bb 3b e9 27 bd e8 4b e3 bc
       0.07553219 -0.0034127804 -0.04099391 -0.027746156
0001e0 64 bd 19 bd cf 6e f7 3c d6 ee 3d 3d 74 d2 6f bd
       -0.037534133 0.030204205 0.04637035 -0.058550313
0001f0 a0 36 a8 3b c2 36 38 bd 42 f9 73 bc 1c 73 39 bc
       0.005133465 -0.044974096 -0.014890971 -0.011318948
000200 fa 3b 93 3d cf 2e d8 3d f8 da a3 3d 51 4b d3 bd
       0.07189174 0.10555803 0.08000749 -0.103171
000210 3e 83 0c 3e fb 64 5e bd 69 1c 76 bc 37 67 fe bb
       0.1372194 -0.05429552 -0.015021422 -0.007763769
000220 81 5d 12 3e 40 65 ab 3d 85 51 44 3d 53 3f 40 3d
       0.14293481 0.08368921 0.047929306 0.04693539
000230 1c 23 ac 3d cc 39 09 3e 1f 93 a2 3d 1f a9 18 3d
       0.08405134 0.13400954 0.07938217 0.03727066
000240 9b 46 c4 bc d8 3a 17 3e a6 1b 90 3d ce 03 60 3d
       -0.023959449 0.14768541 0.070365235 0.05469113
000250 25 3e 9c bd 13 5c 87 3d c5 df e5 bd 93 ca 88 bd
       -0.07629041 0.06609359 -0.11224321 -0.06679263
000260 13 59 82 3d 68 2d 06 3e 78 41 06 3b bf 3c 4f bd
       0.06364646 0.13103259 0.00204858 -0.05059504
000270 bb 6a d2 3d 80 7f d4 3d a2 44 2e 3e e4 8c 90 bd
       0.102742635 0.10375881 0.17018369 -0.07058123
000280 39 e0 a1 bb d1 2b 03 3e f1 fc c6 3d 27 89 f9 3d
       -0.0049400595 0.12809683 0.097162135 0.12184363
000290 c1 38 a6 3d 66 d9 d1 bd 7f a7 85 3d ce 45 aa bd
       0.08116294 -0.102465436 0.06526088 -0.083140954
0002a0 d9 9c 2c 3d 88 62 9d bd 4c a5 b9 bc 82 c0 5a 3d
       0.04214177 -0.07684809 -0.022661828 0.053406246
0002b0 f8 0f d7 bd 21 dc d6 bd 6f ae 92 bd 9e 5c ad 3d
       -0.10501093 -0.10491205 -0.07162177 0.08464931
0002c0 d6 81 13 3e be bd 06 3e 40 77 9e 3d 35 ce e5 3c
       0.14404997 0.13158318 0.07737589 0.028052429
0002d0 37 5d cb bd 15 30 5b 3c 08 33 a3 3d b2 c4 f3 bd
       -0.09929889 0.013378163 0.07968718 -0.11902751
0002e0 1f 3c e9 ba 89 4a 33 bd a2 66 8e bc c3 80 c2 bd
       -0.0017794407 -0.043772254 -0.017382924 -0.094972156
0002f0 48 40 3f 3e 45 0a ea bd bf 3a 82 bd f2 ad 20 be
       0.18676865 -0.1142774 -0.06358861 -0.15691355
000300 6a 68 1b 3e 5c e1 c6 3c b7 11 7c bd ce 77 20 3e
       0.1517655 0.024277382 -0.06154033 0.15670702
000310 21 d6 ea bb 16 70 15 3e fb 50 1e bd c3 04 61 3d
       -0.0071666394 0.14593539 -0.038651448 0.05493618
000320 3b 60 af bd f8 aa a1 3d 08 65 97 3c a1 fa 89 3d
       -0.085632764 0.07893938 0.018480793 0.06737257
000330 32 ab b0 3d 61 b1 a2 3d b6 3d c7 bd ba b1 d3 bd
       0.08626403 0.079439886 -0.09728567 -0.10336633
000340 cb 70 0b 3e 12 2d 80 bd 26 ff ed bd 92 5f 03 be
       0.13617246 -0.062585965 -0.11620931 -0.12829426
000350 58 41 a5 bd cf e2 e5 3c 85 4f f6 bb 6e 79 06 bd
       -0.08069104 0.028062252 -0.0075168037 -0.032830648
000360 af 86 d9 3d 87 10 06 be 38 97 ff bd 0f 2b 1f 3e
       0.10621392 -0.13092242 -0.124800146 0.1554377
000370 bf 97 57 3d bb ec d4 3d 1e 3c b5 3d ce fa 9e bb
       0.05263495 0.10396715 0.08849357 -0.0048516756
000380 7c ae dd bc be f2 d9 3d eb 64 16 be 5d b1 0e 3e
       -0.02706074 0.106420025 -0.14686935 0.13934846
000390 98 30 34 bd 7c c3 f8 3c 12 f9 65 3d f1 11 83 bd
       -0.043991655 0.030366652 0.056145735 -0.063999064
0003a0 86 00 23 3e 38 54 ec bd 3f 5a ee 3d 9d 6b 73 3d
       0.15918168 -0.11539501 0.11638307 0.0594288
0003b0 83 3b 0c 3c c5 ce 02 be 03 37 04 3e b8 6c f2 bd
       0.008559111 -0.12774189 0.1291161 -0.11837143
0003c0 8e 9a 61 3d 87 cf 06 3e 87 15 04 be 7d 88 be 3d
       0.055079035 0.13165103 -0.12898837 0.09303377
0003d0 45 3c 11 be 21 f5 2a 3e 60 6f d8 bd 2f 7d 77 3d
       -0.14183147 0.16695072 -0.10568118 0.06042212
0003e0 98 70 ea 3d 7a 77 99 3d 39 f7 ca 3c d1 ab a4 bd
       0.11447257 0.074934915 0.024776088 -0.08040584
0003f0 71 59 87 bc 2c e5 89 3d d9 2a 9c bd e5 17 f8 3d
       -0.016522141 0.06733164 -0.0762536 0.121139325

fce.bias_ih_l0 f4 [128]
000000 1f bb dd 3d 82 20 d2 bd c9 b2 8d be 32 f8 35 bd
       0.10826706 -0.102601066 -0.27675465 -0.04442615
000010 97 84 88 bd 5d 85 dc bb e5 07 98 bc d5 b1 3b bb
       -0.066659145 -0.0067297653 -0.018558452 -0.0028639932
000020 7b 8d f0 3c 4d d2 e0 bc 3f 1f 86 bd 0b fc 83 bd
       0.029364338 -0.02744403 -0.065489285 -0.06444558
000030 f7 28 47 be 20 2e 1c be c9 19 ba bd 63 b9 5a be
       -0.1944922 -0.1525197 -0.090869494 -0.21359782
000040 d2 c2 5b bd 83 c3 c7 3d dd 98 7c 3d 2f 89 15 be
       -0.053652592 0.09754088 0.06166922 -0.14603113
000050 fd e1 4c bd 6c 40 74 bc e7 55 c6 bd 22 09 8f bc
       -0.050020207 -0.0149079375 -0.09684353 -0.01746041
000060 e6 47 ad bd 67 71 75 be c1 1d cd 3d 1d 12 e4 bd
       -0.08460979 -0.23969041 0.10015441 -0.11136267
000070 2a af f3 bd ca 9f fe bd f5 15 4b bc 22 5f 19 be
       -0.11898644 -0.12432821 -0.012395372 -0.14977697
000080 fe d8 1c be c9 39 50 be 0d 50 02 be 65 f7 52 be
       -0.15317151 -0.20334543 -0.1272585 -0.20602186
000090 a7 fe cb bd 93 2c 0c bd f8 6c 55 bd 16 a3 64 be
       -0.099606805 -0.034222197 -0.052105874 -0.22327837
0000a0 23 83 a6 3d 32 10 a6 3c 30 13 10 bb 9f 12 d6 bd
       0.08130481 0.020271394 -0.0021984093 -0.104527704
0000b0 d5 91 3b 3d 09 49 84 be 6d 53 2c be 15 61 80 be
       0.045793373 -0.2583697 -0.168287 -0.25074068
0000c0 94 45 52 be c2 92 72 be a3 2b 78 bd 7c bf ba be
       -0.20534354 -0.23688796 -0.06058849 -0.36474216
0000d0 1d 18 3c be aa bc 07 bd fd 2a 9a be 10 04 8f be
       -0.18368573 -0.03313891 -0.30110922 -0.27932787
0000e0 33 18 c0 bd 73 29 4c bd c5 55 04 bd 75 4a 7a be
       -0.09379616 -0.049844217 -0.03230836 -0.24442466
0000f0 d1 61 a2 be 1f 83 fc bd 2d 0d 16 3d 46 82 8a 3c
       -0.31715253 -0.12329697 0.03663366 0.016907822
000100 b0 8b f8 3c 28 e4 2c 3d da 2e 51 3d f1 c5 f8 3b
       0.030340046 0.042209774 0.05107007 0.007591956
000110 3f 66 06 3e 31 2c 0a 3d d5 77 89 bd 0f 6f bf 3d
       0.13124941 0.03373355 -0.06712309 0.093473546
000120 17 14 5c bd 11 0a 46 3c 6c 27 1c 3d cb be ab bd
       -0.053730097 0.012087361 0.038123533 -0.08386
000130 57 30 b0 bd 0b 93 23 be c2 10 f8 3c 18 a8 49 bc
       -0.0860297 -0.15974061 0.030281428 -0.012308143
000140 15 1b 15 be fd 8d 14 3e 69 29 66 3c 2e 0f ee bd
       -0.14561112 0.14507289 0.014047959 -0.11623989
000150 48 d7 00 bd 61 55 24 3e a9 22 d9 bd f3 76 f0 3d
       -0.03145531 0.16048194 -0.10602314 0.11741438
000160 a2 9b 00 be 8e 4c 1b be 75 a6 11 be f1 82 46 bd
       -0.12559369 -0.15165922 -0.14223655 -0.04846472
000170 fc 12 d8 bc 6f c7 ad 3d f8 a4 01 be 9b c0 b6 bd
       -0.02637624 0.084853046 -0.12660587 -0.08923455
000180 2b 39 93 bd d5 ff 99 bd 81 ad 87 be 46 d1 f9 bd
       -0.07188638 -0.07519499 -0.2649956 -0.12198119
000190 09 73 86 be 63 f7 7c be 9c 57 b9 bd 6b 18 83 be
       -0.2625964 -0.24703746 -0.09049913 -0.25604567
0001a0 af da 7f be fe 4e 92 bd c1 bd bc bb fa ac 16 be
       -0.24985765 -0.07143973 -0.005759925 -0.14714423
0001b0 30 e1 28 be 8c be 66 bc 5a 52 c5 bd d7 5c 5e bd
       -0.16492152 -0.014083516 -0.09634848 -0.054287758
0001c0 5f 2f 84 be ca ec 5a 3d f3 6c 41 3e 00 aa 7b 3d
       -0.2581739 0.053448476 0.18889217 0.06144142
0001d0 ec 0b 1e 3e 4b 65 19 be 90 6c c1 3d 09 11 7a be
       0.15434235 -0.14980046 0.09444535 -0.24420561
0001e0 65 fb 4f 3c 3f 32 16 be de a4 09 3d 9c e3 7e be
       0.0126942145 -0.14667605 0.033604495 -0.24891514
0001f0 37 63 36 3c 10 30 79 be 58 7a 8a be e5 cb 4b be
       0.011132053 -0.2433474 -0.27046466 -0.19901998

fce.bias_hh_l0 f4 [128]
000000 42 4e b0 bd c6 65 08 bc ea ff e7 bb e4 67 05 3e
       -0.086086765 -0.008325046 -0.007080068 0.13027912
000010 ea 69 41 be 89 39 2d 3d ca 17 3b be 14 5a 40 3c
       -0.1888806 0.042291198 -0.18270794 0.011740226
000020 f6 a1 96 3d 8d 49 cc bd b8 af e6 bd 6d 36 4d 3d
       0.0735511 -0.09974966 -0.112639844 0.050100733
000030 be 9e 35 bd 25 c0 94 bb 4f 51 78 bd 0c e3 a9 3c
       -0.04434084 -0.004539507 -0.060624417 0.020738147
000040 a7 31 20 be c1 ae 13 3d 2d ee c0 3d bb 01 a0 3d
       -0.15643941 0.03605533 0.094204284 0.0781283
000050 5e b0 db bd eb cb 4c be 7c 92 11 be 09 c2 34 be
       -0.10726999 -0.19999664 -0.14216036 -0.17652144
000060 85 f8 5f 3d 12 d6 52 3d ac 8e e9 3c e2 11 39 be
       0.054680366 0.051473685 0.028510414 -0.18073228
000070 4a 0f cf 3c 10 36 06 3d 60 83 2d be ff 7d 42 be
       0.025275845 0.0327664 -0.16944647 -0.18993376
000080 43 53 01 be c1 e0 5a be a3 2b bd 3c 3a ca a4 be
       -0.12629418 -0.213748 0.023092097 -0.32185537
000090 f2 57 61 3b 37 63 86 be 48 5b 12 be dd 8d d1 3c
       0.0034384695 -0.2624757 -0.14292634 0.025580341
0000a0 15 f7 e7 bc 63 c2 88 be b8 60 cd bd eb 46 22 be
       -0.02831606 -0.26710805 -0.10028213 -0.15847366
0000b0 89 f5 1a be ee c9 53 be d8 a1 96 bd fd b4 37 bd
       -0.15132727 -0.20682499 -0.07355088 -0.04485034
0000c0 ff c4 35 be 8b d3 41 be c1 61 8a be ee 2e 8d be
       -0.1775093 -0.18928353 -0.27027705 -0.27574867
0000d0 11 db 82 be 57 92 91 be ab fd 4e bd 3f 79 86 be
       -0.2555776 -0.2843196 -0.050534885 -0.26264378
0000e0 30 45 03 be c1 cc 53 be 66 19 82 bd cb 3d 80 3d
       -0.12819362 -0.20683576 -0.063525006 0.06261786
0000f0 a2 44 b1 be e9 af 5b be bd 85 1e be ca 43 d9 bd
       -0.34622675 -0.21453823 -0.15480705 -0.10608633
000100 bb fc b4 bd f4 4f b1 3d 29 69 95 3d b1 cd b2 bd
       -0.08837267 0.08657828 0.07295448 -0.08730639
000110 6b 41 40 be 0e d7 01 3e 47 95 00 3e 7f 4c 9d bd
       -0.18774955 0.12679693 0.12556945 -0.07680606
000120 34 b9 09 be 0c d7 18 bd 44 cc 05 be 10 b3 ab 3d
       -0.13449556 -0.03731446 -0.13066202 0.08383763
000130 be 40 1a 3e 1a df 42 3e 07 52 22 be d1 3c 63 bd
       0.1506376 0.19030419 -0.15851603 -0.05547792
000140 f7 af ec 3d 67 73 f3 bd c2 c7 f8 3d 3e ff ee bd
       0.11557 -0.118872456 0.12147476 -0.11669777
000150 36 d9 71 3d 81 e3 16 be b4 a3 34 bd d9 6b 26 be
       0.05904504 -0.14735223 -0.044101432 -0.16252078
000160 4b 79 05 3e 04 67 80 bd ae c1 50 3d a6 ac 28 3e
       0.13034551 -0.06269649 0.050965957 0.1647211
000170 96 65 05 bd b2 d1 ba bb 80 75 ab 3c 65 1f 92 3d
       -0.032567583 -0.005701267 0.020930052 0.07134894
000180 53 53 84 bd 82 7c 80 3d c5 64 01 bc 54 85 01 3e
       -0.06461205 0.06273748 -0.0078975605 0.12648517
000190 df 91 45 bd 86 f1 1a be 00 40 72 be 24 ce 07 b9
       -0.048234817 -0.15131196 -0.23657227 -0.00012951397
0001a0 ee 68 84 be f0 79 12 be 6b 91 77 be d3 02 1a be
       -0.25861305 -0.14304328 -0.24176566 -0.1504014
0001b0 6a e4 48 3d 10 0e 6d be 90 b3 e3 bd 89 2c 58 3d
       0.049045958 -0.23149896 -0.11118233 0.052776847
0001c0 66 b2 4d bb 7b 6a 45 3e 82 19 fd bd b1 1c c9 3d
       -0.0031386851 0.192789 -0.12358381 0.098199256
0001d0 92 a9 22 bd 47 31 80 be 01 1d e3 bb 6f 6d 89 bd
       -0.039712496 -0.25037596 -0.006930948 -0.06710326
0001e0 a0 94 82 be b1 8c 41 be 3a e1 bf 3c c1 28 07 bd
       -0.25504017 -0.18901326 0.023422826 -0.03299785
0001f0 48 31 67 bb 72 37 98 bd 88 8e 75 3d 05 7f ad bd
       -0.0035277177 -0.0743245 0.05995038 -0.08471493

fce.weight_ih_l0_reverse f4 [128, 64]
000000 21 66 73 bb 60 c5 95 3d cb 2e 2f be 27 9e 63 bd
       -0.003713973 0.07313037 -0.17107694 -0.055570748
000010 0d 3c 03 3e 32 9a 2e be d8 bd 8b be 5e e6 b1 bb
       0.12815876 -0.17051008 -0.27293277 -0.0054290732
000020 e4 e1 04 3e a5 33 25 be 37 c5 3b be 60 7f 40 bd
       0.12976795 -0.16132982 -0.1833695 -0.046996474
000030 27 cd ed bd b4 63 8c bd 85 2d 98 bd 1b 41 9c 3d
       -0.11611395 -0.06854954 -0.07430557 0.076296054
000040 1f 5a 16 3e 84 6d fd 3d a8 f7 ab 3d 4f 2a ec bd
       0.14682816 0.12374404 0.08396846 -0.11531507
000050 f0 2c 8c 3d a5 5e e4 bd c1 f9 40 be fc 16 47 3c
       0.06844509 -0.111508645 -0.18845274 0.012151476
000060 65 88 67 be 8d 86 f7 3c 7a 07 ab bd 03 09 a0 3c
       -0.22610624 0.030215526 -0.083510354 0.019535547
000070 14 8b 30 be 81 c7 20 be 28 5e 0b be a8 c2 af 3d
       -0.17240554 -0.15701105 -0.13610137 0.085820496
000080 8d c9 00 be f5 8f 4e be 81 34 b7 bd da e1 2c bd
       -0.12576886 -0.20172103 -0.08945561 -0.042207576
000090 20 6a 2e be 10 21 7d be 2b ea 13 3e 0a 13 4f be
       -0.17032671 -0.24719644 0.14444797 -0.20222107
0000a0 7b 24 8e bd 6f 02 a8 bd e7 5d 21 be 9e eb 03 be
       -0.06940552 -0.08203589 -0.15758477 -0.1288285
0000b0 54 26 f1 3c 52 f9 43 be 6e 94 72 be 20 52 a5 bc
       0.029437222 -0.19138077 -0.23689434 -0.020180762
0000c0 f2 ee 69 be ae 7b 22 bd 83 10 0e 3e 7e ed 00 be
       -0.22845057 -0.03966873 0.13873486 -0.12590596
0000d0 53 4f 55 bb 4a 70 a1 3d 5a 7d 1c be e3 56 49 be
       -0.0032548502 0.078827456 -0.15282193 -0.19662051
0000e0 2a e8 6b 3d 2a f0 00 3a 23 a0 75 bd 83 59 1e 3d
       0.057594456 0.00049186 -0.05996717 0.038659584
0000f0 92 3b 95 3d 6c 0f 05 be 78 08 39 bd ee e1 b5 bd
       0.07286753 -0.12994164 -0.045174092 -0.08880983
000100 31 44 77 3c 21 98 c0 3d 9f 87 83 bd 97 a7 07 bd
       0.015091942 0.09404016 -0.06422352 -0.03311881
000110 a3 51 d5 3c 17 d3 53 be 5c 87 ab bd cf be 4e be
       0.026039904 -0.20685993 -0.08375427 -0.20189975
000120 70 cf 23 3e 37 d4 9f 3d a2 b9 90 3d 2e 01 f9 bd
       0.159971 0.07804149 0.07066657 -0.12158428
000130 91 0d c9 bd 27 b6 2d be 05 4b ec bd 48 e5 68 3d
       -0.09817041 -0.16964017 -0.11537746 0.056859285
000140 bc 9d 68 3d 10 85 d2 bd 15 52 15 be b6 8a c0 bd
       0.056791052 -0.10279286 -0.14582093 -0.09401457
000150 fa 81 54 be a3 5f 86 bc 82 d7 c0 3c 33 13 be bd
       -0.20752707 -0.016403025 0.023540262 -0.09281006
000160 e0 49 57 be cd 98 30 be 8d 4b 4d 3d 07 c7 76 be
       -0.21024275 -0.17245789 0.05012088 -0.2409936
000170 44 0b 2e bd 34 92 2a bd 2a f9 5a 3c ca 8e b2 bc
       -0.042491212 -0.041643336 0.013365069 -0.021796603
000180 6a b7 78 be 51 d0 5c bd 63 fc bb 3d 01 57 02 be
       -0.24288717 -0.053909604 0.09178998 -0.12728502
000190 36 8c 07 3d 32 f2 72 be fb 29 87 bd 59 1e 6d 3d
       0.0330927 -0.23725203 -0.06599804 0.05789027
0001a0 0e e3 3e be e8 ff 38 be a0 b3 80 be 59 f5 78 b9
       -0.18641302 -0.1806637 -0.25137043 -0.00023742522
0001b0 46 f1 43 be 1a 11 ae bd 29 84 5a be dd ca 95 bd
       -0.19135007 -0.084993556 -0.21339478 -0.07314084
0001c0 17 4e 25 be 18 61 96 3d aa dc 9f 3d 4d af 40 be
       -0.1614307 0.07342738 0.0780576 -0.18816872
0001d0 c3 fe 9b bd 1b 37 eb bc 8d 25 b3 bc dd 4d 05 3e
       -0.07616951 -0.0287128 -0.021868492 0.13017984
0001e0 16 5d 8c bd 85 bd 65 be 2c 55 80 be 63 3a 49 3b
       -0.06853692 -0.22435577 -0.2506498 0.0030704967
0001f0 66 5d f8 3c 15 6c d8 3d d9 64 f7 3c d2 93 cc bd
       0.030317973 0.1056749 0.030199455 -0.09989132
000200 d1 4b e6 3d 35 74 02 3b f5 e9 19 3d 8b 6c cd 3c
       0.112449296 0.001990569 0.037576634 0.025076171
000210 f9 7c fe 3c 07 56 9a bc 7c d3 77 be 68 0f d7 bd
       0.031065451 -0.01883985 -0.24201769 -0.105009854
000220 f6 9a 38 be 6b 70 10 bd 80 fe 07 bd 4d 85 f4 bd
       -0.18027863 -0.03526346 -0.033201694 -0.119394876
000230 c8 93 2d be c4 55 92 3d 5a cf 2c be 3b 1a 20 be
       -0.16950905 0.07145265 -0.16875973 -0.15635006
000240 7e 80 bf 3d b9 be 32 be bf 39 ce 3d 2c b8 a2 3d
       0.0935068 -0.17455567 0.10069608 0.07945284
000250 44 bf 31 be b2 03 56 be b2 38 6e 3d 0d 1d 35 bc
       -0.17358118 -0.20899847 0.058159538 -0.0110542895
000260 07 71 4b be c8 ec e0 bc 23 8d 03 bd 67 86 48 be
       -0.19867335 -0.027456656 -0.03211702 -0.1958252
000270 20 f4 4b be 51 b9 0a be b7 73 4b be eb 3d 60 be
       -0.19917345 -0.13547255 -0.1986836 -0.2189862
000280 28 97 28 bd 62 bf 99 39 35 cc 73 bd 21 15 84 be
       -0.04115978 0.00029325025 -0.05952092 -0.2579737
000290 75 a4 c2 3d e6 b8 7d be 4b 6c 6e bd b2 ed 50 be
       0.09504024 -0.24777564 -0.058208745 -0.20403174
0002a0 3a e3 a7 bc 32 77 79 be 88 a3 70 be 6b cc 8b bd
       -0.020494092 -0.24361876 -0.23499882 -0.06826099
0002b0 f2 40 7c bb 65 5a e2 bd 28 89 27 be ee 65 a8 bd
       -0.003849086 -0.11052398 -0.16360915 -0.082225665
0002c0 db d8 e4 3c 3c f6 a1 3d 94 b5 19 bb fb 90 c0 3d
       0.027935436 0.079082936 -0.0023454176 0.09402653
0002d0 55 ec c1 bc d7 4d bc 3d 0f 5c 88 be 8b 2b 0e be
       -0.023672262 0.09194534 -0.26632735 -0.13883798
0002e0 4f 5c 38 be d3 21 fc bd 1a 27 b6 bc 50 06 fb 3c
       -0.18003963 -0.12311139 -0.022235442 0.030642658
0002f0 bc 7f 47 bd d2 dd b3 bd 97 07 0f be f7 96 08 be
       -0.0487058 -0.08782543 -0.13967739 -0.13338839
000300 5a 60 2d bd 62 e8 a5 bd 1f bc ba 3d 8d 0b 36 3d
       -0.042328216 -0.08100964 0.091179125 0.04444461
000310 c6 db 92 bc 45 a6 5f bd 2a 69 fb bd 74 6e 0a be
       -0.017927062 -0.054601926 -0.12275918 -0.13518697
000320 96 99 90 bc 7f 47 8b 3d cf 6a fe 3c 67 6f 09 be
       -0.01765136 0.06800746 0.03105679 -0.13421403
000330 64 79 9a bd a0 a5 01 3e 42 8f 81 bd 91 d5 d0 3d
       -0.07542685 0.12660837 -0.063261524 0.101969846
000340 27 b4 e1 bd 10 99 92 b9 c4 0b ac 3d 5f 98 3b be
       -0.110206895 -0.0002796133 0.084006816 -0.18319844
000350 ce 8a 4e be 3b d4 5f be 74 98 d2 3c 8c 07 a0 3c
       -0.20170137 -0.21858303 0.025707461 0.019534849
000360 6e dc 75 bd 30 80 2e bd bc 19 63 bd a8 86 0b be
       -0.06002467 -0.042602718 -0.055444464 -0.13625586
000370 71 58 76 3c a3 b1 09 be c3 7d 70 bd bc 6d 86 bd
       0.0150357345 -0.1344667 -0.058713686 -0.06563899
000380 0d 0c 13 be 15 27 3a be 63 a9 79 bd 26 37 18 be
       -0.14360066 -0.18178971 -0.060952555 -0.14864787
000390 6c 50 8e 3d 3c 30 46 be 6d 93 3f be ab 20 17 3d
       0.06948933 -0.19354337 -0.18708582 0.03689639
0003a0 e8 2c 63 3d ab 02 11 be dd 9e 43 3c fa d3 3d 3d
       0.055462748 -0.14161174 0.011939731 0.046344735
0003b0 ed f0 a8 be 6c 53 ed bd fd ad d5 bd d4 82 43 bd
       -0.32996312 -0.11588177 -0.10433576 -0.04773219
0003c0 1d 6c 0e be 51 56 25 be 22 59 b4 3d f6 42 a2 3d
       -0.1390843 -0.16146208 0.08806063 0.07922928
0003d0 e2 58 ae bd 4c a1 8b 3d 00 4b b9 bc 7d 92 7e 3c
       -0.08513047 0.06817874 -0.02261877 0.015537855
0003e0 f4 3e d2 bd 68 0c e1 bd 90 57 43 be c5 af 64 3d
       -0.102659136 -0.109886944 -0.19076371 0.05583169
0003f0 d4 8e d6 3a 8d 95 d8 3c 35 98 1d be 86 bf 85 be
       0.001636947 0.026438499 -0.15390094 -0.26122683

fce.weight_hh_l0_reverse f4 [128, 32]
000000 38 d0 f5 bd a7 6f 56 bd 15 78 d8 3d 47 a3 08 3e
       -0.12002605 -0.052352574 0.10569779 0.13343535
000010 12 c7 60 bd 4e 71 b3 bd 2a 5f 26 bd 29 1d 48 bd
       -0.05487735 -0.087618455 -0.0406181 -0.048855934
000020 91 cd f2 3c cc 1c f4 3b b0 56 32 3d 76 c3 00 3e
       0.029639037 0.007449722 0.043539703 0.12574562
000030 f7 37 1d 3c f5 ad 16 bd 15 e2 d7 3d 5b 1a 73 3d
       0.009595863 -0.036786992 0.105411686 0.059351306
000040 3a d8 67 bd 15 83 d2 bd 11 f6 b5 bc 3f 84 d4 bd
       -0.056602694 -0.10278908 -0.02221206 -0.103767864
000050 fe 0c 0b 3e 0f 4a 8d bc de 90 e4 3c 79 19 5b bd
       0.13579175 -0.017247228 0.02790111 -0.05349109
000060 de 9b cc 3d 0f 4f 64 bd fc 4e 05 3d 01 a1 12 3d
       0.09990667 -0.05573946 0.03254603 0.035798077
000070 9d cb e8 3d c2 14 f4 3d a1 d8 e8 3d 3d 89 a1 bd
       0.11366961 0.11918022 0.11369444 -0.07887504
000080 fb cf c8 bc f2 1e f3 bd 5e ae b2 3c e0 00 1f 3e
       -0.024513235 -0.11871137 0.02181166 0.15527678
000090 4b 52 b4 bd ee ec f5 bd 16 58 d7 bc e6 f7 95 3d
       -0.08804759 -0.120080814 -0.02628712 0.073226735
0000a0 d7 82 71 3d 0c f0 8d bd 8e eb eb 3d 7d af ba bd
       0.05896267 -0.06930551 0.11519538 -0.09115503
0000b0 f2 f4 01 3e bc bd 37 bd 53 68 c1 3d 22 51 34 3d
       0.12691095 -0.04485868 0.094437264 0.044022687
0000c0 62 4c 96 3d ea bf ac bd 44 53 98 3b 32 2a 05 3c
       0.073387876 -0.08435042 0.004648598 0.008127736
0000d0 1a 64 35 3e a9 c7 c1 bc ac 52 51 bb a8 28 e9 bd
       0.17713967 -0.023654776 -0.0031940145 -0.11384708
0000e0 97 a1 ca 3d d9 63 c6 bc d3 cd 9e 3d d5 fd a5 bd
       0.09894102 -0.024217533 0.077541016 -0.08105055
0000f0 f0 a3 81 3d 52 50 89 3d 23 a4 69 bd e6 6e 3d 3e
       0.06330097 0.06704773 -0.0570413 0.18499336
000100 79 fc 48 3d 6c b9 8a bd 6a 21 04 3d b0 33 b2 3d
       0.0490689 -0.06773648 0.03225843 0.08701265
000110 f3 1b 77 bd ec 03 00 3d 35 44 64 3d 2a fb dd bd
       -0.06032939 0.03125374 0.05572911 -0.10838921
000120 9b b3 39 bd 5d 8b 05 be 89 8d db bd 52 6e 14 3d
       -0.0453373 -0.13041444 -0.10720355 0.036238022
000130 72 fd 26 be c6 94 5f 3b 9c dd c7 bd a2 03 01 be
       -0.16307619 0.0034115775 -0.097590655 -0.12599042
000140 af 0a 82 3c 2b 16 f4 3d f4 4e 17 be 8e c1 30 bd
       0.015874235 0.11918291 -0.14776212 -0.043153338
000150 f5 d2 2e bd 9d 48 b8 bd 5a 72 3f bd 67 dc f0 bb
       -0.042681653 -0.08998225 -0.046739914 -0.0073504928
000160 35 5f 69 bd b3 ce 35 bd fd fe c7 3d 9b 13 6a bd
       -0.056975562 -0.044386577 0.09765432 -0.057147603
000170 0d 32 21 3d 50 0d 2f 3d b7 39 4a bb db db 02 be
       0.039354373 0.042737305 -0.0030857155 -0.1277918
000180 de 27 f1 bd 24 4d 9e 3d 7c 3c 91 3b 7a a9 d5 3c
       -0.11775182 0.07729557 0.004432259 0.02608179
000190 7d 27 c1 bd 70 50 bf bd a9 6d 97 3c b3 31 89 3c
       -0.0943136 -0.09341514 0.018484907 0.016747331
0001a0 c3 6e 51 bd 75 ce 8a bd dc 6a 2d bd b3 5a d1 3d
       -0.05113102 -0.0677766 -0.042338237 0.10222378
0001b0 c0 74 ba 3d 45 4a 4b bd 1c 41 ab 3d 99 09 ce bb
       0.091042995 -0.049631376 0.08362028 -0.006287765
0001c0 5c b3 d0 bd ef d7 2f 3d fa c3 c0 3d 96 37 4a 3d
       -0.1019046 0.04293054 0.094123796 0.049369417
0001d0 ba 49 b1 bd ab ba ae 3d ab ce 00 be b9 d4 eb bd
       -0.0865664 0.08531698 -0.12578838 -0.11515183
0001e0 8c a7 0a 3e aa 54 f3 bd a0 d9 a8 3d 09 88 09 3e
       0.13540477 -0.11881383 0.08244634 0.134308
0001f0 86 56 06 3b e7 f3 98 3d 4f 50 30 bb 2c 1e ad 3d
       0.002049835 0.07468396 -0.0026903336 0.084530205
000200 ca 9f 39 3e bc 4e 98 bd 7a ea ed 3d 5f d4 c5 3d
       0.18127361 -0.074368924 0.116169885 0.09659647
000210 79 fb 5d bd 93 1f 05 3d f4 ea 68 bd b7 bc 37 3d
       -0.0541949 0.032500815 -0.056864694 0.044857707
000220 3b 15 0f bd bf 81 46 3d d5 fd 17 3d 42 e7 f6 bc
       -0.034932356 0.04846358 0.037107307 -0.03013957
000230 56 cc 7d 3d 52 ac ec 3d 39 8a f9 3d 6e aa a5 3c
       0.061962448 0.11556305 0.12184567 0.020222869
000240 63 96 4f bd e8 74 d3 bd d9 48 de bd 04 19 46 bd
       -0.05068053 -0.103250325 -0.10853738 -0.0483637
000250 61 d4 83 3c 4d 57 cf 3d 1f 46 a0 3d b9 0d cf 3d
       0.016092481 0.10124073 0.078258745 0.10110039
000260 e2 24 f8 bc 69 45 8a bd d4 a2 b6 bd 27 33 a2 bd
       -0.030291025 -0.0675152 -0.08917776 -0.07919913
000270 3d 30 3b bd 2d 23 98 3d 2c c9 c8 bd 72 59 ee bc
       -0.0457003 0.07428584 -0.098039955 -0.029095385
000280 0d 69 dd 3c 85 6b b0 3d 0c 5e a7 3d dc f5 2c 3d
       0.027027631 0.08614258 0.08172235 0.042226657
000290 71 d8 8f 3d b2 99 c5 bc 83 cd 26 be 87 5f ff 3d
       0.07023705 -0.02412114 -0.16289334 0.12469392
0002a0 87 14 11 3c 78 2d 88 3d 01 d9 d9 39 60 ac d1 bd
       0.008854992 0.066492975 0.00041551146 -0.10237956
0002b0 80 0f 13 be 47 2e d1 3d b1 77 c8 3b 39 95 fd 3d
       -0.14361382 0.10213905 0.006117784 0.123819776
0002c0 29 be 0c be bc 63 55 3d 28 d8 cd bd 42 fc 0a be
       -0.13744415 0.052097067 -0.10050994 -0.13572791
0002d0 74 68 e2 bd 4a 85 f2 3d 75 a2 02 3e 15 47 f0 3c
       -0.11055079 0.11841829 0.12757285 0.02933077
0002e0 8d 7c 13 3e 5e 45 f2 3d 2c 05 f8 3d 62 b0 9c bd
       0.14402981 0.11829637 0.121103615 -0.0765083
0002f0 86 23 fe bd 45 3d a3 bd 24 2a a0 3d ce 7f 99 3d
       -0.12409119 -0.079706706 0.07820538 0.0749508
000300 ee 80 b3 bc 7a 84 dc bd b8 8c 8d bc c6 17 11 bd
       -0.021912064 -0.107674554 -0.017279014 -0.035423063
000310 af 1f 04 be 31 b3 08 be f8 fc df 3d 96 63 0e 3e
       -0.12902711 -0.13349606 0.10936922 0.13905177
000320 36 83 92 3d 25 d8 11 3d fe 58 f2 bd 7f 79 26 3e
       0.07153933 0.035606522 -0.1183338 0.16257285
000330 ca e2 1e 3e e6 4c 97 bc 5b a0 d9 3c 14 54 86 3d
       0.155162 -0.018469285 0.026565721 0.065590054
000340 9b eb 09 be 3b e9 1e 3e 2c a9 63 bd 3c ab 50 bd
       -0.13468783 0.15518658 -0.055581257 -0.05094455
000350 95 48 c3 bb 43 4e 83 3b ba 71 65 3c b5 4f d2 bd
       -0.00595958 0.0040071323 0.014004165 -0.10269109
000360 17 ea 79 bd 4f 09 21 be 39 46 8a 3d bd 33 ff 3d
       -0.06101426 -0.15726207 0.06751675 0.1246104
000370 49 d7 cb 3d 80 7e e9 bd 72 7f e4 bd 2d f0 cb bd
       0.09953172 -0.11401081 -0.11157121 -0.09957919
000380 89 ce 4b bc 60 47 5c bc b4 4b 32 3b 98 96 50 bc
       -0.012439379 -0.0134447515 0.0027205767 -0.012731217
000390 fc cf a7 bb 59 21 30 3c b0 4a 95 bc c8 70 67 3d
       -0.005121229 0.010750138 -0.01822409 0.05650404
0003a0 ef 64 56 bc 44 cd b9 bb 74 aa bf 3c ca 99 38 3c
       -0.013085588 -0.0056702215 0.023396708 0.011267135
0003b0 6a d0 61 bc f2 88 98 3b de c9 0b bc e6 fc 6c bc
       -0.0137826 0.004654997 -0.008532016 -0.014464593
0003c0 92 14 b7 3b 5b 6a 27 bb c1 07 8a 3c d3 b1 3c bb
       0.005587169 -0.002554557 0.0168494 -0.0028792515
0003d0 39 bf 63 3c e5 d5 1e bc a7 0d 1b bb 1d 38 7a 3c
       0.0139005715 -0.009694551 -0.002365926 0.0152721675
0003e0 ca 17 e0 bb 87 d8 7a bc 92 cf 02 3c 59 c7 20 3c
       -0.0068387734 -0.015310413 0.007984059 0.009813153
0003f0 c7 64 6c bc 4e 1a 94 bb b4 49 9e bc ae 60 08 3c
       -0.014428324 -0.0045197373 -0.019322254 0.0083238315

fce.bias_ih_l0_reverse f4 [128]
000000 55 02 ed bd 56 25 b6 bc b1 e0 85 3d ae a4 e4 bd
       -0.115727104 -0.0222346 0.06536997 -0.11164223
000010 f3 2d 33 bd 85 f4 66 be 14 02 42 3d f5 71 b1 3d
       -0.043744992 -0.22554214 0.047365263 0.08664314
000020 a2 a7 ff bd 1c 44 f5 bd 9a e0 23 bd 1c bd 8b bd
       -0.12483145 -0.119758815 -0.04000912 -0.06823179
000030 fa 7d 74 be c6 37 c2 bc 8f 9e 37 be a8 e0 31 be
       -0.23876181 -0.023708235 -0.17931579 -0.17370856
000040 b3 3b 9d be a9 04 1c 3d 3f d0 fc bc 0b 29 10 bd
       -0.3070961 0.03809038 -0.030861018 -0.03519539
000050 66 04 da bd 3e 2f 85 3c 11 01 cb 3c d4 2b ea bb
       -0.1064537 0.016257878 0.024780782 -0.007146338
000060 5c ab 45 be fd 2d 79 be 97 c1 08 3d 2c 81 83 3c
       -0.1930365 -0.2433395 0.033387747 0.016052805
000070 cb 10 17 be 99 b2 f9 bc 6d 75 7d bc a3 92 47 be
       -0.147525 -0.03048067 -0.015469891 -0.19489531
000080 b5 3b 8a be 6c 06 db bd 9b cf 4d be fa 64 b9 3c
       -0.26998678 -0.10694584 -0.20098726 0.022631157
000090 a4 84 86 be 99 78 de bd 1b ee 24 bd d6 62 f5 bd
       -0.26273072 -0.10862846 -0.040266138 -0.11981742
0000a0 9c bc 86 be 81 70 d9 bc 98 e0 5b be df bb a3 bd
       -0.26315773 -0.026542904 -0.21472394 -0.07994818
0000b0 ab b0 ca bd 71 3c f6 bb 50 f4 8b bd ed 8f 00 be
       -0.09896978 -0.0075145294 -0.06833708 -0.12554903
0000c0 18 83 d0 bd e6 62 bc bb 92 b7 8c be 5f 6c 2a be
       -0.10181254 -0.0057490943 -0.27483803 -0.16642903
0000d0 b9 1c 0b be eb b8 df bd 6c d2 26 3c 31 90 0b be
       -0.13585176 -0.10923942 0.010182004 -0.13629223
0000e0 68 c4 6e be e1 7a 7c bd 31 3a 41 be 27 31 02 be
       -0.2331711 -0.061640624 -0.18869855 -0.12714063
0000f0 87 f9 f2 bd 7f a0 3b be 35 6b 90 be 7c 16 78 be
       -0.11864 -0.18322943 -0.28206792 -0.24227327
000100 57 a5 d4 3d 9e 67 ad 3c 9b f0 1d 3e 0d 11 34 be
       0.103830986 0.021167573 0.15423815 -0.1758463
000110 51 eb e6 bc be 35 e8 bd c5 eb ba 3d fd 29 05 be
       -0.02818838 -0.113383755 0.09127001 -0.13004299
000120 6d a6 24 be a0 57 b1 3d 02 0b d6 bd 93 52 ad bd
       -0.16079111 0.08659291 -0.10451318 -0.084630154
000130 81 cd a6 3d 6e c9 ca 3d 80 86 e1 3c 45 33 8c bd
       0.081446655 0.09901701 0.027529955 -0.068457164
000140 e5 8f 0c 3e cf 64 ca bd 20 23 0b be 68 23 cb bc
       0.13726766 -0.09882509 -0.13587618 -0.024797156
000150 70 fc 8d bd 7c 35 79 bd 01 ab 1e 3e 17 e2 0f bd
       -0.06932914 -0.060842022 0.1549492 -0.035127725
000160 17 b1 ec 3d ad e2 1b 3e 04 15 53 bb 86 b1 8c bc
       0.11557215 0.15223189 -0.0032208571 -0.017174494
000170 d6 d4 c6 3c 7c c5 82 3d 98 6c ab bd 46 bb f2 bd
       0.02427141 0.063853234 -0.08370322 -0.11852126
000180 79 2f 91 3d d9 bd 93 bd c2 54 e8 bd 14 c8 a4 be
       0.07089133 -0.07213945 -0.11344291 -0.32183897
000190 5b 13 88 be eb c4 4a be ad 32 a6 be d2 d0 79 3e
       -0.26577267 -0.1980168 -0.32460538 0.24396065
0001a0 2a 23 84 be 2f 20 af bd 6c b1 16 be 7c cd f1 bd
       -0.25808078 -0.085510604 -0.14716119 -0.11806771
0001b0 ed a7 56 3c fd 8c 79 be 59 e7 2d bc 83 b2 94 bd
       0.01310156 -0.24370189 -0.01061424 -0.07260611
0001c0 ab 4a 01 3d 97 0f 55 bd bb 59 82 bd f8 cf 2e bd
       0.03156535 -0.05201682 -0.06364771 -0.042678803
0001d0 0a fd 2c 3d ce 3d 75 be 40 a7 3f bd 91 af 8e bd
       0.042233504 -0.23949358 -0.04679036 -0.069670804
0001e0 fc f2 00 be 38 2d 14 bd ef 56 f2 3c 87 ad 47 bd
       -0.12592691 -0.036175936 0.029582469 -0.048749473
0001f0 70 bc 9c be 15 2c 3c be af 29 ed bd 9c 67 df bd
       -0.30612516 -0.18376191 -0.11580216 -0.10908434

fce.bias_hh_l0_reverse f4 [128]
000000 1e f1 13 be 2d b4 a2 bd 06 38 88 be 31 d4 84 3d
       -0.14447448 -0.07944522 -0.26605242 0.06485785
000010 0f bb b2 3b 5a 38 f6 bd f8 9a 80 be 50 81 81 bd
       0.005454428 -0.12022467 -0.25118232 -0.063234925
000020 80 eb 8d be 4f 2d 09 be a3 8c cf 3c 06 6b b1 bd
       -0.27718735 -0.1339619 0.025335616 -0.08662991
000030 cf b3 9d 3d 31 79 93 bd 15 8b 69 bd 0b 29 30 be
       0.077003114 -0.0720085 -0.057017405 -0.17203157
000040 6c 5c 23 be 06 f8 cf bc 85 7c eb 3c a9 6f 20 be
       -0.15953225 -0.025386821 0.028745899 -0.15667595
000050 82 c5 43 be 03 f6 93 be 51 1f ff 3c 4e be 81 3c
       -0.19118312 -0.2889863 0.031142863 0.015837815
000060 0f ca 6d be 5e 61 9c 3d b2 4d ff bd e4 16 65 be
       -0.2322161 0.07635759 -0.12465991 -0.22372013
000070 a4 ae 2c be a3 33 8b bd bd bf a7 bd d6 a1 14 be
       -0.16863495 -0.06796958 -0.08190868 -0.1451486
000080 ce ec fa 3c 4f 78 86 be 73 e6 81 be 47 3d 85 be
       0.030630495 -0.26263663 -0.2537113 -0.26023313
000090 23 1b fb bc dd 22 21 be 36 a3 70 be bc e1 c2 be
       -0.030652588 -0.15735956 -0.2349976 -0.38062847
0000a0 f4 cb 8a bc f6 f5 2b be 11 10 8c be b9 12 0f 3c
       -0.016942956 -0.16793045 -0.27356008 0.008732491
0000b0 fd ed 8e be c1 f0 13 be 75 36 a5 bd 93 b4 97 bd
       -0.27915946 -0.14447309 -0.080670275 -0.07407489
0000c0 0f 06 f5 bd 5c 1e 01 be e7 56 a4 3c 13 ca 5a 3d
       -0.11964046 -0.12609237 0.02006097 0.05341537
0000d0 72 83 88 be 04 e0 34 bd 46 d3 86 be 9a 47 14 be
       -0.26662785 -0.04415895 -0.26333064 -0.14480439
0000e0 15 81 a9 bd 01 07 4d 3d 8b ca 0f be aa 01 70 be
       -0.082765736 0.050055508 -0.14042108 -0.23438135
0000f0 d6 2f 35 bd a4 75 20 be ba d6 eb bd 26 0b 84 bd
       -0.044235073 -0.15669876 -0.11515565 -0.06447439
000100 c1 bc 90 bd 13 27 10 3a af 41 2d be 1b 23 eb bd
       -0.07067252 0.00054989866 -0.16919588 -0.11481305
000110 ce 66 7e 3d c8 53 c9 3d a6 d1 60 bd b2 83 18 be
       0.06210976 0.09830433 -0.054887436 -0.14893988
000120 29 20 9b bd e6 e5 2c be 55 7b 06 3e 38 95 b8 3c
       -0.075744934 -0.16884574 0.13132985 0.02253209
000130 59 c3 5f bd cd f8 cf 3d b9 ff ad bd 87 70 2b be
       -0.054629657 0.10154877 -0.08496041 -0.16742145
000140 e4 26 63 bd cf 1c 2f be c1 e1 98 3d 40 e3 b8 3d
       -0.05545701 -0.17100833 0.07464934 0.090277195
000150 ec fe 8c 3c d0 c5 7f 3d 74 7d e3 3c 05 d5 10 be
       0.0172114 0.062444508 0.027769782 -0.1414376
000160 1a 83 e8 bd 98 b6 d1 bb 13 56 0f bd 6d 50 15 be
       -0.11353131 -0.0063999407 -0.034994196 -0.14581461
000170 b2 fb d2 bd 2d 88 ae 3d a4 7e 20 be ce 51 0c 3e
       -0.10301913 0.08522067 -0.1567331 0.13703081
000180 44 4e 03 be 38 90 33 be 79 2d 87 3c b2 a4 76 be
       -0.12822825 -0.17535484 0.016501175 -0.24086264
000190 e3 c4 85 bd ca 73 bc bd 87 3f e7 bb 7a 02 05 3d
       -0.06531694 -0.092017725 -0.0070571336 0.032473065
0001a0 a6 50 51 be 7f 7e 4d be 2a f1 25 be dd 08 33 be
       -0.20440921 -0.20067786 -0.16205278 -0.1748385
0001b0 b9 2e 9d bc 3d 84 a0 be 83 97 54 be 5c 05 4a be
       -0.019187318 -0.3135089 -0.20760922 -0.19728607
0001c0 7e 39 9b be 1f 08 21 be 25 cf fb bc 93 69 28 bd
       -0.303173 -0.15725754 -0.030738423 -0.04111631
0001d0 5e c3 14 be 5d 94 16 bc a9 bc 14 be d2 1c 6e be
       -0.14527652 -0.009190646 -0.14525093 -0.23253182
0001e0 fc 17 50 3d c5 0e c5 bd 43 44 50 3c 39 73 7e be
       0.050804123 -0.09621958 0.012711587 -0.24848641
0001f0 b3 5a c3 bd a5 4a 8b be fa b8 15 bd 64 8e 26 be
       -0.09538784 -0.27205387 -0.03655336 -0.16265255
