checkpoints/MatchingNet/fce_net_on_Omniglot_100.pth (torch, 101839 bytes, 8 tensors)

fce.weight_ih_l0 f4 [128, 64]
00000000: 42a9 bcbd 5d01 a5bd 3500 55bd 3058 7dbb
00000010: 802d 153e 844d 4a3d 5a62 873d 146c 97bd
00000020: c5c3 953c 1306 87bd 8894 babb 15a9 be3d
00000030: 0c2d 12be ef03 253e a638 febd c40b 553d
00000040: 25b1 043e 18c0 97bb 712b 1abe 3b01 2ebe
00000050: dca3 163e 12f9 dcbb f37e e3bd ed2c 29be
00000060: 723e ca3d dffb e4bd 9712 fb3c 9e2a 003d
00000070: c146 f03d 7085 1dbd 1895 9fbd 26c3 c2bd
00000080: 9dcc b0bd 1b1c ab3d 069b f8bd d747 fe3d
00000090: 69da e73d 6e16 17bd 3f2a 233e 76a6 073e
000000a0: b028 513c 09d0 fabd d4e6 17be cccc 25be
000000b0: 2f35 28be c50c 2dbc 087b 8e3d af3c a3bd
000000c0: 347a f7bd be57 0b3e 1d1d 803d 8798 823d
000000d0: 4f7f b8bd 9f80 f53d cdb8 78bd 12f0 cf3d
000000e0: 5282 173e 05a2 8ebc 3d37 153e de94 313c
000000f0: 5a78 253e f79b 1c3e 7b17 06be f06c 98bd
00000100: de40 f4bd 0378 82bc 6498 6abd b58a 1f3d
00000110: 3d81 9b3d 31b6 0f3e 96e6 a8bd 6217 86bb
00000120: 0b35 b7bd 7d27 20be 74c2 ad3d 57d3 efbc
00000130: a702 163e 81d8 9a3d 9573 6dbc 2b7e 103b
00000140: 0315 c03d e97b e9bd b7f7 963c 6879 88bd
00000150: 5e40 a2bd d6cc 183d 64ec 1b3e 3f76 0e3e
00000160: 1ae6 193e ed47 a63d 231a c23d d5c7 b1bd
00000170: 52c7 73bd 414b e13c 903a 243e 894c 023e
00000180: 0ff8 133e 01b8 97bc d6cd a6bd f809 d8bd
00000190: 76d5 eb3d 3703 1ebe ca42 153d 5b16 183e
000001a0: 890d 80bd b40f 07be b5b6 2bbb 741d fbbd
000001b0: 3f3b c33d 5eaf 333e 9757 db3d 316a 0f3e
000001c0: 6ffb d6bd 573c 95bd 6958 463d f65d 0e3e
000001d0: 5e14 9d3d 8f81 1bbe a53d 09be 6a1d 03be
000001e0: 33dd 2bbe f032 0b3e 2805 fb3a 501f 8d3d
000001f0: 23aa 953c ee8e 163d 0fd3 2fbc 658e d23d
00000200: 6648 02be 69d8 d03d 47f4 58bd c2ef 8e3d
00000210: c8d3 133d ec52 583c 746b 68bd f67e 183e
00000220: 1332 fe3d a858 aabd cb1c 673d 45fc 053e
00000230: de47 2b3e 25ce 0cbe 5f43 d9bd ab66 06bc
00000240: 5857 d83c a5e2 253d 40a9 00be 0e0b 0ebd
00000250: 478f 20be a7ab e9bd 2060 013e f460 013e
00000260: 9c4b b43d 3f14 45bc eef6 28be 2b96 24be
00000270: ef11 143e 42ea a93d e2e5 05bc 366b 4fbd
00000280: ce18 e53c fa65 2d3d cd63 48bd 5aa2 863d
00000290: 67a8 c6bd 3b58 c0bd da58 5bbd 9ba7 073e
000002a0: 3469 ddbd 356c ea3d b8c0 1abd d934 04bd
000002b0: 537e 683d 5e27 df3d ba92 26be c04c 17be
000002c0: 9c01 85bd e90a 14be 0c05 ecbd 76e2 223d
000002d0: 9e18 133e 647b 283b c13d 0e3e e328 1a3e
000002e0: 9179 203e 033e 0e3e b16a eabc aad9 cd3d
000002f0: f268 113e 1f6a 0e3e 114c 773c 66bd 5a3d
00000300: 87fc b0bd 7c90 95bd b733 ec3d e953 c43d
00000310: 8c1a d9bc 608a efbc 2b7b 0abe cab3 babd
00000320: 2e15 c6bd f75e 1b3e 8e8c 94bc ab16 423d
00000330: c179 0a3e 3728 0ebe 4b3a a8bd 40d0 90bd
00000340: 4526 13be 7c14 46bc b03e 2e3e 5d5e 093c
00000350: 4eeb ae3b 1473 1c3d 1e1a 8bbc 135f 043d
00000360: 4197 13bd e20a fabd 2094 553d 393a fdbc
00000370: c671 253e 3583 90bc ed0b ac3d ee97 fe3c
00000380: bfd1 343e 15dd 173e 824b c5bd c628 da3d
00000390: 51e3 20be 842f 85bd 67f7 863d bbdf 1ebe
000003a0: aa79 1e3e 1342 6fbd e8e8 2f3e f106 5abc
000003b0: f42f 2dbe b0b5 cb3d ac23 6a3c 38d0 c83d
000003c0: 423c 9ebd 4a52 ecbc c039 f83d f3ac e83d
000003d0: ae43 60bd 3da6 163e d01d 993d f312 f8bd
000003e0: aaee 22be 0906 193e 12bd 03be f03e 453c
000003f0: 6d53 7b3d 2a35 eebd e3f0 4dbd 7832 8b3b
-0.09211971 -0.08056901 -0.05200215 -0.00386573 0.14568138 0.04939033 0.06610556 -0.07393661
0.018281827 -0.065929554 -0.005693976 0.093095936 -0.14274997 0.16114782 -0.124131486 0.052013174
0.129582 -0.0046310537 -0.15055634 -0.16992657 0.14710945 -0.0067435587 -0.11108198 -0.16521044
0.09875192 -0.11180853 0.030648513 0.031290643 0.11732245 -0.038457334 -0.07792109 -0.09509878
-0.08632777 0.0835497 -0.121389434 0.12416046 0.11320955 -0.036886625 0.15934084 0.13247094
0.012766048 -0.12246711 -0.14834148 -0.16191405 -0.16426538 -0.0105621265 0.0695706 -0.07970559
-0.12083855 0.1360769 0.06255553 0.063767485 -0.09008657 0.11987423 -0.060723115 0.10153212
0.14795807 -0.017411241 0.14571853 0.010838715 0.16159192 0.15293871 -0.13094895 -0.07442653
-0.11926435 -0.015926367 -0.057274237 0.03895064 0.075930096 0.14034344 -0.08247106 -0.004092143
-0.08945664 -0.15640064 0.084843546 -0.02927558 0.1464945 0.07560826 -0.014492889 0.0022047858
0.09379008 -0.11400587 0.018428667 -0.066637814 -0.07922433 0.03730472 0.15226895 0.13912295
0.15029183 0.081191875 0.094776414 -0.08680693 -0.05951626 0.027501704 0.16037965 0.12724508
0.14450096 -0.018520357 -0.08144729 -0.105487764 0.11515324 -0.15430914 0.03644065 0.14852278
-0.062525816 -0.13189584 -0.0026201431 -0.12261477 0.09532785 0.17547366 0.10710066 0.14005353
-0.10497176 -0.072868995 0.04842416 0.13903031 0.076699 -0.15186141 -0.13402422 -0.1280419
-0.167836 0.1359365 0.0019151317 0.06890738 0.018269604 0.036757402 -0.010731473 0.10281066
-0.1272293 0.10197527 -0.052967336 0.06979324 0.036090642 0.013203364 -0.0567431 0.14892182
0.12411895 -0.08317691 0.056423943 0.13084514 0.16726634 -0.13750513 -0.10608553 -0.008203189
0.026408836 0.04049935 -0.12564564 -0.03467851 -0.15679656 -0.11409693 0.12634325 0.12634641
0.08803484 -0.012028753 -0.16500446 -0.1607291 0.14459966 0.08296634 -0.008172484 -0.050639354
0.02796593 0.04233358 -0.048923302 0.06573935 -0.09700089 -0.093918286 -0.053551532 0.1324753
-0.108110815 0.1144642 -0.037781447 -0.032276962 0.056761097 0.108961806 -0.16266909 -0.14775372
-0.064944476 -0.14457287 -0.115244 0.03976675 0.1436486 0.0025708312 0.13890745 0.1505466
0.15671374 0.13890843 -0.028615328 0.10051282 0.1420019 0.1390767 0.015093819 0.05340328
-0.08641916 -0.07302949 0.11533301 0.09586317 -0.026501916 -0.029240787 -0.13523547 -0.09116323
-0.096720085 0.15172945 -0.018133428 0.0473849 0.13523008 -0.13882528 -0.082142435 -0.070709705
-0.14370067 -0.012089845 0.17016101 0.008384314 0.005338109 0.038195685 -0.016980227 0.032317232
-0.03603292 -0.12209107 0.052143216 -0.030911552 0.16156682 -0.01764069 0.08400712 0.031078305
0.17658137 0.1483043 -0.096335426 0.10652308 -0.15711714 -0.065032035 0.06590157 -0.15515034
0.15476099 -0.058412623 0.1717869 -0.013307319 -0.16912824 0.099467635 0.014290731 0.098053396
-0.07726337 -0.028847832 0.1212039 0.113611124 -0.054752044 0.14711852 0.074763894 -0.12112989
-0.15911356 0.14943708 -0.12865093 0.012038931 0.061358858 -0.11631234 -0.050278556 0.0042479597

fce.weight_hh_l0 f4 [128, 32]
00000000: 301b 96bd 0f41 203e a6f1 9dbc e7de afbc
00000010: 3e48 16be 80b1 36bd 942d 05be b4f7 113e
00000020: 6baa 00be c9f5 8fbd d1a9 9e3d c1ec 34bd
00000030: 5d39 213e 1776 1d3e e9ab 53bd 663f ac3d
00000040: 4762 fcbd bf92 1c3d e77f e93d 58ba db3d
00000050: 9161 4dbd 18c9 1c3e 1248 0d3d 524a e23d
00000060: 1526 313e 890a 753c 3260 cbbd e821 1cbe
00000070: f165 1c3e 9c74 41bd eba9 2abd 4cb3 0f3d
00000080: cffe 273e 1117 e6bd 9218 463d e3b3 243e
00000090: d2eb 283a cfd8 2e3d 0ac5 0b3d 4ff1 ffbd
000000a0: 4609 36bd 2529 df3d db09 bdbd aa3b 2c3e
000000b0: 9777 e13d 3fbe 8d3c 51e9 23be 90c2 d13d
000000c0: de0a 5cbc a721 33be 11f1 2d3e 2dd9 d13d
000000d0: 4999 adbd f76f cc3d 410d 53bd 7dfc 2c3e
000000e0: 9e05 b83d 9eef 833c a92c 3dbd faca 06be
000000f0: ecfc d7bb e021 333e 5580 86bd 03a0 b8bd
00000100: 3713 bfbc 0e2b fdbd a45f 8cbd 32cb aa3d
00000110: ef24 c23d 9b54 babd f036 cbbd 07e7 5abd
00000120: a111 d5bd 10ee 223e 033e b8bd b9be fabd
00000130: 1818 85bd ff63 19be 4b4a 32be 254b d4bd
00000140: 02c3 243c 93f5 f4bd 2cc7 723d 65fe 173e
00000150: a081 013e a301 e7bc e8b2 f73c ffab 993d
00000160: b22e 04be 6d84 1abe c867 2e3e de64 f93d
00000170: 34a9 dcbd c17e 303e e3cd 2bbe 45f6 b1bd
00000180: 6672 acbc 4967 a13d b3b8 3f3d 14d1 bebd
00000190: aa38 2bbd 1916 e1bd 4296 983d 0bd0 a4bd
000001a0: 2218 aabd 6b52 053e 28c6 4cbd 6fce dabd
000001b0: 4bab ba3d 38f6 a6bc 7f2e e0bd 7f05 47bd
000001c0: ca8c e63a e54b 4cbd 7031 c0bd ad89 073e
000001d0: 9bf2 c33d 8e12 363d c9ff 89bd c2ec eabc
000001e0: fe08 c0bd 9ef2 7a3d 5fb5 323e a76b a5bc
000001f0: 0ffc 98bd 5b8b f23c 309b 8f3a 58fa 143e
00000200: a005 a2bd 2aae 1d3c 3263 123e a470 113d
00000210: 178a 08be 5d7e 4cbd 6a97 cfbd 1989 123d
00000220: 502a a5bd 60f8 233e 74b0 a7bc 128d 023e
00000230: 1177 a33d 639c 323e 28cf 263e cb5f 043e
00000240: 981b 26be 50f4 8e3a e060 e53d fae1 0fbe
00000250: bb69 05be 895c c73d 66f3 c4bd 2a02 68bd
00000260: 8477 a1bc 87f4 a0b8 2ac2 a93d 0b47 7cbd
00000270: d9d9 a1bd 9342 cbbd 492c 13be d079 b23d
00000280: 0f3f 113e 53bc 2c3e 623d 123e 62db 133e
00000290: 8c44 673c f75c bd3d b153 c2bd c01a d4bd
000002a0: 6228 bf3c 1ef3 21be 1129 ddbd b546 2c3e
000002b0: ae67 a63d 906c 31bc e258 b13d 0090 e03d
000002c0: 9cc7 be3d 5149 213e 2150 49bd 44ac ab3d
000002d0: 2a89 133e 15b5 183d f066 d5bc 750f f63d
000002e0: 65ab 83bd 3439 30be 3875 103d 235c 7abd
000002f0: ef93 21bd c080 10be 0936 2c3e 2fde 83bd
00000300: 83ab 323d bbae d13c d071 0e3e c17b eabd
00000310: 9fa8 9c3c 4ef7 073e 55f7 113e 4b95 12bd
00000320: 9ce1 0abe 0291 853d d431 63bc f3b3 97bd
00000330: 9cf1 283e 287f 34be 3897 923d be83 c2bd
00000340: 7714 da3d 9f90 f53b adef dfbd f1a6 21be
00000350: 40c4 273b 99a0 253d 852e 8cbd a69e fabd
00000360: 0487 2abe b5b6 c8bc a63e 2e3e b14e c3bd
00000370: be24 12be dc92 30be 9ed0 46bd 7d73 29be
00000380: 0cf0 cb3d ee37 393d 2761 69bd fab6 bfbd
00000390: 8c43 e23d 6513 2dbe b9a9 f13d 5b3e 2fbe
000003a0: dc5f 45bd 95c4 033e a2d7 2abe 548e b7bd
000003b0: 9453 e4bd ef0a 533d 1acd babd fa35 9bbd
000003c0: 41aa 113e 3bd9 b63d 6233 fb3c 05db 1d3d
000003d0: dcc1 7c3d c454 a8bc de7b 6d3d e23b 253e
000003e0: 6811 223e 3dcb ccbc e10b 253e fd4c cc3d
000003f0: f1c9 ec3d 0021 fd3d 2e98 babd e557 99bd
-0.07329404 0.15649818 -0.019280266 -0.021468593 -0.14675996 -0.04460287 -0.13005668 0.14254647
-0.1256501 -0.07029302 0.07747234 -0.0441711 0.15744539 0.15377079 -0.05167762 0.0841053
-0.123234324 0.038225885 0.114013486 0.107289016 -0.050141875 0.15311086 0.03449256 0.11049332
0.17299683 0.014956125 -0.09930457 -0.15247309 0.15273263 -0.047230348 -0.041665953 0.0350831
0.16405796 -0.11234868 0.048363276 0.16084246 0.00064438314 0.042687234 0.034123458 -0.12497198
-0.044442438 0.108965196 -0.092303954 0.16819635 0.11009138 0.01730263 -0.16006972 0.10242188
-0.013430325 -0.17493306 0.16986491 0.10246501 -0.084765024 0.09982293 -0.05152631 0.16893192
0.089854464 0.01610547 -0.04618517 -0.13163367 -0.00659143 0.17493391 -0.06567446 -0.09014895
-0.023324592 -0.12361728 -0.068541795 0.08339538 0.09479701 -0.090981685 -0.09922588 -0.05344298
-0.10403753 0.15911126 -0.08996203 -0.12243409 -0.06498736 -0.14979552 -0.17411153 -0.10365895
0.010056259 -0.11960902 0.059271976 0.14843138 0.12647104 -0.028199023 0.030236676 0.07503509
-0.12908438 -0.15089579 0.17031777 0.12177442 -0.107744604 0.17235853 -0.16777758 -0.0868955
-0.021050643 0.07881028 0.046807002 -0.09317222 -0.041802086 -0.10990543 0.074505344 -0.080474935
-0.08305384 0.13019721 -0.049993664 -0.10683905 0.09114703 -0.020381078 -0.109463684 -0.048589226
0.0017589566 -0.049877066 -0.093844295 0.13236113 0.09567758 0.04445129 -0.0673824 -0.028677348
-0.09376715 0.061266534 0.17452 -0.020192934 -0.07469951 0.029607465 0.0010956284 0.14548624
-0.07911229 0.0096240435 0.14295653 0.035507813 -0.13333927 -0.049925197 -0.10136302 0.035775278
-0.08064711 0.16012716 -0.020469882 0.12749127 0.079816945 0.1744247 0.16289961 0.12927167
-0.16221464 0.0010906551 0.11200118 -0.14051047 -0.13028614 0.097344466 -0.09616737 -0.05664269
-0.01971031 -7.674941e-05 0.08288987 -0.06159119 -0.07902879 -0.099248074 -0.14372362 0.0871464
0.14184211 0.16868715 0.14281228 0.14439157 0.014115464 0.09246247 -0.09488619 -0.10356665
0.023334686 -0.15815398 -0.107988484 0.16823848 0.08125244 -0.010829106 0.08659531 0.10964966
0.09315416 0.15750624 -0.049148683 0.083824664 0.14407793 0.03728207 -0.026050061 0.12014667
-0.06429175 -0.17209321 0.03526804 -0.061123025 -0.03944772 -0.14111614 0.16817488 -0.064388625
0.043620598 0.025596013 0.13910604 -0.114493854 0.019123374 0.13277933 0.14254506 -0.035786908
-0.13562626 0.06521799 -0.01386686 -0.074073695 0.16498417 -0.17626631 0.07157749 -0.09497784
0.106484346 0.007494047 -0.109343864 -0.1578634 0.0025599152 0.04043636 -0.068448104 -0.12237291
-0.16653067 -0.024501184 0.17016086 -0.095364936 -0.14271829 -0.17243522 -0.048538797 -0.16547962
0.09957895 0.045219354 -0.056977417 -0.09361072 0.1104804 -0.1690193 0.1179995 -0.1711363
-0.04818712 0.12867959 -0.1668382 -0.08962694 -0.11148754 0.0515241 -0.09121151 -0.075786546
0.14225103 0.08928152 0.03066415 0.03853895 0.061708316 -0.020548232 0.057979457 0.16136125
0.15826952 -0.024999255 0.16117813 0.09975622 0.11561955 0.1235981 -0.09111057 -0.07487468

fce.bias_ih_l0 f4 [128]
00000000: c052 23be 8cf7 ed3c ed6c bebd 262d b8bd
00000010: 7445 aa3d a11b 053d 8845 b23d 8437 1a3d
00000020: ac8b 7d3d 8db0 8c3d 7a2e 3c3b 0da3 f53c
00000030: 5bf3 e53d a5ce 95bd 7192 5a3d 823f f0bd
00000040: c144 a0bd 83bc 56bd e26b a1bd 45d7 123e
00000050: 769d 68bd 9cef dfbd 390d 1ebd a2fa ff3c
00000060: 5192 13be 69e0 0a3e da98 16be ad04 323c
00000070: 9032 563d 0a61 4cbc 73a6 003d a0bd 6e3d
00000080: 2ea3 edbc 31eb d6bd cd48 91bc 59cf 44bd
00000090: a373 2c3e 08fa d63d a862 1dbd 36b7 063d
000000a0: 5119 34be 9700 54bd bd30 6d3d 44ed fb3d
000000b0: 0fca 63bd 84a1 263e bea6 28be 2815 893d
000000c0: 513a 843d 870d 1bbe ad39 86bc 43a1 533d
000000d0: 5c83 debd 601d fbbd 9842 043e 978a 123e
000000e0: b2b8 1dbe 0fc1 08be 471c 07be 650e 7f3d
000000f0: 6410 88bd 71ac 043e b75d 2d3e 645e 2dbe
00000100: 8236 603c 8b62 21be 34c8 1ebe e4bc 5abd
00000110: 7ddc 033e d66c ee3c 26ee be3d b790 cebc
00000120: c23f 833d 334b febd c3ad a4bd 49a0 2abc
00000130: 5b01 d93c f542 933d 4d4d 273d 2a63 c7bc
00000140: 398f 0ebe 743b e5bc 4eda 983d 57ec 153a
00000150: 6451 cdbd c7e6 13be 5db5 cc3d 173f e5bd
00000160: 5bf8 ba3d ac25 123e be4b c53d 6c09 163e
00000170: 44ee 343e 3b03 2f3e 89d8 1f3e 3696 9f3d
00000180: 060e 333e 7169 1e3e 1f5d 86bd 7c29 07be
00000190: 6f22 733d 4f49 0dbd f94b 9bbc 88f3 743d
000001a0: 14cc b93d 2c50 73bd 2077 783d 3436 cabd
000001b0: 1639 853c 6bc9 bd3d ee1b 98bd 7a66 05be
000001c0: 87ac 243e 1078 163e f761 a7ba 2d27 96bd
000001d0: d1b1 fa3d ff13 2a3e 3cd8 1dbd 545e 94bd
000001e0: 4723 063e ef39 213d 9ebf 27be 3bc9 1c3e
000001f0: 8d76 a0bd 275b ccbd e284 2a3b 347f 1abe
-0.15949535 0.029048704 -0.0929812 -0.089929864 0.083140284 0.032497052 0.08704668 0.0376506
0.06190078 0.06869612 0.0028714226 0.029984975 0.11228057 -0.07314805 0.053362314 -0.11730863
-0.07825614 -0.052425873 -0.07881905 0.14339931 -0.05679079 -0.10934374 -0.03858683 0.03124744
-0.14411284 0.13562168 -0.14706746 0.010865373 0.052294314 -0.012474308 0.03140874 0.05828631
-0.029008474 -0.10494078 -0.01773491 -0.048049305 0.16840987 0.104969084 -0.038424164 0.032889567
-0.17587782 -0.051758375 0.05790781 0.12301114 -0.05561262 0.16272551 -0.16469857 0.06693488
0.064564355 -0.15141879 -0.016384924 0.051667463 -0.108648986 -0.12261462 0.12916028 0.1431068
-0.15402487 -0.13354896 -0.1319438 0.062269587 -0.06643751 0.12956406 0.1693028 -0.16930538
0.013684871 -0.15760247 -0.15506059 -0.053402796 0.12877078 0.029104631 0.09322767 -0.02521549
0.06408645 -0.12416687 -0.08040955 -0.0104141915 0.026489904 0.071905054 0.040845204 -0.024339277
-0.13921823 -0.027982451 0.07463513 0.00057191163 -0.1002529 -0.14443503 0.0999553 -0.11193674
0.09129401 0.14272183 0.09633587 0.14652032 0.17669016 0.17091076 0.15609945 0.07792322
0.17485818 0.1546991 -0.0656073 -0.13199419 0.05935901 -0.03449374 -0.018957125 0.059802562
0.09072128 -0.05940263 0.06066048 -0.0987362 0.016262572 0.09266933 -0.07427202 -0.13027373
0.16081439 0.14694238 -0.0012770285 -0.07331691 0.12240947 0.1660919 -0.038536295 -0.07244554
0.13099395 0.03936189 -0.1638169 0.15311138 -0.07835112 -0.099783234 0.0026019146 -0.15087587

fce.bias_hh_l0 f4 [128]
00000000: 0fda 1dbe 57fe c53d 1c77 be3d ddca 263d
00000010: 63f8 b6bc 8858 a63c c9c4 8b3d cef4 f63d
00000020: d645 c03d 6525 e23c e5a0 8a3d 86a6 f43c
00000030: 39c2 e3bd 3b05 f1bd 6797 b8bd 7105 15be
00000040: 7e66 1fbe b4d7 d43d d6f5 27bc 0ef1 07bc
00000050: 56a9 0cbe 64d7 27be 6ed9 d8bd b81b 72bd
00000060: 7736 cfbd 9cad d8bc 338e e03d 2c81 693d
00000070: fe79 063e 4143 003d 16f9 a5bd b033 d6bd
00000080: d534 083e 7353 2f3d 1f74 2c3c 03fc 603d
00000090: 7a15 983c 3d29 0b3e 7a01 2ebe 7602 7fbd
000000a0: 58e9 31bd e903 b73d 04b7 cd3d 0c45 433d
000000b0: 67b4 283e c2d9 023e 7427 183e 9752 f6bd
000000c0: 7755 083c 1ecf 5f3d f1e5 cabc c192 ff3d
000000d0: 957b 103d ff66 803d 1d89 80bd caef 1d3e
000000e0: 2020 cf3c 4691 833d 45e6 03bd dd9f 7abd
000000f0: e931 8cbd cfd3 c4bc 6c90 98bc bc8b 5cbd
00000100: fd05 f8bd 9550 f53c 8fbc acbd cc7d ddbd
00000110: 6388 34bd 728a 90bd 1f81 ffbd dfca f03c
00000120: 66c6 123e d4bf c33d dc39 ecbd f173 213e
00000130: f283 d43d 6d72 f9bd c9e8 fc3d d0c4 10be
00000140: 27df 6d3d 3af5 323e 3496 b5bd 4bb4 c73d
00000150: 221e aa3d 38f5 18be 3062 c43d df1e 80bd
00000160: f6b9 47bd b3cd 04be 23d1 1b3e cfe4 33be
00000170: 2e6c b43d 3615 163e 12e6 193e 64f1 a63d
00000180: 7383 1ebe cfec 753d 0591 be3d 165a 943d
00000190: 5ba8 b33d ca97 ac3c 066d 10be 9dff 4f3d
000001a0: 61f8 59bd b1a0 99bd aead 873d 0926 ba3d
000001b0: fbb4 0ebd fc3a 0e3d 0a21 343d b24b 00b9
000001c0: 8ea5 2a3e 408f 133e 0c76 e23c 3c37 aabc
000001d0: 4a08 95bd fd11 913d 5f33 2d3d 2167 13be
000001e0: 0e81 903d b3e7 953c 1cde aabc 1353 01be
000001f0: ce52 cf3d ee15 1a3e f170 c33d 036f e63d
-0.15415214 0.09667652 0.09300062 0.04072081 -0.022335237 0.020305887 0.06824643 0.120584115
0.0938832 0.027605722 0.067689694 0.02986456 -0.111210294 -0.11768576 -0.09013253 -0.14552857
-0.15566441 0.103927046 -0.010251483 -0.008297218 -0.13736472 -0.16390759 -0.105883464 -0.059108466
-0.1011781 -0.02644997 0.10964622 0.057007954 0.13132474 0.03131414 -0.0810415 -0.10459077
0.13301404 0.042804193 0.010525732 0.054927837 0.018564928 0.1358995 -0.16992751 -0.062258206
-0.043435425 0.08936293 0.10044673 0.04767327 0.16475068 0.1277838 0.148588 -0.120274715
0.008321158 0.05464088 -0.024767848 0.12479163 0.035274107 0.06269645 -0.06276152 0.15423504
0.025283873 0.06424193 -0.032202024 -0.061187614 -0.06845457 -0.02402678 -0.018623553 -0.0538442
-0.12110517 0.029945651 -0.08434402 -0.108150095 -0.04407538 -0.07057656 -0.124758 0.029393611
0.14333495 0.09558073 -0.11534473 0.15766884 0.10376729 -0.12180028 0.12349088 -0.14137578
0.058074143 0.17476359 -0.088665396 0.09751185 0.08306529 -0.14937294 0.0958904 -0.06255888
-0.04876133 -0.12969093 0.15216498 -0.17567752 0.08809696 0.14656529 0.15029171 0.0815151
-0.15479831 0.06004029 0.09305004 0.07243745 0.08772346 0.021068472 -0.14104089 0.05078088
-0.05321539 -0.075013526 0.06624924 0.09089286 -0.034840565 0.03472422 0.04397682 -0.0001223523
0.16664717 0.14410114 0.02764418 -0.02077829 -0.07276972 0.07083509 0.04228532 -0.1439481
0.07055865 0.01829896 -0.020857863 -0.12629347 0.101232156 0.15047428 0.09543026 0.112516426

fce.weight_ih_l0_reverse f4 [128, 64]
00000000: 60b9 d83d b96f 8bbc 833f 063d bec3 033e
00000010: ceaa 1bbe 6dea 9cbc 1fe7 2bbd aa03 f93d
00000020: 9fac 1bbe d117 a13d e055 9d3d 9bbb 0f3e
00000030: 0f4e 693d c6c9 4d3d ffe9 25be c2ac 9b3c
00000040: bc93 863d d606 83bd 1e8f 153e a5b9 e23d
00000050: a7e5 07bd 4535 433d acc5 193d 13a7 5b3d
00000060: 29f2 4a3d 251f 0cbe 9b77 323e 414e 303e
00000070: 4443 bfbd 2835 30be 0b89 4fbd 89aa bdbd
00000080: 2bc1 b83d 68d0 663d 00c7 f73d 46eb e4bd
00000090: c2b0 193e fdb5 27be 5c17 08be efe8 12bd
000000a0: bd92 04be a1c0 a73c fad5 11be 0e2e 8cbd
000000b0: cead 3bbd 92f6 0cbe be4f e0bc 6e67 4bbd
000000c0: 09ec b83d 4c77 1fbe bd21 bebc 96f5 31bd
000000d0: 02cb d2bd dc99 46bd bfeb 1b3e d742 10bd
000000e0: d0f4 ffbd 0fab c53d 1c3a 223e 57e1 22be
000000f0: b940 4ebb e275 223e 4079 ef3d ae25 c73d
00000100: 76a7 2e3e ffa1 173e e3dc 863c e5b9 2e3d
00000110: 0302 f2bd 9e41 e13d be4e e33d 3d05 21be
00000120: af66 243d 9547 afbc 6737 8cbd 2b22 163d
00000130: 5d36 b8b9 bf51 d93c a9a3 fdbd f7f5 97bc
00000140: 5aef 22be c18a 223e 7f8f 073e 81e0 273e
00000150: 87f6 76bd baa2 0cbe e7a9 af3d 8354 953d
00000160: 5f2e 7abc c652 ecbc ffb4 70bd abdd 373d
00000170: 4e44 1b3e c13c 0dbe 6872 fdbd 4637 d73d
00000180: 8f53 d7bd 46a9 053d 69da b23d 3dff d33d
00000190: 4599 323e ae44 173d 0928 253d 2ed0 78bd
000001a0: 7796 0abe 6b05 4dbd 4e48 ef3b dd0e 97bd
000001b0: 393f febd 410a 243e 1746 533d 9735 203e
000001c0: 045c c3bd e77b 043e 100b 023e 0712 2cbe
000001d0: 7447 da3d e4fb 263e 8152 f139 42ca 1c3e
000001e0: 6b4d aabd c728 d53d c11f 28be 441a e53c
000001f0: d2d5 b53d 8e7e babd e7fa 993b 7d0a fa3c
00000200: dc52 333e 5f8a 103e 42ac 33bd d883 2bbe
00000210: 400d c73d b969 723d 87c0 2dbe 779f 2c3e
00000220: 2bbf 81bd 7320 0fbe 4574 f93c 7a48 293d
00000230: 9e3e bc3d 3669 8e3d 2bd3 be3d 4865 d9bc
00000240: ac8d 383d 1760 a03d 4514 c03d 19bd e93d
00000250: 4cf4 c73c c0cf 8abd 25f2 623d 54d4 f93d
00000260: 3b26 453d 736c 833d 327c 0c3e 5f27 1abe
00000270: 156b 873d 231a 2e3e 3ee7 f53c 8385 133b
00000280: 16d2 c0bd 6ec4 ec3d 467a 1bbe 3904 1a3e
00000290: 07a5 8e3c 9e82 033e e01c e0bd 78ba 16be
000002a0: 90c1 47bd 92cb 04be b21e 06bd cb9a 3d3d
000002b0: fd93 1e3e 0fc8 3bbd b9d7 33bb 2bea 90bd
000002c0: e072 1abe 25b4 1e3c 0d5d 8f3d 9834 d2bc
000002d0: b27d 623d 0e57 02be 5865 01be f6ad 2f3e
000002e0: 4078 21be 4d90 f7bd a61e 8dbd 057d 9dbc
000002f0: 69ce 18be 52bc 7b3d 0cb4 a8bd 33fb f83d
00000300: 3d78 18be 8038 7dbd d98d 13be 982d 943d
00000310: 7638 2c3c 0241 153e fedd 23bc ee68 113d
00000320: 77a4 a7bd c608 d4bd 24d9 843c 2b1b dd3d
00000330: 73a7 d7bd daed 18be e4ed aebd 04ee 00be
00000340: e1d3 f83d 24e2 5f3d 91df 1e3d d774 03be
00000350: d75e a03c 5ea9 f5bb d9ee 113e 1bb0 33be
00000360: 4efc 10be 5705 7ebd b33a 9e3c 0a7c 283e
00000370: 9a81 63bd cf97 02bd cbf5 fdbd aaf4 77bd
00000380: 6e62 ab3d ac18 8dbd 23dc f7bd dabc 9e3d
00000390: 6cd7 28be f5e4 6e3d fa23 14be 8d7a 093e
000003a0: cda2 cabd 0c9d c73d 7b57 193e 254c b5bd
000003b0: 16a0 4bbc ecd0 ed3d f381 963d 0802 a03d
000003c0: 168e 033e 9529 5cbd 674f 92bc c822 a6bd
000003d0: 453d 32bd 1e5d 263e 5f4c 67bd f707 b73d
000003e0: 4b10 443c 4718 aa3d 7f1e 2bbe a5dd d93d
000003f0: 2359 d7bc 4f79 cb3d 0ebf 063c 085f 02be
0.105822325 -0.017021047 0.032775413 0.12867638 -0.15201876 -0.019154752 -0.04196846 0.12158902
-0.15202568 0.07865871 0.07682395 0.1403641 0.056959208 0.050241254 -0.16202544 0.019003276
0.06571147 -0.06397788 0.14605376 0.11070565 -0.033177998 0.047658224 0.03754203 0.05362613
0.04954735 -0.13683756 0.17428438 0.17217351 -0.09339002 -0.17207778 -0.050667804 -0.092610426
0.09021219 0.056351095 0.12098503 -0.11177687 0.15008834 -0.16378017 -0.13290161 -0.035866674
-0.12946601 0.020477595 -0.14241782 -0.06844722 -0.04582005 -0.13765934 -0.027381774 -0.049659185
0.09029395 -0.15572852 -0.023209447 -0.0434471 -0.10292627 -0.048486575 0.15226649 -0.035219993
-0.12497866 0.096517675 0.1584248 -0.15906273 -0.0031471683 0.15865281 0.116930485 0.09723984
0.17056069 0.1480789 0.016462749 0.04265775 -0.1181679 0.109988436 0.11099003 -0.15724654
0.04013699 -0.021396438 -0.06846505 0.03665368 -0.0003513572 0.026528237 -0.12384731 -0.018549902
-0.15911618 0.15873243 0.13238333 0.16394235 -0.0602937 -0.1373395 0.08577328 0.0729151
-0.015269845 -0.028848063 -0.05876636 0.044889133 0.15162775 -0.13792707 -0.12375337 0.105085894
-0.105139844 0.032632135 0.08733065 0.10351417 0.1744128 0.036930732 0.040321384 -0.06074541
-0.1353396 -0.050053995 0.0073023206 -0.07375882 -0.124144025 0.16019537 0.051580515 0.15645443
-0.09539035 0.1293789 0.12699533 -0.16803752 0.1065816 0.16307026 0.00046028572 0.1531153
-0.083155476 0.10408168 -0.16418363 0.027966626 0.088786736 -0.0910617 0.0046990993 0.03052258
0.17512077 0.14115284 -0.04386545 -0.16749513 0.09719324 0.059182856 -0.16967975 0.16857706
-0.063352905 -0.13977222 0.03045095 0.041328885 0.09191631 0.06953661 0.09317621 -0.026537552
0.045056984 0.07830828 0.09378866 0.11413021 0.024408482 -0.067779064 0.05540671 0.121987015
0.048132163 0.064171694 0.13719252 -0.15054081 0.06612221 0.17002158 0.030017491 0.002251
-0.09415071 0.115609035 -0.15183362 0.15040673 0.017412676 0.12842795 -0.109430075 -0.1471957
-0.04876858 -0.12968281 -0.032744117 0.0462902 0.1548614 -0.045845088 -0.0027441813 -0.07075914
-0.15082884 0.0096865045 0.0700017 -0.025659844 0.055295654 -0.12728521 -0.12636316 0.17156205
-0.15768528 -0.1208807 -0.06890611 -0.019224653 -0.14922489 0.061458893 -0.08237466 0.121572874
-0.14889617 -0.06182146 -0.1440958 0.07235259 0.010511508 0.1457558 -0.0100016575 0.03550046
-0.08185666 -0.10353236 0.016216822 0.107961975 -0.10529985 -0.14934483 -0.08541468 -0.12590796
0.12149788 0.054659024 0.03878743 -0.1283754 0.019576473 -0.007496997 0.1425127 -0.17547648
-0.14158747 -0.06201681 0.0193151 0.16453567 -0.05554352 -0.031883057 -0.12400397 -0.060536064
0.08368383 -0.068894714 -0.121025346 0.07750864 -0.16488427 0.05832382 -0.14466849 0.13425656
-0.09894333 0.09746751 0.14974777 -0.08852414 -0.012428304 0.11612114 0.073490046 0.078128874
0.1284717 -0.053750593 -0.017860128 -0.08112103 -0.043515462 0.16246459 -0.056469318 0.08937066
0.011966775 0.08305412 -0.16710852 0.106379785 -0.02628762 0.09935247 0.008224262 -0.12731564

fce.weight_hh_l0_reverse f4 [128, 32]
00000000: b63f 1abe 6e7f 103e b69d de3c d005 a63d
00000010: 3778 f3bd c347 1a3e c076 93bc 469b 983d
00000020: a2f1 00be 0693 b9bd 0210 c0bd 9c43 86bd
00000030: a49f 333d 6ab2 863c ad12 153e e06b afbd
00000040: e31e 01be a81c 103d 0e2f 8d3a 2076 bcbd
00000050: a7ea 28be 72b2 61bd c3ce 313e 6634 cf3d
00000060: 4c70 203e 6cc9 103e e7aa 19be c92f a6bd
00000070: 90c4 05be 3b28 93bd 3672 863d d103 103d
00000080: 9acf eebd 5881 f23d aa13 1fbe fbfa cc3d
00000090: fd0d e53d 62f1 2fbe 1443 153c f273 0f3c
000000a0: cf1e 233d cf49 e93d 25ca 103e 31ef 17be
000000b0: 1112 aa3d f02b 28be ce69 563d 39aa 063e
000000c0: 15d3 33be 2179 313e eb07 6a3d 73f4 23be
000000d0: c659 07be da79 123e 3ef8 9dbd ab56 b23d
000000e0: 4c76 ccbc 80f3 65bd c122 cb3d 4e73 86bd
000000f0: 5b31 223d 5ad1 e7bb a5de 1cbe 53fa 48bc
00000100: 8c80 eebd 30ce 1bbe 8037 14be ad23 8f3d
00000110: fa71 0ebe 700c 303e 88e3 183e 3c63 cd3d
00000120: 27ec ca3d 54d6 9e3d b9d2 c33d a5ff 1f3d
00000130: 609f 20be c2b4 863d af57 eb3d 4c86 84bd
00000140: 385e 12be 9f0e ac3d eed4 e53d d4f2 6bbd
00000150: 4dc7 a7bd b73b ad3d f035 a43d 28b3 9fbd
00000160: 55bf 9b3d dd33 123e a0c4 863b aa52 afbd
00000170: acc4 59bd 0a54 c93d af83 fbbd ee98 29be
00000180: fc3f bf3c 343c e5b8 7e53 b33c c6da 01be
00000190: 6b5f 293e a1be 9e3d 4706 e9bd 431b 0e3e
000001a0: e66b 1dbe a67b 5c3c 39c7 0ebe d3c7 e7bd
000001b0: 312e 873d c200 c9bd f014 033e b23e 0ebd
000001c0: 699f 1a3e 41f8 a1bd 0e34 f13d 7a10 47bd
000001d0: 233b 38bd 2f88 1f3e 2581 1e3e 61db 183e
000001e0: 32e2 b1bd 942c fd3d 353f fdbd e198 dd3c
000001f0: 6cca 023e bd8e 99bd 9466 16be 4c4f e3bd
00000200: 238f 26bd 45df d23c 4ca6 333e 91e9 123e
00000210: a092 f8bd 6c5d f53d 5e69 f73c 2d5b 32be
00000220: a38e 14be 64a0 0abe 9d22 333d fd3b 343e
00000230: b831 cc3d 1e3d 833c 46e6 cebd 2553 6dbd
00000240: 2d93 e63d 9cf6 ab3d 064f 0bbe baf0 34be
00000250: 99fd 15be d3df 953d f953 cbbd fb8c 023d
00000260: c6dc a6bd c031 05be ccb7 21bd 346c aebb
00000270: 8bcf eabc 656a adbd de41 68bd 3f90 6cbd
00000280: 8cdb cc3c 74fa 99bd 31c3 7bbd b96d 1fbe
00000290: de09 b33c f6f2 033e a34c 34bd a4ed c0bd
000002a0: c45a 823d 2bbc 5dbd ab7c 83bc 609f 113c
000002b0: f34d cc3c 8ca1 223e a313 3fbd c807 9b3c
000002c0: 8e39 58bc f710 c7bc 1205 adbd 268e ea3d
000002d0: 8e0b 16be 9c22 0a3d 2796 17be 977b a43d
000002e0: 9d84 0abe 958d e83d b105 2abc b486 42bd
000002f0: faff 73bd 8115 c93c fba8 823c ccb3 1d3d
00000300: 53fb 15be 7433 72bc c068 093e d79c 813d
00000310: 44a1 823d 342f 2c3d 62cd 233e ea99 1b3e
00000320: 1112 233e 03ee fc3d baf7 f5bd 1ff1 00be
00000330: 5ee7 59bd 3272 e8bd 36e3 66bd 75aa b1bd
00000340: e8a4 7d3d 52fc 5cbd ace2 a0bd f6e4 063e
00000350: 5e0e 0e3e 06ae b3bd 5a71 c5bd 7069 d4bd
00000360: 3b30 01be a1d0 443d e8d0 0b3e a873 29be
00000370: 24b4 6f3a a65c 943d 0c5c 2e3e a9ba 923d
00000380: 002a 0d3e 5a15 813c 12de d13d 6005 0c3e
00000390: 4750 f2bd 744f d43c b11a 9abd f641 35bd
000003a0: 916a 04be a752 b1bd 9c2f 8dbd a7af c13c
000003b0: 7abf f3bd 3eea 11bd 0a96 35bd 5755 bdbd
000003c0: b698 dfbd adbd 9d3d 0201 86bd 25b4 0ebe
000003d0: c927 85bd 12b5 cf3d 1ee1 1c3e 96ca 0bbd
000003e0: 2ecf 833d 27ff 463d 3798 ffbd a92f 1dbe
000003f0: 7980 8dbd ba82 df3b a997 e83d 4b89 233e
-0.15063366 0.1411111 0.027174812 0.081065774 -0.118881635 0.15066437 -0.01800096 0.07451491
-0.12592176 -0.090612456 -0.09378053 -0.06555864 0.043853417 0.016442496 0.14557905 -0.085654974
-0.12609439 0.03518358 0.001077147 -0.09202218 -0.16495763 -0.05510182 0.1736403 0.10117416
0.15667838 0.14139336 -0.150066 -0.08114583 -0.13063264 -0.07185408 0.06564753 0.03515989
-0.116606906 0.118410766 -0.15534845 0.10008808 0.11184309 -0.17181924 0.009110231 0.008755671
0.039824303 0.11391031 0.14139612 -0.14837338 0.08304227 -0.16423011 0.052346997 0.13150872
-0.1756099 0.17331363 0.057136457 -0.16011219 -0.1321784 0.14304295 -0.07713364 0.08707937
-0.024958752 -0.056140423 0.09918738 -0.065649614 0.03959785 -0.007074517 -0.15319307 -0.012266713
-0.11645612 -0.15215373 -0.14474297 0.069892265 -0.13910666 0.17192245 0.14930546 0.10028693
0.09908324 0.077557236 0.095616765 0.03906216 -0.15685797 0.065774456 0.11491334 -0.064709276
-0.14293754 0.08401226 0.11222254 -0.057604626 -0.081923105 0.08458655 0.080181 -0.07797843
0.07604853 0.14277597 0.004112795 -0.08560689 -0.053166077 0.09830482 -0.12280976 -0.16562244
0.02334594 -0.000109307846 0.021890398 -0.12681112 0.16540305 0.07751203 -0.113781504 0.13877587
-0.15373191 0.013457214 -0.13943185 -0.1131741 0.06600607 -0.09814598 0.12800956 -0.03472776
0.15099873 -0.07908679 0.11777507 -0.048599698 -0.044978272 0.15579294 0.15478952 0.14927436
-0.086857215 0.12362018 -0.123655714 0.027050437 0.1277253 -0.07497928 -0.14687568 -0.11099109
-0.04066385 0.025741229 0.17543906 0.14346911 -0.121373415 0.119807094 0.03020161 -0.17417593
-0.14507537 -0.13537747 0.04373418 0.17601009 0.099704206 0.016020354 -0.10102515 -0.05794062
0.1125854 0.083966464 -0.13604364 -0.17669955 -0.14647521 0.07318082 -0.09928126 0.03187273
-0.08147578 -0.1300726 -0.039481923 -0.0053229574 -0.028663417 -0.08467559 -0.05670344 -0.05775475
0.025007032 -0.07518473 -0.061465446 -0.155692 0.021855291 0.12885651 -0.0440184 -0.09420326
0.063649684 -0.05413453 -0.016050657 0.008888096 0.024939513 0.15881938 -0.046649586 0.018924609
-0.013197316 -0.024300082 -0.08448233 0.11452894 -0.14652845 0.033724412 -0.14803372 0.080313854
-0.1352715 0.1135513 -0.0103773335 -0.047491744 -0.05957029 0.024546387 0.015949717 0.038501546
-0.14646654 -0.014782775 0.13418865 0.06328743 0.06378415 0.042037204 0.15996316 0.15195432
0.1592486 0.12350085 -0.12010141 -0.1259198 -0.053199165 -0.11349906 -0.05636903 -0.0867509
0.061924845 -0.05395157 -0.07855734 0.13173279 0.13872668 -0.08773427 -0.09640761 -0.10371673
-0.12616055 0.048050527 0.1365391 -0.16548026 0.00091439695 0.07244234 0.170273 0.07164509
0.13785553 0.015757252 0.10247435 0.13673925 -0.11831718 0.025916792 -0.07524622 -0.04425236
-0.12931277 -0.08658343 -0.068938464 0.023643328 -0.11901756 -0.03562378 -0.04433254 -0.09244793
-0.10917799 0.077021934 -0.06543161 -0.13935907 -0.06501729 0.10141958 0.1532025 -0.034128748
0.06436001 0.048583176 -0.124802046 -0.15350212 -0.0690927 0.0068210037 0.11357052 0.15970342

fce.bias_ih_l0_reverse f4 [128]
00000000: 6d09 0e3e 8011 053e dd62 13bb 73db b23d
00000010: 4517 39bd 21ca 903d 1e46 1ebe 5847 033e
00000020: 555e 31be b338 0e3e 1111 9cbd 4b3c b53d
00000030: bb17 0b3e b787 4b3d 54b0 19bd bf1b 01be
00000040: 1816 c23b 02ad 083e 5e6f 33be 6c49 363d
00000050: b582 31be f658 fd3d 0a90 1ebd 1309 e9bd
00000060: bfb7 a9bd 66bd debd fec8 c43d a065 c83d
00000070: 6a68 8a3b c444 39bd 8cbd a2bd a846 65bd
00000080: c393 2bbe 1088 0e3e 4867 8fbd 959a 8f3d
00000090: 7ef5 b6bd d481 1b3e d9a3 18bd 18b6 503d
000000a0: 020b 053e 4c58 1c3e e2fa 19bd d4ca 74bd
000000b0: 1d22 713d 76e0 afbd 2ce2 ad3d 1240 00be
000000c0: 988c 5d3d 4a38 443d b720 123e 44ce 223e
000000d0: 9b73 f13d 466a ff3d 040e 26be cbfd e63c
000000e0: 4344 b63d bee6 56bd e432 523d 0962 d63d
000000f0: 796b 693b 49be d33d 4f1d db3d 8d24 bbbd
00000100: 6281 cbbd 15b3 9a3d bc03 8dbd 44ed 0dbb
00000110: 033c ab3d ca3f 0c3c a555 94bd f8c5 0d3e
00000120: 76f0 0cbe 6ffe ba3d 552b 8d3d 8c9b b2bd
00000130: 0d58 c7bd ae80 9abc a934 e33b 8bd8 32bd
00000140: 9c4a 0b3e cf15 1abe 6c03 5b3d 1b07 a8bd
00000150: 8ab6 cbba df70 a2bd 9ba9 613d a614 9c3d
00000160: 5d8e 073e 82a1 ccbd 27dd 1a3e 1307 b43d
00000170: f94a 33be 704c 0a3d 72b6 50bd f887 bc3d
00000180: 2f27 bcbd 989a 45bc 99d8 173d 442c 1f3e
00000190: 09a2 64bd a9bd f03b 4c02 c8bd 87ee 00be
000001a0: 872a 65bd 8412 353d 0d9f 17be 871c 32be
000001b0: 382b f9bc ee0f b53d a6a7 5bbd 1d9b b43d
000001c0: 43f6 cc3d 359e 2abe 6169 87bd a560 d43c
000001d0: 2143 98bd c0af 5dbd e34b 233e 7d0d 813d
000001e0: 4ef4 c43d ed70 19be 6d5f df3d 9dde 813c
000001f0: f969 4b3d d18c e93d 0faa 35bd 3a67 503d
0.13870783 0.12994957 -0.0022489347 0.08733263 -0.045188207 0.07069803 -0.15456435 0.12820184
-0.17321141 0.13888817 -0.07620443 0.088493906 0.13583271 0.049689975 -0.037521675 -0.1260824
0.005923044 0.13347247 -0.17522952 0.044503614 -0.17335017 0.123704836 -0.038711585 -0.11378684
-0.08287 -0.10875969 0.09608649 0.097850084 0.004223873 -0.045231596 -0.079463094 -0.055975586
-0.16755585 0.13919091 -0.07002121 0.07011906 -0.08933543 0.15186244 -0.037265632 0.050954908
0.1299248 0.15268058 -0.037592776 -0.059763744 0.058870424 -0.085877344 0.084904045 -0.12524441
0.05408916 0.047905244 0.14270292 0.15898997 0.11789628 0.12471442 -0.16216284 0.02819719
0.08899739 -0.052466147 0.051318064 0.104679175 0.0035617037 0.103390284 0.106989495 -0.09137831
-0.09936787 0.075536884 -0.06885478 -0.0021656314 0.08361056 0.00856013 -0.07242898 0.1384505
-0.13763604 0.091305606 0.068930306 -0.087210745 -0.09733591 -0.018860187 0.006933768 -0.043663543
0.1360268 -0.15047382 0.05347006 -0.0820448 -0.0015542072 -0.07931685 0.05509339 0.07621126
0.13237901 -0.09991743 0.15123425 0.08790412 -0.17509069 0.033764303 -0.050955243 0.092056215
-0.09187161 -0.012060784 0.037071798 0.1554423 -0.05581859 0.007346828 -0.09766063 -0.12590991
-0.05594876 0.04420711 -0.14806767 -0.17393695 -0.030416116 0.08840929 -0.05362668 0.08818648
0.10007908 -0.16661914 -0.06611896 0.02592499 -0.07434679 -0.054122686 0.15946917 0.06301401
0.0961691 -0.14984484 0.10906873 0.01585322 0.04966161 0.11403812 -0.044351634 0.050879695

fce.bias_hh_l0_reverse f4 [128]
00000000: f2c2 07be d6eb 19bd 84b2 033e 9d82 b33d
00000010: c771 ddbd 8b9b 97bd fee6 1dbe fc0a 12be
00000020: 74bf 38bc 7995 093e 3bea 86bd d619 b4bd
00000030: 49cb f1bd 3d8f 3c3d 833f 203e 239a 0f3e
00000040: 99b1 fabd 52df 55bd d99b d33c 157e e43c
00000050: 729c abbd c5af 98bd 6858 eabd 9da7 a73b
00000060: b984 44bd c805 c13d daa4 ab3d 0d8a a03d
00000070: ce2e 1bbe 0c9d bf3d 4bde 053e 9816 0cbe
00000080: cbd5 063e e28c 083b 97a7 a1bd 85a6 bebd
00000090: 8869 923d b333 fe3d 9f9d bf3d 193a c93c
000000a0: 2feb 06bd 295c 973d 4d7d 89bd f89d 9cbc
000000b0: 3e0d 273e 9c48 033d b600 bfbd e505 79bd
000000c0: bbcf e83c d1ee 03be 91de fe3d b847 123e
000000d0: 7de2 9f3d e7f0 93bc 1899 babd 913b 30be
000000e0: 0453 153e b866 cc3d 4d4c 1dbe 3c23 e53d
000000f0: 2a4c f53d 7caa 0a3d f69e 88bd f5fc 2abe
00000100: 3ced 9ebd 2cb9 533d 91fa abbd 986b 27be
00000110: 51b9 b93d 759f 9bbb 1092 22be 1823 8e3d
00000120: 7fa1 2fbd 3bb4 e23c 691b d5ba 2e5a 04be
00000130: bf43 1c3d 35ba 8abd 4613 c9bd 41fa 2f3e
00000140: 6476 90bc 6603 16be 5a33 19be 0cbe c8bb
00000150: 8990 1dbe 39c3 cdbd 6293 0e3e 884c 323e
00000160: 0e12 17bc f9ab acbd 1483 5b3d b472 afbd
00000170: 88fe 8a3d 6888 dfbd 4cbd 18be 3d28 f03d
00000180: 7f88 f63d 9ee8 ae3d c2ef 183e f573 88bb
00000190: 1235 99bd f7c9 963d fbae 433c 6e9b f63d
000001a0: b696 153e 89d5 80bc 083e 253e 45f7 a8bd
000001b0: 9e19 f93d e6e6 27bc 9c42 0a3e 9e18 56bd
000001c0: 81a1 263e 969b 5fbd b2cd fe3d 2b1f 0dbd
000001d0: 667d 1ebe 873d 1ebd 8e1f fabd fde6 51bc
000001e0: ed5a 14be 27be 733d f364 6a3d 9b07 b8bd
000001f0: 5dd0 5dbd a16d 62bd e68d 193e d0b9 073c
-0.1325796 -0.037578426 0.12861067 0.08765147 -0.10812717 -0.07402714 -0.15420148 -0.14262003
-0.011276115 0.13435926 -0.06587645 -0.0879399 -0.11806352 0.04603504 0.15649228 0.14023642
-0.12240905 -0.052214928 0.02583115 0.027892152 -0.08379449 -0.074554004 -0.114426434 0.0051164166
-0.047978137 0.09424931 0.08381052 0.07838831 -0.15154573 0.09356126 0.1307308 -0.13680494
0.13167493 0.0020835926 -0.07893293 -0.09309105 0.07149035 0.124122046 0.09356236 0.024563836
-0.032939132 0.07390625 -0.06713352 -0.019118294 0.16313645 0.032051668 -0.093263075 -0.060796637
0.028419366 -0.1288407 0.12444795 0.14285171 0.07806871 -0.018059207 -0.091112316 -0.17210223
0.14582449 0.099805295 -0.15361138 0.11188361 0.11977418 0.033853993 -0.066709444 -0.16698058
-0.077600926 0.051690266 -0.08397401 -0.16349638 0.090685494 -0.0047492334 -0.15876031 0.06940287
-0.042878624 0.027673831 -0.0016258779 -0.12925026 0.038150545 -0.067737974 -0.09818129 0.17185308
-0.017634578 -0.14649734 -0.14960995 -0.006126171 -0.15387167 -0.100470014 0.1392341 0.17412007
-0.009220613 -0.08431239 0.053591803 -0.085668 0.06786829 -0.10914689 -0.14915961 0.11726425
0.12037753 0.08540462 0.1493521 -0.004164214 -0.074808255 0.073627405 0.011943574 0.120413646
0.14608273 -0.015726821 0.16136944 -0.08250288 0.12163089 -0.010247922 0.13501972 -0.05226957
0.16272546 -0.054591738 0.12441577 -0.034453552 -0.15477523 -0.038632896 -0.1221305 -0.01281142
-0.1448781 0.059507515 0.05722518 -0.08985826 -0.05415379 -0.05528033 0.14995536 0.008284047
