checkpoints/RelationNet/distance_net_on_Omniglot_100.pth (torch, 452143 bytes, 15 tensors)

net.0.0.weight f4 [64, 128, 3, 3]
00000000: 5fc3 af3c 1a68 bbbd 7332 c0bd af93 3cbd
00000010: 3083 7abd 4840 b5bd 8a4b b23b 31a8 9f3d
00000020: d900 fe3c 3a4a ef3d 2670 713d 78b9 9f3d
00000030: 1bab d13d 56e8 533d 6f23 983b 22de 5a3d
00000040: 90ca cd3b 9ab3 893c d2c9 a7bc 30f0 8fbd
00000050: a11f babd 089f 43bd 19ba 24bd 2daf 86bd
00000060: d63e 65bd d100 13bc 3624 a53b a839 f53c
00000070: a10b 0f3d 1054 1d3d ae9a e8bb 4d30 a6bb
00000080: 52ab 90bc 2559 003c 0566 9b3c 05ce d93b
00000090: a1d4 01be e879 ddbd 311b 6ebd 865a eabd
000000a0: 652c 5bbd 2feb 20bd 0bd7 b8bd a625 0fbd
000000b0: e162 8cbb 6fde 503c 47ee a73c 4c71 823d
000000c0: f13b 563d ba42 9e3d f58c c33c 2cf8 233d
000000d0: f987 a53d 284c 0dbb 4640 85bd 6e09 a13b
000000e0: 5e93 b63c e100 13bd d51c 253d f622 983b
000000f0: fb01 3bba 0db3 c83c 4315 173c c8b7 fbbb
00000100: b1af 11bd dd34 a1bd 838c 443c 33e2 01bd
00000110: 3451 e13b 32f1 e03c 083a 0c3d 40ae 253d
00000120: b261 2f3d 41c1 a5bc 4aeb e9bd ce63 9e3c
00000130: 6e28 8fbd ae27 98bd 13be 3d3c 7a86 77bd
00000140: c998 10bd 8a7c 473d 9ae0 a93d 7647 253c
00000150: 4bcc 6e3c 8bc6 2a3d 7dc7 243b 6779 b43c
00000160: 6200 1cbb b50e b9bd 69fe b4bd 579e 71bc
00000170: 54f0 90bc 0ab6 ccbd c7b0 78bb b625 33bd
00000180: 9472 1abd b630 643d 3185 10bc c0f6 ed3c
00000190: 2497 9a3c 15f2 fb3c e45e 033c de29 193d
000001a0: 744b 31bd 7735 193d 0a16 d53a e4cb 54bd
000001b0: b14c 7ebd aaeb 5ebd 9c6c cbbb f56b d1bc
000001c0: 2bd0 2a3d 37a9 bb3c 5415 413c 5b9d 403d
000001d0: 2900 043e 3a53 adbd fab4 26bd 4d62 203c
000001e0: 5e6c 6ebd 3c5a 74bc 49f7 0a3d 7095 dfbc
000001f0: f243 29bb 146e 3a3d ec42 38bd 44b8 96bd
00000200: a9b2 8dbb 41b5 d1bd eeea 153d fff5 313d
00000210: 7b28 56bc dae4 2a3c 1a3d 51bd 87ea 903c
00000220: 08d1 1bbc 3c36 c7bd 145d 9b3d 70f4 2e39
00000230: 8908 73bd c325 59bc 2cf2 f33b e8ea 06bc
00000240: 3c7f a43d 94ac 813d ca59 1a3e 511d e83d
00000250: 2f91 da3c d97f f73c 0ba6 6c3d 3efd 4d3d
00000260: 219b ef3b eb10 6139 cff5 413d f5cb 613d
00000270: f4bd afbc 2eb1 d7bb 909b 6a3c 1ee9 cabb
00000280: 5960 f13b 28f5 b23d eac8 a53d 13c1 df3d
00000290: ef47 793d e98b fe3d 0776 31bb 5d02 353c
000002a0: 0d6b 313d a57c 5dbd 1fc5 68bc 516e 0fbd
000002b0: 29b4 ef3a 2108 23bd 8519 ae3b 1c17 013d
000002c0: 761b a63c 80b7 5bbb f3cb 373d a46c 9a3d
000002d0: dd4d 2cb9 6a02 303d fba0 38bc 042f febc
000002e0: baae 503d 133c 27bc 40d9 7ebd a158 163d
000002f0: aa28 5ebc 8f49 b03d 06f2 b43d b8ca 083d
00000300: 6a5b 1f3d f21d 6c3d c1e3 2ebc d953 4e3d
00000310: f2cb dd3d 668a a13d 6f05 76bd a4ca f2bd
00000320: 166c edbd 9455 00bd 34f8 753d 3238 633d
00000330: 3e4b bebc b531 f53b 1506 983d 83da cc3d
00000340: 920a bc3d 5c62 dd3d 4c3b 613d 25c5 493d
00000350: 14f0 423d 8bb4 db3c adff 7f3c ea93 87bc
00000360: 8bf2 23bb 901c 31bd 63c9 23bd d8ef fdbc
00000370: 2033 f73c 5afa 303c 930e 823c 54fd 4e3d
00000380: 64ff 7abc 5d5f 613c 88c0 3cbc f359 2fbc
00000390: 40db 5c3c 5afa dcbd 78e9 57bd bfd4 49bd
000003a0: ac05 21bd 3b07 60bd e5ff 4d3d dfdc 8f3d
000003b0: 2c96 933d ffe2 833d 7db9 403d bba6 a23c
000003c0: bb39 d43d 18e1 ff3c 9127 d1bc bc3a b83c
000003d0: 61c9 123d 0c58 913c 051d d43c fafb 043d
000003e0: fd82 213d 1509 a0bc a14b 803d 9f5b 8d3d
000003f0: 5268 a03c 5887 0f3d 65e5 6f3d 1252 0f3d
0.021455465 -0.09150715 -0.093846224 -0.04603928 -0.061160266 -0.08850151 0.005441134 0.07795752
0.031006264 0.116840795 0.058944844 0.07799047 0.10237714 0.051735245 0.004642896 0.0534345
0.006280251 0.016809274 -0.020481978 -0.07028234 -0.09088064 -0.047759086 -0.04021654 -0.06576381
-0.05596813 -0.008972363 0.005039717 0.02993472 0.0349232 0.038410246 -0.0070985174 -0.005071676
-0.017659817 0.007833754 0.018969545 0.006646874 -0.12678768 -0.108142674 -0.0581314 -0.11443047
-0.053509135 -0.03928679 -0.09025391 -0.034948014 -0.004284248 0.012748345 0.020499362 0.06369266
0.05230326 0.07727571 0.023870924 0.040031597 0.08082575 -0.0021560285 -0.065064 0.004914454
0.022287067 -0.03588951 0.0403107 0.0046428395 -0.0007133779 0.02449944 0.009221378 -0.0076818205
-0.035567943 -0.07871411 0.011996391 -0.03170986 0.0068761352 0.02745876 0.03423503 0.04044938
0.04281778 -0.020233752 -0.11421831 0.0193347 -0.06990133 -0.07429443 0.011580962 -0.06043098
-0.035301957 0.048702754 0.082947925 0.010087838 0.014575074 0.04169325 0.0025143318 0.022030545
-0.002380394 -0.09036008 -0.088375874 -0.014747224 -0.017692722 -0.09995659 -0.0037947164 -0.043737136
-0.037706926 0.055710517 -0.008820818 0.029048324 0.018870898 0.030755082 0.008018229 0.037393443
-0.04328485 0.037404504 0.0016257179 -0.051952258 -0.062084857 -0.054423966 -0.0062080156 -0.025564173
0.04170243 0.022907836 0.01178487 0.047025066 0.12890686 -0.0846314 -0.040699936 0.009789062
-0.058208816 -0.014914092 0.033927236 -0.027292937 -0.0025827852 0.045515135 -0.044985697 -0.07359365
-0.0043242765 -0.102396496 0.036601 0.04344749 -0.013071175 0.010430539 -0.05108366 0.017689956
-0.009510286 -0.09727141 0.075861126 0.00016684993 -0.05933431 -0.013253632 0.0074446406 -0.008234717
0.080320805 0.06331745 0.15073314 0.11333717 0.026680557 0.03021233 0.05777554 0.05029034
0.007312194 0.00021463975 0.047353562 0.05512615 -0.021452881 -0.0065824008 0.014319316 -0.0061923405
0.007366222 0.08738166 0.08094962 0.10925498 0.060859617 0.124290295 -0.0027078406 0.011047927
0.043314982 -0.05407395 -0.014207154 -0.035017315 0.0018287945 -0.039802674 0.0053131008 0.03151618
0.020276766 -0.0033526123 0.044872236 0.07540253 -0.00016432205 0.042971052 -0.0112688495 -0.031028278
0.050947882 -0.010207194 -0.062218904 0.036705617 -0.0135595 0.0860778 0.08835225 0.033396453
0.03890554 0.057645746 -0.010674418 0.050372932 0.10829915 0.078877255 -0.060063776 -0.11855057
-0.115928814 -0.031331614 0.060051158 0.055473514 -0.023229238 0.007482732 0.07423035 0.10002615
0.091817036 0.10809776 0.05498819 0.049260277 0.047592238 0.026819488 0.015624923 -0.016550023
-0.0025016393 -0.04324013 -0.03998698 -0.030998155 0.030175745 0.010801876 0.01587609 0.05053456
-0.015319679 0.0137556465 -0.011520512 -0.010702598 0.013480008 -0.10789938 -0.052712888 -0.049275156
-0.03931205 -0.054694396 0.05029287 0.0702455 0.072063774 0.064397804 0.047051895 0.019854894
0.10362574 0.031235263 -0.025531562 0.022488944 0.03583658 0.01774218 0.025892744 0.032466866
0.03943156 -0.01953558 0.06264425 0.06902241 0.019580994 0.035041183 0.058568377 0.034990378

net.0.0.bias f4 [64]
00000000: 3314 ef39 a2a6 8139 e205 8338 397b b238
00000010: 4ac6 4d39 7826 e138 9677 0b38 5e01 ac39
00000020: 68a7 b1b8 8ac3 ea39 b218 c7b5 b9bf 3838
00000030: 6be2 a339 5695 ccb8 56a5 06b7 f34b 3b39
00000040: 055f 1438 ec3a 403a c050 df3a 5f9d b239
00000050: 3466 c639 c46a fd38 b21c c6b7 261e bb39
00000060: 6a7a 1fba ade0 8d3a 2c59 e038 e98a ffb7
00000070: b906 2539 d8c5 c738 c4ad 2a39 36c5 3dba
00000080: 05f4 1e38 5ebd 9839 09bc 8d39 f886 be38
00000090: 51b1 9eba d695 afb6 8e71 53b7 0b76 a138
000000a0: db5c aeb7 8f35 1339 b3ac a0b7 1f56 84b9
000000b0: 978f 5039 7edf ae39 62f5 9639 2b6f d63a
000000c0: 9b21 423a 59ac 2839 9c44 c339 79e2 4a39
000000d0: 264e bc39 80d2 1d39 a932 26ba 88c4 cc38
000000e0: 341a ff38 aed9 dd38 626b 1039 1ce9 2d3a
000000f0: ac1c a0b7 a223 34b8 b69b c3b8 7ae4 83b6
0.00045600682 0.00024728948 6.2476625e-05 8.5106534e-05 0.00019624192 0.000107360014 3.3251556e-05 0.00032807415
-8.4711995e-05 0.00044777646 -1.4833843e-06 4.4047574e-05 0.00031258477 -9.755294e-05 -8.025518e-06 0.00017862003
3.5374444e-05 0.0007332999 0.0017037615 0.00034068056 0.0003784165 0.00012083867 -2.3616802e-05 0.00035689882
-0.000608361 0.0010824405 0.00010697762 -3.0463054e-05 0.0001573813 9.525911e-05 0.00016277196 -0.00072391646
3.7897396e-05 0.0002913279 0.00027033713 9.085046e-05 -0.0012107288 -5.2328496e-06 -1.2603019e-05 7.6990655e-05
-2.0785656e-05 0.00014038965 -1.9153906e-05 -0.00025241167 0.00019889917 0.0003335438 0.00028793054 0.0016360035
0.00074055203 0.00016085933 0.00037244416 0.00019348589 0.0003591638 0.00015051104 -0.00063399464 9.764085e-05
0.00012164228 0.00010578647 0.00013772913 0.0006634162 -1.9086838e-05 -4.294853e-05 -9.327328e-05 -3.9307024e-06

net.0.1.weight f4 [64]
00000000: 8925 693f db64 8a3f 0ac2 3b3f f924 733f
00000010: e9cb 6b3f b5ad 573f 043d 473f e48a 833f
00000020: 5bc2 5e3f 8eec 853f 090d 643f 4c77 5b3f
00000030: f212 653f 9bb1 503f f9ac 563f cd85 5d3f
00000040: 7a1a 543f a368 793f 193a 843f a3e3 493f
00000050: 05fc 8a3f 5b20 653f bbe7 4c3f d95d 843f
00000060: 295f 773f 0da2 893f 8155 623f 9f28 823f
00000070: 3b80 553f 265d 513f 7dbf 863f 58b0 8b3f
00000080: fb07 603f 7303 673f 1fb8 7e3f 14a0 403f
00000090: 544b 8d3f 0795 653f c6f9 593f 1d6a 713f
000000a0: 1165 883f 63d4 683f 3ee9 5e3f 0aa7 863f
000000b0: fd27 823f 14ea 7c3f 2908 623f 47a4 833f
000000c0: e17e 873f c6c3 663f 7422 623f acaa 703f
000000d0: f9eb 603f 4a20 4d3f 9da9 643f 9f97 8d3f
000000e0: c755 893f 94a7 6f3f 2235 673f c667 883f
000000f0: 346a 893f a473 643f 3416 563f 6aff 653f
0.910729 1.0812029 0.73342955 0.9497829 0.9210802 0.8424943 0.7782748 1.0276761
0.8701531 1.0462816 0.8908239 0.8572891 0.89482033 0.81521004 0.83857685 0.8653229
0.828529 0.9742529 1.033023 0.7886297 1.085816 0.89502496 0.8004109 1.034114
0.9662958 1.0752579 0.8841172 1.0168647 0.8339879 0.8178276 1.0527188 1.0913191
0.8751218 0.9023964 0.99499696 0.7524426 1.1038613 0.8968052 0.8514675 0.9430254
1.0655843 0.90949076 0.8707465 1.0519726 1.0168453 0.98794675 0.882937 1.0284508
1.0585595 0.90142477 0.8833382 0.94010425 0.87860066 0.80127394 0.8932131 1.1061896
1.0729302 0.9361508 0.9031545 1.0656669 1.0735536 0.89238954 0.8362763 0.89842856

net.0.1.bias f4 [64]
00000000: 0c07 e9bd 8480 f5bd eee5 33be 0e7b afbd
00000010: 4f76 bfbd 2934 1cbe 4e19 19be 4e5d 25be
00000020: 72e6 a2bd cb98 32be ec96 15be d0be dbbd
00000030: 10cf b9bd cb38 3abe 777f 0ebe db7e 1abe
00000040: 2dd4 fabd c06b 0ebe 71bb 3dbe fe18 5cbe
00000050: 274b 84be d8a6 76bd 7975 19be a86b 23be
00000060: a47c 14be a0ea 40be c1a4 d8bd 1d9e 2ebe
00000070: 1551 f7bd 4c0e b8bd 8fc1 2ebe 8b93 33be
00000080: 3fa7 bebd 1c00 cabd 485a 49be d582 4bbe
00000090: 78c3 53be 976b bdbd ded6 e7bd 88cd 42be
000000a0: 915d 16be fa20 0fbe 295d 32be 84d2 5abe
000000b0: 816f 1fbe 6883 23be f0b6 2abe bf58 18be
000000c0: a667 34be e7bb b8bd 58ec b4bd 46eb 77bd
000000d0: a350 16be cd2a 25be 07c3 bdbd 6310 2dbe
000000e0: daf5 48be 474d 07be 4e68 22be b494 1abe
000000f0: 3baa 15be b8c0 bbbd 915a 00be 8b17 21be
-0.11378297 -0.11987403 -0.1756818 -0.08568393 -0.093487374 -0.15254273 -0.14951059 -0.16148874
-0.0795411 -0.17441098 -0.14608353 -0.10729754 -0.09072697 -0.18185727 -0.13915811 -0.15087454
-0.122475006 -0.13908291 -0.18528534 -0.21493909 -0.25838587 -0.06021771 -0.14986219 -0.15959036
-0.14500672 -0.18839502 -0.10578299 -0.17052503 -0.12076012 -0.08987102 -0.17066024 -0.17536752
-0.093092434 -0.09863302 -0.19663346 -0.19874127 -0.20680034 -0.09249037 -0.113202795 -0.19023716
-0.1468413 -0.13977423 -0.1741835 -0.21369368 -0.15569879 -0.15968096 -0.16671348 -0.14877604
-0.17617664 -0.090202145 -0.088341415 -0.06052711 -0.14679198 -0.16129608 -0.09265714 -0.16900782
-0.19625035 -0.13213073 -0.15860102 -0.15095788 -0.14615719 -0.091676176 -0.12534548 -0.15731637

net.0.1.running_mean f4 [64]
00000000: ef71 4440 88f1 2ac0 bf8b adc0 0449 2940
00000010: 3f2f 9840 0ac7 19c0 9c79 42c0 2886 fbbf
00000020: b776 0540 fb32 2dc0 ebc1 a140 4a1e f9bf
00000030: 62ff b8c0 c6a5 7bbf a165 99c0 5577 5ac0
00000040: 3151 1ebf 1ea9 d3bf 3e63 13c0 a4b9 b2c0
00000050: ede6 25c0 5691 d8c0 a871 35c0 1040 11c0
00000060: 0e47 d9bf 3851 35c0 8f07 0ac0 6b7b bcbf
00000070: 148d acc0 ed67 a0c0 e78f 28c0 7fb9 f7bf
00000080: ce30 c5c0 2262 efc0 4207 18c0 3e0c 94c0
00000090: 52c4 2ec0 e496 5dc0 10dd b0bf afec 33c0
000000a0: 03b0 26c0 5e6a b5c0 0d17 8ac0 850b 2fc0
000000b0: 1ec2 1dc0 805a 34c0 b22f 8fc0 2cda 1cc0
000000c0: 4b1f fdbf 6c56 bdc0 f7c1 f3c0 bce9 c0c0
000000d0: b33a c9c0 8108 d0c0 867a e940 84ba 0fc0
000000e0: c3b9 0ec0 9c11 edc0 53f7 6fc0 3b80 16c0
000000f0: bc1d 34c0 5516 ccc0 f8e2 b4c0 fc66 50c0
3.069454 -2.670992 -5.423309 2.6450815 4.7557673 -2.4027734 -3.0386724 -1.9650316
2.0853708 -2.7062366 5.0549216 -1.9462368 -5.7811747 -0.98299825 -4.793656 -3.4135334
-0.6184264 -1.6535985 -2.3029323 -5.585161 -2.5922196 -6.767741 -2.835062 -2.269535
-1.6974809 -2.8330822 -2.1567113 -1.4725164 -5.3922215 -5.0126863 -2.633783 -1.9353484
-6.1622076 -7.480729 -2.375443 -4.6264944 -2.7307324 -3.4623346 -1.3817463 -2.811321
-2.604493 -5.6692343 -4.315314 -2.735078 -2.464973 -2.8180237 -4.474572 -2.4508162
-1.9775175 -5.9167995 -7.6174273 -6.028532 -6.2884154 -6.501038 7.2962065 -2.245759
-2.230088 -7.4083996 -3.7494705 -2.3515766 -2.8143148 -6.377726 -5.652706 -3.2562857

net.0.1.running_var f4 [64]
00000000: aeab bd40 7fd5 3241 dbb2 7141 4c45 e740
00000010: 3533 1441 bad3 1041 bb50 3041 0c37 c140
00000020: 5cfe 2441 7da1 1441 c4f3 0241 763c e940
00000030: 43a8 1a41 e69c 4041 492e 2641 c3f7 3741
00000040: a437 f940 b7df a840 103f 9440 cd18 2741
00000050: 4d2c 2841 82f2 2b41 55d8 5241 abd9 bf40
00000060: a423 f540 cb16 fa40 9df7 0041 528b f840
00000070: e830 6a41 5c40 4041 8d9a 0f41 2894 ed40
00000080: c2de 8141 0dc7 2e41 d8c2 f040 922e 6241
00000090: 83d1 ea40 98f0 0541 1e6b 1741 fb5f 0241
000000a0: e1ec 0641 2561 0141 36ec 3641 7275 0341
000000b0: 11d9 eb40 29d0 0c41 d100 3641 449a aa40
000000c0: 1790 fe40 7e3b ce40 9017 0541 cc9f 2141
000000d0: efa9 3041 387a 4341 e8ac 1f41 e0ee d540
000000e0: 7ec0 0041 7a41 0941 45c5 0441 efea cb40
000000f0: 1754 0d41 a52f df40 ae48 4a41 d40f ca40
5.927207 11.177123 15.106166 7.227209 9.262502 9.051691 11.01971 6.0379696
10.312099 9.289426 8.184513 7.2886305 9.6660795 12.038305 10.3863 11.497989
7.788042 5.277309 4.632698 10.443555 10.510816 10.746706 13.177815 5.995321
7.6606007 7.8152823 8.060452 7.767007 14.63694 12.015713 8.975232 7.4243355
16.233768 10.923596 7.5237846 14.13637 7.338075 8.371239 9.463652 8.148433
8.432832 8.086217 11.432669 8.216173 7.3702474 8.80082 11.375199 5.3313313
7.955089 6.444762 8.318253 10.101513 11.041488 12.217339 9.979713 6.6854095
8.046995 8.5784855 8.2981615 6.3724284 8.83303 6.974566 12.642744 6.314432

net.1.0.weight f4 [64, 64, 3, 3]
00000000: fb41 783c 4cd9 72bd 411f d73c 2e61 6bbc
00000010: 2ceb 6437 56e8 d73c 6211 ebbc d3f6 73bb
00000020: bc6d 633d a321 873c a435 513d 00e4 27bc
00000030: 4ac6 20bd e282 553d 9573 fa3d 4124 cfbc
00000040: e7b9 9d3d 3cc1 1e3e 5297 b93c 25d1 6fbb
00000050: 394d d73c 8998 e53b d090 a53b b460 86bd
00000060: 0ec0 a33b e21f e13c bdaa 2dbc 221f 2fbb
00000070: a52a fabc c84a 963c 86c5 80bd 9223 0f3d
00000080: 6ace 373d 080c 5d3c be13 a13c 5f82 513d
00000090: f31c e4bc 0a29 18bd 8a10 f03b 7f0b 25bc
000000a0: df15 ecbc 3886 673c 0a79 0cbd 5bb9 b6bc
000000b0: 1e6b b6bc 3c94 1f3c e94e c53c 04f8 483d
000000c0: e6dc 183b 55d8 fbbc 827d 153d 9e68 febb
000000d0: 06ca 513d c98c 853d bd8b 093d abdb 223d
000000e0: 2946 fb3c de0e e93b 7b6f 21bb 02ca 9dbc
000000f0: f4c3 4f3d 8ab1 883c 1174 c83b 6130 22bd
00000100: d4b8 c7bc 8fb7 a83d 6e8f bc3c 214c b23b
00000110: 89f0 a33c c424 5a3d 11ae 5d3c 9d3a 02bd
00000120: 2e15 00be 1214 9abc 38ec b9bc bfaf d4bd
00000130: ad15 3fbb 2f01 5e3d 9cb7 c9bd b246 eebc
00000140: 329f fa3d 12ee 43bc 57e1 c53d 3cc5 f93c
00000150: c166 8b3d 8321 66bb 1447 733d d90b 0cbd
00000160: bee9 943d d9ab c73d 0d7a ed3c ef1c 8bbd
00000170: 1b27 47bd 056c c9bc f9ac b83c d865 e53c
00000180: 9d5a 3cbd 770d 893c 169c 2bbb eb2d bf3b
00000190: 44ee a5bb 4fbd 9a3d 1dd8 8dbd 88f6 b0bd
000001a0: 02e5 933c 9e19 f8bb d4dd 71bd 740e e53a
000001b0: 104a 4f3c df53 d83c e456 1bbc 5a15 33bb
000001c0: 5e3e 083d af16 583c 2f7a de3c 21be 723c
000001d0: 0084 30bc be5e 2e3b 0c4b 723b bb7e 0c3d
000001e0: fb31 febc 387a 07bd 1def 033c 7ab0 abbb
000001f0: e22d fcbc 931a a73c 4961 2bbc b927 083d
00000200: 81c3 013c ad35 19bd cafa 163d af0c 09bd
00000210: 353b 083d 3dac 7f3c 6269 91bc e5c6 9ebd
00000220: d3ad 803c 6c39 3e3d 7285 46bb 7a77 a83c
00000230: 5a69 76bc aadd 6bbb 975a 5dbc 3daf c1bc
00000240: 7c70 dbbb fc24 e93c 2064 25bd 5bc7 9ebc
00000250: de9c 473d dec6 8b3c e798 bdbc b852 c2bc
00000260: f06e 73bd 9f8d 40bc da2b 0d3d 3cd1 4e3d
00000270: 4dba 453d ee1b d8bc b356 853d 6d9a 633c
00000280: 646f cc3d e462 ec3d 5f7f 063d e462 af3d
00000290: 31f0 ad3d 53ae 44bd 2a0f 593c 29b9 763d
000002a0: 0878 bc3c 62f3 2f3d 77ef ed3d ff1e acbc
000002b0: 30c3 18bd 68a1 33bd 98c0 04bd cd38 683d
000002c0: 18fa 25bd 4558 883b f0c2 84bc 1d51 9abc
000002d0: ad87 e23c dcc5 2f3d 1d02 173e c318 453d
000002e0: 0be3 30bc 7c60 853d d366 a93d e6fa 643d
000002f0: 36cc f23d 4f08 8c3c 5741 9dbd 16e5 133d
00000300: 4d02 b9b8 de8c 9ebc 7f9f c3bc d494 ae3d
00000310: aac1 5e3b 4d87 283d f64c 473d ae16 3d3d
00000320: 559e 45bc ff22 81bb a797 66bb d103 c03c
00000330: 56e7 89bc 37d4 b43c 7a2c 83bd 67eb f73c
00000340: f287 263d 9ccf 1d3d 7ba7 bf3c fd8e 76bb
00000350: 44f0 44bd c065 6f3d 3abc c23d fe15 9c3d
00000360: 5215 533a 3efe ad3c 6c33 243d fa65 d03c
00000370: 2ca9 27bb 5b4d 933c e434 623b fd71 0bbc
00000380: d828 b43c 59b1 273c 10a5 f7ba c849 753d
00000390: 2f26 593d f8d5 8f37 416a 9abb a2b1 cf3d
000003a0: 9aa5 553d d6e9 ab3d 0d69 b1bb 03a2 493d
000003b0: 1d44 843d f9a7 8a3c 7345 d1bc 975c a4bc
000003c0: edb8 cc3c 53e0 5e3d 9dd3 10bd 8947 533c
000003d0: ae69 d0bb 28ab 4b3c 2386 9c3c 07e4 c53d
000003e0: ea55 febb f021 f73c 11ca 933d 8498 8b3d
000003f0: d14f 773d 6db5 20bc 9eb8 7c3d 56fc bc3c
0.01515245 -0.05928926 0.02626002 -0.014366431 1.3644614e-05 0.026355904 -0.028694812 -0.0037225976
0.055524573 0.016495531 0.051076546 -0.0102472305 -0.039251603 0.052126773 0.12229077 -0.025285842
0.07701474 0.155034 0.022655163 -0.0036593166 0.02628194 0.007006709 0.0050526634 -0.065614134
0.00499726 0.027481023 -0.010599789 -0.0026721437 -0.030537913 0.018346205 -0.062876746 0.034946032
0.044874586 0.013491638 0.019662734 0.051149722 -0.027845835 -0.037148513 0.0073261904 -0.010073542
-0.028819023 0.014131121 -0.03429512 -0.022305181 -0.022267874 0.009739932 0.024085479 0.04906465
0.0023325025 -0.030742804 0.036496647 -0.007763936 0.051218055 0.06520993 0.03358053 0.039760273
0.030673103 0.007112368 -0.0024633098 -0.019261364 0.050723985 0.01668622 0.006117352 -0.03959692
-0.024380125 0.08238136 0.023017611 0.005441204 0.020012157 0.05325772 0.01353027 -0.03179418
-0.1250808 -0.018808398 -0.022695646 -0.103850834 -0.0029157207 0.054200348 -0.09849474 -0.029086445
0.12237395 -0.011958616 0.09662121 0.030489556 0.06806708 -0.003511519 0.059393957 -0.034190986
0.07271145 0.09749574 0.028988862 -0.06792628 -0.04862128 -0.02458764 0.022543417 0.028002664
-0.045984853 0.016730053 -0.0026185564 0.0058343313 -0.005063804 0.07555639 -0.06925986 -0.08640772
0.018053535 -0.007571413 -0.059049442 0.0017475621 0.012651935 0.02640718 -0.009481166 -0.002732596
0.033262603 0.013189002 0.027157871 0.014815838 -0.010773659 0.0026606764 0.0036971 0.034300547
-0.031029692 -0.03307554 0.0080526145 -0.0052395435 -0.030783597 0.020398414 -0.010460206 0.033241007
0.007920147 -0.037404705 0.036860265 -0.03345936 0.03325959 0.01560503 -0.017750446 -0.0775278
0.015707886 0.04644148 -0.0030291942 0.020564783 -0.015039766 -0.0035990276 -0.013510368 -0.02364313
-0.006696759 0.028460018 -0.04037869 -0.01938217 0.048733585 0.0170626 -0.023144199 -0.023721084
-0.05943197 -0.011752515 0.03446565 0.05049251 0.048273373 -0.026380505 0.06510677 0.013891798
0.099821836 0.115422994 0.032836314 0.08563784 0.084930785 -0.04801781 0.013248244 0.060235176
0.023006454 0.042956717 0.1161794 -0.021010874 -0.03729552 -0.0438551 -0.032410234 0.056694794
-0.04052171 0.004160913 -0.016206235 -0.018837506 0.027652586 0.042913303 0.147469 0.048119318
-0.010796319 0.065125436 0.08271565 0.055903338 0.118553564 0.017093806 -0.07678478 0.036107145
-8.821916e-05 -0.01935428 -0.023879765 0.085244805 0.0033989944 0.041144658 0.04865738 0.046164207
-0.012061675 -0.0039409394 -0.0035185607 0.02343932 -0.016833942 0.022073848 -0.064049676 0.030263616
0.04065699 0.03852807 0.02339529 -0.0037621849 -0.048080698 0.058446646 0.095085576 0.07621382
0.0008052188 0.021239396 0.040088102 0.025439251 -0.0025583012 0.017981222 0.0034516389 -0.008511064
0.021992132 0.010235154 -0.0018893797 0.059884816 0.05301493 1.7146565e-05 -0.0047123735 0.10141303
0.052159883 0.0839421 -0.0054141344 0.049226772 0.06458304 0.016925799 -0.025545811 -0.020063682
0.024990523 0.05441315 -0.03535806 0.012895473 -0.0063602543 0.012430944 0.01910693 0.096626334
-0.0077617066 0.03016755 0.072162755 0.068161994 0.060378853 -0.00980888 0.061699502 0.023069542

net.1.0.bias f4 [64]
00000000: 70cf e6b9 5f0c 05ba 8542 1e39 6961 3039
00000010: 97c7 88b8 3b48 da39 3eac 7437 339f 343a
00000020: d9de 403a 196f be38 397e 7539 971a 003a
00000030: b55c 6c39 e9ca b8b6 d2b8 6bb9 2776 11b9
00000040: 36f9 c039 f359 f1b8 7091 d9b6 0cfa 29b9
00000050: ddfc c8b8 b70d ac39 2cd5 0238 fbf8 ba38
00000060: 7404 c639 8ae3 3e39 827b 9539 343c abb9
00000070: 1ea0 203b 4ce9 2ab9 ad16 b438 a527 b239
00000080: ac1a 093b 832d a5b7 bb70 2db9 d481 6f39
00000090: 030c 703b 2ee9 ab38 aa0e 7c36 387d be38
000000a0: 07d0 8739 32d5 8cb9 964d b2b8 83c9 4738
000000b0: 26b6 3039 7ad0 bab7 b42b d5b5 2991 0838
000000c0: a186 283b c61c 2738 eb86 cb36 9c7b ad3a
000000d0: 92c3 4439 77d2 83b7 0868 1b39 120c f038
000000e0: b9c8 793a 685a 21b9 c215 c238 3235 2dba
000000f0: d8ee 323a 8126 4e36 e1c9 09b9 14ce f039
-0.00044023572 -0.0005075391 0.00015092835 0.00016820956 -6.522162e-05 0.00041634016 1.4583637e-05 0.00068901776
0.00073574256 9.0805996e-05 0.00023412042 0.00048867747 0.0002254125 -5.507249e-06 -0.00022480197 -0.00013872293
0.0003680677 -0.0001150853 -6.484035e-06 -0.00016210246 -9.5838426e-05 0.00032816615 3.1192947e-05 8.9155474e-05
0.0003776882 0.00018204577 0.00028511515 -0.00032660516 0.00245095 -0.00016299373 8.5872925e-05 0.00033980343
0.0020920439 -1.9690726e-05 -0.00016540561 0.00022841181 0.0036628253 8.1973485e-05 3.7559462e-06 9.08323e-05
0.000259042 -0.00026861724 -8.502153e-05 4.763297e-05 0.00016852524 -2.2270007e-05 -1.5882456e-06 3.2560118e-05
0.002571501 3.98427e-05 6.065578e-06 0.0013235691 0.00018764872 -1.5714422e-05 0.00014820707 0.0001144634
0.0009528506 -0.00015387835 9.2546936e-05 -0.0006607353 0.00068257516 3.0718804e-06 -0.00013140544 0.00045929907

net.1.1.weight f4 [64]
00000000: 88dc 893f 1c84 963f 4783 933f dced 993f
00000010: b6a4 963f b4d1 903f 2720 903f 5806 a53f
00000020: 2776 943f 3401 903f b872 8e3f ad65 943f
00000030: 0a70 973f 3d12 7b3f c50d 973f b2c8 953f
00000040: bc8b 943f 5e9c 943f 9393 893f b299 8b3f
00000050: 3e0b 913f bd8a 903f 152a 943f 5a2d 9a3f
00000060: 7292 913f bf8f ac3f a58b 963f 0b40 923f
00000070: 3775 ac3f 4db4 8f3f f54f 8e3f edd1 9e3f
00000080: 8c4b a53f f1de 8e3f effc 8e3f ab00 903f
00000090: 67b4 ac3f e8e0 8f3f 4af0 943f eb5d 933f
000000a0: dbee a83f 2f9e 8e3f ceb6 8d3f 5bc8 943f
000000b0: 6147 973f f444 8f3f 5d7d 8a3f b1a4 8e3f
000000c0: bc00 ad3f 860d 913f f1e7 923f c967 a03f
000000d0: 5d22 8e3f 65c8 963f 3af4 913f d297 8d3f
000000e0: 0aaf af3f ca40 933f 5cd5 903f f6bf 913f
000000f0: 41a9 973f 63f6 803f 9b24 973f 2cf9 933f
1.0770426 1.1759067 1.1524438 1.2025714 1.1769016 1.1313996 1.1259812 1.2892561
1.1598557 1.1250367 1.1128759 1.1593529 1.1831067 0.98074704 1.1801077 1.1701872
1.1605144 1.161022 1.0748161 1.0906279 1.1331556 1.129234 1.1575342 1.204509
1.1372817 1.3481368 1.1761366 1.1425794 1.3473271 1.1226898 1.1118151 1.2407814
1.291368 1.1161786 1.1170939 1.1250204 1.3492554 1.1240511 1.163583 1.1513036
1.3197893 1.1142024 1.1071413 1.1623644 1.1818658 1.1192918 1.0819508 1.114401
1.3515849 1.1332252 1.1477033 1.2531673 1.1104237 1.1779906 1.1402657 1.1061957
1.3725293 1.1504147 1.1315112 1.1386707 1.1848527 1.0075191 1.1808046 1.1560416

net.1.1.bias f4 [64]
00000000: 68b4 f93d d990 e43d ece3 e33d 155e d83d
00000010: 86a4 e13d 2c50 083e 1eb0 053e d07c c13d
00000020: 2ad0 4339 1855 043e 53dd ec3d c0a1 9a3c
00000030: 7e87 083e 51e6 39bd 15ca f53d 6a45 e63d
00000040: e2c3 e93d 7a08 ee3d bb07 d03d 4a75 f93d
00000050: ba6f e73d 4121 a43d 696a ff3d 658e a83d
00000060: cf35 023e afa3 393e 7c73 053e 99e7 e23d
00000070: b2a1 f23d 2a17 143e 0ad8 013e 2b41 cfbc
00000080: caca b73d 9470 f93d 1896 f03d 8b1a d83d
00000090: e116 e03d 9d08 053e c424 053e 0c93 ec3d
000000a0: d855 fcbb 3e8e 003e c9bf fa3d d9f5 de3d
000000b0: af3e cb3d fa2b d33d 6785 de3d eec1 f03d
000000c0: 2e46 d13d a6cf d93d 67f7 9d3d b791 0f3e
000000d0: e45d fd3d 2e23 043e 8d00 f53d 5863 ed3d
000000e0: 8ccc f23d 8d0f cc3d 5ed5 dd3d 13b6 013e
000000f0: 635d bf3d b88f 1fbd 0340 f43d 60c0 cd3d
0.12192613 0.1116044 0.11127457 0.1056482 0.110177085 0.13311833 0.13055465 0.09447634
0.00018674196 0.12923086 0.11565652 0.018875957 0.13332936 -0.045385662 0.12001435 0.112437084
0.11414315 0.116227105 0.101577245 0.12180574 0.11300607 0.08014155 0.12471468 0.082302846
0.12715839 0.18128847 0.13032335 0.1107933 0.11847247 0.14461961 0.12680069 -0.02529963
0.08974226 0.12179676 0.11747378 0.10551938 0.10941864 0.12991567 0.13002306 0.115514845
-0.007700663 0.12554261 0.12243611 0.108867355 0.09924065 0.10311122 0.10865288 0.11755739
0.10218464 0.10635309 0.07713204 0.1402043 0.12371424 0.12904045 0.11962996 0.11591214
0.118554205 0.099639036 0.10831712 0.12667112 0.09343984 -0.03895542 0.11926272 0.10046458

net.1.1.running_mean f4 [64]
00000000: 49d4 2640 ab6d 4a40 1f47 0040 fc2b 2f40
00000010: afc0 e63f 6c6a 74bf 9def 2c40 a85c d1be
00000020: 3fd0 a9bf bd06 14bf 1070 1b3f 2a14 cebf
00000030: 37d7 b53f 6762 ef3b d5ba 4240 7ab0 fe3f
00000040: 00e5 db3f 52b8 873f ddf0 553f 7af1 0240
00000050: 7825 9c3f b5ea 603f 1ae9 2f40 eeec 0e40
00000060: 9be2 773f dc53 76bf 0b39 ed3f 85db 4c40
00000070: e072 bbbe 66b4 f23f e35d 4640 46ac e93e
00000080: 152e 22bf 4746 4340 f365 aa3f 1237 90bf
00000090: 523e 81be eb8f b73f 853e 2840 0cef 4340
000000a0: b0bf 263f 9216 4440 c3df 4b40 8cd4 7b3f
000000b0: 5bfc 603f c268 8f3e fff0 a13f 511d 4540
000000c0: 25e4 0cbf fbd1 963f 9013 4540 1aaa 93bf
000000d0: 46a9 ed3f 0f13 f13f 84bf 4740 cf8d cc3e
000000e0: 1e73 90be 9411 53bf 9381 5840 4b64 4640
000000f0: f6ea 373f fe4c bebd 2d53 453f 5be1 003f
2.6067069 3.1629436 2.004341 2.7370596 1.8027552 -0.95474887 2.7021248 -0.40891004
-1.3266677 -0.5782278 0.6071787 -1.6099904 1.4206303 0.0073054316 3.0426533 1.9897606
1.717926 1.0603125 0.83570653 2.0459886 1.2198935 0.87858135 2.7486024 2.233211
0.9683015 -0.9622171 1.8533033 3.2008984 -0.3661108 1.8961303 3.0994804 0.45639247
-0.63351566 3.0511644 1.3312362 -1.1266806 -0.2524286 1.4340795 2.628816 3.0614653
0.6513624 3.0638776 3.1855323 0.98371196 0.87885064 0.2800961 1.2651671 3.0799143
-0.5503562 1.1782831 3.079319 -1.1536286 1.8567283 1.8833941 3.1210642 0.3995194
-0.28212827 -0.824487 3.3829086 3.0998714 0.71842897 -0.09292029 0.7708004 0.50343865

net.1.1.running_var f4 [64]
00000000: 0c9f 4140 9771 5940 de33 2340 35fa 6d40
00000010: 6bb1 3040 9f81 c53f 8e9f 4c40 e971 f03f
00000020: 2861 ed3f 0046 5a40 fa2d 0e40 3957 e23f
00000030: 160d fe3f ba86 dd3f a872 5740 e860 2540
00000040: 6670 2340 1b14 cb3f c804 d43f ce99 5b40
00000050: 6f6c dc3f 36a7 cd3f 6080 4e40 5966 2c40
00000060: 938e 1640 b16b b93f 427e 0d40 c1d8 5940
00000070: fa42 ca3f 6d6a 3140 34f9 5340 7020 8e40
00000080: 4292 b23f c6bf 4440 964f f83f bb21 4c40
00000090: 41d1 a03f 6c22 1340 04f1 5540 c0ba 3c40
000000a0: 0b0c 9640 7911 5440 891e 4840 1f58 b03f
000000b0: 26bc b33f 0cd0 0d40 7fa3 e23f 338f 4540
000000c0: e5f4 c83f 07eb ef3f 8828 7840 ee5e b03f
000000d0: b448 0a40 7f69 3940 d260 4b40 3e8f 4840
000000e0: b3ca d43f 29b5 7240 21f3 6c40 1853 5440
000000f0: a13f d13f b393 603f 38eb c63f e5f8 883f
3.0253325 3.397558 2.5500407 3.7183964 2.7608287 1.5430182 3.1972384 1.8784763
1.8545275 3.4105225 2.2215562 1.7682868 1.9847744 1.730674 3.366373 2.5840397
2.5537353 1.5865511 1.6563959 3.4312625 1.7220591 1.6066654 3.2265854 2.6937468
2.352452 1.448599 2.2108312 3.4038546 1.580169 2.7721207 3.3120852 4.4414597
1.3950884 3.074205 1.9399288 3.1895587 1.2563859 2.298976 3.3428354 2.9488983
4.68897 3.3135664 3.1268637 1.3776892 1.4041793 2.2158232 1.7706145 3.0868652
1.5699736 1.87436 3.8774738 1.377897 2.1606874 2.897064 3.1777844 3.1337428
1.6624359 3.7923071 3.7023394 3.3175716 1.6347543 0.8772537 1.5540533 1.0700957

net.3.weight f4 [8, 64]
00000000: 9ba3 8cbc 9544 f63c 2a81 353c d760 02bd
00000010: 3357 d6bb 02f2 ddbc 2830 2d3c 7520 aebb
00000020: e689 8ebc 8fe7 31bd 00a1 8c3c 70d7 80bc
00000030: 16ad 27bd bdba c3bb 8b02 9e3b 89a3 23bc
00000040: b413 8f3c f02e ae3c 9a7a f8bb 8fc4 85b8
00000050: 8f05 e33c f132 183c 737e 0c3d cce0 3cbd
00000060: 7dcf a2bc 61a1 54bc b5d0 ca39 e431 b1bb
00000070: 1b62 9bbc 13b1 22bc ac41 323a 71c5 07bd
00000080: 495e 8abc 4840 4539 749e ddbc dae6 80bc
00000090: cab4 adbc 107e 12bc 028e efbb e237 453d
000000a0: 21c5 183c 2945 cabc eca0 323c 6747 0cbc
000000b0: 56d7 0e3c bdb3 493c ea47 97bb 44ea 2bbd
000000c0: e4ab 88bc 1c02 8abc 3956 df3c 549d 833b
000000d0: 2749 e9bc 96ba bb3c 133a 453c 8ea0 6fbc
000000e0: be0a aabc 553c 853a 2d48 82bc db00 b8bc
000000f0: 495e 04bd 8627 eb3c 3f9e 31bc 88b2 8039
00000100: 83ff dc3d c0d9 273e 61a2 283e 1c35 0a3e
00000110: 2b08 153e d82f 073e bfba 043e 13a4 c1bd
00000120: fa40 f4bd a09a 093e 2b5f dc3d 8e44 31bd
00000130: 3d87 113e b88f 613d d29d 083e 1267 183e
00000140: 2a2e 083e 1ff2 f73d ab23 cc3d 243c f93d
00000150: f180 d33d f9b1 0b3e 65f6 dc3d 487b 683e
00000160: cb9a e23d b8f8 043d 0731 003e 52e7 303e
00000170: 0ee2 23be 0a68 ec3d 59c1 e43d b471 833e
00000180: 8dfa f9bd 0825 f23d 0bc4 113e 67e0 cf3d
00000190: 18a4 15be b5c1 283e 2a5f e93d 0bbc 113e
000001a0: 4874 a93e 87b2 f83d bd5a 143e f29c 233e
000001b0: ea30 523e 49a3 003e e2ab ea3d 2dee 233e
000001c0: 47c6 72be 468a db3d d881 4f3e 0120 58bd
000001d0: 8208 033e 2d2d 333e 72fe 183e 76f8 163e
000001e0: e1e0 33be 0962 033e 2966 303e 904b ce3d
000001f0: df2e 323e 6283 c9bc 47e3 223e 1ba1 223e
00000200: 75b4 013e 4139 cb3d 196e c53d 8371 e83d
00000210: 6a47 ff3d 3518 ef3d a11c b53d e567 debd
00000220: 6191 aebd a34a d33d de76 d23d a42a 2ebd
00000230: 4ce8 ca3d ce02 503d 7826 db3d 0c52 c23d
00000240: 473d d33d bf5a 0b3e 5f3d ce3d db44 e43d
00000250: 0590 d83d 583e b93d 6f41 cd3d e9b3 083e
00000260: cee5 d73d 9641 36bb 0e95 db3d f71c c53d
00000270: 4b1a 24be dae2 cd3d 16c2 b23d e729 413e
00000280: ab09 e9bd daf9 e23d fc36 ce3d d77f b33d
00000290: 3503 13be a314 a83d 8747 cc3d 0ee9 da3d
000002a0: 032a 743e f2a9 c03d 0fd0 d53d ec26 dd3d
000002b0: f125 d23d 547a 0b3e d992 e53d 630f b83d
000002c0: 1bc0 26be 85a3 be3d 42b1 173e 1ca3 58bd
000002d0: 1308 ac3d 32a4 df3d 8691 c33d 625b f43d
000002e0: f09c f7bd 1d71 cc3d 3336 eb3d ad59 aa3d
000002f0: 5a73 c03d ca7c 803c 7412 e63d e0a0 ef3d
00000300: e9dd 2d3c 15b6 c13c f610 033b fa9e 1f3d
00000310: b8ba d1bc bb66 4fbc 34be 103c c917 813c
00000320: 1f76 c1bb a3aa 30bd 55d5 94bc 3052 ba3b
00000330: 8464 b63c b6be 11bd dbd5 0abd d817 263c
00000340: bbc7 86bb 01ea 3dbd bb24 713c d5a8 60bd
00000350: 64f2 b73c 6022 2f3c 64ea 27bd 23f7 58bc
00000360: 2a97 e13c b74d 1cbc 6d40 e5bb bba1 183b
00000370: 149c 823c f191 ddbb a674 c3bb 6e04 1e3d
00000380: 92b0 acbc cb9d 90bb 35bd adbb 8ab4 06bc
00000390: 79d5 28bc 95e2 62bc fb39 93bc fe15 c6bc
000003a0: 4a78 83bb 690b 1e3c 66a0 14bd d49c 783b
000003b0: 347b bf3c 9c46 80ba 04d5 193c 0429 49bc
000003c0: 529a 0dbd 6b13 37bd 8ff6 c73c 3a94 40bb
000003d0: 921b ebbb 296e 8b3c f18e 9dbb 3b04 2ebc
000003e0: cf75 823a d9b3 c83a 6bf7 78bc 87ed 14bd
000003f0: 0d5e ee3b 394d ea3c 2768 42bd 09d6 47bb
-0.017167857 0.030062 0.011078158 -0.031830635 -0.0065411567 -0.027092937 0.010570563 -0.005313928
-0.01739974 -0.043433722 0.017166615 -0.015727729 -0.040936552 -0.0059731887 0.0048220805 -0.00998772
0.01746545 0.021262616 -0.0075829746 -6.378546e-05 0.027712611 0.009289489 0.03430028 -0.04611282
-0.019874329 -0.012977929 0.0003868394 -0.0054075588 -0.018967679 -0.009929913 0.0006799947 -0.03314728
-0.016890662 0.0001881133 -0.027053095 -0.015735079 -0.021204371 -0.008941188 -0.00731063 0.048148997
0.009324343 -0.024691181 0.010902625 -0.0085619455 0.008718332 0.012310919 -0.004616727 -0.04197146
-0.016683526 -0.016846709 0.027262794 0.0040165577 -0.028477265 0.02291612 0.012037772 -0.014625682
-0.020757075 0.0010165075 -0.015903557 -0.022461345 -0.03231648 0.02870537 -0.010840951 0.0002454708
0.107909225 0.16391659 0.16468193 0.13496822 0.14553897 0.13201845 0.12961863 -0.09455123
-0.11926456 0.13437891 0.10760339 -0.04327827 0.14211746 0.0550687 0.13341454 0.14883068
0.1329886 0.12106728 0.099677406 0.12169674 0.10327328 0.1364211 0.107891835 0.22703278
0.11064681 0.03246376 0.12518702 0.17275742 -0.16004202 0.115432814 0.11169691 0.25672686
-0.12205992 0.118234694 0.1423494 0.10150223 -0.14613378 0.16480143 0.11395104 0.14231889
0.33096528 0.121434264 0.14487739 0.15977839 0.20526472 0.12562288 0.11458565 0.16008826
-0.2370845 0.10719733 0.20264375 -0.052764896 0.12796214 0.17497702 0.14940813 0.14743218
-0.17566253 0.12830366 0.17226471 0.10073006 0.17400692 -0.024598781 0.15907012 0.1588177
0.12666495 0.0992303 0.0964014 0.11349776 0.12464793 0.11674539 0.08843351 -0.1085966
-0.085238226 0.1031697 0.10276578 -0.042521134 0.09907588 0.050783925 0.10700697 0.094883054
0.10314422 0.13608836 0.10070299 0.11145946 0.105743445 0.09045094 0.10022246 0.1334988
0.10541879 -0.0027810088 0.10721789 0.09624665 -0.16025655 0.10053034 0.08728425 0.1886364
-0.11378797 0.11082812 0.10069081 0.08764618 -0.14356692 0.08207061 0.0997458 0.10688983
0.23844151 0.094074145 0.10440075 0.107984394 0.10261143 0.13620883 0.112096496 0.0898731
-0.1628422 0.093085326 0.14813712 -0.05288993 0.083999775 0.1091999 0.09549241 0.119314924
-0.1209048 0.09982512 0.11484947 0.083178855 0.093970016 0.015684504 0.112339884 0.11700606
0.01061199 0.023646394 0.0019999123 0.03896997 -0.02560173 -0.01265877 0.00883441 0.015758412
-0.0059039737 -0.04313148 -0.01816813 0.005686067 0.022264726 -0.035582267 -0.033895355 0.010137521
-0.004113165 -0.04636574 0.01471823 -0.05484851 0.022454448 0.010689348 -0.040995017 -0.013242516
0.027537901 -0.009540013 -0.0069962055 0.0023289758 0.015943564 -0.0067617823 -0.0059648333 0.038578443
-0.021080289 -0.0044133416 -0.0053020963 -0.008221755 -0.010304802 -0.013847967 -0.017971983 -0.024180409
-0.0040121423 0.009646275 -0.03628578 0.0037935274 0.023374178 -0.0009786668 0.009389166 -0.012277845
-0.034571 -0.044696253 0.02440956 -0.0029385225 -0.0071749175 0.017020302 -0.0048082997 -0.010621126
0.0009953323 0.0015312388 -0.015195708 -0.036359336 0.0072743953 0.028601276 -0.04746261 -0.0030492565

net.3.bias f4 [8]
00000000: 77e1 c1bb c80b c73d dff7 a33d 386d 1fbb
00000010: de3b a73d d9b6 26bc 8903 abbc 502e 553e
-0.00591677 0.09719044 0.08006262 -0.0024326574 0.08165716 -0.01017543 -0.02087571 0.20818448

net.5.weight f4 [1, 8]
00000000: 080f 533c 90d1 2dbe f230 41be 5146 2c3c
00000010: 8cb9 36be ce97 e5bc 77ad bc3b 8504 e63e
0.012882002 -0.16974473 -0.18866327 0.010514812 -0.17844218 -0.028026488 0.0057579833 0.44925323
