checkpoints/RelationNet/distance_net_on_Omniglot_100.pth (torch, 453139 bytes, 15 tensors)

net.0.0.weight f4 [64, 128, 3, 3]
0.004276145 -0.052607615 0.00030455983 0.08472241 0.0103117805 0.026744993 0.040092867 0.047182713
0.022075277 -0.03799612 -0.061698385 -0.032975093 0.062294237 -0.053443912 -0.012036564 0.039441377
-0.03285118 -0.040916424 0.047745004 0.02325835 0.00048385395 -0.017304774 0.02577427 -0.012086166
-0.054134563 -0.002848877 -0.019664377 0.07256415 0.051320765 0.093428925 0.06921433 0.016145311
0.06051867 0.14051297 0.053502295 0.07705246 0.06472185 0.06520148 -0.005113759 -0.016161868
0.015924685 0.005074544 -0.029182564 0.0027234324 -0.027289731 0.0032212285 0.03041102 -0.10181735
0.012257486 -0.024037236 -0.051196203 0.10159058 0.070529275 -0.048885006 0.0507793 0.007718502
0.048656274 0.10529487 0.09784906 0.094291836 0.0041994867 0.04568769 0.06348922 0.07265698
0.08328272 0.050960537 0.10221843 0.105261415 0.06281028 0.07793373 0.05297059 0.026724994
-0.05439686 -0.024506506 0.020350097 0.042313263 -0.0031403843 0.025880288 -0.027375583 -0.02838664
-0.03152855 -0.033253737 -0.084142014 -0.07098982 0.009169082 -0.007540606 -0.0645036 0.03931935
-0.019314429 -0.050360885 -0.082901955 -0.05114753 -0.040513866 -0.048900254 -0.024831388 -0.020553853
-0.05528998 -0.03358346 -0.04816187 0.07354102 0.035483547 -0.019226665 0.112685494 0.12319786
0.06761988 0.04540789 0.08528038 0.033521153 -0.013972585 -0.012088412 -0.05537049 0.015327011
-0.033301555 -0.07392776 -0.13595179 -0.09545708 -0.104780525 0.0035373804 -0.043629464 -0.054540385
0.03574789 0.032604247 -0.004303291 0.020577306 0.032692917 0.0020928874 0.017972354 0.042639673
0.04184126 -0.0015486492 -0.018775094 -0.01907376 -0.006180486 -0.07655106 -0.06575733 -0.021013796
-0.042481378 0.030625803 0.065747306 0.004975488 0.023929656 0.03374006 0.02010742 0.013982687
0.04863234 0.05068295 -0.02905486 0.10344723 0.06641289 -0.004015411 -0.005513959 -0.025791077
-0.0993429 0.023052257 0.0077721495 -0.0022692706 0.07383067 0.043069348 -0.030168574 -0.1184584
-0.032584973 -0.050013557 -0.055642545 -0.093791075 -0.105059244 -0.0045160693 -0.037552517 -0.03223193
0.048668098 -0.06973407 -0.07925655 -0.021303998 -0.0654073 -0.03345473 -0.08043012 -0.1062476
-0.0919561 -0.13410833 -0.13913058 -0.091506004 -0.0035706565 0.003594287 0.05083828 0.032860786
-0.007444152 0.06889984 0.02934305 0.0048828106 0.0022116944 0.093024865 0.025250351 -0.03731458
0.13166913 0.042721126 -0.0016494822 0.07249227 -0.012409884 -0.04907413 -0.017174102 0.026654953
-0.0037733992 0.1364571 0.07069675 0.026610322 0.09931839 0.090551026 0.058311746 0.078412056
0.07793899 0.008933713 0.10152284 0.09005065 0.081775896 0.04273671 0.08221059 0.071768485
0.055030692 0.05197919 0.066262335 0.0070557036 -0.004050258 -0.04330228 -0.027441852 0.054798365
6.186443e-05 -0.029831909 -0.017392224 0.011553549 -0.012450067 -0.03967167 -0.036813486 -0.056295376
0.004850057 -0.023222148 -0.026827302 -0.046339583 -0.10774978 0.073988035 0.013761132 -0.058391668
-0.004218469 -0.017140586 0.0019446433 0.03535055 -0.0060428297 -0.02609655 -0.038654495 -0.017613038
-0.042424463 -0.02923806 -0.023313152 0.0038950464 0.045301553 0.07869714 0.0347327 0.091455705
00000000: e71e 8c3b 157b 57bd 54ad 9f39 f182 ad3d
00000010: bef2 283c 5118 db3c 6b38 243d a942 413d
00000020: 36d7 b43c d2a1 1bbd 72b7 7cbd e410 07bd
00000030: 3e28 7f3d 01e8 5abd 0235 45bc 488d 213d
00000040: f58e 06bd fb97 27bd 4490 433d 4c88 be3c
00000050: c7ad fd39 bec2 8dbc 9024 d33c 0e05 46bc
00000060: 34bc 5dbd 3ab4 3abb 3017 a1bc 839c 943d
00000070: b935 523d aa57 bf3d 3ec0 8d3d 2c43 843c
00000080: 6de2 773d a2e2 0f3e 3925 5b3d aecd 9d3d
00000090: e48c 843d 5b88 853d 5291 a7bb e565 84bc
000000a0: 7c74 823c 5c48 a63b 4610 efbc 9d7b 323b
000000b0: b78e dfbc 3f1b 533b 8820 f93c 9d85 d0bd
000000c0: 9fd3 483c bde9 c4bc 1cb3 51bd b90e d03d
000000d0: a771 903d a53b 48bd f5fd 4f3d 7deb fc3b
000000e0: cd4b 473d d6a4 d73d 1765 c83d 141c c13d
000000f0: d99b 893b 0423 3b3d a306 823d 2fcd 943d
00000100: 2190 aa3d ffbb 503d e557 d13d 4c93 d73d
00000110: ada2 803d b89b 9f3d b0f7 583d 60ee da3c
00000120: 3ecf 5ebd dec1 c8bc 3fb5 a63c ac50 2d3d
00000130: e8ce 4dbb e602 d43c c242 e0bc 198b e8bc
00000140: 1524 01bd 1235 08bd a652 acbd 1c63 91bd
00000150: eb39 163c 3017 f7bb 771a 84bd 540d 213d
00000160: 4b39 9ebc 3747 4ebd 80c8 a9bd 1380 51bd
00000170: def1 25bd a24b 48bd 326b cbbc 8e60 a8bc
00000180: bf77 62bd cf8e 09bd 6245 45bd ad9c 963d
00000190: 3257 113d 3d81 9dbc a7c7 e63d 294f fc3d
000001a0: 4b7c 8a3d a0fd 393d 7ba7 ae3d 7a4d 093d
000001b0: 45ed 64bc 7a0e 46bc 2bcc 62bd 251e 7b3c
000001c0: 3667 08bd 7067 97bd f236 0bbe 007f c3bd
000001d0: 2c97 d6bd 65d3 673b cfb4 32bd bd65 5fbd
000001e0: 616c 123d 088c 053d 9f02 8dbb bd91 a83c
000001f0: 02e9 053d d328 093b c23a 933c f0a6 2e3d
00000200: be61 2b3d 0bfc caba 3ace 99bc 9340 9cbc
00000210: ad85 cabb cdc6 9cbd c7ab 86bd 2025 acbc
00000220: f400 2ebd f7e2 fa3c 86a6 863d 6b09 a33b
00000230: 2008 c43c 0433 0a3d 51b8 a43c a417 653c
00000240: b432 473d ed98 4f3d 7504 eebc 24dc d33d
00000250: 7b03 883d b593 83bb 71ae b4bb cf47 d3bc
00000260: 4a74 cbbd 16d8 bc3c 84ad fe3b 0bb8 14bb
00000270: 8934 973d 7c69 303d 1624 f7bc 519a f2bd
00000280: d277 05bd 04db 4cbd 70e9 63bd 8915 c0bd
00000290: 4d29 d7bd 89fb 93bb abd0 19bd a105 04bd
000002a0: 3358 473d bcd0 8ebd 4251 a2bd b985 aebc
000002b0: 43f4 85bd d407 09bd 8cb8 a4bd 5798 d9bd
000002c0: 7b53 bcbd b253 09be 3f78 0ebe 8067 bbbd
000002d0: ad01 6abb 218e 6b3b cd3b 503d 0899 063d
000002e0: 13ee f3bb 5c1b 8d3d d660 f03c fcff 9f3b
000002f0: 13f2 103b d283 be3d d3d9 ce3c 2cd7 18bd
00000300: 46d4 063e 59fc 2e3d 7033 d8ba d476 943d
00000310: d352 4bbc f401 49bd b4b0 8cbc 7d5b da3c
00000320: 224b 77bb 69bb 0b3e 75c9 903d e4fd d93c
00000330: 7167 cb3d d172 b93d 4cd8 6e3d 8096 a03d
00000340: 7a9e 9f3d b55e 123c 35eb cf3d 7a6c b83d
00000350: 1f7a a73d b00c 2f3d 075e a83d 5bfb 923d
00000360: dd67 613d 22e8 543d 8cb4 873d 8833 e73b
00000370: 07b8 84bb bb5d 31bd bccd e0bc 4074 603d
00000380: 37bd 8138 0c62 f4bc 237a 8ebc 194b 3d3c
00000390: 5efb 4bbc c37e 22bd bdc9 16bd fb95 66bd
000003a0: 3aed 9e3b 603c bebc eec4 dbbc 93ce 3dbd
000003b0: ebab dcbd 0a87 973d 5f76 613c 1a2c 6fbd
000003c0: 153b 8abb 6a6a 8cbc 67e3 fe3a bdcb 103d
000003d0: ee02 c6bb 6fc8 d5bc 2d54 1ebd 3849 90bc
000003e0: 46c5 2dbd a884 efbc 39fb bebc 0944 7f3b
000003f0: 1f8e 393d f72b a13d e043 0e3d 214d bb3d

net.0.0.bias f4 [64]
0.00024565074 4.8762395e-05 -0.00021911775 0.00010855622 3.7087666e-05 0.00017927423 -1.30334365e-05 7.511288e-05
0.0003167308 0.0011553543 -0.0002557873 -0.0005412052 0.0003681692 0.00050418224 -0.00046282986 0.000114799965
2.3175526e-05 -5.2686104e-05 8.590518e-05 -6.7012734e-05 5.2509815e-05 0.00019461471 -2.3003724e-05 7.160437e-05
-9.38105e-05 -1.0336687e-06 -0.00018462245 -0.0002053888 -0.00014117626 7.779491e-05 8.191852e-05 8.9592926e-05
0.00027917136 -9.2448805e-05 7.296268e-05 -4.7236634e-05 -9.618928e-05 0.0003164784 9.513865e-05 0.00013960377
-2.6631496e-06 0.0015362081 -3.196321e-05 1.9001494e-05 0.0003233313 1.5770687e-05 0.00013199472 0.0002646361
-5.235619e-05 0.0005452546 -3.4755627e-05 0.00027142305 0.000101605176 9.55675e-05 -0.00035166668 -0.0004352712
0.00012960387 0.000331716 0.00020398223 -9.5073614e-05 -0.0003772066 -0.00013950389 8.182763e-05 -1.1576411e-05
00000000: afca 8039 3986 4c38 f9c2 65b9 ada8 e338
00000010: 948e 1b38 8ffb 3b39 2faa 5ab7 ec85 9d38
00000020: e30e a639 426f 973a 311b 86b9 abdf 0dba
00000030: d506 c139 192b 043a f9a7 f2b9 c3c0 f038
00000040: 1069 c237 46fb 5cb8 fe27 b438 3089 8cb8
00000050: fc3d 5c38 7d11 4c39 1ff8 c0b7 4e2a 9638
00000060: 21bc c4b8 96bc 8ab5 3697 41b9 a35d 57b9
00000070: b708 14b9 d325 a338 accb ab38 d6e3 bb38
00000080: bf5d 9239 13e1 c1b8 8a03 9938 f31f 46b8
00000090: 3ab9 c9b8 03ed a539 2c85 c738 9a62 1239
000000a0: 90b8 32b6 975a c93a 3c10 06b8 6665 9f37
000000b0: cb84 a939 4b4b 8437 1068 0a39 dbbe 8a39
000000c0: 0899 5bb8 6bef 0e3a 92c6 11b8 c94d 8e39
000000d0: dd14 d538 696b c838 e75f b8b9 1d35 e4b9
000000e0: 46e6 0739 2bea ad39 10e4 5539 4262 c7b8
000000f0: d0c3 c5b9 ca47 12b9 e09a ab38 4f38 42b7

net.0.1.weight f4 [64]
1.0088029 0.8066833 0.8883307 0.91764474 0.96236145 0.9823686 1.0772585 0.86450064
0.92073333 1.100903 1.0175749 0.97481537 1.0726448 1.0947523 1.0682846 0.8540102
0.9514599 0.92682856 0.8067095 0.8559162 0.78955513 0.8458723 1.0580838 1.0243603
0.9721102 0.9714474 0.90949434 0.8969234 0.8765035 0.7769465 0.8558976 0.9131466
0.89487255 0.93063164 0.867732 0.92958856 0.848023 0.82339495 1.0713582 0.8644316
0.9352593 1.068439 0.97194546 0.91178185 0.94290966 0.957323 0.86749846 0.98567444
0.8531226 1.000846 0.9285824 0.9349543 0.83136123 1.0070397 0.9822177 0.9727511
0.92986715 1.0237114 0.9225121 1.0249532 1.009822 0.9933482 0.9825108 0.8631341
00000000: 7420 813f cc82 4e3f a469 633f c4ea 6a3f
00000010: 525d 763f 827c 7b3f 9be3 893f ea4f 5d3f
00000020: 2eb5 6b3f 64ea 8c3f e53f 823f 808d 793f
00000030: 6d4c 893f d820 8c3f 8dbd 883f 6aa0 5a3f
00000040: e092 733f a344 6d3f 8484 4e3f 531d 5b3f
00000050: 4920 4a3f 168b 583f 4a6f 873f 3d1e 833f
00000060: 37dc 783f c7b0 783f 9fd4 683f c69c 653f
00000070: 8962 603f f7e5 463f 1b1c 5b3f fac3 693f
00000080: 5e16 653f e03d 6e3f af23 5e3f 84f9 6d3f
00000090: 0918 593f 03ca 523f 4422 893f 644b 5d3f
000000a0: 276d 6f3f 9cc2 883f 6bd1 783f 896a 693f
000000b0: 8762 713f 1f13 753f 6114 5e3f 2955 7c3f
000000c0: 3e66 5a3f b91b 803f 93b7 6d3f 2a59 6f3f
000000d0: 17d4 543f ade6 803f 9f72 7b3f 3706 793f
000000e0: c60b 6e3f fa08 833f c129 6c3f ab31 833f
000000f0: d941 813f 114c 7e3f d485 7b3f 5bf6 5c3f

net.0.1.bias f4 [64]
-0.21231766 -0.13972452 -0.1986298 -0.12573107 -0.09003828 -0.22352473 -0.17081623 -0.1639068
-0.1540513 -0.20859656 -0.15766853 -0.14120077 -0.16323812 -0.17058998 -0.21875626 -0.14219947
-0.09352384 -0.17153266 -0.22690746 -0.20284927 -0.20284544 -0.2839715 -0.19574572 -0.24564274
-0.2553048 -0.16697636 -0.1872063 -0.10164905 -0.17020334 -0.2712361 -0.14920703 -0.13748214
-0.16600029 -0.16990176 -0.24156326 -0.09330493 -0.25214878 -0.23845333 -0.18400766 -0.27366564
-0.13659702 -0.2081452 -0.12142893 -0.1786134 -0.08132821 -0.14240716 -0.15496056 -0.15025607
-0.22151071 -0.20834906 -0.17397468 -0.23689078 -0.16290037 -0.16746205 -0.15383497 -0.13199815
-0.1553439 -0.1746885 -0.16065161 -0.26184314 -0.073894806 -0.11972207 -0.13752523 -0.10858542
00000000: cd69 59be f213 0fbe 9c65 4bbe a5bf 00be
00000010: fd65 b8bd abe3 64be 73ea 2ebe 2fd7 27be
00000020: a0bf 1dbe 569a 55be dc73 21be ef96 10be
00000030: e527 27be 24af 2ebe a401 60be bd9c 11be
00000040: 6d89 bfbd 42a6 2fbe 6e5a 68be b8b7 4fbe
00000050: b7b6 4fbe b664 91be 9171 48be c589 7bbe
00000060: 50b7 82be dafb 2abe 02b3 3fbe 612d d0bd
00000070: c949 2ebe 75df 8abe bac9 18be 1ec8 0cbe
00000080: fbfb 29be bafa 2dbe 5c5c 77be a816 bfbd
00000090: a519 81be 1c2d 74be 816c 3cbe e71d 8cbe
000000a0: 17e0 0bbe 0424 55be bbaf f8bd 6ee6 36be
000000b0: 688f a6bd 2fd3 11be fbad 1ebe badc 19be
000000c0: b4d3 62be 7559 55be 6b26 32be 7f93 72be
000000d0: 5bcf 26be 2c7b 2bbe ea86 1dbe 862a 07be
000000e0: 7912 1fbe 8be1 32be db81 24be 4e10 86be
000000f0: 2956 97bd d830 f5bd 6ad3 0cbe 0862 debd

net.0.1.running_mean f4 [64]
-1.6075832 -1.9163297 -6.23353 -6.196563 1.1022263 -1.6063173 -2.170485 -5.7412524
-5.9840784 -2.5672367 -2.152263 2.446975 -2.1690853 -2.105046 -1.7937546 -7.8605013
6.810298 -8.133343 -4.246685 -4.0396733 -2.8090346 -0.36619723 -2.2567255 -1.1843725
-1.8350661 3.546215 3.6508393 -5.66703 -9.005132 -1.0101104 -6.484352 -2.7928514
-2.7827528 -0.45862556 -2.2992716 -5.5462255 -1.833221 0.45712155 -2.02868 3.3854795
-3.522442 -2.0635717 -4.550889 -5.916539 -4.7583237 -1.6428995 -4.596644 -1.2808211
-1.899109 -2.340225 -2.2114422 -0.5450356 -4.858079 -3.204712 -2.3677027 -5.2929726
-3.9877841 -2.3483455 -8.107444 -1.2949462 -2.6404157 -1.9000653 -0.6774887 -5.476764
00000000: 49c5 cdbf 4b4a f5bf 1479 c7c0 3e4a c6c0
00000010: c015 8d3f ce9b cdbf 3ae9 0ac0 57b8 b7c0
00000020: 927d bfc0 9b4d 24c0 adbe 09c0 3d9b 1c40
00000030: 4bd2 0ac0 13b9 06c0 c099 e5bf 3a89 fbc0
00000040: f6ed d940 2c22 02c1 d8e4 87c0 0145 81c0
00000050: 39c7 33c0 347e bbbe 316e 10c0 8599 97bf
00000060: 72e3 eabf 30f5 6240 5aa7 6940 4f58 b5c0
00000070: 0515 10c1 4c4b 81bf d07f cfc0 14be 32c0
00000080: 9f18 32c0 f8d0 eabe 4427 13c0 ae7a b1c0
00000090: fca6 eabf d60b ea3e e5d5 01c0 b2ab 5840
000000a0: b16f 61c0 8f11 04c0 e2a0 91c0 4a54 bdc0
000000b0: 3044 98c0 884a d2bf b517 93c0 f2f1 a3bf
000000c0: 0116 f3bf 3fc6 15c0 4588 0dc0 7487 0bbf
000000d0: 6275 9bc0 001a 4dc0 7188 17c0 0860 a9c0
000000e0: db37 7fc0 4b4b 16c0 17b8 01c1 ccc0 a5bf
000000f0: 92fc 28c0 5735 f3bf e66f 2dbf a741 afc0

net.0.1.running_var f4 [64]
8.031828 11.997036 10.959899 10.063069 11.547789 6.9186416 7.7197976 16.830942
8.633169 10.802635 8.115177 9.476567 8.942904 10.227383 8.364861 14.13846
13.229116 9.73819 10.047058 9.727298 17.401827 9.920135 8.238533 5.354751
9.315158 10.616426 7.6158056 9.183212 6.7777324 9.557637 17.46723 16.955652
12.417385 13.800699 11.307494 10.732548 9.84249 8.071001 10.596278 8.4184475
12.010437 8.124187 12.354121 13.465908 5.375067 7.8362055 13.157581 6.401925
8.782922 6.3708515 13.481501 7.3803496 18.39323 7.070124 8.608761 11.220502
7.7716312 10.130683 13.080953 7.260815 7.1599016 11.166072 9.815204 12.339857
00000000: 5e82 0041 dcf3 3f41 bf5b 2f41 5502 2141
00000010: bec3 3841 8365 dd40 9508 f740 c5a5 8641
00000020: 7621 0a41 98d7 2c41 c4d7 0141 05a0 1741
00000030: 2316 0f41 5ca3 2341 78d6 0541 2237 6241
00000040: 76aa 5341 a0cf 1b41 c0c0 2041 03a3 1b41
00000050: f136 8b41 dfb8 1e41 08d1 0341 1f5a ab40
00000060: e30a 1541 e2dc 2941 aeb4 f340 70ee 1241
00000070: 2fe3 d840 15ec 1841 e3bc 8b41 2da5 8741
00000080: 9cad 4641 aacf 5c41 7feb 3441 84b8 2b41
00000090: d77a 1d41 d222 0141 5b8a 2941 f6b1 0641
000000a0: c02a 4041 acfc 0141 7baa 4541 5c74 5741
000000b0: 8d00 ac40 32c2 fa40 7485 5241 92dc cc40
000000c0: d986 0c41 04de cb40 3ab4 5741 d32b ec40
000000d0: 5625 9341 753e e240 7cbd 0941 2d87 3341
000000e0: 34b1 f840 4717 2241 954b 5141 9958 e840
000000f0: ea1d e540 3ba8 3241 130b 1d41 0e70 4541

net.1.0.weight f4 [64, 64, 3, 3]
-0.008845081 0.0019258487 -0.07197888 0.020295544 -0.051231377 0.017644174 -0.0014840794 0.056998912
0.15101348 -0.12481968 0.026979705 0.017648583 -0.017076673 0.009834636 -0.08855622 -0.010805119
0.058123592 -0.06673118 -0.043438636 -0.11195106 -0.06807516 0.056341473 -0.1020159 -0.07829971
-0.023020975 -0.1288578 -0.097598605 0.048504997 -0.0069501926 -0.045320127 -0.0024541337 0.00019154277
0.009977948 -0.0098602325 -0.02184952 -0.012323675 -0.058187224 0.038497478 -0.034653988 0.039519846
-0.005356943 -0.030085044 0.0015394174 -0.036197197 -0.023192782 0.047225166 -0.004594684 -0.0053403396
0.042959694 0.03008335 0.07413033 0.09630007 0.08737809 0.08277577 0.14419322 0.015267759
0.043780927 0.061362844 0.08988649 0.07752927 0.021488532 0.06988245 0.02168413 0.022543255
-0.035919204 -0.020337401 0.029880408 -0.022999382 -0.007478272 0.0283812 -0.010802953 -0.036320034
0.027869215 -0.018841932 0.04801783 0.04966713 -0.039870493 0.07339661 -0.006678005 -0.051901605
-0.007884353 0.011407866 0.017215703 0.13411574 -0.026053911 -0.0040555024 0.19919516 -0.017669974
0.045001376 0.31209663 0.021625835 -0.017901532 -0.044932935 -0.023112344 -0.08554774 0.0820952
-0.03434979 -0.010732067 0.15902005 0.043730006 0.025413165 0.005442225 -0.012520221 -0.016598236
-0.04213854 0.02086121 -0.054274667 -0.010371469 -0.024371 -0.032098893 -0.026768867 -0.0977389
-0.043807473 0.09832422 -0.07403562 0.114828214 0.21342693 0.013028571 0.0018088901 -0.020730162
-0.0090069985 0.038094677 0.15194708 -0.009040162 0.06439679 0.1573669 0.005979407 0.028667903
0.022709038 -0.06928916 0.03970641 0.10460383 -0.014157837 0.13306783 0.16885059 0.010485043
0.0047815912 -0.02403133 0.04366798 0.008472981 0.0029741449 -0.023404567 0.0076290695 -0.03351855
-0.049015623 0.029085133 0.06324098 -0.020319376 -0.019854683 0.012531506 -0.046387047 -0.03568625
-0.021695683 0.043310832 0.039870884 -0.07212922 -0.012991077 -0.009051399 0.035168685 -0.07018768
-0.01865712 0.015598909 0.0094074765 -0.10170927 -0.040457588 0.021517863 -0.06954391 -0.07834621
0.060281098 -0.106523745 -0.060049176 0.003906573 0.020279096 -0.0005440239 -0.0019841797 -0.015902512
0.027257109 -0.01785397 -0.02801847 -0.05222921 -0.060166106 -0.016837886 -0.020949986 -0.06306187
0.034814015 0.04906108 -0.057950046 0.06213759 -0.041806996 0.035404816 -0.07238094 0.0051518944
0.007261713 -0.040438138 -0.065894924 -0.011264123 0.011530203 -0.037001252 -0.0045193597 -0.018610073
-0.105483815 -0.041220445 -0.010791959 0.052808058 -0.009557972 0.055840712 0.11752125 0.04113832
-0.05659462 0.017093543 -0.03530779 -0.015689071 0.1745351 -0.053736705 0.043202613 0.16864787
0.02954081 -0.03767494 0.048744027 -0.014707496 -0.032263298 0.02631438 0.04043245 0.07910629
0.07602289 -0.015332869 0.014957773 0.047635075 -0.014376403 0.014853678 -0.02405784 -0.020855116
0.03248462 -0.0594191 -0.0024658614 0.015825935 -0.03459049 -0.050377958 0.05080059 -0.039578192
0.012911172 -0.03608907 -0.03154161 -0.019772453 0.03094176 7.119934e-05 0.03252239 -0.01606407
0.023915216 -0.02667718 -0.026042638 -0.04687728 0.014556199 0.038631395 -0.031922482 -0.031500153
00000000: f5ea 10bc c26c fc3a aa69 93bd d742 a63c
00000010: fed7 51bd 848a 903c 7185 c2ba b177 693d
00000020: 47a3 1a3e 76a1 ffbd 8b04 dd3c c393 903c
00000030: 61e4 8bbc 7421 213c f75c b5bd f407 31bc
00000040: 0113 6e3d 5baa 88bd b6ec 31bd 9946 e5bd
00000050: fd6a 8bbd 51c6 663d b6ed d0bd 995b a0bd
00000060: 7c96 bcbc 4df3 03be c7e1 c7bd 2dad 463d
00000070: 71be e3bb 99a1 39bd 88d5 20bb dfd8 4839
00000080: 8c7a 233c d08c 21bc c4fd b2bc 3de9 49bc
00000090: ba55 6ebd 88af 1d3d 57f1 0dbd 90df 213d
000000a0: 4b89 afbb e974 f6bc 47c6 c93a 8343 14bd
000000b0: cafe bdbc 2d6f 413d 018f 96bb 04fe aebb
000000c0: 81f6 2f3d 5c71 f63c a4d1 973d f938 c53d
000000d0: 49f3 b23d 5886 a93d 63a7 133e 9f25 7a3c
000000e0: a153 333d 9b57 7b3d 6816 b83d aac7 9e3d
000000f0: b808 b03c 881e 8f3d eba2 b13c a2ac b83c
00000100: 0420 13bd 9f9a a6bc c2c7 f43c 3369 bcbc
00000110: 4b0c f5bb b17f e83c defe 30bc 51c4 14bd
00000120: fb4d e43c 655a 9abc 58ae 443d c36f 4b3d
00000130: 3e4f 23bd f650 963d 2bd3 dabb c796 54bd
00000140: 602d 01bc 0fe8 3a3c f207 8d3c a355 093e
00000150: 036f d5bc 05e4 84bb d1f9 4b3e 9fc0 90bc
00000160: 5d53 383d 21cb 9f3e aa28 b13c 3ca6 92bc
00000170: 990b 38bd 1956 bdbc a733 afbd 8721 a83d
00000180: 5eb2 0cbd 8dd5 2fbc 27d6 223e 3c1e 333d
00000190: 452f d03c b154 b23b 9d21 4dbc 06f9 87bc
000001a0: 7699 2cbd 21e5 aa3c 1d4f 5ebd 18ed 29bc
000001b0: b1a5 c7bc 217a 03bd 624a dbbc 552b c8bd
000001c0: 776f 33bd 355e c93d fd9f 97bd 0e2b eb3d
000001d0: 978c 5a3e ca75 553c 4818 ed3a 4dd2 a9bc
000001e0: 1792 13bc 2a09 1c3d 0498 1b3e 301d 14bc
000001f0: 77e2 833d ca24 213e e7ee c33b f3d8 ea3c
00000200: 4e08 ba3c 7ae7 8dbd 30a3 223d 883a d63d
00000210: 46f6 67bc ef42 083e 2be7 2c3e 75c9 2b3c
00000220: e5ae 9c3b 5add c4bc 32dd 323d 42d2 0a3c
00000230: dfe9 423b efba bfbc 46fd f93b bf4a 09bd
00000240: 9bc4 48bd f243 ee3c 7d84 813d d274 a6bc
00000250: 4aa6 a2bc f250 4d3c 5800 3ebd bf2b 12bd
00000260: 25bb b1bc b366 313d a74f 233d 7cb8 93bd
00000270: 87d8 54bc 524c 14bc 0a0d 103d 8fbe 8fbd
00000280: d1d6 98bc 9192 7f3c d121 1a3c f34c d0bd
00000290: dbb6 25bd 3b46 b03c 0a6d 8ebd fa73 a0bd
000002a0: 50e9 763d 1f29 dabd 20f6 75bd b602 803b
000002b0: 5920 a63c d39c 0eba 0309 02bb fc45 82bc
000002c0: 4d4a df3c 7d42 92bc fe86 e5bc 4cee 55bd
000002d0: bc70 76bd 9bef 89bc 4e9f abbc 9526 81bd
000002e0: 2499 0e3d 45f4 483d 075d 6dbd fc83 7e3d
000002f0: d03d 2bbd a404 113d 753c 94bd 39d1 a83b
00000300: aaf3 ed3b 76a2 25bd ebf3 86bd 288d 38bc
00000310: 2de9 3c3c a08e 17bd 2317 94bb 2774 98bc
00000320: e607 d8bd c5d6 28bd c2d0 30bc 434d 583d
00000330: 0a99 1cbc 3bb9 643d fbae f03d a880 283d
00000340: c3cf 67bd c207 8c3c e79e 10bd 5e86 80bc
00000350: 54b9 323e 051b 5cbd 39f5 303d 07b2 2c3e
00000360: 92ff f13c 0a51 1abd d1a7 473d b6f7 70bc
00000370: 8526 04bd 4191 d73c 7f9c 253d 7b02 a23d
00000380: e4b1 9b3d b736 7bbc 7211 753c ff1c 433d
00000390: 018b 6bbc d75c 733c f314 c5bc 59d8 aabc
000003a0: 980e 053d 7161 73bd 4a9a 21bb 64a5 813c
000003b0: c2ae 0dbd 1e59 4ebd 4814 503d be1c 22bd
000003c0: 6189 533c 22d2 13bd c631 01bd d7f9 a1bc
000003d0: 9379 fd3c db50 9538 3336 053d cc98 83bc
000003e0: d8e9 c33c 1a8a dabc 5f57 d5bc 6402 40bd
000003f0: 207d 6e3c f43b 1e3d 26c1 02bd 4e06 01bd

net.1.0.bias f4 [64]
0.00018106058 0.00015091443 0.00014418797 -5.300391e-05 -0.00017516084 0.00021605802 1.9760324e-05 2.20661e-05
0.00037365218 -5.6806657e-05 -2.0631325e-05 -5.024947e-05 -1.26471705e-05 9.8554345e-05 0.00027512514 8.60592e-05
2.2252452e-05 -0.0001466316 -2.5098561e-06 0.00022732583 -1.3711249e-06 -0.00021235696 0.0009328489 0.00015151808
-5.7213514e-05 -6.8437075e-05 -5.712719e-05 -9.879e-05 -1.6241713e-05 0.001855958 0.00012116001 0.000119244454
0.0018233325 -0.00010811369 -0.000188574 -1.05067775e-05 7.473612e-05 0.0001315505 -0.00019379678 -5.803424e-05
0.00026443656 0.00022822895 9.1314025e-05 -5.2107134e-05 0.00018257802 0.00015805784 -6.350261e-05 8.355206e-05
-5.878146e-06 6.532887e-05 0.00018245948 -0.00030767228 9.93842e-05 -2.0005069e-05 -1.4117796e-05 0.00019721722
0.00028983448 8.849155e-05 0.00016294495 0.0001161629 -7.127129e-05 0.00013221336 -7.730664e-05 0.00010929522
00000000: 14db 3d39 c93e 1e39 2a31 1739 8450 5eb8
00000010: 61ab 37b9 a28d 6239 f9c2 a537 971a b937
00000020: bfe6 c339 af43 6eb8 6f11 adb7 f5c2 52b8
00000030: 2f2f 54b7 f6ae ce38 ac3e 9039 ae7a b438
00000040: c7aa ba37 1fc1 19b9 006f 28b6 505e 6e39
00000050: 7e07 b8b5 23ac 5eb9 6e8a 743a d3e0 1e39
00000060: 8bf8 6fb8 e085 8fb8 da9b 6fb8 7a2d cfb8
00000070: d03e 88b7 9e43 f33a 4917 fe38 e112 fa38
00000080: e3fc ee3a 18bb e2b8 f3bb 45b9 4446 30b7
00000090: a6bb 9c38 d2f0 0939 ed35 4bb9 ca69 73b8
000000a0: 13a4 8a39 be50 6f39 d87f bf38 9c8d 5ab8
000000b0: 6a72 3f39 54bc 2539 b42c 85b8 ac38 af38
000000c0: e43c c5b6 2c01 8938 9852 3f39 134f a1b9
000000d0: 7c6c d038 8fd0 a7b7 79db 6cb7 18cc 4e39
000000e0: edf4 9739 8a94 b938 34dc 2a39 7b9c f338
000000f0: 7c77 95b8 c1a2 0a39 b01f a2b8 6d35 e538

net.1.1.weight f4 [64]
1.0608115 1.059607 1.2034404 1.0505041 1.0989163 1.1045767 1.2343833 1.0919685
1.1013559 1.1109154 1.0904227 1.0631021 1.03723 1.1054121 1.0618455 1.0877484
1.1811992 1.0712794 1.0913546 1.2253264 0.98730487 1.0675952 1.3575712 1.090764
1.1447464 1.0568296 1.1288785 1.1092483 1.0740045 1.3765442 1.0726672 1.0334378
1.3848178 1.2305057 1.219349 1.0969818 1.0957423 1.0760633 1.1268492 1.0985826
1.0973474 1.0509131 1.0994886 1.1204212 1.0507721 1.0686436 1.1259904 1.1523726
1.2425562 1.0396119 1.1789725 1.2008524 1.083278 1.0847851 1.2797391 1.1256342
1.3294585 1.0867376 1.1181687 1.0530703 1.0187659 1.0345957 1.0767839 1.0576353
00000000: acc8 873f 34a1 873f 560a 9a3f eb76 863f
00000010: 4aa9 8c3f c562 8d3f 4600 9e3f a0c5 8b3f
00000020: 3bf9 8c3f 7a32 8e3f f992 8b3f bb13 883f
00000030: f4c3 843f 257e 8d3f 8eea 873f 573b 8b3f
00000040: 8931 973f af1f 893f 82b1 8b3f 7fd7 9c3f
00000050: 03c0 7c3f f6a6 883f e5c4 ad3f 289e 8b3f
00000060: 0d87 923f 3146 873f 177f 903f d9fb 8d3f
00000070: fb78 893f 9a32 b03f 294d 893f b147 843f
00000080: b641 b13f 3681 9d3f a113 9c3f e669 8c3f
00000090: 4941 8c3f 71bc 893f 983c 903f 5b9e 8c3f
000000a0: e175 8c3f 5284 863f 0bbc 8c3f f669 8f3f
000000b0: b37f 863f 50c9 883f 7420 903f f280 933f
000000c0: 150c 9f3f 0112 853f 92e8 963f 88b5 993f
000000d0: daa8 8a3f 3dda 8a3f 7ece a33f c814 903f
000000e0: b22b aa3f 381a 8b3f 2720 8f3f 02cb 863f
000000f0: ec66 823f a26d 843f 0ed4 893f 9860 873f

net.1.1.bias f4 [64]
0.09278103 0.07026655 0.083792105 0.090049386 0.082139514 0.112655625 0.039683472 -0.03347777
0.115018904 0.09074411 0.11318337 0.09106475 0.094984815 0.085989945 0.10294519 0.08746118
0.032542564 -0.08250925 0.083037995 0.044089675 -0.07024448 0.094387025 0.087756835 0.09007989
0.07445432 0.10594583 0.062405623 0.06718807 0.07851287 0.061111074 0.09491254 0.082177214
0.06076024 0.060440786 0.07854219 0.11062626 0.091016516 0.08907687 0.123779126 0.06933074
0.11318839 0.10610449 0.07279383 0.07995718 0.10187233 0.08856951 0.123384416 0.09112411
-0.046811137 0.09244756 0.09010225 0.05448635 0.098286845 0.08762845 0.040638957 0.09468003
0.043799687 0.0842246 0.1031528 0.11401316 0.097576275 0.09698175 0.09854923 0.09158921
00000000: fb03 be3d e9e7 8f3d 329b ab3d d06b b83d
00000010: c338 a83d feb7 e63d 238b 223d fc1f 09bd
00000020: 088f eb3d 0cd8 b93d afcc e73d 2880 ba3d
00000030: 6687 c23d 7f1b b03d eed4 d23d d91e b33d
00000040: 5a4b 053d 9cfa a8bd d30f aa3d 6097 343d
00000050: 57dc 8fbd fc4d c13d dbb9 b33d ce7b b83d
00000060: 827b 983d 21fa d83d 0a9d 7f3d e699 893d
00000070: 5bcb a03d 9b4f 7a3d 8161 c23d 874c a83d
00000080: bbdf 783d c290 773d bada a03d 0590 e23d
00000090: de66 ba3d ef6d b63d e97f fd3d 46fd 8d3d
000000a0: 51cf e73d 504d d93d ee14 953d 97c0 a33d
000000b0: 71a2 d03d ee63 b53d f8b0 fc3d 479f ba3d
000000c0: 09bd 3fbd 2555 bd3d 8787 b83d 142d 5f3d
000000d0: 9d4a c93d 8b76 b33d 0975 263d 9be7 c13d
000000e0: 4d67 333d f27d ac3d c641 d33d bb7f e93d
000000f0: 12d6 c73d 5e9e c63d 2ed4 c93d 2093 bb3d

net.1.1.running_mean f4 [64]
0.17878285 -2.0561981 -0.87947637 1.350828 -1.5709308 1.6575096 0.353193 -0.42787576
1.9856824 -2.771084 2.6251395 2.1689644 2.5494845 -1.0016088 2.1333961 2.8356552
1.5673703 2.4763248 -1.5863919 0.26462573 -0.48733628 2.2137506 0.28982398 2.052496
2.3355305 2.3565629 -2.425422 1.8764049 -2.0204983 0.38748375 2.1224365 -2.0294964
0.40066257 -0.5965821 0.40977484 1.8154867 2.4562109 1.4586878 0.9820621 -2.1156545
-1.9937633 2.4240804 1.7114136 2.6058526 2.0749173 2.1786387 0.8979469 -0.51674265
-0.52434343 -2.0285497 0.33075872 0.71114284 -1.3158534 2.344238 0.38444376 -2.5456166
0.48113877 -2.2041109 -2.1336665 1.217279 2.2126913 1.96576 2.0876439 2.2099879
00000000: da12 373e c098 03c0 5d25 61bf efe7 ac3f
00000010: 4314 c9bf 4629 d43f b7d5 b43e 8812 dbbe
00000020: d72a fe3f 7159 31c0 4902 2840 50d0 0a40
00000030: c12a 2340 b834 80bf 9089 0840 607b 3540
00000040: 979f c83f 1b7c 1e40 e40e cbbf 067d 873e
00000050: 2484 f9be 17ae 0d40 cf63 943e 185c 0340
00000060: 5579 1540 edd1 1640 1d3a 1bc0 092e f03f
00000070: d84f 01c0 4564 c63e 00d6 0740 45e3 01c0
00000080: a523 cd3e 9bb9 18bf 02ce d13e de61 e83f
00000090: 8f32 1d40 48b6 ba3f 6c68 7b3f e266 07c0
000000a0: a333 ffbf 2224 1b40 9a0f db3f 4ac6 2640
000000b0: 72cb 0440 d16e 0b40 d9df 653f 3f49 04bf
000000c0: 5f3b 06bf c2d3 01c0 3559 a93e 750d 363f
000000d0: e26d a8bf ff07 1640 d0d5 c43e 62eb 22c0
000000e0: d257 f63e 2710 0dc0 fe8d 08c0 cccf 9b3f
000000f0: bc9c 0d40 069e fb3f f59b 0540 7170 0d40

net.1.1.running_var f4 [64]
1.125202 6.254875 0.564251 3.025123 4.312853 3.1922083 3.1471572 5.173216
3.3282418 3.979946 3.816505 3.2354898 3.851634 2.146996 3.3860674 4.377371
1.7141753 1.315611 6.4924035 2.475198 2.859491 3.0038629 1.7414205 3.4154036
3.0740147 3.6021733 9.155911 1.6298126 6.335188 1.7015693 3.1544442 7.7956367
1.6322992 2.0968676 1.6065311 2.44614 3.4399672 2.6371415 2.2429695 8.581306
1.6300476 3.4691875 1.8479562 3.098838 3.233755 3.2099042 2.5915072 0.37860355
4.682465 7.059478 1.9360298 2.1019747 2.1320593 3.6132228 3.2235174 3.1310465
1.6966044 7.3453574 5.908076 3.1086264 3.215542 2.8444824 2.86662 3.1529026
00000000: 9e06 903f f027 c840 c172 103f 9d9b 4140
00000010: e402 8a40 244d 4c40 066b 4940 fc8a a540
00000020: ea01 5540 6fb7 7e40 9e41 7440 4412 4f40
00000030: 2c81 7640 6268 0940 54b5 5840 6c13 8c40
00000040: 196a db3f f165 a83f c5c1 cf40 a569 1e40
00000050: e701 3740 4a3f 4040 dee6 de3f f995 5a40
00000060: a8bc 4440 028a 6640 9d7e 1241 b39d d03f
00000070: dcb9 ca40 06cd d93f 6ae2 4940 db75 f940
00000080: 2eef d03f 1433 0640 d0a2 cd3f 8f8d 1c40
00000090: 6c28 5c40 edc6 2840 d08c 0f40 084d 0941
000000a0: 66a5 d03f 2b07 5e40 d489 ec3f 5d53 4640
000000b0: d8f5 4e40 126f 4d40 41db 2540 53d8 c13e
000000c0: c1d6 9540 3ee7 e140 d3cf f73f c186 0640
000000d0: a973 0840 0b3f 6740 1c4e 4e40 1163 4840
000000e0: 552a d93f 2b0d eb40 f50e bd40 bcf3 4640
000000f0: 71cb 4d40 000c 3640 b476 3740 28c9 4940

net.3.weight f4 [8, 64]
0.1131143 0.051302947 0.073008224 0.069337144 0.09492997 0.0849485 0.1218705 0.13171129
0.07796583 0.08997449 0.06345266 0.07139105 0.06257845 0.10258538 0.09677117 0.041155394
0.13988046 -0.130446 0.082164995 0.14809965 -0.070779204 0.070906386 -0.16408265 0.06521423
0.07533079 0.07149377 0.078414634 0.07976465 0.09866467 -0.24929151 0.08733767 0.06182489
-0.19417945 0.13208507 0.14975017 0.07751157 0.06828452 0.07882119 0.07815534 0.10460189
0.11408721 0.090117104 0.0700216 0.07327153 0.070384346 0.09758666 0.08441025 0.08312018
0.16895847 0.10839895 0.09335988 0.15634623 0.09701085 0.034200914 0.14735779 0.12483682
-0.18596002 0.07942934 0.0759114 0.06532239 0.09396653 0.06891874 0.07997153 0.06301538
0.117926314 0.09570923 0.0949105 0.047412813 0.12739304 0.12253596 0.17356808 0.14025903
0.08287577 0.108732365 0.021608338 0.08618563 0.034879014 0.06844042 0.08869361 0.086905606
0.1909021 -0.12456693 0.07251092 0.16554973 -0.049150646 0.056006562 -0.16900009 0.05518896
0.07900514 0.09366483 0.0983683 0.09596835 0.09426643 -0.26189 0.08790793 0.07069323
-0.20892544 0.21619308 0.14458784 0.10997269 0.09820176 0.0721787 0.1234609 0.08376565
0.16812997 0.06727703 0.12586299 0.1265772 0.06773113 0.048520707 0.097418204 0.11562483
0.2645785 0.06830421 0.112486504 0.14270636 0.07776084 0.08472499 0.17036174 0.104119234
-0.20745434 0.09110873 0.10157118 0.08182524 0.07596325 0.08492068 0.08711626 0.08941881
0.11840936 0.08939083 0.06373979 0.06527536 0.12422338 0.06232783 0.19735122 0.15612696
0.10539074 0.09867692 0.047841873 0.081422806 0.101614624 0.072625585 0.051573835 0.067930296
0.124436505 -0.15563765 0.058460712 0.1711991 -0.06697432 0.059086904 -0.20970282 0.0747424
0.124832526 0.14502475 0.09455186 0.11379337 0.0726833 -0.23515932 0.08753518 0.10884054
-0.18691114 0.13627781 0.13336432 0.08993377 0.09208368 0.045308873 0.10064253 0.10362849
0.11431308 0.038958814 0.12338971 0.11681695 0.10300152 0.10061572 0.09060255 0.13208418
0.2731687 0.10911675 0.14226666 0.17576998 0.12675448 0.112539805 0.14244753 0.07819242
-0.21775143 0.089274704 0.14925078 0.081872724 0.058375563 0.09000687 0.1119486 0.04758794
-0.07833987 -0.03482138 0.11224019 -0.013592832 -0.06687578 -0.028748536 -0.1589636 -0.100648336
-0.049925983 -0.026810182 -0.05982299 0.003167833 -0.007687883 -0.038453713 0.0034794752 -0.03798583
-0.006227956 0.054248933 -0.07024458 -0.115627386 0.05384062 -0.04850447 0.23693018 -0.005186158
-0.042033795 -0.05265632 -0.012042137 -0.017417705 -0.07716459 0.22527072 0.0037349688 -0.06566135
0.24907896 -0.15339549 -0.1609832 -0.078694 0.018845808 -0.011171331 -0.12681533 -0.020633519
0.025451817 -0.062993236 -0.020240372 -0.06253572 -0.025026027 0.01502904 -0.09461608 0.07704263
-0.23774846 -0.0059633167 -0.07765945 -0.11046473 0.03025895 0.010743788 -0.2580352 0.014128852
0.25473434 -0.03321862 -0.02990595 -0.07202223 -0.002447961 0.039914668 0.0039227773 0.0052552978
00000000: 78a8 e73d 0a23 523d 5685 953d a200 8e3d
00000010: a56a c23d 7bf9 ad3d 3e97 f93d 53df 063e
00000020: 8dac 9f3d 8c44 b83d 78f3 813d 7935 923d
00000030: 2129 803d 4918 d23d f72f c63d 8f92 283d
00000040: d33c 0f3e a393 05be 1f46 a83d 6fa7 173e
00000050: b0f4 90bd 5e37 913d 4805 28be 0a8f 853d
00000060: 0747 9a3d 536b 923d da97 a03d a65b a33d
00000070: b410 ca3d 4646 7fbe 18de b23d 193c 7d3d
00000080: fad6 46be 4f41 073e 1c58 193e 63be 9e3d
00000090: c1d8 8b3d 016d a13d e80f a03d 8439 d63d
000000a0: 8ea6 e93d 518f b83d 7c67 8f3d 620f 963d
000000b0: ab25 903d 84db c73d 48df ac3d ea3a aa3d
000000c0: 7303 2d3e 4500 de3d 7733 bf3d 3a19 203e
000000d0: a0ad c63d 4216 0c3d f6e4 163e 72aa ff3d
000000e0: 4e6c 3ebe daab a23d 7077 9b3d bfc7 853d
000000f0: 8671 c03d 4525 8d3d 1dc8 a33d 350e 813d
00000100: 5a83 f13d 3303 c43d 7060 c23d f033 423d
00000110: 5273 023e 22f4 fa3d d5bb 313e 10a0 0f3e
00000120: c6ba a93d 13af de3d f803 b13c 1782 b03d
00000130: 4cdd 0e3d 7e2a 8c3d ffa4 b53d 91fb b13d
00000140: d77b 433e f21c ffbd 9b80 943d de85 293e
00000150: 3052 49bd 2367 653d 5c0e 2dbe d20d 623d
00000160: 72cd a13d 59d3 bf3d 5275 c93d 0e8b c43d
00000170: c20e c13d 7216 86be 1309 b43d 9dc7 903d
00000180: 8df0 55be b861 5d3e d60e 143e 5d39 e13d
00000190: 011e c93d 6dd2 933d 11d9 fc3d 538d ab3d
000001a0: 432a 2c3e 8ac8 893d 3ae2 003e 749d 013e
000001b0: 9eb6 8a3d a6bd 463d 3283 c73d b6cc ec3d
000001c0: d576 873e 14e3 8b3d 535f e63d 9e21 123e
000001d0: 1341 9f3d 4c84 ad3d 4f73 2e3e 773c d53d
000001e0: e96e 54be 3797 ba3d 8d04 d03d fe93 a73d
000001f0: 9f92 9b3d e5ea ad3d 026a b23d 3621 b73d
00000200: 9b80 f23d 8a12 b73d 028a 823d 17af 853d
00000210: d468 fe3d 774b 7f3d 7016 4a3e bfdf 1f3e
00000220: 1ad7 d73d 2017 ca3d d7f5 433d 00c1 a63d
00000230: 541b d03d b9bc 943d 163f 533d 0a1f 8b3d
00000240: 91d8 fe3d 7a5f 1fbe 8074 6f3d d14e 2f3e
00000250: d529 89bd 1c05 723d 56bc 56be 8b12 993d
00000260: 32a8 ff3d 5e81 143e 68a4 c13d 800c e93d
00000270: fbda 943d 9bcd 70be a545 b33d cae7 de3d
00000280: a265 3fbe 698c 0b3e a890 083e 322f b83d
00000290: 5e96 bc3d cc95 393d ac1d ce3d 2c3b d43d
000002a0: fa1c ea3d 4793 1f3d bfb3 fc3d ba3d ef3d
000002b0: 76f2 d23d 9d0f ce3d d48d b93d 1341 073e
000002c0: c5dc 8b3e 9a78 df3d 5aae 113e 0cfd 333e
000002d0: edcb 013e 457b e63d c4dd 113e 5923 a03d
000002e0: 3bfa 5ebe a8d5 b63d 32d5 183e e3ac a73d
000002f0: 371b 6f3d 8655 b83d 4f45 e53d 92eb 423d
00000300: a770 a0bd dda0 0ebd 2fde e53d 78b4 5ebc
00000310: 2bf6 88bd 0d82 ebbc 5bc7 22be b720 cebd
00000320: 307f 4cbd 07a1 dbbc f408 75bd 6b9b 4f3b
00000330: a3ea fbbb a481 1dbd e807 643b 0897 1bbd
00000340: e213 ccbb 2134 5e3d 64dc 8fbd 0dce ecbd
00000350: fb87 5c3d a0ac 46bd d39d 723e a6f0 a9bb
00000360: a12b 2cbd 27ae 57bd 624c 45bc 93af 8ebc
00000370: 7808 9ebd 5ead 663e 61c6 743b 7579 86bd
00000380: 8e0e 7f3e b513 1dbe c8d8 24be 522a a1bd
00000390: 8662 9a3c f507 37bc e1db 01be a007 a9bc
000003a0: 5480 d03c 9902 81bd 23cf a5bc ba12 80bd
000003b0: 6203 cdbc 5d3c 763c 13c6 c1bd 87c8 9d3d
000003c0: 5574 73be ed67 c3bb eb0b 9fbd 553b e2bd
000003d0: 9ee1 f73c b706 303c 311d 84be b37c 673c
000003e0: 8a6c 823e 3f10 08bd 53fd f4bc 6480 93bd
000003f0: f86d 20bb 907d 233d a48a 803b a234 ac3b

net.3.bias f4 [8]
0.08306682 0.09175217 0.094085105 0.0037102224 -0.005980936 0.1706109 0.09686093 -0.008671472
00000000: f01e aa3d 90e8 bb3d b1af c03d 3427 733b
00000010: bafb c3bb a0b4 2e3e 065f c63d ca12 0ebc

net.5.weight f4 [1, 8]
-0.14851426 -0.14240721 -0.14222355 0.33476862 -0.006378766 0.41385305 -0.15527377 0.009773062
00000000: 1f14 18be 32d3 11be 0da3 11be cb66 ab3e
00000010: f804 d1bb 8ce4 d33e 1600 1fbe 311f 203c
