checkpoints/RelationNet/embedding_net_on_Omniglot_100.pth (torch, 458001 bytes, 24 tensors)

embedding.0.0.weight f4 [64, 1, 3, 3]
-0.014109844 -0.04511185 0.052053116 -0.060900524 -0.03133878 -0.12718652 0.0435501 0.079169326
-0.012334959 0.054959875 -0.036865298 0.0064721694 -0.058176924 -0.070782304 -0.07313924 -0.055281382
0.012579134 0.07391992 -0.051146325 0.013424693 0.082481384 -0.04940211 -0.030838424 0.014915399
-0.00501301 -0.013995426 -0.11151694 0.07935114 0.03430279 -0.047772378 0.068436235 0.02230536
0.039604507 0.01206817 0.079014055 0.006571839 0.029133659 -0.020568643 0.043319173 -0.028490525
0.031687826 -0.15177086 0.005451825 0.021716518 0.055226393 -0.00460209 -0.0052467054 0.0024692158
0.12524073 -0.027576065 -0.025736736 -0.042826425 0.11564968 0.0036951888 0.028132103 0.044606984
-0.03334619 0.0006715685 0.057699807 0.06386162 -0.03955229 -0.118892185 -0.021539908 0.08070069
0.018379748 0.009267183 0.05581637 -0.00029864875 0.05032273 0.011748671 0.012120317 0.07855233
-0.03418891 0.043252487 0.001504015 -0.069627345 0.05033036 -0.013832579 -0.10771378 0.015000966
0.07470367 -0.109511234 0.036997307 0.03912506 -0.10683322 0.1006725 0.03652558 -0.08344958
-0.070340574 -0.026626782 0.020640992 -0.01592793 -0.017259145 0.07584348 0.07443832 -0.034619935
-0.10086576 -0.06829505 -0.07238185 0.0028581668 -0.010604986 0.007842336 0.062697545 0.05650456
0.07487565 0.055032417 0.054519206 0.045060717 0.03256557 0.031384654 0.068203144 -0.032346625
0.047707245 -0.030108996 -0.005704892 -0.11068831 -0.064664625 -0.015666094 0.11634084 -0.019828528
0.04259127 -0.004205583 0.054597955 0.008860334 -0.009193239 0.091912776 0.01706059 -0.0058702356
0.025016723 -0.090482734 -0.1437147 -0.00463403 0.0069689867 -0.036486726 0.019767411 0.05411056
-0.01081696 0.07998261 0.046988267 -0.019440653 0.071295634 0.061761294 0.020884695 0.013859466
-0.028331771 -0.12881942 0.009662902 0.07111013 -0.015178707 -0.046050943 0.0593988 -0.018575696
-0.071828164 0.059307173 0.10333304 -0.0096720895 0.044786926 0.031151112 0.11143679 0.034954913
-0.010831531 0.039200254 0.070778325 0.082888596 0.038770236 -0.07892862 -0.095084056 -0.04314368
-0.0015123922 0.0095907515 0.015440573 -0.059400544 -0.025138699 -0.09002498 -0.028397929 0.006592143
-0.010226604 -0.06973469 -0.029107532 -0.099133424 -0.101265386 -0.03426011 0.003890129 0.01564413
-0.040805634 -0.061923362 0.07584747 0.038592253 -0.061097443 -0.07554069 0.017310683 0.037009604
-0.06072839 0.02543466 0.044398345 -0.031175397 -0.06974494 -0.09569793 -0.08461203 -0.08663051
-0.056480233 0.021769442 0.04760021 -0.04282892 0.06481436 0.02378365 0.027418787 -0.013781588
0.036997356 0.007951573 0.030315813 0.023492308 -0.07686676 0.08272024 0.014923442 -0.10865625
-0.042867765 0.10226372 0.060706507 -0.11014827 -0.104584925 -0.060215265 0.01208409 0.046991583
-0.05747278 -0.018973853 0.06877996 -0.056146476 -0.015669098 0.06174194 -0.047290977 -0.08746143
0.042050324 0.025649102 -0.0034354893 -0.05505764 -0.07392928 -0.059497397 -0.043895304 0.06825993
-0.08728893 0.06354007 0.03481493 -0.038917188 0.0060314676 0.029430954 -0.089835115 0.08374604
-0.0543432 0.009432134 0.061254494 -0.066790745 -0.06815908 -0.025149569 -0.08953838 -0.025096042
00000000: fa2c 67bc 34c7 38bd a635 553d d472 79bd
00000010: 185d 00bd 2f3d 02be 9761 323d 8723 a23d
00000020: 9118 4abc 9b1d 613d 1100 17bd 7e14 d43b
00000030: ed4a 6ebd 50f6 90bd 07ca 95bd bb6e 62bd
00000040: b618 4e3c 5463 973d cf7e 51bd 3ef3 5b3c
00000050: 00ec a83d de59 4abd dda0 fcbc b85f 743c
00000060: 2d44 a4bb 124d 65bc fe62 e4bd da82 a23d
00000070: 1581 0c3d f8ac 43bd 4c28 8c3d bbb9 b63c
00000080: 5638 223d 93b9 453c 1fd2 a13d 9558 d73b
00000090: b6a9 ee3c 927f a8bc 726f 313d f664 e9bc
000000a0: 18cb 013d d269 1bbe 39a5 b23b d7e6 b13c
000000b0: 1235 623d 21cd 96bb 8eec abbb 91d2 213b
000000c0: 1b3f 003e 33e7 e1bc d9d5 d2bc c36a 2fbd
000000d0: bdd9 ec3d fb2a 723b 4c75 e63c d0b5 363d
000000e0: 0496 08bd 330c 303a a256 6c3d e2c9 823d
000000f0: 9501 22bd bf7d f3bd 7674 b0bc 6746 a53d
00000100: 2091 963c 62d5 173c b59f 643d f593 9cb9
00000110: 351f 4e3d 7f7d 403c 4b94 463c 0be0 a03d
00000120: ac09 0cbd 8529 313d 5e22 c53a c898 8ebd
00000130: 3527 4e3d 0ba2 62bc 0b99 dcbd 9dc6 753c
00000140: 3dfe 983d 6d47 e0bd 7d8a 173d 9941 203d
00000150: 60cb dabd 622d ce3d d99b 153d 9de7 aabd
00000160: b80e 90bd 6920 dabc 4c17 a93c 4a7b 82bc
00000170: 0d63 8dbc d453 9b3d 1e73 983d a2cd 0dbd
00000180: b592 cebd 46de 8bbd ef3c 94bd 1550 3b3b
00000190: 89c0 2dbc 247d 003c 9267 803d 5371 673d
000001a0: 6858 993d ac69 613d 884f 5f3d 9691 383d
000001b0: 7a63 053d 328d 003d 17ae 8b3d e57d 04bd
000001c0: ac68 433d 24a7 f6bc 1af0 babb 8db0 e2bd
000001d0: e36e 84bd 2e56 80bc 1b44 ee3d 706f a2bc
000001e0: 2f74 2e3d fdce 89bb 1ba2 5f3d ef2a 113c
000001f0: 3d9f 16bc c43c bc3d a7c2 8b3c 1b5b c0bb
00000200: dfef cc3c 034f b9bd f229 13be 10d9 97bb
00000210: 195c e43b 1b73 15bd 44ef a13c 09a3 5d3d
00000220: 9e39 31bc eccd a33d c576 403d 0142 9fbc
00000230: 7203 923d 69f9 7c3d 6116 ab3c d012 633c
00000240: 0818 e8bc 3de9 03be 2651 1e3c 30a2 913d
00000250: 1db0 78bc ea9f 3cbd 284c 733d 0f2c 98bc
00000260: a51a 93bd 14ec 723d 46a0 d33d af77 1ebc
00000270: 7f72 373d 9e30 ff3c f938 e43d e22c 0f3d
00000280: bc76 31bc 7290 203d 3af4 903d 7fc1 a93d
00000290: 8acd 1e3d 54a5 a1bd 6ebb c2bd 6db7 30bd
000002a0: 763b c6ba 8722 1d3c 75fa 7c3c fc4d 73bd
000002b0: acef cdbc 045f b8bd c6a2 e8bc e702 d83b
000002c0: 7c8d 27bc 10d1 8ebd eb72 eebc 7706 cbbd
000002d0: 3a64 cfbd 5454 0cbd 89f1 7e3b 1e28 803c
000002e0: cf23 27bd 5aa3 7dbd eb55 9b3d e912 1e3d
000002f0: 5041 7abd 14b5 9abd 22cf 8d3c 6297 173d
00000300: 55be 78bd 595c d03c 0adb 353d 8c63 ffbc
00000310: 6fd6 8ebd 47fd c3bd 1249 adbd 566b b1bd
00000320: d157 67bd d455 b23c 70f8 423d 616d 2fbd
00000330: 64bd 843d eed5 c23c 5d9d e03c 2bcc 61bc
00000340: 8a8a 173d 5047 023c de58 f83c f172 c03c
00000350: 526c 9dbd 3b69 a93d 7481 743c 2b87 debd
00000360: 1c96 2fbd a46f d13d 63a7 783d 6b95 e1bd
00000370: 9f30 d6bd 48a4 76bd 59fc 453c 3f7a 403d
00000380: 9468 6bbd 0e6f 9bbc 82dc 8c3d d9f9 65bd
00000390: 7b5c 80bc 1ee5 7c3d 2fb4 41bd fa1e b3bd
000003a0: f63c 2c3d 111e d23c f225 61bb 1f84 61bd
000003b0: 3c68 97bd 8bb3 73bd 90cb 33bd ddcb 8b3d
000003c0: 8ac4 b2bd 4c21 823d 1a9a 0e3d a167 1fbd
000003d0: 9ea3 c53b 2f19 f13c 79fb b7bd 0b83 ab3d
000003e0: fa96 5ebd 3d89 1a3c fee5 7a3d 96c9 88bd
000003f0: fd96 8bbd 7806 cebc e65f b7bd 3796 cdbc

embedding.0.0.bias f4 [64]
-0.0045027183 -0.011934375 -0.027348366 -0.021248778 0.06592506 0.07905315 0.055133954 -0.010615452
0.05270475 -0.03142151 -0.0677518 0.00059510366 -0.070827864 0.021956684 0.0060310974 -0.020709109
0.013745985 0.020387702 0.08610807 -0.032688994 -0.019572247 -0.013328095 0.012129766 -0.029525341
0.040039636 0.045931827 -0.03821996 -0.04794005 0.017084198 -0.027563546 -0.040116772 0.038366925
-0.048933446 -0.015028178 0.0149008995 -0.028925993 0.034103055 -0.0164494 0.09818603 0.035292875
-0.02431508 -0.035407834 0.12652333 -0.00758105 0.06301729 -0.015881056 0.032654833 -0.017136792
0.051874634 -0.03708963 -0.03734326 -0.013357632 0.0048136027 0.01667847 -0.029476898 -0.0089431405
0.019828368 -0.055222373 -0.037317555 0.044560097 0.0029147556 0.09009161 -0.0027801213 -0.052183643
00000000: 8a8b 93bb 6688 43bc ae09 e0bc eb11 aebc
00000010: b803 873d 9ee6 a13d 24d4 613d 6fec 2dbc
00000020: f0e0 573d d7b3 00bd 75c1 8abd bb00 1c3a
00000030: 330e 91bd 81de b33c 83a0 c53b 26a6 a9bc
00000040: d736 613c 1c04 a73c 6e59 b03d e5e4 05bd
00000050: fa55 a0bc 155e 5abc edbb 463c 21df f1bc
00000060: 9a00 243d 0323 3c3d 888c 1cbd c95c 44bd
00000070: 29f4 8b3c f2cc e1bc 7c51 24bd a326 1d3d
00000080: 706e 48bd bf38 76bc e722 743c 34f6 ecbc
00000090: a5af 0b3d e4c0 86bc c215 c93d 438f 103d
000000a0: 6b30 c7bc ce07 11bd 558f 013e 756a f8bb
000000b0: 350f 813d fd18 82bc 13c1 053d 7562 8cbc
000000c0: 7f7a 543d 4ceb 17bd 3ff5 18bd f8d9 5abc
000000d0: 6dbb 9d3b 49a1 883c 8979 f1bc 4086 12bc
000000e0: 1a6f a23c db30 62bd 4bda 18bd a684 363d
000000f0: 7c05 3f3b f381 b83d b232 36bb 84be 55bd

embedding.0.1.weight f4 [64]
1.0967447 1.067296 1.0709558 0.8558615 0.85660976 0.8810797 0.95675564 0.8819627
0.97109324 0.9960023 1.1585296 0.69461584 0.99266714 0.84732044 1.027079 0.8599746
1.0794942 0.80735874 0.9439701 1.0894923 1.121429 1.0817031 1.0666877 0.9231754
1.1313152 0.8184651 1.1876365 0.8897613 1.1178412 0.75181156 0.9666014 0.9391857
1.0376275 0.923173 0.93426085 1.0604212 0.86966306 1.0546035 1.0122745 0.9408939
0.9149882 0.8908754 0.95252603 1.012 1.1415901 1.0340865 0.8880925 1.1245825
0.9772154 1.1092954 0.95499265 1.1098168 1.18759 0.94382614 0.8206883 1.017823
1.0704691 1.026943 1.1708747 1.1014183 1.1173472 1.0001022 0.9683123 1.2125738
00000000: 2162 8c3f 289d 883f 1415 893f bd19 5b3f
00000010: c74a 5b3f 708e 613f f0ed 743f 4fc8 613f
00000020: 9199 783f 02fa 7e3f b34a 943f 58d2 313f
00000030: 6f1f 7e3f fee9 583f 5377 833f 4c27 5c3f
00000040: de2c 8a3f 10af 4e3f 06a8 713f 7c74 8b3f
00000050: fc8a 8f3f 3f75 8a3f 3989 883f 3955 6c3f
00000060: f0ce 903f ee86 513f 7904 983f 66c7 633f
00000070: 6c15 8f3f b976 403f 3073 773f 796e 703f
00000080: fad0 843f 1155 6c3f b82b 6f3f e2bb 873f
00000090: 3da2 5e3f 3ffd 863f 3692 813f 6cde 703f
000000a0: ab3c 6a3f 6910 643f bfd8 733f 3789 813f
000000b0: a01f 923f f25c 843f 085a 633f 52f2 8f3f
000000c0: ca2a 7a3f 64fd 8d3f 667a 743f 7a0e 8e3f
000000d0: f302 983f 979e 713f a118 523f 0648 823f
000000e0: 2205 893f de72 833f 39df 953f 46fb 8c3f
000000f0: 3c05 8f3f 5903 803f 51e3 773f 9e35 9b3f

embedding.0.1.bias f4 [64]
0.035177764 0.037236866 -0.22788993 -0.22305599 -0.08517343 -0.21418461 0.084806986 -0.15630871
-0.0085616065 -0.04059364 -0.08767247 -0.19206442 -0.042509772 -0.19646299 -0.057153307 -0.17363037
0.02816675 -0.29453915 -0.05090809 -0.06972722 -0.050225437 -0.22842222 -0.0021548953 -0.122022636
0.06297615 -0.08414926 -0.06326922 -0.17859223 -0.08392213 -0.1978216 -0.13285209 -0.036733296
-0.06959462 -0.17235257 -0.13235857 -0.09239206 -0.18369576 0.029559834 -0.19794442 0.0034158214
-0.17457171 -0.19805694 0.022234194 -0.09391521 -0.23133284 0.02643777 -0.1857071 0.033316255
-0.11727727 0.016546115 -0.029904485 -0.003917571 0.024891686 -0.06008994 -0.19631936 -0.03917702
-0.11613523 -0.07042403 -0.02439378 -0.16404675 -0.0045594224 -0.13638905 0.07137787 0.004245145
00000000: 8f16 103d af85 183d fa5b 69be ca68 64be
00000010: 686f aebd 3653 5bbe 49af ad3d 640f 20be
00000020: fb45 0cbc 8445 26bd a08d b3bd 89ac 44be
00000030: ba1e 2ebd 982d 49be 9619 6abd 29cc 31be
00000040: f5bd e63c d6cd 96be 0085 50bd 25cd 8ebd
00000050: 30b9 4dbd 84e7 69be 2539 0dbb 01e7 f9bd
00000060: a4f9 803d 7256 acbd 4b93 81bd e2e0 36be
00000070: 5edf abbd bf91 4abe 610a 08be a775 16bd
00000080: a087 8ebd 317d 30be 0189 07be 0c38 bdbd
00000090: be1a 3cbe 7727 f23c f1b1 4abe f9db 5f3b
000000a0: edc2 32be 70cf 4abe 7c24 b63c 9e56 c0bd
000000b0: 84e2 6cbe 0694 d83c 012a 3ebe a076 083d
000000c0: 112f f0bd b88b 873c 40fa f4bc f85e 80bb
000000d0: a6e9 cb3c de20 76bd f107 49be 1578 20bd
000000e0: 4fd8 edbd 793a 90bd 77d5 c7bc dffb 27be
000000f0: 3567 95bb 92a9 0bbe 902e 923d db1a 8b3b

embedding.0.1.running_mean f4 [64]
-0.0135104805 -0.023470854 -0.039241385 0.0017710795 0.06485705 0.090064414 0.053614695 0.0141956685
0.049667645 -0.04578611 -0.07861146 0.028025104 -0.075882584 0.04286821 -0.010450462 0.0042469455
0.00041501067 0.052030183 0.08606558 -0.0644959 -0.032571062 -0.029628497 0.005579178 -0.029718034
0.027937338 0.04375247 -0.050523855 -0.052621346 -0.015869074 -0.015255346 -0.040261794 0.024633773
-0.048981387 -0.01217136 0.017033575 -0.055866815 0.035384264 -0.017472321 0.09448867 0.035826635
-0.0124226725 -0.019902052 0.1243791 -0.008514191 0.051684763 -0.017101306 0.0583845 -0.03038619
0.05193229 -0.05208067 -0.04457091 -0.025711805 -0.008671693 0.017436417 -0.029340632 -0.010132416
0.010704042 -0.057239767 -0.05036656 0.02963177 -0.011558822 0.09019459 -0.019523941 -0.06336413
00000000: 105b 5dbc f345 c0bc 93bb 20bd 9123 e83a
00000010: c6d3 843d b173 b83d 159b 5b3d f394 683c
00000020: 4d70 4b3d 378a 3bbd 0cff a0bd e794 e53c
00000030: 5468 9bbd 9396 2f3d 6a38 2bbc f629 8b3b
00000040: ca95 d939 9a1d 553d 2743 b03d 6d16 84bd
00000050: 3c69 05bd 76b7 f2bc 8ad1 b63b 3c73 f3bc
00000060: d8dc e43c ca35 333d 1af2 4ebd 7b89 57bd
00000070: dcff 81bc 8ff1 79bc 8de9 24bd c4cc c93c
00000080: b5a0 48bd 626a 47bc ff89 8b3c 9ad4 64bd
00000090: 17ef 103d 1d22 8fbc 4783 c13d f3be 123d
000000a0: 7788 4bbc a109 a3bc 78ba fe3d 1b7f 0bbc
000000b0: 67b3 533d 0a18 8cbc 9624 6f3d 76ec f8bc
000000c0: f4b6 543d 8a52 55bd fd8f 36bd 90a1 d2bc
000000d0: b713 0ebc d1d6 8e3c c45b f0bc 6f02 26bc
000000e0: 0260 2f3c 3f74 6abd 2b4d 4ebd 53be f23c
000000f0: 3761 3dbc f1b7 b83d acf0 9fbc 0ec5 81bd

embedding.0.1.running_var f4 [64]
0.0012456172 0.0013363665 0.0014147653 0.0029489214 0.00041351814 0.0010366293 0.0009258273 0.0027307097
0.0012039203 0.0027981587 0.0014841412 0.0038493432 0.0013626694 0.002193202 0.0024383808 0.0026738625
0.0019790449 0.0048210416 0.00092374545 0.004119505 0.0016938853 0.0019868289 0.0016684547 0.0012733759
0.0019154523 0.00054289243 0.0016023711 0.0005678632 0.0044110976 0.0012222034 0.00061542797 0.0016556463
0.00082067505 0.0009694402 0.00091018464 0.0029758848 0.0007295738 0.0010917521 0.0009587615 0.0016334906
0.0012181966 0.0013498178 0.0006160465 0.00067566574 0.0017033993 0.0006353371 0.0030294175 0.0017002306
0.0006552495 0.0018821673 0.0013381124 0.0016831558 0.0016361217 0.00056716107 0.00080963504 0.0007385248
0.0019687954 0.0008521867 0.0018551333 0.0020594406 0.0016192417 0.0005754141 0.0025148464 0.0011107355
00000000: fa43 a33a 0529 af3a a56f b93a b142 413b
00000010: 77cd d839 82df 873a 38b3 723a b5f5 323b
00000020: ddcc 9d3a 5061 373b 8487 c23a 4345 7c3b
00000030: 999b b23a d3bb 0f3b 3ecd 1f3b f83b 2f3b
00000040: ddb2 013b d4f9 9d3b 8227 723a eafc 863b
00000050: 5c05 de3a 7535 023b 0db0 da3a 68e7 a63a
00000060: ea0f fb3a e550 0e3a a706 d23a a7dc 143a
00000070: f88a 903b 5732 a03a ac54 213a 4502 d93a
00000080: 9222 573a 0822 7e3a 7599 6e3a 1007 433b
00000090: de40 3f3a 1f19 8f3a 6555 7b3a d91a d63a
000000a0: e5ab 9f3a 5fec b03a 2e7e 213a 291f 313a
000000b0: 9944 df3a c08c 263a 3189 463b 46da de3a
000000c0: 0dc5 2b3a 0eb3 f63a 9a63 af3a 569d dc3a
000000d0: 2273 d63a 89ad 143a b03d 543a 8f99 413a
000000e0: e806 013b 4865 5f3a f227 f33a aef7 063b
000000f0: bc3c d43a 63d7 163a 1fd0 243b 1996 913a

embedding.1.0.weight f4 [64, 64, 3, 3]
-0.023090525 -0.06645187 0.030821094 -0.02147361 -0.10251981 -0.02677475 -0.21374692 -0.17315902
-0.072180614 -0.073579624 -0.078832164 -0.05728139 0.014949383 -0.09479586 0.043599825 -0.07036862
-0.0433845 -0.018645182 0.0029760015 -0.070180744 -0.0038167173 0.028571758 0.008676778 0.09243341
-0.01959921 0.010677769 0.11995884 0.094505586 0.11250561 0.0055891294 0.0734755 0.08960103
-0.006673594 -0.028092125 0.0074206735 -0.036395226 -0.00393618 0.034099236 -0.014774746 0.053731926
0.033990677 -0.031586617 0.004219736 -0.030219937 -0.050040424 0.14111601 0.0904523 0.014683177
0.023349285 0.013370033 0.0040398207 -0.039252423 -0.008846792 -0.072097376 0.0025075006 -0.04641441
-0.034788724 -0.016949557 0.052868854 0.016498836 0.01663619 0.004760058 -0.016916428 0.08425071
0.06848906 -0.0073484587 0.077149265 0.056999896 0.0036007885 -0.019876396 -0.050921217 -0.09117999
0.045535643 0.016371245 0.031005764 0.0883405 -0.012714779 0.01904058 -0.0041183396 -0.057983644
-0.083098955 0.08572506 0.098955065 0.10579905 0.10604506 0.1314517 0.115372606 -0.10507349
0.062092368 0.026702888 -0.0045808 -0.06648926 -0.04698551 -0.036898848 -0.04120152 0.00056969066
0.13060535 0.045251433 0.020663613 0.09298443 0.011339386 -0.056672603 0.019430637 -0.008900574
0.036109593 0.06264528 -0.039990544 -0.034424085 -0.020897934 -0.082678474 -0.046897504 -0.0042320862
-0.046477344 0.0055945003 -0.013672755 -0.018618846 0.07887087 0.09288121 0.053103197 0.06663129
0.091599554 0.054882087 -0.0130408285 0.027030628 -0.034298785 -0.08067028 -0.029880714 0.005129086
-0.0265545 0.011207923 0.037519477 -0.04195454 -0.070436455 -0.03819921 -0.03897766 0.052028213
0.10974173 -0.0064662024 0.08620691 0.08683095 0.013185449 0.010194917 0.025424058 -0.027694797
-0.008147088 0.12685901 0.07036697 0.06570506 0.069805734 0.07486293 -0.10501543 -0.0066385455
-0.001287882 0.08126857 0.005398163 0.02351191 0.07030588 0.028143255 -0.024019249 0.037314728
0.035096787 -0.054431885 -0.021552248 -0.02982863 -0.019460006 0.019644175 -0.0786262 -0.028995765
0.008077188 0.013565459 0.039329346 -0.023996018 -0.04491818 -0.06170335 -0.025215345 -0.08129537
-0.06370055 0.031555854 -0.023298306 0.02250581 -0.064305395 -0.029842379 0.048083268 -0.061177697
-0.10569781 -0.03339167 -0.19828178 -0.17078172 -0.080272295 -0.010870084 0.002856872 0.014704943
0.08067429 0.17206404 0.13840055 0.031466693 0.014502164 0.104224436 -0.01363117 -0.04670224
0.009589225 -0.0104536135 -0.115326725 -0.026670726 -0.070760116 -0.11528456 -0.11224178 0.059656944
0.08158931 0.04582275 0.053390123 0.081380926 -0.017204093 0.055777296 0.0037888237 -0.005117996
0.035877585 -0.00917568 0.05494645 0.061272092 -0.011008893 -0.05240815 -0.07314349 0.016326634
0.07324226 0.01849657 0.059330937 0.04716296 0.07466838 0.09060728 0.03949213 -0.05440909
0.0063097617 -0.066302635 -0.034375872 0.052953385 0.026037121 0.02376514 -0.02855556 0.030321954
-0.07226119 -0.14199968 -0.045107342 0.02042698 0.052039877 0.044598676 0.019290797 0.10700305
0.0031077007 0.025299812 -0.040539354 -0.046612024 -0.009329292 -0.03160052 -0.08897919 0.007591713
00000000: 5728 bdbc eb17 88bd 857c fc3c 6de9 afbc
00000010: e8f5 d1bd b856 dbbc 79e0 5abe 9950 31be
00000020: 6ed3 93bd eab0 96bd c272 a1bd e49f 6abd
00000030: 42ee 743c 5524 c2bd bb95 323d 6c1d 90bd
00000040: f2b3 31bd c8bd 98bc 0509 433b ecba 8fbd
00000050: e421 7abb 520f ea3c 0b29 0e3c ba4d bd3d
00000060: 868e a0bc cff1 2e3c fbac f53d 258c c13d
00000070: 5769 e63d 0425 b73b 537a 963d bf80 b73d
00000080: 2aae dabb 7521 e6bc 1f29 f33b 2913 15bd
00000090: 12fb 80bb a4ab 0b3d c711 72bc 0216 5c3d
000000a0: cf39 0b3d f860 01bd b645 8a3b cd8f f7bc
000000b0: 30f7 4cbd b780 103e 0e3f b93d b591 703c
000000c0: 0047 bf3c fc0d 5b3c 7960 843b 26c7 20bd
000000d0: 23f2 10bc caa7 93bd e154 243b 091d 3ebd
000000e0: 9f7e 0ebd ccd9 8abc 038d 583d 9128 873c
000000f0: 9e48 883c 43fa 9b3b 5294 8abc a38b ac3d
00000100: fe43 8c3d 57cb f0bb 6f00 9e3d b978 693d
00000110: 35fb 6b3b d3d3 a2bc c492 50bd 93bc babd
00000120: 9583 3a3d fd1c 863c cdff fd3c ddeb b43d
00000130: a651 50bc fefa 9b3c 23f3 86bb 4280 6dbd
00000140: c92f aabd 9f90 af3d f4a8 ca3d 2cad d83d
00000150: 272e d93d 469b 063e 7948 ec3d c530 d7bd
00000160: 9154 7e3d 04c0 da3c 891a 96bb 852b 88bd
00000170: e173 40bd 3f23 17bd edc2 28bd 4b57 153a
00000180: 69bd 053e 9159 393d bd46 a93c 9f6e be3d
00000190: d5c8 393c 8821 68bd 002d 9f3c b7d3 11bc
000001a0: a7e7 133d 2b4c 803d 20cd 23bd 4500 0dbd
000001b0: 2532 abbc 5553 a9bd 9917 40bd 50ad 8abb
000001c0: 075f 3ebd 1252 b73b b103 60bc 8d86 98bc
000001d0: 0d87 a13d 8138 be3d bd82 593d fc75 883d
000001e0: 8c98 bb3d 0acc 603d 33a9 55bc 566f dd3c
000001f0: e27c 0cbd 7636 a5bd 66c8 f4bc e411 a83b
00000200: d388 d9bc 70a1 373c 06ae 193d 86d8 2bbd
00000210: fd40 90bd c676 1cbd 0aa7 1fbd 891b 553d
00000220: 46c0 e03d 70e2 d3bb 408d b03d 6dd4 b13d
00000230: c807 583c 9508 273c 1d46 d03c 33e0 e2bc
00000240: 5d7b 05bc 54e7 013e 8f1c 903d 6090 863d
00000250: 4ff6 8e3d bc51 993d 5412 d7bd 2888 d9bb
00000260: 26ce a8ba 2370 a63d 13e3 b03b 0d9c c03c
00000270: 87fc 8f3d af8c e63c 04c4 c4bc 54d7 183d
00000280: a6c1 0f3d f8f3 5ebd 578e b0bc 2c5b f4bc
00000290: 976a 9fbc d2ec a03c c606 a1bd 8788 edbc
000002a0: 2f56 043c a941 5e3c cf17 213d 4c93 c4bc
000002b0: 20fc 37bd a7bc 7cbd 6990 cebc 307e a6bd
000002c0: 6f75 82bd b640 013d 17dc bebc 1b5e b83c
000002d0: 8cb2 83bd 0178 f4bc f6f2 443d 7795 7abd
000002e0: 1878 d8bd b4c5 08bd 610a 4bbe 67e1 2ebe
000002f0: cd65 a4bd 7018 32bc 5c3a 3b3b 00ed 703c
00000300: 9038 a53d 8e31 303e e0b8 0d3e 38e3 003d
00000310: 7c9a 6d3c 9f73 d53d 4555 5fbc d94a 3fbd
00000320: 201c 1d3c a245 2bbc 6b30 ecbd 917c dabc
00000330: aeea 90bd 501a ecbd 05df e5bd d75a 743d
00000340: 4c18 a73d a3b0 3b3d 9aaf 5a3d 0bab a63d
00000350: 99ef 8cbc bc76 643d ea4d 783b ddb4 a7bb
00000360: 60f4 123d 9755 16bc 870f 613d 72f8 7a3d
00000370: a55e 34bc eea9 56bd 41cc 95bd 6fbf 853c
00000380: 0a00 963d 1e86 973c ff04 733d f32d 413d
00000390: bceb 983d 4f90 b93d 80c2 213d 11dc 5ebd
000003a0: 1ec2 ce3b adc9 87bd b7cd 0cbd a6e5 583d
000003b0: cd4b d53c 1caf c23c 5aed e9bc bf65 f83c
000003c0: adfd 93bd 5d68 11be 7ac2 38bd 7b56 a73c
000003d0: c427 553d 1aad 363d bc07 9e3c 6a24 db3d
000003e0: 91aa 4b3b 8d41 cf3c 980c 26bd 40ec 3ebd
000003f0: e3d9 18bc 8c6f 01bd b93a b6bd e8c3 f83b

embedding.1.0.bias f4 [64]
-4.2304604e-05 -0.00012125989 -0.001269892 0.00052378426 -0.00033022836 7.619778e-05 -0.0002751028 -0.00012904422
3.884469e-05 -0.00095446844 -0.000721111 6.011778e-05 0.00047712759 0.00020364068 -4.1496645e-05 -7.700574e-05
0.00011936518 3.4792753e-05 -8.0884286e-07 -2.5130199e-05 -9.464536e-05 -0.000597819 -6.8472866e-05 -0.00016549033
-0.00042313637 -2.3152503e-05 0.0004334744 0.00017110625 9.638136e-05 0.00012277666 3.6789632e-05 0.0002493545
0.0003289257 -7.0154914e-05 -0.00014998105 -8.4214655e-05 -2.021966e-06 0.0002006001 -0.0001466847 -2.86746e-07
-0.00067842164 7.23415e-05 -0.00019935115 -8.776742e-05 9.614781e-05 0.00016709845 0.0004267214 1.2419544e-05
3.53572e-05 8.479631e-05 0.00033828002 0.00025556167 -0.00022912776 0.0003483803 0.00020319989 9.994845e-05
-0.00023647046 2.2410051e-05 -0.00026103875 0.00019659552 -0.00043538384 0.00036290192 -4.6434507e-05 0.0001113417
00000000: 3970 31b8 e84c feb8 8172 a6ba 914e 093a
00000010: 8022 adb9 5fcc 9f38 ac3b 90b9 0b50 07b9
00000020: 2bed 2238 4b35 7aba f108 3dba fa26 7c38
00000030: fb26 fa39 6188 5539 af0c 2eb8 247e a1b8
00000040: b153 fa38 6fee 1138 421f 59b5 b1ce d2b7
00000050: 577c c6b8 f4b6 1cba 1799 8fb8 7987 2db9
00000060: 67d8 ddb9 9f37 c2b7 f343 e339 fc6a 3339
00000070: 5920 ca38 9cbd 0039 914e 1a38 cbbb 8239
00000080: a973 ac39 2220 93b8 3b44 1db9 669c b0b8
00000090: 1db1 07b6 2e58 5239 60cf 19b9 12f2 99b4
000000a0: 1bd8 31ba 0cb6 9738 eb08 51b9 c60f b8b8
000000b0: f6a2 c938 2637 2f39 94b9 df39 895d 5037
000000c0: 814c 1438 acd4 b138 2d5b b139 e8fc 8539
000000d0: 0442 70b9 d0a6 b639 0e12 5539 6a9b d138
000000e0: 0ef5 77b9 38fd bb37 07dc 88b9 3525 4e39
000000f0: 3b44 e4b9 df43 be39 acc2 42b8 1f80 e938

embedding.1.1.weight f4 [64]
0.89243376 0.9701594 1.1856343 1.1641984 1.0365756 0.8681094 0.9648338 0.8591475
0.8115558 0.92915773 1.1902683 0.99510646 0.9943906 1.0086241 0.9994956 0.9697508
0.89181024 0.92879593 0.9584508 0.90631914 1.0221319 1.0205245 0.87680817 0.9437222
0.995109 0.85906357 1.0433798 0.9360128 0.95478123 1.0672362 0.969525 1.1545622
1.0675374 0.9422688 0.9240501 0.9261296 0.8984965 0.8904994 0.9589182 0.97655547
1.0355436 0.87641865 0.929176 1.1046673 1.033227 1.1264241 1.1317904 1.0587664
0.9661054 1.0294964 1.0104452 1.0284669 1.0010285 0.8578601 1.0198715 0.99083024
0.8898172 0.90314686 1.0515 0.97627276 0.986517 0.9535734 0.98832494 0.9898696
00000000: 8a76 643f 5e5c 783f ddc2 973f 7404 953f
00000010: 82ae 843f 6b3c 5e3f 59ff 763f 17f1 5b3f
00000020: 1fc2 4f3f 48dd 6d3f b65a 983f 4cbf 7e3f
00000030: 6290 7e3f 981a 813f f2de 7f3f 9741 783f
00000040: ad4d 643f 92c5 6d3f 085d 753f 8804 683f
00000050: 38d5 823f 8ca0 823f 8076 603f c797 713f
00000060: 77bf 7e3f 97eb 5b3f 788d 853f 899e 6f3f
00000070: 8b6c 743f 329b 883f ca32 783f b2c8 933f
00000080: 11a5 883f 8738 713f 8c8e 6c3f d416 6d3f
00000090: de03 663f c5f7 633f aa7b 753f 8aff 793f
000000a0: b18c 843f f95c 603f 7ade 6d3f bd65 8d3f
000000b0: c840 843f aa2e 903f 82de 903f a885 873f
000000c0: af52 773f 8ac6 833f 4556 813f cea4 833f
000000d0: b421 803f b89c 5b3f 268b 823f 0da7 7d3f
000000e0: 0fcb 633f a234 673f 8d97 863f 03ed 793f
000000f0: 618c 7c3f 631d 743f dd02 7d3f 1868 7d3f

embedding.1.1.bias f4 [64]
-0.07624539 -0.039261397 0.1656067 -0.040118195 -0.09080031 -0.2055307 -0.19243965 -0.2514932
-0.2379866 -0.10535413 0.05029859 -0.096401155 -0.088441096 -0.10237029 -0.056937505 -0.09339989
-0.106486164 -0.10497044 -0.13887696 -0.22038823 -0.017844364 0.0315333 -0.17266981 -0.0045137694
0.035867438 -0.112256914 0.033823315 -0.2186942 -0.07130714 0.07710246 -0.06731613 0.1240116
-0.02798047 -0.07187929 -0.10130613 -0.10437576 -0.14549392 -0.2368408 -0.12642084 -0.07225573
-0.031383142 -0.17466986 -0.2426001 -0.032370288 -0.0037576975 0.057061527 0.016620418 -0.042387903
-0.0097538605 -0.06432148 -0.1324626 -0.00071641966 -0.040310044 -0.19281885 -0.054126363 0.015244556
-0.2685963 -0.13720432 -0.03050744 -0.075967796 -0.06049848 -0.07182298 -0.0860297 -0.024700955
00000000: 8b26 9cbd 8fd0 20bd ce94 293e fa52 24bd
00000010: 83f5 b9bd a476 52be e60e 45be b7c3 80be
00000020: c2b2 73be e8c3 d7bd e505 4e3d f86d c5bd
00000030: 9b20 b5bd 84a7 d1bd 4d37 69bd 7148 bfbd
00000040: 6b15 dabd befa d6bd c335 0ebe 74ad 61be
00000050: 582e 92bc 1029 013d 5bd0 30be 3ee8 93bb
00000060: bce9 123d f4e6 e5bd 518a 0a3d 5ff1 5fbe
00000070: 7a09 92bd e5e7 9d3d 0add 89bd cbf9 fd3d
00000080: 4c37 e5bc 7335 93bd 9779 cfbd f5c2 d5bd
00000090: 5cfc 14be 6586 72be 7774 01be d0fa 93bd
000000a0: 9c8b 00bd a8dc 32be 296c 78be b596 04bd
000000b0: b443 76bb 59b9 693d 8b27 883c f09e 2dbd
000000c0: a8ce 1fbc fbba 83bd 47a4 07be 1cce 3bba
000000d0: 251c 25bd 4e72 45be 9bb3 5dbd 4dc4 793c
000000e0: 7485 89be 4a7f 0cbe bdea f9bc 0195 9bbd
000000f0: 41cd 77bd ed17 93bd 5730 b0bd a859 cabc

embedding.1.1.running_mean f4 [64]
0.0546912 -0.32337126 0.4716253 1.8381127 0.5737159 0.21691541 -2.904223 0.6156547
1.698923 -1.0808368 1.1156247 -3.674384 -1.7104768 -2.5469463 -6.2630377 -2.6958623
-6.0865817 -5.761795 -1.9594078 0.62580615 -1.7078017 1.6776958 -1.1380419 -1.9548541
2.7210352 -6.1514697 4.47448 -0.39673248 -6.071829 1.8188589 -3.9758518 -0.8966057
-1.1263853 -0.036026694 1.1291512 -0.03148474 -7.0333376 -0.20733652 0.26050887 -5.9329815
1.5919644 0.8707088 0.90325993 0.8688866 -3.5330784 1.3352063 0.35652855 0.55962634
-3.6503892 -3.6936595 -1.6608131 -3.8992648 -5.2693763 0.5883889 0.026990164 -3.0465984
0.3745354 -6.439163 0.84428996 -5.2624035 -4.472943 0.2342954 -0.09773106 0.33198544
00000000: e103 603d eb90 a5be df78 f13e 4747 eb3f
00000010: 0cdf 123f 131f 5e3e cade 39c0 8c9b 1d3f
00000020: 4f76 d93f dc58 8abf cacc 8e3f 1c29 6bc0
00000030: e7f0 dabf 2b01 23c0 ce6a c8c0 0289 2cc0
00000040: 47c5 c2c0 a060 b8c0 e0cd fabf d534 203f
00000050: 3f99 dabf bcbe d63f 5bab 91bf a938 fabf
00000060: 7125 2e40 d7d8 c4c0 f12e 8f40 8520 cbbe
00000070: 6c4c c2c0 5ed0 e83f 5b74 7ec0 f387 65bf
00000080: 652d 90bf ba90 13bd 0788 903f 25f6 00bd
00000090: 1a11 e1c0 0650 54be 6b61 853e fcda bdc0
000000a0: 7dc5 cb3f c6e6 5e3f 0b3c 673f 5a6f 5e3f
000000b0: f51d 62c0 0ae8 aa3f e98a b63e ac43 0f3f
000000c0: fa9f 69c0 eb64 6cc0 8695 d4bf 8e8d 79c0
000000d0: bb9e a8c0 a8a0 163f 7a1a dd3c 78fb 42c0
000000e0: 1bc3 bf3e a00d cec0 6323 583f 9c65 a8c0
000000f0: 5922 8fc0 22eb 6f3e 3927 c8bd fff9 a93e

embedding.1.1.running_var f4 [64]
15.146614 9.097968 8.742315 2.9579985 6.4888773 12.299964 6.5885386 15.562093
19.000898 5.444486 4.9093847 21.405355 5.1611876 18.026949 32.15786 12.902514
37.847088 31.350523 11.66769 15.284325 14.768282 10.351383 9.032108 19.709042
20.732433 39.612106 20.775967 6.2604218 45.38582 14.706088 29.02363 13.559648
16.955671 7.3721924 15.83484 8.598917 40.435722 7.9818325 7.8469105 37.793034
6.4186006 16.705574 14.032333 5.269741 31.497925 5.046277 10.087828 14.114226
30.725067 27.855467 6.0938616 24.182371 29.981663 7.72902 9.513691 21.62659
7.562952 42.16816 3.8692951 27.394243 23.503895 9.120148 15.617722 9.804296
00000000: 8858 7241 4791 1141 86e0 0b41 d94f 3d40
00000010: e2a4 cf40 a7cc 4441 4fd5 d240 55fe 7841
00000020: d701 9841 3b39 ae40 ae19 9d40 2b3e ab41
00000030: 7328 a540 3137 9041 a6a1 0042 b370 4e41
00000040: 6b63 1742 dfcd fa41 dcae 3a41 988c 7441
00000050: e24a 6c41 449f 2541 8483 1041 1eac 9d41
00000060: 06dc a541 cc72 1e42 2e35 a641 6055 c840
00000070: 148b 3542 234c 6b41 6530 e841 51f4 5841
00000080: 37a5 8741 00e9 eb40 815b 7d41 2a95 0941
00000090: 2ebe 2142 2c6b ff40 e419 fb40 112c 1742
000000a0: 2d65 cd40 04a5 8541 7084 6041 b8a1 a840
000000b0: c0fb fb41 1a7b a140 be67 2141 dfd3 6141
000000c0: f0cc f541 ffd7 de41 ea00 c340 7f75 c141
000000d0: 72da ef41 2254 f740 1438 1841 4203 ad41
000000e0: b403 f240 32ac 2842 88a2 7740 6927 db41
000000f0: fa07 bc41 20ec 1141 30e2 7941 65de 1c41

embedding.2.0.weight f4 [64, 64, 3, 3]
-0.004528075 -0.030180154 0.0007743638 -0.068796955 -0.08825088 -0.011052225 -0.00026023365 -0.015860707
-0.036398165 0.03125237 -0.025050785 0.01240211 0.055364594 0.02540931 -0.09102257 0.09024733
0.14881268 0.004340623 0.12230029 0.030184263 -0.03499601 -0.051892657 -0.05946093 -0.023799285
-0.06757313 0.05713141 -0.021949042 0.048790447 -0.052258458 0.004913496 -0.00523326 -0.045951653
-0.046248548 0.05543908 0.0028304392 -0.08644302 0.031076327 -0.096746564 -0.008255642 -0.05045273
0.056708097 0.018041046 0.009575232 0.029107766 -0.011491563 0.040064525 0.030854747 -0.022453003
0.061717764 -0.014684429 -0.03439657 0.07604292 0.048745025 0.015083102 0.0488199 -0.043572266
0.015908774 -0.013451524 -0.1022405 -0.090454586 0.0267011 0.008064221 -0.06795786 0.11121409
-0.04232328 -0.02590273 0.02987472 -0.00052170124 -0.05290791 0.09901186 0.048394572 0.0277994
0.01848265 0.015057325 -0.012679658 0.05194703 -0.047730204 -0.036760684 0.09573096 0.10217653
-0.015060722 0.14719932 0.056642182 -0.011562157 0.062039908 0.041512318 -0.029214736 0.061097514
0.05612739 0.02231241 0.0026917513 0.0416161 0.03676424 -0.051917724 0.021280311 0.0029126054
-0.06762099 -0.070820145 -0.04919757 0.010700483 0.016891588 0.09946727 -0.106373444 -0.05668941
0.044394493 -0.16875944 -0.12107482 -0.037842512 -0.011762039 -0.021919971 -0.060728326 0.07825268
0.03456302 -0.05587841 0.047421683 0.04280459 -0.011928149 0.024884071 0.0885981 0.069288924
0.057425544 0.084935755 0.09357777 0.029463673 0.12657858 0.14796253 -0.05531684 0.013470975
0.10020251 -0.06253386 0.0016590899 0.07268337 -0.10538846 -0.062080376 0.07774291 -0.030200591
-0.022071458 0.063381694 -0.06211687 0.019615153 0.054910034 -0.05989647 -0.016988307 0.056240033
-0.042574678 -0.00016716066 0.11630285 -0.029341754 0.003999732 0.09073155 -0.074193 -0.03729528
0.05107878 -0.069043465 0.02620671 0.06795981 -0.10842052 0.026425453 0.09958728 -0.11563156
-0.00048327222 0.07740126 0.010519967 -0.064490214 -0.023654843 0.018441416 0.017054005 -0.0487867
0.055133905 0.039166924 0.04000938 0.04756489 -0.018037971 -0.025735442 0.05208997 0.028741196
-0.08768227 0.14001364 0.07803782 0.022677718 -0.10196272 -0.009586967 0.054681245 -0.12003559
-0.063941024 0.014080449 -0.036187794 -0.058277324 0.044206053 0.074665755 -0.021581648 -0.07026713
0.065083034 0.0124938125 0.024074974 0.082386106 0.0686713 -0.010716397 0.07673801 -0.006857876
-0.022428326 0.089165136 -0.06368818 -0.05909098 0.07560447 0.07487142 -0.027371775 0.11125485
0.0931589 0.039116804 -0.04478499 -0.02392696 -0.026302917 -0.031609043 -0.07372535 -0.019038055
-0.07672763 -0.05581214 -0.03206693 -0.035305597 -0.11412035 -0.08169431 0.0166932 -0.07445689
-0.10649038 -0.08208132 0.0060658134 0.084939934 -0.08244277 -0.010748764 0.07884873 -0.12066015
-0.00041657436 0.0690203 0.05891389 -0.026154792 -0.0446175 0.05620261 0.06530066 0.025777863
0.16628106 0.091960125 -0.030826626 0.036217753 -0.046274252 -0.031778615 0.023321185 -0.021273276
-0.041064844 0.12592925 0.06294709 0.033293623 -0.04905628 0.031344526 0.032564983 -0.06845087
00000000: 3f60 94bb 5f3c f7bc adfe 4a3a 6be5 8cbd
00000010: e1bc b4bd 6414 35bc f86f 88b9 50ee 81bc
00000020: 3e16 15bd 7c02 003d 4e37 cdbc 3832 4b3c
00000030: fcc5 623d 2f27 d03c 0b6a babd 98d3 b83d
00000040: 5a62 183e c93b 8e3b 9378 fa3d fd44 f73c
00000050: fa57 0fbd 658d 54bd 4e8d 73bd b8f6 c2bc
00000060: c863 8abd a002 6a3d 7ace b3bc 7ed8 473d
00000070: f70c 56bd 6401 a13b c47b abbb cd37 3cbd
00000080: 1e6f 3dbd 1714 633d e47e 393b 0a09 b1bd
00000090: c893 fe3c 1023 c6bd ac42 07bc 86a7 4ebd
000000a0: c046 683d d1ca 933c 6fe1 1c3c 6973 ee3c
000000b0: 1c47 3cbc b31a 243d 18c3 fc3c 5cef b7bc
000000c0: c4cb 7c3d f696 70bc 6be3 0cbd 64bc 9b3d
000000d0: dda8 473d 1d1f 773c 60f7 473d d578 32bd
000000e0: 1e53 823c c863 5cbc 7863 d1bd 4140 b9bd
000000f0: 44bc da3c cb1f 043c 7e2d 8bbd 36c4 e33d
00000100: 2d5b 2dbd f631 d4bc d4bb f43c c7c2 08ba
00000110: f7b5 58bd bbc6 ca3d 6339 463d 91bb e33c
00000120: ed68 973c 00b3 763c 57be 4fbc 69c6 543d
00000130: bf80 43bd 5f92 16bd 980e c43d ee41 d13d
00000140: 3fc1 76bc 6bbb 163e a201 683d 346f 3dbc
00000150: 8f1d 7e3d d208 2a3d be53 efbc 6341 7a3d
00000160: d6e5 653d 84c8 b63c 1868 303b a575 2a3d
00000170: 1a96 163d aea7 54bd 0c54 ae3c 69e1 3e3b
00000180: e07c 8abd 270a 91bd 6483 49bd 1451 2f3c
00000190: 3a60 8a3c 7fb5 cb3d 52da d9bd 2833 68bd
000001a0: 00d7 353d 46cf 2cbe 13f6 f7bd c000 1bbd
000001b0: 91b5 40bc 8391 b3bc 44be 78bd f142 a03d
000001c0: f491 0d3d c2e0 64bd 3d3d 423d de53 2f3d
000001d0: 486e 43bc aed9 cb3c ec72 b53d 5ae7 8d3d
000001e0: 0c37 6b3d ccf2 ad3d b4a5 bf3d cd5d f13c
000001f0: d19d 013e 7d83 173e e993 62bd 5db5 5c3c
00000200: f936 cd3d c111 80bd d275 d93a 05db 943d
00000210: e8d5 d7bd fe47 7ebd ad37 9f3d 3b67 f7bc
00000220: 34cf b4bc 43ce 813d 426e 7ebd f5af a03c
00000230: 58e9 603d 0056 75bd 102b 8bbc f35b 663d
00000240: c962 2ebd d947 2fb9 3030 ee3d 1e5e f0bc
00000250: 2f10 833b 76d1 b93d 80f2 97bd efc2 18bd
00000260: fc37 513d a966 8dbd 74af d63c 832e 8b3d
00000270: 940b debd 317a d83c 6af4 cb3d 3dd0 ecbd
00000280: b35f fdb9 8d84 9e3d f15b 2c3c 7213 84bd
00000290: cdc7 c1bc 7412 973c d7b4 8b3c 90d4 47bd
000002a0: 17d4 613d 7f6d 203d e0e0 233d 67d3 423d
000002b0: 5ec4 93bc 22d3 d2bc 4b5c 553d a872 eb3c
000002c0: c392 b3bd bc5f 0f3e 4bd2 9f3d 9fc6 b93c
000002d0: d5d1 d0bd a712 1dbc 71f9 5f3d 38d5 f5bd
000002e0: 83f3 82bd afb1 663c a739 14bd 34b4 6ebd
000002f0: 6811 353d 5cea 983d ffcb b0bc 37e8 8fbd
00000300: 414a 853d d9b2 4c3c e138 c53c 0cba a83d
00000310: 8aa3 8c3d d493 2fbc d128 9d3d 09b8 e0bb
00000320: 9cbb b7bc 369c b63d f36e 82bd 6209 72bd
00000330: 84d6 9a3d 3056 993d c63a e0bc 95d9 e33d
00000340: 18ca be3d f138 203d 7770 37bd 7902 c4bc
00000350: 3779 d7bc 7c78 01bd 51fd 96bd b2f5 9bbc
00000360: 6023 9dbd 459b 64bd 9d58 03bd 9a9c 10bd
00000370: eeb7 e9bd 594f a7bd 2ec0 883c db7c 98bd
00000380: a117 dabd 401a a8bd bbc3 c63b fdf4 ad3d
00000390: c1d7 a8bd 951b 30bc 717b a13d ab1c f7bd
000003a0: aa67 dab9 845a 8d3d b14f 713d 9342 d6bc
000003b0: d7c0 36bd b534 663d 5abc 853d 192c d33c
000003c0: 9545 2a3e 9755 bc3d 1f88 fcbc 1159 143d
000003d0: 128a 3dbd 4b2a 02bd 120c bf3c 4b45 aebc
000003e0: 9c33 28bd 99f3 003e 67ea 803d e55e 083d
000003f0: 3def 48bd 1e63 003d dc62 053d f82f 8cbd

embedding.2.0.bias f4 [64]
-0.00012866786 -0.00024009915 0.0007289026 -0.00033017463 0.000416747 0.00051396695 6.526855e-05 0.00010888125
-7.036248e-05 -0.00031565994 0.0005962148 -0.00016954145 0.0002778877 0.000384282 0.0001113453 0.0005938648
-0.00039022087 -5.1918367e-05 -5.6295987e-05 -1.4372651e-05 -0.0004522592 0.0003523074 -0.00037994335 6.21474e-05
0.00059290667 -0.00061216997 2.7362421e-05 0.00032961476 0.00032296675 -0.0003100605 -0.0006464478 -0.00043813186
-0.00035252198 -0.00016224943 1.1064283e-05 0.00054600916 -0.00010536 -0.00015733231 0.000515095 0.00016112921
-0.0003550237 -0.00023963516 0.0003998694 0.00044894742 0.00016278039 -0.00021690306 -0.0002158947 -0.00035984462
0.0002277128 -0.00044406904 0.0006279291 0.00035581188 -0.0004102613 -0.00046746104 0.00023683746 0.00015821951
8.01783e-05 0.0006647499 -6.242185e-05 -7.407056e-05 0.0003276286 -3.9114708e-05 -0.00036400917 -0.00029803274
00000000: 04eb 06b9 20c3 7bb9 d313 3f3a 4a1b adb9
00000010: d67e da39 bdbb 063a c9e0 8838 2d57 e438
00000020: 928f 93b8 297f a5b9 4c4b 1c3a f0c6 31b9
00000030: 75b1 9139 7579 c939 0e82 e938 98ad 1b3a
00000040: 8f96 ccb9 ecc2 59b8 5b1f 6cb8 1122 71b7
00000050: 341d edb9 e6b5 b839 2233 c7b9 2255 8238
00000060: 4b6d 1b3a 087a 20ba 5a88 e537 25d0 ac39
00000070: dd53 a939 9e8f a2b9 6176 29ba 10b5 e5b9
00000080: b3d2 b8b9 8021 2ab9 bca0 3937 0e22 0f3a
00000090: b8f4 dcb8 92f9 24b9 7107 073a cbf4 2839
000000a0: 7922 bab9 9346 7bb9 90a5 d139 b460 eb39
000000b0: 07b0 2a39 7970 63b9 cb61 62b9 87a9 bcb9
000000c0: 30c6 6e39 f0d1 e8b9 9c9b 243a 438c ba39
000000d0: 5718 d7b9 8f15 f5b9 9257 7839 bae7 2539
000000e0: 6625 a838 9c42 2e3a 7ae8 82b8 5456 9bb8
000000f0: 91c5 ab39 190f 24b8 7cd8 beb9 4741 9cb9

embedding.2.1.weight f4 [64]
1.0392898 0.9986412 1.0366964 1.0645005 1.03613 0.94513917 1.0238063 1.0171514
1.0260295 0.94366825 0.99397725 1.0642593 0.9811391 1.0375277 0.92794365 1.0412642
0.97018015 0.9791749 0.99573886 1.0439701 0.9351228 1.0734679 1.078446 0.9229597
1.0017273 0.96772414 1.0427293 1.000214 1.024327 0.9759426 1.0228089 0.99535596
0.9534848 0.8572331 0.8271978 0.996921 1.035725 1.0334266 0.95954394 0.9231111
1.0653732 0.9551656 0.9593097 1.0605147 1.0508742 1.0387123 0.978105 1.0261773
1.0224824 0.9235277 0.9984839 0.93040293 0.8594295 1.0342764 1.0147772 1.0748163
1.1524783 1.0237528 0.9969504 0.9224813 1.0524087 0.9504037 1.0224496 0.9837618
00000000: 7307 853f f3a6 7f3f 78b2 843f 8d41 883f
00000010: e89f 843f a4f4 713f 160c 833f 0432 823f
00000020: ef54 833f 3e94 713f 4b75 7e3f a639 883f
00000030: ef2b 7b3f b5cd 843f b78d 6d3f 2548 853f
00000040: ba5d 783f 35ab 7a3f bee8 7e3f d0a0 853f
00000050: 3564 6f3f 6567 893f 850a 8a3f 1647 6c3f
00000060: 9a38 803f c5bc 773f 2778 853f 0307 803f
00000070: 261d 833f 60d7 793f 67eb 823f a6cf 7e3f
00000080: 9417 743f a173 5b3f 3cc3 533f 3736 7f3f
00000090: a392 843f 5347 843f aca4 753f 0251 6c3f
000000a0: 265e 883f bc85 743f 5295 753f f2be 873f
000000b0: 0c83 863f 86f4 843f 1765 7a3f c759 833f
000000c0: b4e0 823f 506c 6c3f a49c 7f3f e32e 6e3f
000000d0: 9203 5c3f 2b63 843f 38e4 813f 9593 893f
000000e0: 6984 933f 550a 833f 2438 7f3f bc27 6c3f
000000f0: 54b5 863f a84d 733f a1df 823f d0d7 7b3f

embedding.2.1.bias f4 [64]
-0.13299814 -0.174876 -0.11840495 -0.1699525 -0.0604907 -0.1882636 -0.19680665 -0.12440295
-0.15075825 -0.15905459 -0.15393057 -0.13466828 -0.13391916 -0.17485912 -0.082187444 -0.027045066
-0.15311356 -0.1428956 -0.13219208 -0.15000823 -0.15669689 -0.15307024 -0.13133283 -0.17377236
-0.21804361 -0.16097255 -0.15799887 -0.12073659 -0.21556133 -0.0878953 -0.1162012 -0.09406771
-0.13863918 -0.106454276 -0.13281289 -0.07365718 -0.021688605 -0.055230033 -0.09550511 -0.16651957
-0.19070435 -0.20928937 -0.16900486 -0.13774858 -0.2249383 -0.06508272 -0.09198801 -0.14943705
-0.18094546 -0.19230695 -0.15543786 -0.19008726 -0.15247765 -0.16300005 -0.10017934 -0.022952467
-0.14190605 -0.13237096 -0.1244883 -0.13651761 -0.05915755 -0.12543938 -0.18469462 -0.18322945
00000000: aa30 08be b212 33be 4b7e f2bd 0708 2ebe
00000010: 19c5 77bd 2cc8 40be af87 49be f9c6 febd
00000020: 5f60 1abe 35df 22be fa9f 1dbe 7be6 09be
00000030: 1b22 09be 450e 33be e451 a8bd 9d8d ddbc
00000040: cdc9 1cbe 3953 12be 5c5d 07be c29b 19be
00000050: 2675 20be 72be 1cbe 1d7c 06be 62f1 31be
00000060: d346 5fbe fdd5 24be 75ca 21be bf44 f7bd
00000070: 1cbc 5cbe 7302 b4bd e5fa edbd 92a6 c0bd
00000080: 6ef7 0dbe b304 dabd 1a00 08be 93d9 96bd
00000090: 4dac b1bc e338 62bd 2f98 c3bd 1b84 2abe
000000a0: 0048 43be f44f 56be 9c0f 2dbe f70d 0dbe
000000b0: 3a56 66be 174a 85bd 3664 bcbd 0706 19be
000000c0: c449 39be 1dec 44be 1a2b 1fbe 3ca6 42be
000000d0: 1a23 1cbe 7ce9 26be d32a cdbd d006 bcbc
000000e0: d24f 11be 418c 07be b9f3 febd 46cb 0bbe
000000f0: 304f 72bd 2e73 00be 9620 3dbe 80a0 3bbe

embedding.2.1.running_mean f4 [64]
0.29934752 -2.317664 -2.331039 -1.6017197 2.3013086 -4.174167 -1.2840189 -2.7603798
-3.9097328 -0.19830352 -0.22391444 -5.96493 -6.9414616 -2.0339444 1.8008444 -4.4380703
0.3505673 -6.4609 -2.2774053 -8.972427 -0.900454 -4.242137 -5.7655215 1.5623524
0.80922765 -7.918538 -1.082907 -0.3938398 -2.7333546 -1.8448578 -2.917088 -0.9671358
0.9454387 3.5489042 2.6872044 -7.456341 -7.1655984 -2.7913935 -2.9405544 2.1492221
-1.2630455 -0.11011219 -3.22831 -1.7322824 -2.0869641 -3.664167 -4.6085453 -2.4232461
2.2929094 -0.58385456 -5.4303193 2.7931395 2.4361284 -6.0219207 0.7543439 -2.796696
-3.4294298 -6.51712 -1.1778879 1.8238137 -1.9034646 -0.44711506 -2.9679687 -2.2047875
00000000: 1444 993e 9b54 14c0 be2f 15c0 2705 cdbf
00000010: a448 1340 c792 85c0 bb5a a4bf 10aa 30c0
00000020: 1039 7ac0 1410 4bbe d449 65be b5e0 bec0
00000030: 7420 dec0 252c 02c0 1282 e63f ac04 8ec0
00000040: 8f7d b33e b1bf cec0 02c1 11c0 108f 0fc1
00000050: 2784 66bf 96bf 87c0 277f b8c0 2afb c73f
00000060: 8b29 4f3f aa64 fdc0 b29c 8abf 5fa5 c9be
00000070: 48ef 2ec0 4d24 ecbf 92b1 3ac0 3696 77bf
00000080: 4508 723f 3f21 6340 28fb 2b40 589a eec0
00000090: 954c e5c0 31a6 32c0 0b32 3cc0 db8c 0940
000000a0: 7aab a1bf 8082 e1bd a29c 4ec0 6ebb ddbf
000000b0: d290 05c0 b681 6ac0 3479 93c0 7716 1bc0
000000c0: 07bf 1240 7e77 15bf 2dc5 adc0 ccc2 3240
000000d0: 87e9 1b40 93b3 c0c0 af1c 413f 11fd 32c0
000000e0: c77b 5bc0 3f8c d0c0 08c5 96bf ba72 e93f
000000f0: baa4 f3bf 44ec e4be 33f3 3dc0 3d1b 0dc0

embedding.2.1.running_var f4 [64]
19.608213 12.553795 7.657219 7.022016 5.356931 10.726862 6.1118274 7.7554693
10.410689 7.0748677 9.581433 16.044779 23.64656 6.8725977 7.0627904 23.517344
16.977642 12.359456 11.873766 25.001055 13.936247 7.166207 10.571508 11.978692
17.779303 20.30977 14.293038 20.46644 11.473292 19.9655 9.879514 10.489137
11.319721 9.583782 6.7911787 22.540968 16.721764 8.699806 23.662321 10.757629
7.415521 7.91992 8.667506 5.6551495 8.691144 13.422867 9.835469 8.908558
11.181422 9.505234 12.425717 9.532368 12.658743 14.565762 14.111009 16.107925
6.042474 23.398222 9.857833 13.007796 8.928517 9.487892 11.3548 11.7447195
00000000: 9fdd 9c41 58dc 4841 f007 f540 5bb4 e040
00000010: fb6b ab40 3aa1 2b41 1794 c340 ce2c f840
00000020: 2f92 2641 5165 e240 8d4d 1941 b55b 8041
00000030: 282c bd41 52ec db40 6102 e240 8523 bc41
00000040: 36d2 8741 55c0 4541 f2fa 3d41 2902 c841
00000050: defa 5e41 9151 e540 e624 2941 b9a8 3f41
00000060: 033c 8e41 697a a241 49b0 6441 45bb a341
00000070: 9b92 3741 58b9 9f41 7d12 1e41 81d3 2741
00000080: 941d 3541 2c57 1941 5651 d940 e753 b441
00000090: 2cc6 8541 6832 0b41 6f4c bd41 401f 2c41
000000a0: f34b ed40 fc6f fd40 1bae 0a41 fcf6 b440
000000b0: ed0e 0b41 10c4 5641 155e 1d41 7489 0e41
000000c0: 1be7 3241 7015 1841 bdcf 4641 9484 1841
000000d0: 368a 4a41 5c0d 6941 b1c6 6141 08dd 8041
000000e0: f25b c140 8f2f bb41 afb9 1d41 ef1f 5041
000000f0: 35db 0e41 68ce 1741 43ad 3541 5fea 3b41

embedding.3.0.weight f4 [64, 64, 3, 3]
0.049292214 0.072584525 -0.02505483 0.050917946 -0.0235767 -0.025958313 0.021599378 0.021822896
-0.046679802 0.04269563 0.0041709067 -0.16740294 -0.013264196 0.03192373 -0.02077118 -0.10061683
-0.0031164503 -0.019838946 -0.0443844 -0.07407096 -0.023144051 0.012288266 0.036853608 -0.0071867565
0.04298236 0.06703403 -0.018974729 0.04319578 -0.009073885 -0.05491033 0.025737131 0.0005627792
-0.052690502 0.012320633 0.024089597 0.012642666 -0.029136049 -0.079924874 -0.061509963 -0.010999788
-0.04401757 -0.047990672 -0.039116036 -0.076262765 -0.09402589 0.014193133 0.00179072 0.08172846
-0.035287477 -0.043074764 0.026790984 -0.0360829 -0.069768466 0.034042418 0.014296064 -0.07912985
-0.09605102 -0.019465344 -0.037423093 -0.035433397 -0.008677226 0.01216291 -0.042963598 0.064185984
0.03959851 0.0044073 0.038039763 -0.015619717 -0.03344028 -0.010173079 -0.01739538 0.0103312265
-0.099305786 -0.15230268 0.0075906436 -0.0018725437 -0.047486704 0.01606619 0.044593636 -0.0076827295
-0.010716234 0.060580432 0.11675977 0.17180938 0.06590529 0.045979854 0.042904276 -0.0041190735
-0.056485005 -0.041951776 0.07822665 0.009920947 0.0551487 0.025406657 0.04871321 0.017925447
0.047494795 0.018634174 -0.01722422 0.004397322 0.037248388 0.06685803 -0.039890192 -0.06385497
0.017277252 -0.08103531 -0.09911721 -0.101686805 -0.02466842 0.012911963 0.060473297 -0.05378567
-0.024984725 0.02977629 -0.005328829 -0.021346841 0.038352635 0.05143911 0.094925396 0.12511618
0.044124357 0.037962522 0.025859207 -0.03252579 -0.073910534 -0.08777653 0.08108861 0.061795212
0.09904218 0.018573502 0.03514866 -0.045175333 -0.07069672 -0.06823915 -0.0848073 -0.12678993
-0.07553049 -0.042383842 -0.16094464 -0.07254109 -0.036428187 -0.07593341 0.019771948 0.022997636
0.061323237 -0.01172138 -0.060763747 0.09095159 0.038396917 0.06885598 0.03435053 -0.03168265
-0.052643962 0.093764685 0.09397649 0.11247725 0.0875439 0.009435824 0.01291796 0.08654692
0.044938885 -0.014899443 -0.1128175 -0.09442714 0.051556274 0.027879776 -0.07351271 0.0041946433
0.038229167 -0.030419664 -0.069816925 -0.06547087 -0.054302767 -0.03168423 -0.074709065 0.013774539
0.0019849753 0.034492202 0.049406514 0.004447003 0.0094434945 0.0563252 0.10504006 0.011618916
-0.006404629 -0.004870454 -0.041429374 0.0055621355 -0.060652796 -0.026681164 -0.02795989 0.06224875
-0.003553263 -0.046553567 0.0057549602 -0.061385136 0.027223293 -0.0055966964 -0.041599084 0.019682365
0.01054612 0.030452609 0.0031900527 0.0006858785 0.019122524 -0.009957721 0.0100043705 0.03337125
0.012176269 0.10180054 0.048254237 0.09709404 0.07246587 -0.051655345 -0.075718105 -0.062812366
0.05945098 0.04843259 0.030881248 0.06864855 0.072240606 0.021443179 0.06112587 -0.023853682
-0.10221062 -0.014655575 -0.033551674 0.010205855 -0.06468824 0.0054664584 0.003056894 0.015423467
-0.0597811 -0.00014238166 0.05700085 -0.015232965 -0.061072744 0.010029034 0.057079505 0.037215635
0.07671032 0.10890435 0.054194096 0.022906503 -0.03324019 -0.042247374 0.020923078 -0.007625898
0.03981121 0.017052406 0.006325391 0.012429908 0.06530619 -0.008908655 -0.02080581 0.041381363
00000000: a2e6 493d 32a7 943d c93f cdbc 568f 503d
00000010: ec23 c1bc 87a6 d4bc 2ef1 b03c eec5 b23c
00000020: 5233 3fbd 9de1 2e3d 1aac 883b ad6b 2bbe
00000030: 1252 59bc 75c2 023d 5228 aabc 3210 cebd
00000040: 5c3d 4cbb 4985 a2bc 6bcc 35bd 84b2 97bd
00000050: 9898 bdbc b954 493c cff3 163d e27e ebbb
00000060: 450e 303d 2349 893d e470 9bbc 0fee 303d
00000070: a2aa 14bc a7e9 60bd add6 d23c 7987 133a
00000080: ffd1 57bd 7bdc 493c 8c57 c53c 2f23 4f3c
00000090: b9ae eebc a7af a3bd dff1 7bbd 7438 34bc
000000a0: c44b 34bd de91 44bd 2338 20bd a72f 9cbd
000000b0: a590 c0bd 518a 683c 98b6 ea3a 4061 a73d
000000c0: 9a89 10bd 2a6f 30bd c478 db3c aacb 13bd
000000d0: c5e2 8ebd 1070 0b3d 0a3a 6a3c d50e a2bd
000000e0: 66b6 c4bd c975 9fbc f548 19bd 9c22 11bd
000000f0: ec2a 0ebc f146 473c 99fa 2fbd f173 833d
00000100: 0c32 223d 1d6b 903b 95cf 1b3d d7e9 7fbc
00000110: adf8 08bd fcac 26bc c280 8ebc 4e44 293c
00000120: d560 cbbd 3cf5 1bbe efba f83b 2470 f5ba
00000130: 6b81 42bd 3e9d 833c d1a7 363d 68bf fbbb
00000140: 2593 2fbc 3023 783d bf1f ef3d ccee 2f3e
00000150: 5af9 863d 5f55 3c3d 65bc 2f3d 4bf9 86bb
00000160: d25c 67bd a0d5 2bbd 4b35 a03d 788b 223c
00000170: 9ae3 613d 9f21 d03c 8187 473d 63d8 923c
00000180: e789 423d b2a6 983c cf19 8dbc 6917 903b
00000190: c491 183d ddec 883d e663 23bd 65c6 82bd
000001a0: 0689 8d3c d7f5 a5bd f7fd cabd 2c41 d0bd
000001b0: 6d15 cabc b38c 533c d9b2 773d 5d4e 5cbd
000001c0: c4ac ccbc 68ed f33c 759d aebb 92df aebc
000001d0: a717 1d3d d1b1 523d 3f68 c23d 751e 003e
000001e0: bebb 343d 977e 1b3d b0d6 d33c c339 05bd
000001f0: 685e 97bd 2ec4 b3bd c911 a63d fa1c 7d3d
00000200: a0d6 ca3d 7527 983c 0bf8 0f3d c509 39bd
00000210: 71c9 90bd f8c0 8bbd 73af adbd 38d5 01be
00000220: bbaf 9abd ae9a 2dbd acce 24be 6c90 94bd
00000230: b935 15bd fa82 9bbd c8f8 a13c 8a65 bc3c
00000240: 132e 7b3d 080b 40bc 68e3 78bd d444 ba3d
00000250: 1646 1d3d 5d04 8d3d 24b3 0c3d abc5 01bd
00000260: 32a1 57bd b307 c03d bf76 c03d 795a e63d
00000270: 374a b33d b798 1a3c daa5 533c 833f b13d
00000280: d611 383d cb1c 74bc dd0c e7bd 0463 c1bd
00000290: ac2c 533d 2164 e43c d58d 96bd 3873 893b
000002a0: 3096 1c3d a932 f9bc 2dfc 8ebd 9715 86bd
000002b0: 946c 5ebd 53c7 01bd 1101 99bd 9bae 613c
000002c0: 5c16 023b b247 0d3d 7c5e 4a3d 2ab8 913b
000002d0: e3b8 1a3c 41b5 663d 3e1f d73d 445d 3e3c
000002e0: ecdd d1bb 5498 9fbb d9b1 29bd 9342 b63b
000002f0: 116f 78bd 7592 dabc 240c e5bc 8cf8 7e3d
00000300: dcdd 68bb f4ae 3ebd 1b94 bc3b fb6e 7bbd
00000310: 6203 df3c 7e64 b7bb cd63 2abd e93c a13c
00000320: a2c9 2c3c c077 f93c 3410 513b 87cc 333a
00000330: d7a6 9c3c b625 23bc 5fe9 233c 4bb0 083d
00000340: f97e 473c cd7c d03d 3ca6 453d 3dd9 c63d
00000350: fc68 943d 8e94 53bd 1812 9bbd c5a3 80bd
00000360: df82 733d 4061 463d acfa fc3c 9c97 8c3d
00000370: e2f2 933d 9ba9 af3c 1f5f 7a3d cc68 c3bc
00000380: cd53 d1bd f01d 70bc 7b6d 09bd 7536 273c
00000390: 457b 84bd fa1f b33b 2c56 483b b6b2 7c3c
000003a0: 07dd 74bd 494c 15b9 b979 693d b093 79bc
000003b0: 6a27 7abd d150 243c 33cc 693d 6c6f 183d
000003c0: 4d1a 9d3d 3e09 df3d a1fa 5d3d 6ba6 bb3c
000003d0: de26 08bd 950b 2dbd e066 ab3c abe2 f9bb
000003e0: 1411 233d 7db1 8b3c 3a45 cf3b d0a6 4b3c
000003f0: 40bf 853d 9bf5 11bc f270 aabc 817f 293d

embedding.3.0.bias f4 [64]
-0.0005568962 -0.00039682948 0.00023406108 0.0008187312 -0.00037338687 -0.00014582805 -0.0002424085 0.00012936653
0.00022892156 -2.2813514e-05 0.00035620903 -0.00010452413 -4.9383892e-05 0.00087573956 9.51148e-05 -0.00073149917
0.00023404525 0.0012909356 4.9773218e-05 -0.00068233354 0.00023821254 -0.00026698527 0.0005230338 0.00018976514
0.0004222382 -0.0008697042 0.00053162145 5.515655e-05 0.00019686791 0.0003424911 0.00015910668 -0.0010674004
3.6198453e-05 0.00035440095 0.00059222546 0.00024750625 5.128139e-05 0.00016454124 0.00037006268 0.00028031736
-0.001042973 0.00016305957 -0.00043896012 -0.00010158272 -0.00064435625 -0.00052325806 -0.00019516695 0.00037370448
-0.00027834688 0.00012400927 0.00033035214 0.0006581735 0.00031524265 0.0005553863 -0.0007632355 0.0010113559
7.786442e-06 -0.00021457892 -0.00014600511 -4.633521e-05 0.00053591805 -0.0005036865 -0.00028005536 0.0005923297
00000000: acfc 11ba 8d0d d0b9 4b6e 7539 1fa0 563a
00000010: 23c3 c3b9 6be9 18b9 092f 7eb9 90a6 0739
00000020: aa0a 7039 a65f bfb7 91c1 ba39 f733 dbb8
00000030: 8d21 4fb8 e391 653a 5f78 c738 14c2 3fba
00000040: 0b6a 7539 9c34 a93a 96c3 5038 a1de 32ba
00000050: b1c8 7939 28fa 8bb9 341c 093a b1fb 4639
00000060: da5f dd39 dcfc 63ba 835c 0b3a e557 6738
00000070: 546e 4e39 6190 b339 e0d5 2639 04e8 8bba
00000080: cbd3 1738 e4ce b939 943f 1b3a bac3 8139
00000090: f916 5738 b488 2c39 f904 c239 8ff7 9239
000000a0: 5eb4 88ba f8fa 2a39 3b24 e6b9 cf08 d5b8
000000b0: 04ea 28ba 412b 09ba bba5 4cb9 c4ed c339
000000c0: 16ef 91b9 7c08 0239 1d33 ad39 4789 2c3a
000000d0: 2747 a539 5897 113a de13 48ba 798f 843a
000000e0: 84a2 0237 9700 61b9 f318 19b9 0e58 42b8
000000f0: da7c 0c3a d409 04ba 65d4 92b9 9346 1b3a
