checkpoints/RelationNet/embedding_net_on_Omniglot_100.pth (torch, 459237 bytes, 24 tensors)

embedding.0.0.weight f4 [64, 1, 3, 3]
-0.021827763 -0.005446859 0.06760785 0.068042725 -0.0662996 0.09349917 -0.037955616 0.08720395
-0.0186377 -0.013181399 -0.03672106 0.028552948 0.12714005 0.121840954 0.0760445 -0.06674075
-0.08403525 0.03596684 0.110536225 -0.051323358 0.012697749 0.05725496 -0.10385985 0.07316728
-0.04382022 0.014078751 0.050374467 -0.035697855 -0.064176746 -0.06384381 0.062369768 0.06719705
0.03433505 0.071343854 0.06145924 0.05381826 0.101864986 0.09287407 0.06271977 0.013583918
-0.06548706 -0.06674672 0.0058040232 -0.033556376 0.040557064 0.008205839 0.013417284 0.07802551
-0.027756331 0.10214608 -0.040811084 0.04231121 0.0405417 -0.11185433 -0.047268897 -0.052853975
0.013159601 -0.00059620594 0.073191434 0.118273005 0.061921917 0.0441041 -0.0030690804 0.051275883
-0.036706816 -0.026003653 0.07926015 0.060771465 0.112240836 0.029300308 0.073074475 0.04871825
0.074086 0.01299037 0.011491462 0.052560546 -0.021246446 0.06628977 0.017086068 -0.07141732
0.033164658 -0.040638708 0.0631704 0.008100577 -0.06410737 0.08375159 -0.01835719 0.008285166
0.09558665 -0.0399221 0.008976245 0.041279398 0.100634724 -0.013330407 0.070176005 0.038375776
0.015020596 -0.0017522734 -0.057398126 0.02559634 -0.04107628 -0.019545961 0.10379715 -0.011928303
-0.043717653 0.10520299 0.025651881 -0.005897414 -0.026584337 -0.03542656 0.006225102 0.08858592
0.13046265 0.09273342 0.022159835 -0.036512386 -0.0067709982 -0.078525595 0.02276153 0.062359817
0.033478085 0.05783104 0.041945495 0.0969455 0.021045897 -0.034703717 0.0656308 0.095535524
-0.05652948 0.034550846 0.061604265 0.07763118 0.0037108227 -0.021799859 0.0934013 0.021978099
-0.019885836 0.06493848 0.0034468984 0.11160263 -0.023953864 -0.09981297 0.05722567 0.07594025
0.012867282 0.112352856 0.1006974 -0.044404283 -0.007179213 0.07033291 -0.004560777 -0.06266685
0.003936672 0.0006719933 0.07516385 -0.082382165 0.021531546 0.11458712 -0.10716763 -0.020797659
-0.0075357156 -0.0045299353 -0.0031396183 0.0056309546 0.027848687 -0.063584894 -0.021410901 0.16515939
-0.029742964 -0.032098003 0.08745717 -0.03992915 -0.056332707 -0.02307785 -0.046757095 -0.10354338
-0.05641247 -0.05562098 -0.091807224 -0.050970547 -0.028374951 0.003248463 0.009873323 0.0346273
0.06493085 -0.06905549 0.0022170555 0.09341077 -0.10767942 0.15827164 -0.031036263 0.032302324
0.030399809 0.044225957 -0.06829677 0.058161248 0.1471845 -0.02651787 0.136307 0.10763078
-0.010367715 0.026741264 0.01159772 -0.025569301 -0.071002446 -0.042057 0.02175444 0.05183798
-0.09981355 -0.03905292 0.12967956 0.04235823 0.031568546 -0.0031489078 -0.014259489 0.12626608
0.007914765 0.07106383 -0.08351033 -0.0044284463 0.09705167 -0.085067146 0.006476982 0.025621636
-0.036153242 -0.0054006088 -0.091415465 0.090068586 0.024223005 -0.027577331 0.06219316 0.09708989
0.00024445247 0.03747072 0.07348291 0.038368497 -0.038780224 -0.02297156 0.058586583 -0.07167491
0.010558145 0.06828549 0.026378214 0.0050521833 0.08707558 0.08439736 -0.012013034 -0.00037866976
-0.0012237417 0.0067057796 -0.08461942 -0.08220487 -0.049820628 0.11321746 0.044812746 0.14194395
00000000: 23d0 b2bc 917b b2bb fc75 8a3d fc59 8b3d
00000010: 16c8 87bd 7e7c bf3d 5977 1bbd fc97 b23d
00000020: 17ae 98bc cbf6 57bc d268 16bd dfe7 e93c
00000030: 0031 023e c087 f93d 38bd 9b3d 60af 88bd
00000040: ac1a acbd f751 133d d160 e23d 7138 52bd
00000050: 380a 503c 2d84 6a3d 79b4 d4bd bad8 953d
00000060: d57c 33bd 90aa 663c 7555 4e3d ea37 12bd
00000070: 196f 83bd 8bc0 82bd 7177 7f3d 9b9e 893d
00000080: e9a2 0c3d ba1c 923d afbc 7b3d 8970 5c3d
00000090: 979e d03d c334 be3d 3973 803d 158f 5e3c
000000a0: 141e 86bd 81b2 88bd ad2f be3b 6972 09bd
000000b0: 2a1f 263d c971 063c 2bd4 5b3c d7cb 9f3d
000000c0: 3f61 e3bc f731 d13d 8629 27bd 854e 2d3d
000000d0: 0e0f 263d e213 e5bd 089d 41bd 697d 58bd
000000e0: 5e9b 573c b44a 1cba 64e5 953d 1e39 f23d
000000f0: d6a1 7d3d 80a6 343d a022 49bb a906 523d
00000100: e359 16bd 9d05 d5bc 2553 a23d 80eb 783d
00000110: 86de e53d 3307 f03c 12a8 953d ca8c 473d
00000120: 67ba 973d 90d5 543c af46 3c3c ba49 573d
00000130: 070d aebc eec2 873d 15f8 8b3c 3e43 92bd
00000140: aad7 073d c674 26bd 7c5f 813d 48b8 043c
00000150: ba4a 83bd f485 ab3d d161 96bc 81be 073c
00000160: efc2 c33d 5b85 23bd 1a11 133c 9614 293d
00000170: 9419 ce3d c867 5abc 70b8 8f3d eb2f 1d3d
00000180: f218 763c 8aac e5ba 4c1a 6bbd 6aaf d13c
00000190: 9a3f 28bd da1e a0bc 9a93 d43d ee6e 43bc
000001a0: 4811 33bd aa74 d73d e523 d23c 183f c1bb
000001b0: 65c7 d9bc 711b 11bd f1fb cb3b 896c b53d
000001c0: 0098 053e 05eb bd3d 8b88 b53c 038e 15bd
000001d0: 40df ddbb 07d2 a0bd 6376 ba3c 026d 7f3d
000001e0: 5120 093d 3ee0 6c3d 0acf 2b3d 5d8b c63d
000001f0: 7268 ac3c 7c25 0ebd 7169 863d 21a8 c33d
00000200: 758b 67bd 3085 0d3d c154 7c3d 19fd 9e3d
00000210: 4631 733b 9e95 b2bc 2e49 bf3d 6a0b b43c
00000220: 9fe7 a2bc 77fe 843d 5ce5 613b eb8f e43d
00000230: e53a c4bc be6a ccbd 7765 6a3d 9086 9b3d
00000240: 4bd1 523c 4119 e63d 703a ce3d 44e1 35bd
00000250: 9b3f ebbb b30a 903d 9272 95bb 7a57 80bd
00000260: 33ff 803b b528 303a 81ef 993d fbb7 a8bd
00000270: ed62 b03c a7ac ea3d b47a dbbd da5f aabc
00000280: 2aee f6bb da6f 94bb 0ec2 4dbb df83 b83b
00000290: ee22 e43c cc38 82bd ea65 afbc 8b1f 293e
000002a0: 84a7 f3bc 3279 03bd bf1c b33d c08c 23bd
000002b0: 20bd 66bd c20d bdbc 5e84 3fbd 8d0e d4bd
000002c0: c310 67bd d3d2 63bd 6d05 bcbd 7ec6 50bd
000002d0: 9672 e8bc 2ae4 543b b8c3 213c 5bd5 0d3d
000002e0: 77fa 843d f76c 8dbd 054c 113b 254e bf3d
000002f0: 0787 dcbd f611 223e c33f febc 714f 043d
00000300: 0509 f93c 4726 353d 2ddf 8bbd 7d3a 6e3d
00000310: 89b7 163e 013c d9bc 1094 0b3e 876d dc3d
00000320: 59dd 29bc 7f10 db3c 5d04 3e3c b676 d1bc
00000330: bb69 91bd f643 2cbd 5e36 b23c 1054 543d
00000340: 0c6b ccbd f4f5 1fbd b8ca 043e d37f 2d3d
00000350: 054e 013d e85d 4ebb a2a0 69bc e54b 013e
00000360: eeac 013c ea89 913d 7707 abbd 801c 91bb
00000370: 07c3 c63d af37 aebd dd3c d43b 77e4 d13c
00000380: 6c15 14bd 97f7 b0bb 0838 bbbd e175 b83d
00000390: 536f c63c dbe9 e1bc 41be 7e3d 10d7 c63d
000003a0: db29 8039 e67a 193d 357e 963d 4928 1d3d
000003b0: 03d8 1ebd da2e bcbc 7cf8 6f3d 4cca 92bd
000003c0: 12fc 2c3c 43d9 8b3d 2017 d83c c98c a53b
000003d0: af54 b23d 86d8 ac3d 51d2 44bc 3288 c6b9
000003e0: f565 a0ba 28bc db3b f24c adbd 075b a8bd
000003f0: b710 4cbd 8ede e73d 928d 373d c159 113e

embedding.0.0.bias f4 [64]
-0.008764953 0.0058055925 -0.0576059 -0.015266164 0.010135972 -0.0018113643 0.026850278 0.014898418
-0.0050509954 0.004657171 -0.010563206 -0.0056545907 0.002488958 -0.0122162625 -0.00419488 0.006649418
0.038313966 -0.0031255994 -0.007948861 0.0033816628 0.02248121 -0.0067410935 0.009599342 0.007925382
-0.03558554 0.008520083 -0.02791415 0.035982244 -0.0022067784 -0.001348877 0.03983682 0.0015423679
-0.03649915 0.021746362 -0.050821885 0.026945045 -0.015882088 0.00993858 -0.030910045 -0.012322223
0.008161932 0.048697915 0.02708126 0.05158677 4.9724375e-05 0.041817512 0.038308512 -0.03489351
-0.017873151 0.041195285 -0.036353394 -0.02270474 0.020201806 -0.028023843 -0.057542637 -0.052919913
0.040347777 -0.015557589 0.021466948 -0.011415382 -0.020079523 -0.0088264905 0.0053511313 0.031164939
00000000: e19a 0fbc d73c be3b 2af4 6bbd ef1e 7abc
00000010: 5911 263c 4d6b edba 1df5 db3c 7f18 743c
00000020: d282 a5bb 2f9b 983b 4c11 2dbc 254a b9bb
00000030: c91d 233b b826 48bc 3475 89bb 5ce3 d93b
00000040: 1bef 1c3d dbd6 4cbb f13b 02bc e39e 5d3b
00000050: 842a b83c 64e4 dcbb 8f46 1d3c 76d9 013c
00000060: 25c2 11bd d197 0b3c 37ac e4bc 1e62 133d
00000070: 999f 10bb cdcc b0ba ef2b 233d 4729 ca3a
00000080: 2280 15bd 6d25 b23c 9c2a 50bd dbbb dc3c
00000090: 271b 82bc 6dd5 223c 1037 fdbc 26e3 49bc
000000a0: a0b9 053c 7777 473d 85d9 dd3c a64c 533d
000000b0: 248f 5038 d748 2b3d 63e9 1c3d 7fec 0ebd
000000c0: b76a 92bc 63bc 283d 4ce7 14bd 4aff b9bc
000000d0: 427e a53c 4292 e5bc d4b1 6bbd 8dc2 58bd
000000e0: b643 253d 42e5 7ebc 74db af3c 9507 3bbc
000000f0: d07d a4bc fc9c 10bc 8b58 af3b 9d4d ff3c

embedding.0.1.weight f4 [64]
1.0347402 1.1072527 1.0143323 1.0085729 1.0944306 0.98702544 1.0626681 1.0259961
0.8469958 1.0432827 0.9195014 0.9504071 1.038953 1.0926466 0.98100764 1.0389823
1.0122049 0.94580454 1.0084786 1.0747721 0.88335186 1.0113277 0.9510519 1.0764238
0.958105 0.8896344 0.9766269 1.0234352 0.9932519 0.89712775 1.0702962 1.110324
1.0663477 1.0535853 0.9377662 0.9891252 1.0041873 0.8949516 1.0167412 1.0502188
1.002453 0.9740295 0.9681061 0.8247796 1.0389948 0.90591055 1.0082417 0.9628563
0.9308937 1.0508834 0.99982315 1.1781982 1.0388875 1.0451589 1.0355648 0.9632753
0.9788326 0.9735211 0.9639558 1.0503898 1.1663872 1.1170168 0.94129306 0.9487129
00000000: 5e72 843f 75ba 8d3f a4d5 813f eb18 813f
00000010: 4d16 8c3f b3ad 7c3f 8205 883f d753 833f
00000020: b7d4 583f 4a8a 853f 7264 6b3f e14d 733f
00000030: 69fc 843f d8db 8b3f 5123 7b3f 5ffd 843f
00000040: ee8f 813f 3f20 723f d415 813f 2292 893f
00000050: 5923 623f 3073 813f 2378 733f 41c8 893f
00000060: 5f46 753f 14bf 633f 3804 7a3f edff 823f
00000070: c245 7e3f 2aaa 653f 77ff 883f 191f 8e3f
00000080: 157e 883f e2db 863f 7211 703f 4f37 7d3f
00000090: 3689 803f 8c1b 653f 9324 823f 926d 863f
000000a0: 6150 803f ff59 793f cdd5 773f c224 533f
000000b0: c8fd 843f c1e9 673f 100e 813f c07d 763f
000000c0: 0d4f 6e3f 5983 863f 69f4 7f3f 33cf 963f
000000d0: 44fa 843f c4c7 853f 638d 843f 3699 763f
000000e0: c694 7a3f ae38 793f cfc5 763f 2c73 863f
000000f0: 2d4c 953f 68fa 8e3f 95f8 703f d9de 723f

embedding.0.1.bias f4 [64]
-0.017868027 0.12814996 0.040550202 -0.03705641 -0.0068072565 0.04735514 0.095587574 0.17605461
-0.10062068 0.10922925 -0.09291453 -0.03338131 0.019878402 0.14801365 0.12750353 0.1749467
-0.02689979 -0.12241298 0.11691634 -0.17694499 -0.03412895 0.14010401 -0.05893068 0.06952604
-0.11121837 0.13186021 -0.053240966 -0.013612146 0.102714196 -0.08572115 0.15593585 0.034626797
0.15358663 0.15871435 0.096814215 0.098343484 -0.040454626 -0.12735812 0.07122053 -0.021716291
-0.07398322 -0.111199215 -0.06594319 0.07060679 0.09556341 0.04157576 -0.00990681 -0.048939407
0.0033898721 -0.032348987 0.0027664087 0.12407512 0.014071658 -0.06999588 0.18665709 0.17001037
-0.18616478 -0.015730469 -0.20729311 0.14721502 0.027336465 0.009151726 -0.022141078 0.14328304
00000000: f85f 92bc be39 033e f817 263d 76c8 17bd
00000010: 680f dfbb 77f7 413d 6bc3 c33d a947 343e
00000020: 3712 cebd 96b3 df3d f949 bebd d7ba 08bd
00000030: 08d8 a23c e490 173e 4990 023e 3a25 333e
00000040: f35c dcbc a8b3 fabd d671 ef3d 1131 35be
00000050: ccca 0bbd 6d77 0f3e 4c61 71bd ab63 8e3d
00000060: 75c6 e3bd 5d06 073e 3313 5abd 7a05 5fbc
00000070: d25b d23d 928e afbd a6ad 1f3e d4d4 0d3d
00000080: d045 1d3e 0486 223e 8846 c63d 4f68 c93d
00000090: c0b3 25bd 2b6a 02be 12dc 913d 5de6 b1bc
000000a0: 8484 97bd 6abc e3bd 390d 87bd 4b9a 903d
000000b0: c0b6 c33d 584b 2a3d 2c50 22bc b074 48bd
000000c0: 9e28 5e3b 5f80 04bd a34c 353b 191b fe3d
000000d0: d08c 663c 005a 8fbd 0923 3f3e 3317 2e3e
000000e0: fba1 3ebe 2fdd 80bc a544 54be 89bf 163e
000000f0: b9f0 df3c 1ff1 153c 3561 b5bc cab8 123e

embedding.0.1.running_mean f4 [64]
0.011924796 0.03213109 -0.04543293 0.00946891 0.02595019 0.01286628 0.054273844 0.064997755
0.0154242 0.019092405 0.015612733 0.010592475 0.03473899 0.016805964 0.040941663 0.032107137
0.06012155 -0.0014168448 0.008223598 -0.06354549 0.025486218 0.035411213 0.028757524 0.03580902
-0.032928735 0.02931281 -0.009681809 0.0361492 0.0379616 0.016668469 0.066759974 0.027093442
-0.013272068 0.074956395 -0.03008993 0.027964 -0.019203067 -0.006361803 -0.020036228 0.010534749
0.019990502 0.052390534 0.056483556 0.066773415 0.021646915 0.044206914 0.056781244 -0.01674923
-0.016430737 0.06078518 -0.034423273 0.007474168 0.04750891 0.008642346 -0.021591183 -0.048634503
-0.017020006 -0.000561299 -0.019096155 0.042539723 0.010301947 0.00666741 0.018379988 0.035125643
00000000: 3860 433c e49b 033d e117 3abd 7d23 1b3c
00000010: 7e95 d43c 17cd 523c 404e 5e3d 8b1d 853d
00000020: c9b5 7c3c ad67 9c3c 8ccc 7f3c 0f8c 2d3c
00000030: 794a 0e3d a9ac 893c 72b2 273d c682 033d
00000040: 0442 763d 6cb5 b9ba 45bc 063c 2324 82bd
00000050: 79c8 d03c 590b 113d e694 eb3c 7bac 123d
00000060: 48e0 06bd 6b21 f03c 73a0 1ebc 2f11 143d
00000070: 9f7d 1b3d 508c 883c 74b9 883d 11f3 dd3c
00000080: 1773 59bc bd82 993d 287f f6bc c214 e53c
00000090: c04f 9dbc ac76 d0bb 0423 a4bc f199 2c3c
000000a0: 1fc3 a33c 7597 563d 4d5b 673d 80c0 883d
000000b0: df54 b13c 4f12 353d 7393 683d ae35 89bc
000000c0: c199 86bc e2f9 783d 6bff 0cbd dee9 f43b
000000d0: b498 423d a098 0d3c fedf b0bc f934 47bd
000000e0: 8a6d 8bbc 2324 13ba 8a6f 9cbc 223e 2e3d
000000f0: 7fc9 283c 4a7a da3b a191 963c e8df 0f3d

embedding.0.1.running_var f4 [64]
0.010546434 0.022788089 0.0088170245 0.026105205 0.015803799 0.011456288 0.022132145 0.048630893
0.011414739 0.010285556 0.018447278 0.019364843 0.02514326 0.019629184 0.038488958 0.018121354
0.024284652 0.0106768785 0.02432877 0.07859331 0.008861112 0.04436609 0.022956781 0.02485524
0.010516971 0.014918223 0.011760222 0.014780861 0.03232251 0.021745315 0.019771233 0.02516174
0.015079345 0.056978337 0.020386618 0.014083504 0.008618626 0.011321907 0.019208767 0.024792632
0.009207768 0.011843097 0.023368413 0.013733885 0.015021462 0.0103453 0.014493214 0.02429544
0.0069690123 0.014870375 0.008482534 0.026355144 0.026450388 0.038977887 0.028520865 0.0142972
0.06158552 0.012478198 0.042871844 0.058003176 0.024860218 0.012918722 0.019669877 0.009646898
00000000: f3ca 2c3c 16ae ba3c 4875 103c 95da d53c
00000010: f876 813c 28b3 3b3c 794e b53c 3031 473d
00000020: e304 3b3c c084 283c bf1e 973c 05a3 9e3c
00000030: 3df9 cd3c 62cd a03c 99a6 1d3d 3c73 943c
00000040: 9bf0 c63c 13ee 2e3c 214d c73c 88f5 a03d
00000050: 332e 113c 38b9 353d dc0f bc3c 379d cb3c
00000060: 604f 2c3c 906b 743c f2ad 403c 6d2b 723c
00000070: 9c64 043d 3b23 b23c 48f7 a13c fe1f ce3c
00000080: 5b0f 773c 1e62 693d d601 a73c 7fbe 663c
00000090: 2335 0d3c 857f 393c b45b 9d3c eb19 cb3c
000000a0: 2edc 163c 8d09 423c 1d6f bf3c 1704 613c
000000b0: 941c 763c 557f 293c f274 6d3c 3b07 c73c
000000c0: 505c e43b e0a2 733c 54fa 0a3c bee6 d73c
000000d0: 7cae d83c 47a7 1f3d 97a4 e93c ce3e 6a3c
000000e0: 1941 7c3d 5b71 4c3c 639a 2f3d bd94 6d3d
000000f0: a8a7 cb3c 0ca9 533c b922 a13c 060e 1e3c

embedding.1.0.weight f4 [64, 64, 3, 3]
-0.017850127 0.021287369 -0.0066715525 -0.016169695 -0.13034147 0.04081117 0.06509054 -0.04893169
-0.0018947173 -0.019062294 -0.061295457 -0.11385348 -0.0031261987 -0.057307713 -0.13654144 0.057345655
-0.020927582 -0.06141389 -0.01683439 0.08076291 0.107739516 0.012498854 -0.0074935094 0.10327746
0.021548087 -0.025668066 0.016602563 0.04519275 0.040296044 -0.13039032 0.0060909325 0.027748106
-0.054181144 -0.020807734 -0.04842749 -0.0642349 -0.0048616547 -0.12242922 -0.12079168 -0.06810365
0.018479016 -0.034115933 -0.06358716 -0.017894454 -0.014723783 -0.007895789 -0.11767252 -0.014264505
0.040786076 0.05030117 -0.010681903 0.074210994 0.07937381 -0.071677454 -0.027393326 -0.03661449
-0.17692272 0.034129284 -0.039056573 -0.09615647 0.053847708 0.04163901 -0.07244848 0.053497944
-0.013848202 -0.10111932 0.059305616 -0.03048103 -0.17605482 0.045436177 0.020603077 -0.091378264
0.06563308 -0.042883515 0.0025880607 -0.036340795 -0.018994605 0.02827177 -0.017888537 -0.055217914
0.034309637 -0.03847846 -0.050748106 0.048626922 -0.00022992243 0.0864128 0.008507427 0.0275475
0.04782406 0.011570246 0.00087554014 -0.04758544 0.03443476 -0.04785104 -0.06377984 -0.069595635
0.012377529 -0.0042020627 -0.058827434 -0.015813138 0.036266487 0.010757357 -0.03529819 0.023072194
0.06524192 0.007675018 0.021044571 0.04759489 0.0589326 -0.035640072 -0.09609319 -0.024300328
-0.044198252 -0.17244455 0.0011064353 -0.043560985 -0.12575236 -0.029522475 -0.033883657 -0.153716
0.041164316 -0.044776604 -0.09793861 0.1023891 0.042261582 -0.12540694 0.088464804 0.021676073
-0.08786623 0.082608044 0.024284545 -0.095493965 0.021374105 0.039411433 -0.09802858 0.05213792
-0.075650156 -0.10348529 0.037666053 -0.05936022 -0.01479518 0.06593513 -0.067141935 -0.05050361
0.003169641 -0.018140642 0.044901334 -0.019048672 -0.077991694 -0.033339154 -0.021472372 -0.03083818
-0.04895964 0.026610857 0.06883964 0.05015549 -0.0030519525 0.0870889 0.082807735 -0.0015699933
0.079207405 0.04459085 0.002834841 -0.022875613 0.018679332 0.018000646 -0.018984474 0.060614105
-0.0028894611 -0.02422429 0.00016217597 -0.011582466 -0.08207299 -0.013873544 -0.01585302 -0.1303781
-0.0441342 -0.038903594 -0.074311905 -0.016205328 -0.04275053 0.022355089 0.037412446 -0.005728063
0.12948799 0.03325602 0.014645881 0.063061915 0.045938898 -0.012481523 0.039635837 -0.022847109
0.06580968 0.12312507 -0.039801624 0.041359004 0.19164905 -0.0033281085 -0.0076874564 -0.045485463
-0.038135484 -0.07165203 -0.0033529291 -0.019602716 -0.026435796 0.012470441 0.004657011 0.0680672
-0.015592397 0.043752547 -0.011038848 0.02239102 -0.021006228 -0.006044723 -0.020917961 -0.095730156
-0.0049772933 0.10910152 0.0844826 0.03154799 0.12686916 0.096648745 -0.016630132 0.11038187
0.051323082 -0.008864179 -0.00059278257 0.034982707 -0.0064387936 -0.035601698 0.072634324 0.009304632
-0.0067356466 -0.03227962 -0.03749158 0.054927405 0.047813233 -0.037376698 0.06570701 0.027234562
-0.0026946133 0.02201375 0.015965428 -0.025872761 -0.055412672 -0.0013539655 -0.07760842 -0.016239563
-0.030474924 0.009279517 0.00061274995 -0.041095387 0.027749645 -0.050741524 -0.07519327 0.029263733
00000000: 6e3a 92bc d962 ae3c 0a9d dabb 4f76 84bc
00000010: 3c78 05be 9d29 273d 304e 853d 996c 48bd
00000020: 2a58 f8ba 8728 9cbc f210 7bbd 032c e9bd
00000030: e9e0 4cbb 7ebb 6abd 85d1 0bbe 47e3 6a3d
00000040: 5270 abbc 228d 7bbd 46e8 89bc 0667 a53d
00000050: 89a6 dc3d fec7 4c3c 1d8c f5bb 2283 d33d
00000060: 9d85 b03c d645 d2bc 1902 883c 081c 393d
00000070: 770d 253d 0a85 05be 7296 c73b ff4f e33c
00000080: 0ced 5dbd fb74 aabc e75b 46bd 968d 83bd
00000090: 844e 9fbb 2cbc fabd a161 f7bd ed79 8bbd
000000a0: 4e61 973c 26bd 0bbd fc39 82bd 6497 92bc
000000b0: 063c 71bc 575d 01bc 4afe f0bd acb5 69bc
000000c0: 4d0f 273d 9a08 4e3d 2603 2fbc effb 973d
000000d0: bc8e a23d a1cb 92bd f867 e0bc 13f9 15bd
000000e0: 3b2b 35be 26cb 0b3d c9f9 1fbd afed c4bd
000000f0: 6a8f 5c3d ab8d 2a3d de5f 94bd a920 5b3d
00000100: 92e3 62bc a517 cfbd 72ea 723d 5ab3 f9bc
00000110: b747 34be 491b 3a3d c9c7 a83c 8724 bbbd
00000120: a36a 863d a0a6 2fbd 749c 293b 16da 14bd
00000130: 939a 9bbc 339a e73c fb8a 92bc 2e2c 62bd
00000140: 4388 0c3d 979b 1dbd 3fdd 4fbd 062d 473d
00000150: 5517 71b9 32f9 b03d bc62 0b3c 4bab e13c
00000160: 29e3 433d 2191 3d3c 8184 653a f3e8 42bd
00000170: 770b 0d3d 74ff 43bd 019f 82bd 2888 8ebd
00000180: 1fcb 4a3c 75b1 89bb 09f5 70bd 8e8a 81bc
00000190: 2b8c 143d a03f 303c d694 10bd e601 bd3c
000001a0: 8e9d 853d b87e fb3b aa65 ac3c dcf2 423d
000001b0: 4f63 713d 53fb 11bd 82cc c4bd 7b11 c7bc
000001c0: 3a09 35bd 4e95 30be cf05 913a 016d 32bd
000001d0: 3ac5 00be 1ed9 f1bc 97c9 0abd ba67 1dbe
000001e0: ea9b 283d ac67 37bd 0a94 c8bd 60b1 d13d
000001f0: 7b1a 2d3d ad6a 00be 092d b53d 0592 b13c
00000200: 36f3 b3bd 682e a93d 62f0 c63c 5792 c3bd
00000210: bf18 af3c e26d 213d 35c3 c8bd 928e 553d
00000220: 78ee 9abd 19f0 d3bd b847 1a3d b423 73bd
00000230: 7c67 72bc ff08 873d b681 89bd e0dc 4ebd
00000240: c0b9 4f3b af9b 94bc 76ea 373d f60b 9cbc
00000250: 1cba 9fbd a38e 08bd d4e6 afbc 5aa0 fcbc
00000260: e789 48bd 03ff d93c ccfb 8c3d d86f 4d3d
00000270: 4403 48bb aa5b b23d 1a97 a93d 3cc8 cdba
00000280: 7e37 a23d e5a4 363d bdc8 393b a365 bbbc
00000290: 6605 993c 1776 933c 5485 9bbc 7f46 783d
000002a0: 1d5d 3dbb 0572 c6bc c80d 2a39 62c4 3dbc
000002b0: e215 a8bd dc4d 63bc 31de 81bc d681 05be
000002c0: 10c6 34bd 6059 1fbd d730 98bd 09c1 84bc
000002d0: 2e1b 2fbd 0522 b73c cb3d 193d 7ab2 bbbb
000002e0: 8098 043e 7737 083d 47f5 6f3c 9b26 813d
000002f0: 6d2a 3c3d 4d7f 4cbc 3059 223d dc29 bbbc
00000300: 3ac7 863d ff28 fc3d 0707 23bd 0f68 293d
00000310: a63f 443e 651c 5abb 0fe7 fbbb f74e 3abd
00000320: f433 1cbd 4dbe 92bd d1bc 5bbb e095 a0bc
00000330: e28f d8bc d250 4c3c d799 983b d166 8b3d
00000340: 4177 7fbc df35 333d 49dc 34bc 5f6d b73c
00000350: 4115 acbc d012 c6bb 255c abbc 2c0e c4bd
00000360: 9018 a3bb 9e70 df3d 3705 ad3d 7738 013d
00000370: fde9 013e c7ef c53d ea3b 88bc e40f e23d
00000380: 2738 523d 103b 11bc f764 1bba 074a 0f3d
00000390: 84fc d2bb 16d3 11bd 4ec1 943d 7572 183c
000003a0: b3b6 dcbb a337 04bd c590 19bd 8ffb 603d
000003b0: cfd7 433d 4f18 19bd 6691 863d 041b df3c
000003c0: 1c98 30bb 2e56 b43c eec9 823c 1df3 d3bc
000003d0: 66f8 62bd 8b77 b1ba 2af1 9ebd d508 85bc
000003e0: 8ca6 f9bc 1e09 183c f4a0 203a a353 28bd
000003f0: 3953 e33c 58d6 4fbd eefe 99bd 7fba ef3c

embedding.1.0.bias f4 [64]
0.00044841375 5.6173092e-05 0.000525937 -0.00021542909 -0.00014818559 0.000121376055 -0.00031565825 -0.00011961936
7.47243e-05 0.00013877093 5.5167595e-05 -0.0002547882 0.0005083423 -0.00025742358 0.00030986773 0.0003499362
-0.00042260633 0.00029551625 0.00027661427 0.00026979853 0.0003217722 0.00015633498 -0.0009040781 7.8252175e-05
0.00012397459 9.022329e-05 -4.907124e-05 0.00023754209 -0.00018796975 0.00041410516 -0.00023002042 -0.00042433254
0.00046171225 1.4868023e-05 5.941591e-05 0.00021655599 1.21840785e-05 -0.00014934911 0.0006757706 0.0001468986
0.0001909084 9.361775e-06 0.00021116069 0.0005057661 0.0001398285 0.00046395796 4.1365438e-05 9.73609e-05
0.00014496215 0.000130508 -0.0001343007 0.00033577136 -0.00062150584 -5.8518668e-05 0.00036254423 -0.00037351393
-0.00018909732 -0.0003874372 -0.00013532158 -0.00020116841 0.0003236844 -0.0002444137 0.00036418418 -0.00023394114
00000000: 1319 eb39 669b 6b38 09df 093a cee4 61b9
00000010: 4462 1bb9 468b fe38 ef7e a5b9 28dc fab8
00000020: 4eb5 9c38 0a83 1139 c163 6738 1895 85b9
00000030: 4642 053a cff6 86b9 be75 a239 a477 b739
00000040: 4391 ddb9 85ef 9a39 8a06 9139 bf73 8d39
00000050: 89b3 a839 daed 2339 a7ff 6cba 511b a438
00000060: 2dff 0139 4336 bd38 d8d1 4db8 b814 7939
00000070: bf19 45b9 411c d939 a331 71b9 f378 deb9
00000080: f811 f239 ac71 7937 5935 7938 4e13 6339
00000090: 386a 4c37 999a 1cb9 3326 313a cb08 1a39
000000a0: 952e 4839 8410 1d37 046b 5d39 6395 043a
000000b0: ed9e 1239 623f f339 cd7f 2d38 3c2e cc38
000000c0: fb00 1839 f9d8 0839 12d3 0cb9 780a b039
000000d0: 8dec 22ba f171 75b8 dd13 be39 31d4 c3b9
000000e0: 6d48 46b9 f120 cbb9 1ce5 0db9 bcf0 52b9
000000f0: 2fb4 a939 a724 80b9 f9ef be39 194e 75b9

embedding.1.1.weight f4 [64]
1.0243461 0.953484 0.98397326 1.0018597 1.1296866 0.88411355 0.9426857 1.0410292
1.0099318 0.9907472 1.0041219 0.95977193 1.0243282 1.0025669 1.0406845 0.9218136
1.0423548 0.9147369 0.89677536 1.0577829 1.0695428 1.0182294 1.0239638 1.0181738
0.98157096 1.0400164 0.9976843 1.0812379 1.174246 0.9758446 1.045275 0.9787303
0.93076515 0.95120984 1.051789 1.1033021 1.0371549 0.96381193 0.9076979 0.96741134
0.9442513 0.9376778 0.95550275 0.9407333 1.0293657 1.0157901 1.0267652 0.96375304
1.0866592 0.9417444 1.0750155 1.0189786 0.95451075 0.9453064 0.8920827 0.9367682
1.2299001 0.9011322 1.0611954 0.985273 0.98149 1.0088412 0.8149611 1.1908756
00000000: c61d 833f 8717 743f ace5 7b3f f03c 803f
00000010: 9299 903f 4455 623f da53 713f 7240 853f
00000020: 7245 813f 9ca1 7d3f 1187 803f 9db3 753f
00000030: 301d 833f 1d54 803f 2635 853f fafb 6b3f
00000040: e26b 853f 332c 6a3f 1293 653f 6e65 873f
00000050: c7e6 883f 5755 823f 3f11 833f 8553 823f
00000060: 3c48 7b3f 421f 853f 3d68 7f3f 0166 8a3f
00000070: b14d 963f f4d0 793f 92cb 853f 128e 7a3f
00000080: a046 6e3f 7d82 733f 06a1 863f 0139 8d3f
00000090: 7ec1 843f 61bc 763f e45e 683f 45a8 773f
000000a0: 74ba 713f a70b 703f d49b 743f e6d3 703f
000000b0: 41c2 833f 6905 823f 0b6d 833f 85b8 763f
000000c0: a617 8b3f 2916 713f 1c9a 893f e46d 823f
000000d0: d15a 743f 9aff 713f 885f 643f 0ad0 6f3f
000000e0: 5e6d 9d3f 9ab0 663f 40d5 873f da3a 7c3f
000000f0: ee42 7b3f b521 813f 4aa1 503f 9d6e 983f

embedding.1.1.bias f4 [64]
-0.02776926 -0.10829597 -0.032100525 0.03655904 0.031837262 -0.3035851 -0.23901184 0.03340384
-0.07854247 -0.059491336 -0.054825433 -0.0749321 -0.15968831 0.031340316 -0.002583702 -0.3087944
-0.15946253 -0.15186669 -0.096854575 -0.107780546 -0.15403275 -0.22745043 -0.17880474 -0.106592245
-0.05909042 -0.08918164 -0.04902581 -0.0014348644 -0.098783 0.04990858 -0.100664705 -0.059888046
-0.24333705 -0.13473651 -0.1231156 -0.052296642 0.05470419 -0.040852733 -0.27011177 -0.290876
-0.15866911 -0.20220366 -0.11152873 -0.28713688 -0.06563161 -0.043633316 -0.063532345 -0.22054322
-0.12425498 -0.15285109 0.03755535 -0.16872294 -0.24549717 -0.14585304 -0.11666238 -0.067299664
0.064187266 -0.16635235 -0.32035118 -0.20481949 -0.044773534 0.0007856071 -0.20177759 -0.08569607
00000000: 5c7c e3bc 47ca ddbd d77b 03bd efbe 153d
00000010: ca67 023d 826f 9bbe 85bf 74be 77d2 083d
00000020: e0da a0bd 30ad 73bd a290 60bd 0076 99bd
00000030: 5585 23be b45e 003d 5453 29bb 4d1a 9ebe
00000040: 254a 23be f182 1bbe b15b c6bd 0cbc dcbd
00000050: c3ba 1dbe c4e8 68be 9718 37be 094d dabd
00000060: cc08 72bd dda4 b6bd 4acf 48bd 0f12 bcba
00000070: be4e cabd f06c 4c3d 4c29 cebd 2b4d 75bd
00000080: 592d 79be 5ef8 09be 0824 fcbd 0135 56bd
00000090: 8011 603d 3255 27bd 174c 8abe b3ed 94be
000000a0: 287a 22be 7a0e 4fbe 2d69 e4bd 9b03 93be
000000b0: de69 86bd d9b8 32bd 3f1d 82bd 15d6 61be
000000c0: 6579 febd ff84 1cbe a4d3 193d b5c5 2cbe
000000d0: 9c63 7bbe 805a 15be b0ec eebd 68d4 89bd
000000e0: 9d74 833d 4558 2abe 1205 a4be 33bc 51be
000000f0: 7464 37bd 33f1 4d3a c99e 4ebe 6c81 afbd

embedding.1.1.running_mean f4 [64]
-1.9722764 -1.2902365 -1.3707696 -1.3907948 -1.0748215 -2.8582158 -4.8025837 -0.20749019
-5.884459 -2.6504822 -3.1035101 -2.8707485 2.064927 -0.72059304 1.2156496 -2.8533273
-1.5557879 0.51594865 -2.6414318 -0.79452974 -1.4633603 -1.8489316 -5.899015 -1.2412496
-2.1322985 -0.13757364 1.4614627 -3.2446046 -6.978499 0.6269319 1.0852486 -0.52301025
-6.695375 -0.9189102 -2.0825968 -3.4040375 -3.9622438 -0.46881956 -3.8754408 -5.54418
0.42232072 -5.690015 -5.1944304 -3.4368205 0.7112123 0.7276234 0.24737917 1.173165
1.4413699 -1.5543715 -1.572772 -0.9983236 -3.2211206 -0.6938642 -1.2167131 -1.7135757
1.1381174 -0.917666 -6.8802056 -2.6606188 1.8449407 1.0093155 -4.7662344 -6.493114
00000000: 8e73 fcbf 7826 a5bf 6175 afbf 9005 b2bf
00000010: c093 89bf 02ed 36c0 c4ae 99c0 4f78 54be
00000020: 7d4d bcc0 80a1 29c0 e99f 46c0 58ba 37c0
00000030: c427 0440 c978 38bf 689a 9b3f ea9c 36c0
00000040: 0f24 c7bf 3615 043f 380d 29c0 4d66 4bbf
00000050: 644f bbbf caa9 ecbf bbc4 bcc0 44e1 9ebf
00000060: 9477 08c0 1be0 0cbe 3611 bb3f 9aa7 4fc0
00000070: dd4f dfc0 9c7e 203f 6de9 8a3f 00e4 05bf
00000080: 8340 d6c0 b33d 6bbf 4449 05c0 c0db 59c0
00000090: 6795 7dc0 1e09 f0be 3907 78c0 ec69 b1c0
000000a0: 6c3a d83e 9a14 b6c0 c638 a6c0 def4 5bc0
000000b0: 0212 363f 8745 3a3f f750 7d3e 452a 963f
000000c0: cf7e b83f a5f5 c6bf 9850 c9bf 2392 7fbf
000000d0: d726 4ec0 16a1 31bf 41bd 9bbf 7356 dbbf
000000e0: d5ad 913f 29ec 6abf a52a dcc0 9447 2ac0
000000f0: 0427 ec3f 4031 813f fe84 98c0 97c7 cfc0

embedding.1.1.running_var f4 [64]
6.28173 6.687375 5.794398 9.590618 5.343789 5.3670454 7.5703382 10.235537
22.963097 12.737568 5.69256 4.883773 3.6396787 17.650414 8.15546 3.25221
4.153731 4.6346354 5.5970488 3.5200813 8.398922 5.9183125 2.9085052 7.5410657
8.284389 4.8532777 5.5343914 6.373767 5.5750318 4.5787716 5.1444345 7.0241017
5.5305037 6.0530186 4.0277176 8.251183 5.0758877 7.8599977 5.293658 3.6632676
8.684761 3.9937472 19.373634 9.58316 6.959097 7.405366 7.381574 3.875895
3.4596527 6.4439964 6.2107615 5.7877264 5.2020617 5.178714 10.3294525 3.932681
8.692904 7.583965 3.0228324 2.6365855 6.208078 7.945756 2.4572704 6.219522
00000000: ef03 c940 fafe d540 b56b b940 2c73 1941
00000010: 5200 ab40 d6be ab40 3640 f240 c2c4 2341
00000020: 6cb4 b741 14cd 4b41 7429 b640 de47 9c40
00000030: 7ff0 6840 0c34 8d41 c47c 0241 3524 5040
00000040: 5deb 8440 ef4e 9440 061b b340 0349 6140
00000050: fc61 0641 d162 bd40 f324 3a40 6950 f140
00000060: db8c 0441 0d4e 9b40 bc19 b140 e6f5 cb40
00000070: a966 b240 4c85 9240 359f a440 71c5 e040
00000080: e3f9 b040 54b2 c140 10e3 8040 d804 0441
00000090: ac6d a240 1a85 fb40 a565 a940 fa72 6a40
000000a0: c8f4 0a41 8e99 7f40 34fd 9a41 a054 1941
000000b0: ecb0 de40 c2f8 ec40 db35 ec40 aa0e 7840
000000c0: f36a 5d40 3835 ce40 8fbe c640 0e35 b940
000000d0: 4a77 a640 06b8 a540 7045 2541 0cb1 7b40
000000e0: 2316 0b41 d7af f240 1676 4140 d1bd 2840
000000f0: 93a8 c640 a243 fe40 eb43 1d40 5306 c740

embedding.2.0.weight f4 [64, 64, 3, 3]
-0.037792232 0.098406464 0.10664339 -0.06732558 0.060866117 0.059008434 -0.06720616 -0.03065644
0.038104586 -0.082063995 -0.16964766 -0.056539744 -0.01102991 -0.075500414 0.021279002 0.024906255
0.0571286 0.08434041 0.033241596 -0.06690059 0.0963789 0.07448109 -0.037169598 0.09794902
0.0754232 -0.024500908 0.12817764 0.027888358 -0.023804111 -0.053556263 0.04090471 0.03436524
-0.019651724 0.029129595 0.079211645 0.061861295 0.06307871 -0.028283944 -0.092778176 0.050553747
0.057667073 -0.07421011 -0.035038225 0.010262089 -0.07500022 -0.08365391 -0.111394756 -0.060900766
-0.07918878 -0.074341476 -0.08540278 0.017857233 0.0201524 -0.067417815 -0.09200004 -0.137632
-0.04528145 -0.06471203 -0.12167378 -0.044749968 0.012137029 -0.0151739875 -0.00013439622 -0.057436407
0.06412998 0.013959482 -0.04962301 0.019398635 -0.06975859 0.039029796 -0.10462679 -0.17799002
0.023466121 0.05711234 -0.041012514 0.035958305 0.06455166 0.0304153 0.03535313 0.0017911969
0.011088823 -0.007884651 0.102496035 0.045819264 -0.027794406 0.1209814 0.07542817 -0.07038176
-0.0054390053 -0.05723733 0.015004905 0.00765907 0.023305353 -0.006732887 0.08200355 0.016764877
-0.032411158 0.06743348 0.0025372622 -0.070883416 -0.040033884 -0.056148373 -0.08800735 -0.06083074
-0.16342549 -0.02236616 0.016702738 -0.038202193 0.016958227 0.034126215 0.15289693 0.09552234
0.059313852 0.05774414 0.033904653 -0.078730814 -0.03076411 -0.019375896 -0.06529549 0.0117411325
0.06337386 0.054505553 -0.03845891 0.048028763 0.019717198 -0.030998485 0.041352637 0.035141475
-0.017129688 0.031027542 0.039481312 -0.028601358 0.043785676 -0.018976789 -0.040672112 -0.014125073
-0.04513582 0.0663982 -0.018905688 -0.09141916 0.042913377 -0.042199966 -0.014811818 -0.022408847
-0.013499638 0.040907882 0.13558689 -0.01503849 -0.037888493 0.11409463 -0.04810863 -0.029091882
0.06164172 0.03204857 0.0371671 0.15622337 0.058302842 0.011660883 0.08125796 -0.008319953
0.0038033633 0.04154504 -0.023575768 0.047585696 0.086961254 -0.0005405177 0.035325147 0.053924855
-0.040604133 -0.0026651283 -0.004965382 0.0014495181 0.020675821 0.026919967 -0.030523153 0.043507002
0.012865197 -0.04139497 0.015067589 -0.11199676 0.06529035 0.07012579 0.04190273 0.011760876
0.058559522 0.012661191 -0.0019161864 -0.04703265 -0.018215576 -0.14627022 -0.067668036 0.12628579
-0.057281103 0.055036634 0.08993564 -0.024519961 -0.0047840164 0.012264429 -0.019562326 0.048748698
0.087770194 -0.0016891366 0.0054390193 0.00029621943 -0.051753126 -0.06955804 0.013143245 -0.029752716
-0.052014694 -0.012291598 -0.05770207 -0.14455546 -0.08635711 0.025708644 -0.022052448 -0.10524514
-0.04718333 -0.0062813074 0.10937384 -0.013485761 0.016867483 0.04073044 0.032460343 -0.073583595
-0.08634046 -0.008221294 0.07172087 0.034286056 -0.051642757 0.05895285 0.07737802 -0.08204315
-0.09007008 -0.045327295 -0.030071575 -0.068130344 0.04455708 0.016876709 -0.030884482 -0.003252304
-0.012742478 -0.10247441 -0.08287305 -0.11137001 -0.087882034 0.059609525 -0.009114228 -0.029666243
-0.025285902 0.03681408 -0.08822613 -0.10370457 -0.02341189 0.01139891 0.15936323 -0.032951005
00000000: 07cc 1abd 5489 c93d da67 da3d fee1 89bd
00000010: c04e 793d d4b2 713d 62a3 89bd 3723 fbbc
00000020: 8e13 1c3d 2b11 a8bd 1eb8 2dbe 3896 67bd
00000030: ccb6 34bc f69f 9abd 4d51 ae3c 3408 cc3c
00000040: aeff 693d aaba ac3d 5728 083d 2d03 89bd
00000050: 4d62 c53d 8b89 983d 263f 18bd 7f99 c83d
00000060: 7b77 9a3d 21b6 c8bc 0041 033e 2076 e43c
00000070: d700 c3bc d05d 5bbd b28b 273d 91c2 0c3d
00000080: a7fc a0bc 30a1 ee3c b739 a23d 4562 7d3d
00000090: 692f 813d bbb3 e7bc 7c02 bebd 7211 4f3d
000000a0: 4f34 6c3d 78fb 97bd 3e84 0fbd 5222 283c
000000b0: b799 99bd be52 abbd ef22 e4bd 1573 79bd
000000c0: ba2d a2bd 5840 98bd a7e7 aebd 5549 923c
000000d0: a516 a53c 5a12 8abd 846a bcbd 67ef 0cbe
000000e0: 0b79 39bd be87 84bd 1a30 f9bd be4b 37bd
000000f0: 64da 463c 519c 78bc b6ec 0cb9 7042 6bbd
00000100: 9456 833d 50b6 643c 7f41 4bbd e3e9 9e3c
00000110: 97dd 8ebd b5dd 1f3d 9246 d6bd 0443 36be
00000120: 063c c03c a1ee 693d bdfc 27bd 0449 133d
00000130: a933 843d 8229 f93c 72ce 103d 98c6 ea3a
00000140: e5ad 353c a02e 01bc 71e9 d13d fbac 3b3d
00000150: 18b1 e3bc 19c5 f73d 167a 9a3d 5024 90bd
00000160: af39 b2bb b171 6abd 22d7 753c f0f8 fa3b
00000170: deea be3c 8d9f dcbb 7af1 a73d 7f56 893c
00000180: 90c1 04bd 901a 8a3d 3248 263b 532b 91bd
00000190: 92fa 23bd d6fb 65bd 333d b4bd a729 79bd
000001a0: 0359 27be 3d39 b7bc 2ed4 883c e779 1cbd
000001b0: fbeb 8a3c eec7 0b3d 0391 1c3e 37a1 c33d
000001c0: 15f3 723d 1f85 6c3d 9bdf 0a3d 9f3d a1bd
000001d0: 0405 fcbc 33ba 9ebc a4b9 85bd e15d 403c
000001e0: 28ca 813d 3741 5f3d 1787 1dbd cfb9 443d
000001f0: f685 a13c 89f0 fdbc 6261 293d 82f0 0f3d
00000200: 8f53 8cbc 792d fe3c 28b7 213d 654d eabc
00000210: 9c58 333d 3675 9bbc cd97 26bd da6c 67bc
00000220: 56e0 38bd c8fb 873d 1ae0 9abc f839 bbbd
00000230: f0c5 2f3d dfd9 2cbd 44ad 72bc c292 b7bc
00000240: 962d 5dbc 068f 273d 4ad7 0a3e 0064 76bc
00000250: f730 1bbd 72aa e93d 8e0d 45bd 1952 eebc
00000260: 077c 7c3d 5d45 033d 873c 183d 05f9 1f3e
00000270: f6ce 6e3d 4a0d 3f3c 936a a63d 6a50 08bc
00000280: d941 793b 222b 2a3d f821 c1bc 38e9 423d
00000290: be18 b23d 87b1 0dba 1ab1 103d 4fe0 5c3d
000002a0: 8550 26bd 6fa9 2ebb a5b4 a2bb c2fd bd3a
000002b0: 5760 a93c 4387 dc3c b10b fabc 6634 323d
000002c0: 8cc8 523c c68d 29bd 0cde 763c 8f5e e5bd
000002d0: f2b6 853d 1c9e 8f3d 32a2 2b3d b0b0 403c
000002e0: 1cdc 6f3d e270 4f3c 8c28 fbba 4fa5 40bd
000002f0: d538 95bc dcc7 15be 8a95 8abd 1051 013e
00000300: 979f 6abd 186e 613d 2d30 b83d 16de c8bc
00000310: 3dc3 9cbb bef0 483c 2c41 a0bc b7ac 473d
00000320: dcc0 b33d 0566 ddba cd39 b23b e64d 9b39
00000330: 16fb 53bd 7274 8ebd c456 573c f8bb f3bc
00000340: 5c0d 55bd b362 49bc 0159 6cbd 5906 14be
00000350: ffdb b0bd ef9a d23c 56a7 b4bc c48a d7bd
00000360: 4f43 41bd 6dd3 cdbb 64ff df3d 62f3 5cbc
00000370: ad2d 8a3c f6d4 263d 23f5 043d ffb2 96bd
00000380: 44d3 b0bd 9bb2 06bc 64e2 923d 896f 0c3d
00000390: 5b87 53bd 8b78 713d 5e78 9e3d 3d06 a8bd
000003a0: a976 b8bd 1da9 39bd aa58 f6bc ec87 8bbd
000003b0: 7c81 363d 0641 8a3c 7401 fdbc 9b24 55bb
000003c0: d4c5 50bc 1ade d1bd 58b9 a9bd f615 e4bd
000003d0: 7ffb b3bd 1e29 743d d853 15bc 9f06 f3bc
000003e0: 6124 cfbc 5cca 163d e7af b4bd 1063 d4bd
000003f0: 4bca bfbc 7ec2 3a3c 1d30 233e a2f7 06bd

embedding.2.0.bias f4 [64]
0.00019716093 0.00021151721 -0.00028888896 0.00048642102 0.00011074884 0.00039404264 -0.00013766803 3.9754254e-05
-0.00010745494 2.4125147e-05 0.00015297622 1.26250325e-05 0.0008998701 -0.000224852 0.00024790247 0.00034999204
5.1448922e-05 -0.00017459714 0.00030249916 -0.00020482886 0.00014418554 0.0002569654 -9.389209e-05 3.274015e-05
0.00032346227 -0.00012614159 0.00046479696 -0.0004868138 -0.00038442537 -0.00012127747 -0.00033935616 -0.00021125418
-0.00012320226 -0.00022093349 5.8846745e-05 7.1294715e-05 -0.0011383954 -0.00015238523 -8.69288e-05 -9.497951e-05
-0.00017581694 -8.8294626e-05 0.00037839578 -0.00050226174 -0.0006055841 -0.0001352201 -0.0005553694 5.939757e-05
0.00014022329 -0.00038809577 7.8464356e-05 0.00014087206 -0.00045911095 -0.00013991212 0.00052978593 6.764015e-05
0.0001236909 -0.00020107446 0.00052186335 8.569278e-05 0.0005347033 -0.00010514471 0.00015840986 -0.0001500652
00000000: fcbc 4e39 b8ca 5d39 0576 97b9 5306 ff39
00000010: d541 e838 8297 ce39 fb5a 10b9 cebd 2638
00000020: 6e59 e1b8 5c60 ca37 3e68 2039 1ad0 5337
00000030: 43e5 6b3a 40c6 6bb9 e8f8 8139 237f b739
00000040: dcca 5738 1014 37b9 c098 9e39 54c7 56b9
00000050: 8330 1739 50b9 8639 efe7 c4b8 7852 0938
00000060: 5f96 a939 e044 04b9 feaf f339 0b3b ffb9
00000070: b38c c9b9 5956 feb8 9deb b1b9 1d84 5db9
00000080: db2f 01b9 62aa 67b9 36d2 7638 0f84 9538
00000090: 3636 95ba 99c9 1fb9 8b4d b6b8 bc2f c7b8
000000a0: 805b 38b9 d12a b9b8 6c63 c639 37aa 03ba
000000b0: 10c0 1eba dfc9 0db9 3696 11ba a821 7938
000000c0: e708 1339 5579 cbb9 3b8d a438 0eb7 1339
000000d0: d4b4 f0b9 60b5 12b9 55e1 0a3a 07da 8d38
000000e0: 06b3 0139 84d7 52b9 a8cd 083a f6b5 b338
000000f0: 552b 0c3a 2381 dcb8 d31a 2639 d25a 1db9

embedding.2.1.weight f4 [64]
1.0031799 0.9455678 0.9341001 0.98679054 1.0173781 0.9953507 0.9577968 0.91434765
1.1074846 1.0273336 1.0314494 1.0210613 1.0300097 1.033522 1.0519167 1.0451086
0.9247861 1.0191625 0.98444563 0.89548296 1.0159297 1.0030797 1.0521579 0.94114125
1.0605074 0.9709356 0.96416205 0.96944773 0.9883162 0.95703447 0.9165955 1.0243382
1.0638431 0.92695993 1.0107701 0.9925038 1.0553061 0.983147 0.92400897 1.0151337
1.0190347 1.0430611 0.9585746 0.9691112 0.9428887 0.9906182 0.97352535 1.0330551
0.96834457 1.0572996 0.95340735 1.0199969 1.0175948 1.0492221 0.9676817 1.1066864
1.0482901 1.0399631 0.9190466 1.0528973 0.9368418 0.993297 1.0402213 0.9474874
00000000: 3368 803f bb10 723f 2f21 6f3f 4e9e 7c3f
00000010: 7239 823f 4ecf 7e3f 2c32 753f b012 6a3f
00000020: 0ec2 8d3f ab7f 833f 8906 843f 23b2 823f
00000030: 5cd7 833f 734a 843f 35a5 863f 1ec6 853f
00000040: c8be 6c3f eb73 823f a104 7c3f 5f3e 653f
00000050: fc09 823f ea64 803f 1cad 863f a2ee 703f
00000060: b5be 873f 3c8f 783f 53d3 763f ba2d 783f
00000070: 4a02 7d3f 3600 753f 01a6 6a3f 841d 833f
00000080: 032c 883f 3f4d 6d3f ea60 813f bb14 7e3f
00000090: 4514 873f 86af 7b3f da8b 6c3f e7ef 813f
000000a0: bb6f 823f 0783 853f 2565 753f ac17 783f
000000b0: 2761 713f 2899 7d3f f538 793f 263b 843f
000000c0: 6ee5 773f 9855 873f 8112 743f 428f 823f
000000d0: 8c40 823f e94c 863f fdb9 773f e6a7 8d3f
000000e0: 5f2e 863f 831d 853f a346 6b3f 57c5 863f
000000f0: ddd4 6f3f b648 7e3f f925 853f 898e 723f

embedding.2.1.bias f4 [64]
-0.10100603 -0.22005686 -0.17804743 -0.1568375 -0.15085624 -0.10218409 -0.20865835 -0.22859189
-0.11246292 -0.17085539 -0.098142594 -0.10047073 -0.14072429 -0.1256413 -0.08725032 -0.095759585
-0.14448194 -0.0691659 -0.160978 -0.12184449 -0.16269147 -0.11192325 -0.17878288 -0.22350001
-0.13113524 -0.15748982 -0.12943844 -0.18914738 -0.19822542 -0.22715832 -0.18962543 -0.16344562
-0.039777685 -0.18797877 -0.15174249 -0.18692341 -0.069109336 -0.033266053 -0.13163048 -0.12909304
-0.20289086 -0.18283886 -0.15085146 -0.14473817 -0.16441208 -0.14199348 -0.14764404 -0.086921364
-0.17145579 -0.14783804 -0.19476669 -0.11894969 -0.064859375 -0.060396742 -0.1362263 -0.11699722
-0.14369607 -0.0417741 -0.14415659 -0.17340505 -0.15794298 -0.13321993 -0.14222379 -0.08604735
00000000: 40dc cebd 9656 61be 1152 36be 029a 20be
00000010: 0f7a 1abe e445 d1bd 89aa 55be fe13 6abe
00000020: f652 e6bd b7f4 2ebe fcfe c8bd 99c3 cdbd
00000030: 071a 10be 1da8 00be 4cb0 b2bd 9a1d c4bd
00000040: 13f3 13be daa6 8dbd 6bd7 24be 9b89 f9bd
00000050: 9898 26be 0438 e5bd dc12 37be 30dd 64be
00000060: 5148 06be 0345 21be 838b 04be daaf 41be
00000070: 9bfb 4abe 319c 68be 2b2d 42be 4a5e 27be
00000080: eded 22bd 827d 40be 6262 1bbe da68 3fbe
00000090: 3289 8dbd fc41 08bd 24ca 06be f730 04be
000000a0: 9fc2 4fbe 1c3a 3bbe ce78 1abe 3e36 14be
000000b0: a45b 28be bd66 11be 0030 17be d403 b2bd
000000c0: 1b92 2fbe db62 17be eb70 47be e59b f3bd
000000d0: fed4 84bd 9362 77bd e87e 0bbe 3d9c efbd
000000e0: 1025 13be 521b 2bbd c99d 13be 1891 31be
000000f0: cebb 21be ce6a 08be 1da3 11be 9839 b0bd

embedding.2.1.running_mean f4 [64]
-1.4251431 1.3053094 -5.8686357 -4.0195355 -3.3538148 -7.895178 -6.4577413 -0.19700488
-0.8548632 -0.13294704 -1.2116928 -3.1560116 1.2033172 -2.285722 -0.9533868 -5.446832
1.7937329 -2.4432857 -9.261597 1.9561398 -4.598199 -1.4612305 -1.3357422 -3.4155612
-0.16041844 1.4009633 -4.900753 1.827649 0.45749128 0.5383179 -1.983393 -0.06803931
-1.3792138 -8.2714615 -2.609122 -0.36344633 1.9040303 2.2047231 2.7027693 -0.97025645
-3.1136189 -0.9354064 -6.4245267 -3.2197702 1.5209954 -2.615837 2.4728296 0.18538107
-4.873839 -4.8940296 -6.360694 -2.3002908 -0.083099775 1.6560796 -1.0237714 0.6446123
-6.4111843 -5.2355585 1.148238 -1.5072834 -0.8535342 -1.4394449 0.51701343 -2.140712
00000000: 176b b6bf 6114 a73f ddcb bbc0 09a0 80c0
00000010: e7a4 56c0 4ca5 fcc0 d1a5 cec0 a6bb 49be
00000020: 51d8 5abf 4523 08be c018 9bbf 18fc 49c0
00000030: 4c06 9a3f 4549 12c0 2811 74bf 734c aec0
00000040: 0a99 e53f cb5e 1cc0 802f 14c1 ca62 fa3f
00000050: 7224 93c0 9a09 bbbf 9af9 aabf 8e98 5ac0
00000060: bb44 24be c452 b33f f8d2 9cc0 67f0 e93f
00000070: 4c3c ea3e 34cf 093f d2df fdbf 3258 8bbd
00000080: 148a b0bf e857 04c1 dbfb 26c0 a315 babe
00000090: 44b7 f33f 2f1a 0d40 2cfa 2c40 ba62 78bf
000000a0: 8845 47c0 cb76 6fbf b995 cdc0 b710 4ec0
000000b0: faaf c23f e069 27c0 d742 1e40 89d4 3d3e
000000c0: 7df6 9bc0 e49b 9cc0 ce8a cbc0 f737 13c0
000000d0: 3730 aabd 6bfa d33f f10a 83bf 5005 253f
000000e0: 6c28 cdc0 b289 a7c0 76f9 923f aaee c0bf
000000f0: 3881 5abf bb3f b8bf fe5a 043f 6d01 09c0

embedding.2.1.running_var f4 [64]
11.397267 12.744846 16.431208 18.11628 14.650476 15.589421 13.721661 12.200643
9.161855 14.583977 7.684583 10.811899 4.6453476 12.2184305 6.133384 12.305688
12.842974 8.434199 16.453476 10.2673 9.566591 6.3009214 8.3340645 8.116519
11.473018 11.155594 9.831039 4.0726047 7.395318 8.450549 11.065286 3.2825165
8.953832 21.707123 15.168286 10.854422 16.005741 13.85307 18.926771 6.254266
9.841936 8.656543 15.735441 11.751318 6.1050596 7.028277 9.583837 14.581065
14.249381 15.863468 15.938904 9.630071 12.127506 8.445481 5.3801923 9.100407
24.397463 7.1532364 6.5002646 8.268014 4.6738687 12.800139 6.592335 8.815919
00000000: 355b 3641 e4ea 4b41 1d73 8341 24ee 9041
00000010: 5a68 6a41 456e 7941 ec8b 5b41 d535 4341
00000020: f596 1241 f857 6941 1be8 f540 8afd 2c41
00000030: b0a6 9440 b17e 4341 af44 c440 19e4 4441
00000040: d27c 4d41 7bf2 0641 b8a0 8341 dc46 2441
00000050: c210 1941 26a1 c940 5458 0541 43dd 0141
00000060: 7b91 3741 507d 3241 f04b 1d41 c752 8240
00000070: 72a6 ec40 7335 0741 690b 3141 c014 5240
00000080: e542 0f41 30a8 ad41 4db1 7241 b6ab 2d41
00000090: c20b 8041 2da6 5d41 076a 9741 f222 c840
000000a0: 9278 1d41 3381 0a41 5ec4 7b41 6605 3c41
000000b0: a65c c340 a5e7 e040 6557 1941 0b4c 6941
000000c0: 77fd 6341 c4d0 7d41 c005 7f41 c514 1a41
000000d0: 440a 4241 b120 0741 892a ac40 449b 1141
000000e0: 012e c341 50e7 e440 2b02 d040 c949 0441
000000f0: 5590 9540 5fcd 4c41 69f4 d240 010e 0d41

embedding.3.0.weight f4 [64, 64, 3, 3]
0.027156612 0.009042076 -0.004401429 -0.03848926 -0.041952174 0.031861264 0.02587779 -0.012333813
0.0031758032 0.032933693 -0.0067680907 0.03993393 0.05818733 0.015437402 -0.012623394 0.073279805
0.01793402 0.01712742 -0.002089252 -0.051503874 0.002757244 -0.05214251 -0.051460862 -0.058111228
-0.008542991 -0.046756685 -0.09179066 0.017625075 0.005706492 -0.019930273 -0.070958175 -0.062448755
-0.043998167 -0.039616544 -0.072188064 -0.07523954 0.18044488 -0.033010405 0.0346523 0.047808573
-0.08531659 -0.10580782 0.097132556 -0.05043091 -0.03333257 -0.03755565 -0.013320795 0.003984886
-0.16417767 -0.1710306 -0.04358618 -0.11228971 -0.12255703 -0.029796522 -0.046846528 0.009925863
-0.03721841 0.019099219 0.019274805 -0.022819836 -0.086200446 -0.06268771 -0.066740245 -0.011042133
-0.025763474 -0.0061911354 0.003048055 -0.06511191 -0.11513139 -0.003092924 -0.064958215 -0.07199959
0.02881301 -0.06251093 -0.08510383 0.02687804 -0.029751679 -0.013457885 0.04672719 -0.054791182
-0.00959987 -0.08686629 -0.062269803 -0.067622736 -0.083163746 -0.0745888 -0.08827933 -0.00021458026
0.0011446994 -0.030489953 -0.023807203 -0.06956909 -0.044757817 -0.093908146 -0.08035342 -0.08123075
0.16867243 0.20777504 0.13020413 -0.04250143 -0.05944817 -0.018375095 -0.045554172 -0.0582895
-0.012971668 -0.019636963 -0.0029822816 0.045363206 0.17461464 0.104491815 0.09883556 0.13372312
0.07523549 -0.023003796 0.089205764 0.029346744 -0.107021056 0.01671882 -0.022451218 0.02552973
-0.105443604 -0.03001998 -0.047683895 0.05787132 0.10625839 0.08177985 0.09801056 0.004384414
-0.033861637 0.085024096 0.029363377 -0.024621045 0.0040179873 -0.02441913 -0.049831975 0.009319745
0.07069218 0.045226093 -0.045721292 -0.034229927 -0.0033554095 -0.11704061 -0.17402434 -0.14062229
-0.027976831 -0.0022045034 0.029936459 0.05965637 0.031277526 0.019454159 0.04670954 0.027227752
0.01949593 0.07500026 0.020242358 -0.075408496 -0.06308825 0.04910917 -0.019958349 -0.004836014
0.020518519 -0.06250565 -0.032547336 -0.03116723 -0.050177433 0.019751579 0.019412003 0.03680729
-0.05085996 -0.059262265 -0.032021053 0.001300086 0.04906696 0.10273907 -0.0024597638 0.05294117
-0.021618815 -0.016842468 0.079764836 0.037555102 -0.07854589 -0.065452605 0.08489643 -0.08416688
-0.14429846 -0.010794826 -0.07481328 -0.034463063 0.08236902 -0.11924554 -0.018192176 0.02550111
-0.07293908 0.0010693369 0.036792334 -0.108132325 -0.084217876 -0.046985302 0.047397356 -0.044361312
-0.034071613 -0.10338409 -0.11323881 -0.10978833 0.054605786 0.013977513 0.013080347 -0.022340449
-0.04227678 -0.050675686 0.008704983 -0.031852517 -0.06781179 -0.044905428 -0.037045922 -0.097937055
0.003617573 0.0259078 0.03427988 -0.0069231843 0.0025065185 -0.07384543 -0.19786716 -0.14258355
-0.1028868 -0.038803782 0.019392002 0.04407719 -0.026119946 0.027514607 0.003336258 0.1086551
0.11546588 0.050431356 0.063475534 0.0086182235 0.07056615 -0.09827476 -0.055340223 -0.025669917
-0.06374089 -0.11009482 -0.06568831 0.018614635 0.024008894 0.07550915 -0.020202862 -0.078137614
0.037212614 -0.04188242 -0.07331906 0.05647818 0.042835336 0.049449395 0.011782499 0.08020498
00000000: 8b77 de3c 3725 143c dd39 90bb eaa6 1dbd
00000010: 0bd6 2bbd f580 023d a9fd d33c c313 4abc
00000020: 2321 503b 7be5 063d dcc6 ddbb c391 233d
00000030: d655 6e3d 28ed 7c3c 5ad2 4ebc b913 963d
00000040: 5eea 923c ce4e 8c3c d5eb 08bb baf5 52bd
00000050: e1b2 343b 6293 55bd a0c8 52bd 0a06 6ebd
00000060: e7f7 0bbc f083 3fbd befc bbbd 7662 903c
00000070: 86fd ba3b d044 a3bc 8552 91bd 44ca 7fbd
00000080: 6c37 34bd f544 22bd 56d7 93bd 3017 9abd
00000090: 8bc6 383e eb35 07bd 92ef 0d3d ecd2 433d
000000a0: 77ba aebd c5b1 d8bd 6fed c63d a490 4ebd
000000b0: bc87 08bd f4d3 19bd 773f 5abc a693 823b
000000c0: 311e 28be a522 2fbe 6c87 32bd 26f8 e5bd
000000d0: 2eff fabd d617 f4bc 25e2 3fbd 16a0 223c
000000e0: 5572 18bd f775 9c3c 32e6 9d3c aaf0 babc
000000f0: dc89 b0bd 6a62 80bd 1caf 88bd 10ea 34bc
00000100: ec0d d3bc 02df cabb e1c1 473b 6559 85bd
00000110: 02ca ebbd a7b2 4abb d008 85bd 8574 93bd
00000120: 4309 ec3c bb05 80bd eb4a aebd 562f dc3c
00000130: cbb9 f3bc 767e 5cbc 0365 3f3d b86c 60bd
00000140: c648 1dbc f4e6 b1bd 9f0e 7fbd ca7d 8abd
00000150: c151 aabd 03c2 98bd cbcb b4bd f300 61b9
00000160: bd09 963a 11c6 f9bc 5307 c3bc 3d7a 8ebd
00000170: f953 37bd ea52 c0bd 5590 a4bd 4f5c a6bd
00000180: 77b8 2c3e fbc2 543e 3b54 053e fb15 2ebd
00000190: ed7f 73bd 5e87 96bc 0397 3abd f9c0 6ebd
000001a0: 1e87 54bc b2dd a0bc 6272 43bb c5ce 393d
000001b0: 2ece 323e ceff d53d 4c6a ca3d b7ee 083e
000001c0: 1115 9a3d 7572 bcbc 83b1 b63d 9568 f03c
000001d0: db2d dbbd e8f5 883c 9eeb b7bc b923 d13c
000001e0: d1f2 d7bd 76ec f5bc 3050 43bd 7a0a 6d3d
000001f0: 009e d93d 327c a73d c3b9 c83d 21ab 8f3b
00000200: 80b2 0abd 1d21 ae3d 778b f03c 13b2 c9bc
00000210: 52a9 833b a10a c8bc 9d1c 4cbd d8b1 183c
00000220: 10c7 903d ff3e 393d 4046 3bbd ae34 0cbd
00000230: 6ee6 5bbb fdb2 efbd 7033 32be 4aff 0fbe
00000240: ab2f e5bc 6e79 10bb 4e3d f53c 3d5a 743d
00000250: dd1c 003d 545e 9f3c 8152 3f3d bc0c df3c
00000260: eeb5 9f3c bc99 993d 4dd3 a53c c56f 9abd
00000270: 6a34 81bd b226 493d b17f a3bc 6d77 9ebb
00000280: 7416 a83c f602 80bd 5b50 05bd 6b52 ffbc
00000290: da86 4dbd 10ce a13c ec05 9f3c 3ec3 163d
000002a0: 8952 50bd fdbc 72bd 8228 03bd a667 aa3a
000002b0: 70fa 483d dd68 d23d fd33 21bb d7d8 583d
000002c0: f119 b1bc 37f9 89bc bf5b a33d 61d3 193d
000002d0: abdc a0bd 040c 86bd 2ede ad3d af5f acbd
000002e0: fac2 13be c8dc 30bc b437 99bd 2429 0dbd
000002f0: 17b1 a83d 0137 f4bd c207 95bc b4e7 d03c
00000300: 1661 95bd fe28 8c3a 8fb3 163d 7b74 ddbd
00000310: 6c7a acbd a973 40bd bb23 423d 35b4 35bd
00000320: ad8e 0bbd 0abb d3bd c0e9 e7bd b4d8 e0bd
00000330: 51aa 5f3d f001 653c f44e 563c 5103 b7bc
00000340: 6b2a 2dbd 4f91 4fbd 589f 0e3c c977 02bd
00000350: e8e0 8abd c1ee 37bd 77bd 17bd 3993 c8bd
00000360: ce14 6d3b 983c d43c 0f69 0c3d e1db e2bb
00000370: 6744 243b 463c 97bd b09d 4abe 6c01 12be
00000380: 51b6 d2bd b7f0 1ebd fadb 9e3c 498a 343d
00000390: 7ff9 d5bc 5066 e13c 1fa5 5a3b 9186 de3d
000003a0: 6079 ec3d 1c91 4e3d 76ff 813d 7333 0d3c
000003b0: fc84 903d 4744 c9bd 6eac 62bd b849 d2bc
000003c0: 958a 82bd 6579 e1bd 9887 86bd b87d 983c
000003d0: 4dae c43c 8ba4 9a3d 7980 a5bc 9d06 a0bd
000003e0: 416c 183d e78c 2bbd 4e28 96bd aa55 673d
000003f0: 1b74 2f3d 738b 4a3d 620b 413c 8242 a43d

embedding.3.0.bias f4 [64]
0.00011244631 0.00025922945 0.00056899496 -0.00041407906 0.00052491826 2.9173792e-05 3.9545503e-05 7.642874e-05
3.940722e-05 0.00022850174 0.00028828092 -0.00026529 -0.00060048525 -0.0007753063 0.00040981412 -0.0006384785
-7.9552934e-05 -0.00035638316 0.00022311475 0.00023666027 0.0003304401 0.00019199522 0.0004708275 -0.00023558768
8.040528e-05 0.0003231769 -0.0005748251 5.151773e-05 -0.00035263778 0.0001982781 0.00014644618 4.88314e-05
-0.00064224756 -0.0003035838 0.00067130936 -0.0009411886 5.947585e-05 0.0005027641 -0.00017123208 0.00063471025
-0.0001584571 -0.00014347627 -0.001024308 -0.00041726205 -0.00028166483 0.0005238716 -0.0006633836 -0.00035983042
4.4520108e-05 -0.0005064544 -0.0002908972 1.9129651e-05 -0.00014852977 -0.00014160808 -0.00043252073 -0.00018188484
0.0003650606 0.00019701482 -0.0006421004 -0.0009575329 0.000553641 -0.00036880636 0.00027205446 -0.00046076885
00000000: 27d1 eb38 30e9 8739 9b28 153a c018 d9b9
00000010: ab9a 093a 3eba f437 a9dd 2538 5e48 a038
00000020: 2e49 2538 f899 6f39 6924 9739 9f16 8bb9
00000030: e269 1dba ed3d 4bba 52dc d639 915f 27ba
00000040: a8d5 a6b8 f0d8 bab9 e9f3 6939 0228 7839
00000050: eb3e ad39 5352 4939 66d9 f639 1608 77b9
00000060: 429f a838 1270 a939 dcaf 16ba be14 5838
00000070: 3ee2 b8b9 dfe8 4f39 598f 1939 51d0 4c38
00000080: 815c 28ba 542a 9fb9 cffa 2f3a 19ba 76ba
00000090: b575 7938 edcb 033a c38c 33b9 af62 263a
000000a0: 8127 26b9 1e72 16b9 1342 86ba f7c3 dab9
000000b0: 6aac 93b9 6e54 093a ebe6 2dba 9fa7 bcb9
000000c0: 1abb 3a38 94c3 04ba 9083 98b9 9d78 a037
000000d0: a8be 1bb9 a17c 14b9 f3c3 e2b9 57b8 3eb9
000000e0: 9b65 bf39 c395 4e39 a152 28ba f202 7bba
000000f0: 3822 113a 5a5c c1b9 88a2 8e39 5993 f1b9
